weights2000/g0.1_lr0.001_decay_0.9999.pth (torch, 12865 bytes, 6 tensors)

fc1.weight f4 [32, 8]
000000 7c 9f 19 bd 48 3b 3a 3e ab 66 83 be 62 d3 2b bf
       -0.03750561 0.18186677 -0.25664267 -0.6711942
000010 e1 73 7f bf 22 72 0e 3e f4 0c b3 3d 87 d9 44 3d
       -0.9978619 0.13910726 0.08742705 0.048059013
000020 36 88 b9 bd 21 a3 0e bf a4 31 66 bf d7 e0 06 bf
       -0.09059183 -0.55717665 -0.89919496 -0.5268683
000030 c7 07 89 bf 58 81 e3 3e d1 b8 e0 bd 64 3f 21 3f
       -1.0705498 0.4443462 -0.10972751 0.6298735
000040 c4 b5 c3 bf 57 f4 5f 3f 40 58 64 bf f5 01 c3 be
       -1.5289845 0.8748221 -0.8919716 -0.3808743
000050 16 4a 2d 3e 0d a6 27 3f 91 7d 6b 3f 88 21 c8 be
       0.16922793 0.6548775 0.91988474 -0.39088082
000060 d1 46 9c 3e 44 bd b1 c0 cb 5f 22 bf 23 e6 00 bf
       0.3052278 -5.5543537 -0.6342742 -0.5035116
000070 9e 3f 08 bf cc 38 db be 3b ed 4f bd 52 7a 7a 3c
       -0.5322207 -0.4281677 -0.05076335 0.0152879525
000080 89 d1 23 be 08 17 9d c0 c1 9c 9c 3e ea 94 23 bf
       -0.159979 -4.9090614 0.30588344 -0.638991
000090 30 bd e7 be 9c 20 73 3d 11 cb 16 3f 9b 93 0e 3f
       -0.45261526 0.05935727 0.58903605 0.5569398
0000a0 e1 1d d9 3c 99 8a 9e c0 b6 36 1d 3d 4e 4f 99 bf
       0.026503505 -4.9544187 0.038382255 -1.1977327
0000b0 84 76 71 3e fa 55 2d be 05 4f 34 3f d0 8a 72 3e
       0.23580366 -0.16927329 0.70433074 0.23685765
0000c0 29 40 36 3f 3e ca a4 c0 0c b3 34 3f ea 08 a8 3f
       0.7119165 -5.149688 0.70585704 1.312772
0000d0 9f 43 90 3e 9e 98 0d 3e ac 6e a4 3f b7 f7 8f 3e
       0.2817659 0.1382775 1.2846274 0.2811868
0000e0 e0 f2 01 bf 08 1f dc bf b6 8d 5a 3b 87 36 25 bf
       -0.5076122 -1.719697 0.0033348626 -0.6453633
0000f0 f5 6d 93 3d 9b 9c 88 3e b8 89 17 3f 8b f7 4a 3f
       0.07198707 0.2668198 0.5919452 0.7928397
000100 cb 6f 02 bd ea 7e 7f bf 76 16 b6 3d 0f ee 9d 3f
       -0.031844895 -0.9980303 0.08891003 1.2338275
000110 e9 e8 27 3f 62 89 09 3f d9 2b 8a 3e f7 47 57 bd
       0.6558977 0.53725255 0.26986578 -0.052558865
000120 32 81 24 40 fc 71 0a 40 28 27 21 3f b2 a6 1b 3f
       2.5703855 2.163207 0.6295037 0.6080123
000130 1e 5c 86 3e 5b f9 71 3e ce 40 d4 3c c5 90 f5 be
       0.26242155 0.23630278 0.025909808 -0.47962013
000140 ac e9 62 bc 9d 0a ad bc f2 af aa 3f fc a3 fe bf
       -0.013849657 -0.021123225 1.3334944 -1.9893794
000150 84 59 8e bd f8 21 23 3e 11 37 3a 3f 18 11 7a bf
       -0.069506675 0.15930927 0.72740275 -0.97682333
000160 78 76 b6 3e 97 ae 1f bf 51 b9 02 3f 2a 9f 1d 3f
       0.3563726 -0.6237578 0.5106402 0.6157099
000170 30 44 4c 3f 96 2b 59 3e 83 14 ed 3c 98 8a 92 bd
       0.79791546 0.21208033 0.028940445 -0.07155341
000180 fc e0 ff bd 6a ac f6 3c 6b dc 04 be be 64 95 be
       -0.12494084 0.03011151 -0.12974708 -0.29178423
000190 d8 b7 a8 3f 20 20 ec 3e a3 2f 7e be e4 74 fe 3d
       1.3181105 0.4611826 -0.2482286 0.12424639
0001a0 05 d2 c1 be 30 5d c7 c0 7f 02 49 3d c7 18 73 bf
       -0.37855545 -6.2301254 0.049074646 -0.9495968
0001b0 d3 53 20 3e 04 32 1c bd 33 27 a3 3e 69 b5 40 bc
       0.15656976 -0.038133636 0.31865844 -0.011762002
0001c0 fc e7 28 3b 0b b3 9a 3c e3 d8 00 40 03 46 b1 be
       0.002577304 0.018884202 2.0132377 -0.34623727
0001d0 69 f5 e6 3d 19 29 15 3e f6 dc f9 3e ec 4f 01 3f
       0.11277277 0.14566459 0.48801392 0.50512576
0001e0 7f 5b 27 bc 05 9e 77 3e 93 0c b6 3c 26 d3 fe be
       -0.010214685 0.24181373 0.022222793 -0.49770468
0001f0 8b 54 ba bf 86 1b 08 bf ca 0b 2a 3d 53 4f 51 bd
       -1.455705 -0.53167 0.04151515 -0.05110104
000200 98 11 1b c0 6d e1 12 bf e3 33 22 be 49 96 5f 3f
       -2.4229488 -0.5737522 -0.15840106 0.8733869
000210 9b 1c ac bd 1d 60 00 3f 07 2b 21 3f e5 1b 0a bd
       -0.084038936 0.5014666 0.6295628 -0.03371801
000220 79 4e 29 3e 6f 84 50 bd 0f 31 06 bf de 7a 8e be
       0.16533841 -0.05090755 -0.5241861 -0.27828115
000230 a1 3d 5c 3f 36 89 c7 bd 20 47 0e 3f 24 53 b8 bf
       0.8603154 -0.09742968 0.5557728 -1.4400373
000240 c6 78 39 3e ef bf 8a 3c ae 32 ec 3f 1c 3c a4 be
       0.18112478 0.016937224 1.8452966 -0.3207711
000250 b9 5a 9d be 99 cb fb bc 33 8f 9b bf 65 92 00 3e
       -0.30733278 -0.030736731 -1.2153076 0.12555845
000260 18 27 6f 3f 05 ec 5e 3f 3f 00 eb 3e 55 55 a0 bf
       0.9341903 0.8707889 0.45898625 -1.2526041
000270 41 a7 88 3d d2 79 a9 3e b1 e8 8e bf 1e 79 ab be
       0.06672526 0.33100754 -1.1164762 -0.33490843
000280 18 79 2e 3e 20 97 a1 3d ae af 94 bf 88 7c 03 c0
       0.17038381 0.07890153 -1.1616113 -2.0544758
000290 be 2e fe 3e d6 2a 06 bf 2a b1 08 3e 30 99 88 3e
       0.49645036 -0.5240911 0.13348833 0.26679373
0002a0 99 85 62 be 24 df 66 c0 33 2a a6 3e 53 40 1c 3c
       -0.22121276 -3.6073694 0.3245407 0.00953682
0002b0 4a a1 57 3f ce e5 9c 3d b7 cd 70 bf 19 48 3c bd
       0.8423048 0.07661019 -0.94063896 -0.045967195
0002c0 de b3 2e 3e cd 8b ab c0 26 79 de 3e fe ab 0c bf
       0.17060801 -5.3608155 0.43451804 -0.5494994
0002d0 bb 93 09 3f b1 b3 23 be a4 97 26 3f 59 c9 85 3e
       0.53741044 -0.15986516 0.65075135 0.2613018
0002e0 bc fe 8d 3f d6 2a fb c0 e3 a2 aa bd 64 57 2e be
       1.1093364 -7.848979 -0.083318494 -0.17025524
0002f0 be f7 31 bf 2d 9b 2a 3e d6 60 45 3e 2d ac 0a 3f
       -0.6951865 0.16660757 0.19275221 0.5416897
000300 92 a2 69 bf bd ce 64 c0 48 93 1d bf 3f 24 d5 be
       -0.9126369 -3.5751183 -0.6155286 -0.41629216
000310 e6 f8 96 be 47 df 76 3f a7 3c cd 3d 72 ab 03 3e
       -0.2948677 0.96434444 0.10021334 0.1285837
000320 ec 13 09 bf 3b 32 a9 c0 c4 75 6b be 52 4b 44 bf
       -0.53546023 -5.2873816 -0.22994143 -0.7667743
000330 a5 f0 01 3e d3 a8 fd 3e f7 3e 42 3d 13 e0 20 3f
       0.12689455 0.49542865 0.04742333 0.6284191
000340 06 7c a9 3d 95 cb dd bc c4 be cf bd 6c b6 35 bc
       0.08275609 -0.027074615 -0.101438075 -0.011090856
000350 cb ed 0a 3d 32 5e 0d bd a4 90 0b 3c 6f 57 7b 3c
       0.033918183 -0.03451366 0.008518372 0.01534067
000360 95 78 56 bf 51 e4 f5 c0 f0 f5 94 be a5 bb 3b be
       -0.83777744 -7.6841207 -0.29093885 -0.183333
000370 6f 2c de bc 44 f9 da 3d 37 60 d0 be 45 99 6c be
       -0.027120797 0.10692075 -0.40698406 -0.23105343
000380 fe 06 81 3e 91 a8 24 be fe 0c f4 bf 2f 8e 43 bf
       0.25200647 -0.16079928 -1.9066465 -0.7638883
000390 9b d9 52 3d 7f 1b 0a bd 22 b0 07 bd a8 4e 5f bf
       0.051477056 -0.03371763 -0.033126958 -0.87229395
0003a0 54 a4 fb bd 33 ed d8 3b f1 13 24 3f 63 2c 65 bf
       -0.122872025 0.006620073 0.6409293 -0.89520854
0003b0 dc 8f bb 3e 8b d4 1e bd fb bd 29 be 59 db e0 bf
       0.36633193 -0.038776916 -0.16576378 -1.756694
0003c0 ca b8 82 3f 52 3e 68 c0 01 d6 d5 be 32 3d d0 3e
       1.0212643 -3.6288037 -0.41764835 0.40671688
0003d0 8c 27 28 bf 15 4e 34 bf 44 9f 0c 3f 98 8f 87 bf
       -0.65685344 -0.70431644 0.5493052 -1.0590696
0003e0 a7 65 06 3e 4f 2e 24 3d c6 72 8b be 43 07 c3 be
       0.13124715 0.040083226 -0.27236003 -0.38091478
0003f0 c9 40 af 3f 70 05 13 be 15 a0 89 bf 77 70 8f be
       1.3691646 -0.14357543 -1.0751978 -0.2801549

fc1.bias f4 [32]
000000 b9 6a 51 be 36 74 e9 3e f6 08 a7 bf 4e 43 9d bf
       -0.20450868 0.45596474 -1.304961 -1.2286165
000010 7c 83 54 bf ba d4 d8 be 99 22 f1 be bd f0 7a bf
       -0.8301313 -0.42349797 -0.47096708 -0.9802359
000020 d9 ba a7 bf 77 10 73 3f c9 be 85 3e 74 40 b2 bf
       -1.3103896 0.94947 0.2612212 -1.392592
000030 80 d1 17 bc 78 26 06 bf ce bb c1 bd 71 b2 ca bd
       -0.009266257 -0.5240245 -0.09459649 -0.09897316
000040 98 fa 2e be c5 a1 9b 3e d2 0f 65 3d dd e4 f7 3d
       -0.17087781 0.30396858 0.05592329 0.12104199
000050 af 61 9d 3e a4 5b b5 bf ea c6 35 bf 8e b3 38 bf
       0.3073859 -1.4168591 -0.71006644 -0.7214898
000060 0c d8 96 be 95 b9 3a bf b7 1f af be b3 0f f3 3c
       -0.29461706 -0.72939426 -0.34203884 0.029670572
000070 83 4d dd 3e 40 0f af 3e f9 5a 92 bf f6 ef 78 bc
       0.432232 0.34191322 -1.1434013 -0.01519393

fc2.weight f4 [64, 32]
000000 9e cd 99 3f a3 6b 8e 3e b8 6e 7a bf 60 54 e1 bf
       1.2015874 0.27816495 -0.97825193 -1.7603874
000010 d1 59 29 3e 9e 2a c2 3e 0b 5b 15 be 67 7d 0d 3d
       0.16538168 0.3792314 -0.14585511 0.03454342
000020 ea 29 0d 3f ae 26 59 3e 89 d0 58 3f ed fb a5 3d
       0.5514208 0.21206161 0.846932 0.08104692
000030 d5 21 22 bf da c8 d1 bf 55 e7 e6 3e 7f 62 28 bf
       -0.63332874 -1.638942 0.45098367 -0.65775293
000040 39 a7 2e bf e0 98 b1 be 77 d4 72 be d6 3c 36 3f
       -0.6822391 -0.34686947 -0.23713861 0.7118658
000050 ad eb e6 3d f9 5c e3 bf f9 1b 19 c0 8b 88 7a bf
       0.1127542 -1.7762748 -2.3923323 -0.978646
000060 35 a2 3f 3f a0 0b ca bf 43 8a 95 3d 0c 74 cf 3e
       0.74856883 -1.5784798 0.07301762 0.40518224
000070 f0 00 a8 3e 8f 25 bd 3d ff 7c 0d bf cf 48 ee 3e
       0.32813215 0.09235679 -0.55268854 0.46539924
000080 30 b0 8a be c6 ab 3e be 94 2d 19 bf a0 c5 b8 3f
       -0.27087545 -0.18620214 -0.5983517 1.443531
000090 b3 bf 0b 3f 6a ab 1a be 30 54 88 bd a8 61 ce bd
       0.54589385 -0.15104452 -0.066566825 -0.1007722
0000a0 66 60 f4 3e 3d 86 40 bd c7 58 57 bd 4a 17 81 3b
       0.47729796 -0.04700302 -0.0525749 0.003939544
0000b0 98 7a 2c 3f 61 b8 10 3f 7f 79 eb 3d 7b dd 08 3e
       0.67374563 0.5653134 0.11497783 0.13365738
0000c0 8b ba a4 3d 44 91 2c 3c b9 ea c4 bd af 8e 86 be
       0.08043393 0.010532681 -0.09615082 -0.26280734
0000d0 db 0e 1a be 20 8b e6 3e f4 aa 0d 3f 46 1e 9c 3e
       -0.1504473 0.4502802 0.5533898 0.30491847
0000e0 97 84 81 3f 44 3c a9 3f fe 2f 78 3d 10 22 83 3e
       1.0118588 1.3221517 0.060592644 0.25611925
0000f0 6c 8b fa 3d 3e 4d 6c be f4 f5 12 3f 1c cc ed be
       0.12233624 -0.2307634 0.57406545 -0.46444786
000100 80 11 f0 39 0d 99 2b be 57 9f ae be a7 29 e9 3f
       0.00045789406 -0.16757603 -0.34105942 1.8215836
000110 67 7b 93 3e d6 b6 28 3f 64 3c 23 bf 58 b5 b7 be
       0.28805086 0.65903986 -0.63764024 -0.35880542
000120 69 bd 81 bf 02 4a da bf af ad 09 bf 4b cb ad bd
       -1.0135928 -1.7053835 -0.53780645 -0.08486041
000130 5e 6d b7 be 0e 17 d1 3f c9 e5 c1 be 22 b1 38 3e
       -0.35825628 1.6335161 -0.37870625 0.18036321
000140 39 11 59 bf 84 77 b7 bf e6 83 e5 3e 57 4e 35 bf
       -0.84791905 -1.4333348 0.44827193 -0.7082266
000150 f8 3c 2a bf e2 d4 f2 3e a2 0d 92 3f e5 84 95 3f
       -0.6649928 0.47428042 1.141041 1.1681181
000160 e4 77 7d 3f ad 87 a3 3f 82 41 f0 3d 7d 18 59 3f
       0.99011064 1.277578 0.117312446 0.8480299
000170 7d 4f 0f bf b6 12 ce be 13 9a 6f 3f 39 b7 a2 bd
       -0.55980664 -0.4024865 0.93594474 -0.07945103
000180 95 83 0b bd 7f 24 da 3e 53 d2 f5 bd 78 6c 0b 3f
       -0.034061033 0.4260597 -0.12003007 0.54462385
000190 0b 4e 0b be ec 75 a7 3e 97 c6 10 c0 ae 91 6d 3d
       -0.1360399 0.32707155 -2.262121 0.05800026
0001a0 c4 7d 2f 3e e2 6f 28 bf bf 0a 87 3e 05 fa 6d 3f
       0.1713782 -0.6579572 0.26375386 0.92959625
0001b0 a2 75 38 3f 71 73 d1 3f 2b 20 a6 bf d0 b1 24 3f
       0.72054493 1.6363355 -1.2978567 0.6433382
0001c0 aa 4f a4 be 40 27 30 3f 3b 5c 1a 3f 38 09 eb 3f
       -0.3209203 0.6880989 0.6029698 1.8362188
0001d0 af 12 b5 3e d9 25 00 40 53 4b 15 3f 8d 9a 9f 3e
       0.35365817 2.00231 0.5831806 0.311726
0001e0 26 d5 5b bf 55 c9 a7 3e 79 e3 0f be b6 a8 8f bf
       -0.85872114 0.32770792 -0.14051618 -1.1223361
0001f0 2e 92 56 be cc 52 66 3e d1 7b a2 bd c1 3b f1 bd
       -0.209542 0.22492522 -0.07933772 -0.11778975
000200 38 76 5e bd 48 dc c4 bd 03 77 75 bf e3 93 bf 3f
       -0.05431196 -0.09612328 -0.9588472 1.4967006
000210 19 e0 64 3f 51 10 e0 3e b4 6b b4 be 36 f5 fe 3d
       0.89404446 0.43762448 -0.3523842 0.12449114
000220 c1 7f c1 3c 39 f0 12 c0 b6 df 30 be ff 3e ac 3e
       0.023620488 -2.295912 -0.17272839 0.33641812
000230 6a f8 be bd 35 25 dd 3f 80 25 8c be 1c e0 bb 3d
       -0.09324725 1.727698 -0.2737236 0.09173605
000240 89 16 24 bf eb c8 0f 3f b9 18 9c 3e a4 5e c6 be
       -0.64096886 0.5616595 0.30487612 -0.3874408
000250 d1 a3 84 be bc d1 10 3f 51 fe 9d 3f 60 51 51 3f
       -0.25906232 0.5657003 1.2343236 0.81764793
000260 43 c3 44 3f 71 92 6d 3f 6c 49 37 bd 59 04 7b 3e
       0.76860446 0.92801577 -0.044747755 0.24513377
000270 35 f5 53 3e 35 a2 39 bd 4b 99 00 3f 4d 67 88 be
       0.20699008 -0.04532071 0.50233907 -0.26641312
000280 bb d8 cc bf 59 e9 0c bf ee 84 08 3f fe 2a b3 3f
       -1.6003641 -0.5504356 0.53327835 1.3997495
000290 80 99 ed 3e af fa c9 3e 04 34 c1 be ef 0d 9e 3e
       0.46406174 0.3944907 -0.37734997 0.30870005
0002a0 95 45 30 bc 77 bc 34 bf 21 72 a0 bf e5 6e 0a be
       -0.010758777 -0.70600075 -1.2534829 -0.13518865
0002b0 cf 77 3c 3e df d0 b0 3f d3 af 9c be a1 5a 33 bc
       0.18405078 1.3813742 -0.30602893 -0.010946901
0002c0 96 2f d9 b9 cf 9a 59 bf 03 4d 05 bd bb 9e 28 bf
       -0.0004142492 -0.85001844 -0.032544147 -0.65867203
0002d0 18 a4 64 bd ac 8a b2 3e d1 ee 1e 3f 00 af 44 3f
       -0.055820554 0.34871423 0.62083155 0.7682953
0002e0 3d 99 ab 3e 21 e1 5f 3f 15 2d 9e 3d bb 58 08 3f
       0.3351535 0.87452894 0.077234425 0.5326039
0002f0 9f a0 06 bf 39 f3 05 3e 9d b9 c0 3e 48 ff be 3e
       -0.5258884 0.13081063 0.37641612 0.3730414
000300 43 92 66 bf 2c 0f 2e bf 3e 51 7f bf 3e 2e 02 40
       -0.9006693 -0.679919 -0.9973334 2.0340724
000310 05 b8 90 3f 44 68 7f 3f 28 7d e3 be b4 e7 3d be
       1.1306158 0.9976847 -0.44431424 -0.18545419
000320 2a 6c b9 bf 7a 8d 4b 3e a6 0c 38 3e 48 1b c2 bf
       -1.4486134 0.19878188 0.17973575 -1.5164576
000330 60 7b a8 3e 96 b3 5b 3f 5d f9 6c 3f ac 0b 42 bf
       0.32906628 0.858209 0.92568 -0.7579906
000340 ee e9 a0 3e aa 74 be bd fc 27 ad 3d 9f c7 80 be
       0.31428474 -0.09299596 0.08454892 -0.251523
000350 b0 c4 8b be bb c3 d7 be 90 94 7b 3f ff e4 9b 3f
       -0.27298498 -0.42141518 0.98273563 1.2179259
000360 6e 26 f7 3e 66 b8 ac 3e 27 a2 0f 3d fc 51 2d 3f
       0.48271507 0.33734435 0.03506675 0.67703223
000370 63 7d 92 bf 02 86 0e be 2d b6 40 3f 8a 47 82 be
       -1.1444515 -0.13918307 0.7527798 -0.25445205
000380 44 8c 09 bf 09 9f 84 be 39 9a 6e bf ba ec 95 3f
       -0.53729653 -0.25902584 -0.93204075 1.1712868
000390 94 6b 8c bc 3f 27 cf bc 96 1c dd 3e c5 21 65 3e
       -0.017141141 -0.025287269 0.43185872 0.22376163
0003a0 30 93 82 3f 0e 48 1c be 94 55 d3 3e a6 18 5a 3f
       1.0201168 -0.15261862 0.41276228 0.8519386
0003b0 1a 70 1c 3e d4 71 bd 3f ff d6 f3 3b 5d f9 0e 3f
       0.15277138 1.4800363 0.007441401 0.5584925
0003c0 b3 66 06 3e d1 de 8d 3e 08 62 8f 3f b9 96 b9 3d
       0.13125114 0.27709058 1.1201792 0.09061951
0003d0 a1 70 50 be 3f b7 6a 3f d1 97 50 3f a6 9f 26 3f
       -0.20355465 0.9168586 0.81481653 0.65087354
0003e0 29 4e 4d be db fb a4 3e 6b 6b 93 bd 23 39 0f 3f
       -0.20049347 0.322234 -0.07198223 0.5594656
0003f0 e4 d3 10 bf 24 b0 64 bd 76 08 11 3f 01 ca fc be
       -0.5657332 -0.055832043 0.56653535 -0.49372867

fc2.bias f4 [64]
000000 62 77 57 3f 95 00 a5 3e 94 12 57 bf 1e c1 4a bf
       0.8416654 0.32227007 -0.8401272 -0.79200923
000010 d6 fe 06 bf df 48 61 bf 5d 2e 01 3f 30 bf 08 bc
       -0.527326 -0.8800182 0.5046137 -0.008346364
000020 c4 1b 2c bf ea 59 76 3c f4 e9 20 bf 18 b2 dc 3e
       -0.67229867 0.015036086 -0.62856984 0.43104625
000030 01 ae 33 bf 06 a7 2f bf 58 ee 01 3f a1 83 9c be
       -0.70187384 -0.6861423 0.5075431 -0.30569175
000040 69 3b 5b 3e ff e3 bd be 5e 10 18 3c df f7 9d bf
       0.21409382 -0.3708801 0.009281246 -1.2341269
000050 0d 7c cf 3e 88 b2 b0 3e 1d 17 4a 3e de 9d 2d bf
       0.4052433 0.3451121 0.1973538 -0.6781901
000060 5a 0d dd bd 04 32 c0 bd 16 97 a8 3e a3 ba cc be
       -0.10793562 -0.0938454 0.3292777 -0.39986143
000070 b5 14 76 be 6d c4 31 3d cb f1 49 bf d6 38 b3 3d
       -0.24031337 0.043400217 -0.7888457 0.08751075
000080 a5 4a d7 bc 0e b9 63 bf 66 e6 3e 3e 66 0f 80 bd
       -0.02628071 -0.88954246 0.18642578 -0.06252937
000090 50 a8 55 3f 6e 65 d5 3e 6e 7b 57 bf a9 b9 87 3f
       0.8345995 0.41678947 -0.84172714 1.0603534
0000a0 88 2e ac 3e 7e 33 9c 3e f4 64 be 3e ad 3f db 3d
       0.3362925 0.30508035 0.37186396 0.107055046
0000b0 22 a1 97 3e 1c b3 91 3e 34 c4 4e bf ac 46 38 bf
       0.29615122 0.28456962 -0.8076813 -0.71982837
0000c0 fc 2f 85 3e 2c 53 33 be 38 77 22 be 25 47 90 3f
       0.26013172 -0.17512196 -0.15865791 1.1271712
0000d0 b3 5d 0d 3f fc 23 c7 3e c2 64 66 bf e8 1a e9 bd
       0.552211 0.3889464 -0.89997494 -0.11382085
0000e0 02 9f a5 3e 19 97 a9 3e 68 36 f8 3e 82 8e ef 3e
       0.32347876 0.3312309 0.4847901 0.46788412
0000f0 ed d4 96 3e a3 8b 2c 3e 78 a7 eb bf f5 2b 2e bf
       0.29459324 0.16850142 -1.8410482 -0.68035823

fc3.weight f4 [4, 64]
000000 82 2c 92 3f d9 63 9e be 1c e3 01 c0 43 19 f1 be
       1.1419833 -0.30935553 -2.0294867 -0.47089586
000010 aa fc 91 bf f8 b6 9e 3e e0 62 c6 bd 06 10 ce be
       -1.1405232 0.3099897 -0.09686828 -0.402466
000020 17 1c fe bf ce 5e 8e bf 7b 00 9f bf a1 0f 11 bf
       -1.9852322 -1.1122682 -1.2422022 -0.5666447
000030 59 e1 d5 bf 8b b4 c0 bf 79 c2 6b bf 16 93 77 bf
       -1.6709396 -1.5055097 -0.92093617 -0.9670881
000040 ca 54 d7 be 0b 12 01 bf d9 c7 83 bf 56 1b 2e c0
       -0.42056876 -0.50418156 -1.0295364 -2.7204185
000050 61 34 bd be 6e f2 15 bf 63 2c 19 c0 b4 fb 47 bf
       -0.36954024 -0.58573043 -2.3933342 -0.78118443
000060 56 a2 c2 be 4b 4f 3f bd 94 3d 9e be 40 87 80 3f
       -0.38014477 -0.04670648 -0.30906355 1.0041275
000070 26 a9 89 bf b6 e6 bb be 3b 2a 13 be b5 e1 47 bf
       -1.0754745 -0.36699456 -0.14371578 -0.78078777
000080 33 12 78 bf 07 c6 05 c0 cd 34 37 40 02 1f cf be
       -0.9690277 -2.0902116 2.8625977 -0.40453345
000090 61 1a cc 3f 1b b5 87 bd f5 36 d7 bf 9a 4a 16 3f
       1.594555 -0.0662634 -1.6813647 0.5870758
0000a0 ba 14 a4 3e 29 a8 04 40 41 59 92 bf 4b 5f 06 3f
       0.32047063 2.0727637 -1.1433488 0.52489156
0000b0 f5 70 88 be 22 61 84 3f 93 da 8c bf 38 49 8c bf
       -0.2664868 1.0342143 -1.1004204 -1.0959845
0000c0 dd 6c a3 bf e9 41 b0 bd 07 66 cf bf 07 35 86 bf
       -1.2767597 -0.08606321 -1.6203011 -1.0484933
0000d0 92 a5 20 3e 89 98 5c 3f 12 4f f3 3f 1c 29 81 bf
       0.1568816 0.8617025 1.9008505 -1.009067
0000e0 89 a7 cf be b3 ce 98 be 9b 79 dc bd 0e ae d0 be
       -0.40557507 -0.298452 -0.10765382 -0.40757793
0000f0 d6 b5 2f bd b8 ee 97 bd 6a c1 e0 be 27 5e 0e bf
       -0.04289802 -0.07418579 -0.43897563 -0.55612415
000100 53 0a f2 3f c5 68 95 be ae d3 10 c0 e2 fb e7 bd
       1.8909401 -0.29181495 -2.26292 -0.1132734
000110 e0 77 a3 bf 96 b5 93 3f c1 21 af bf de 20 11 3e
       -1.2770958 1.1539791 -1.3682176 0.14172694
000120 1e 86 29 c0 8b 4c 7e be ad cf 8e 3d 03 fb 6c bd
       -2.6488109 -0.24833886 0.06973205 -0.05785657
000130 5a 1e 03 3f 6a e0 bf bf 09 c4 db be 34 ce 5d 3e
       0.5121819 -1.4990361 -0.42923 0.21660691
000140 9f 3a c7 be 7e 84 af be 1a 2a 92 be a8 b3 40 c0
       -0.38911912 -0.3428077 -0.28547746 -3.0109653
000150 2c fd d7 be 1d 40 fe be 4e 2b c9 bf 98 65 1b c0
       -0.42185342 -0.4965829 -1.571634 -2.4280758
000160 09 99 24 3e 57 8f 51 3a 12 15 e2 3c c7 23 3e be
       0.16074003 0.00079940766 0.027597938 -0.18568335
000170 21 8c 0f 3c 04 71 6b bf 3a 87 25 c0 79 f3 0a be
       0.008761437 -0.91969323 -2.5863786 -0.1356944
000180 62 05 29 3e 1a cc d0 3e 1c a5 21 40 b3 23 8e be
       0.1650596 0.40780717 2.5257025 -0.2776161
000190 4f 1d 61 3f 2c 0e 77 bf 47 1c 11 c0 92 e7 7c 3f
       0.87935346 -0.96506 -2.267351 0.9879085
0001a0 45 d7 5e 3f 33 c6 d8 3f ad ce 0a c0 5d c9 16 c0
       0.87047225 1.6935486 -2.1688645 -2.3560402
0001b0 b8 88 02 bf 26 4f 94 3f cf a0 3c c0 db 14 16 c0
       -0.50989866 1.1586654 -2.947315 -2.345023
0001c0 2f d4 65 be b9 78 b7 bf a0 51 12 c0 d8 d9 8d bf
       -0.22444223 -1.4333717 -2.286232 -1.1082106
0001d0 47 e8 06 bf 5d f1 ea bf 49 7b 3d 3f f9 3c a9 be
       -0.5269818 -1.8354908 0.74016243 -0.3305433
0001e0 b3 cb 33 c0 c8 c4 f0 be 8a 08 ba be a2 e1 b6 bf
       -2.8093078 -0.47025132 -0.3633464 -1.4287608
0001f0 19 e6 ea be eb a4 59 bf c3 8f dd 3f b3 87 04 c0
       -0.45878676 -0.8501727 1.7309498 -2.0707824
000200 0e 55 cb 3f 09 92 f4 bd d1 71 90 3f 7c 03 13 c0
       1.5885332 -0.119419165 1.1284734 -2.2970877
000210 fe 20 28 bf 65 1d 1d 40 2e 6c a7 3f ad 72 e7 be
       -0.6567534 2.454919 1.3079889 -0.45204678
000220 97 de 53 bf 6b 1f d4 bc b2 5c 77 bf a9 ee 5c bf
       -0.8276152 -0.025893888 -0.96625817 -0.86301666
000230 96 76 eb bf 9c e4 34 bf ee 0b 89 bf 6d 21 1e bf
       -1.8395565 -0.7066133 -1.0706766 -0.61769754
000240 5d a8 aa be dd 53 50 bf 75 19 d5 be 7d e6 2d c0
       -0.33331576 -0.81377965 -0.41620985 -2.717193
000250 24 bb 09 bf bd 77 36 be 5a 72 44 bf ab 4e 60 bf
       -0.5380118 -0.17819114 -0.76736987 -0.8762004
000260 45 e7 28 bf 58 51 50 3d 70 a2 1a 3f 2a f7 6b 3d
       -0.6597789 0.050858825 0.6040411 0.05760876
000270 1f 31 41 bf 2a a0 7b bf 7f 2c 4a bf d9 01 68 bf
       -0.7546558 -0.98291266 -0.78974146 -0.9062782
000280 72 87 f8 be aa 66 ee bf ee 1b 34 3f 1c 01 d1 bf
       -0.48540837 -1.862508 0.7035512 -1.6328464
000290 68 3c 04 40 99 a8 1a bf 96 73 93 bf 0a 9e 16 c0
       2.066187 -0.6041351 -1.1519649 -2.353396
0002a0 d6 4e ed 3f c4 a3 6a 3f d4 b2 94 3f a9 58 7c bf
       1.8539684 0.91656137 1.1617074 -0.98572785
0002b0 67 ed 82 3e 74 f7 8f 40 8c ba 37 bf e4 4d 91 bf
       0.2557175 4.4989567 -0.7176902 -1.1351895
0002c0 bb 68 d6 3d 17 30 52 be 47 5f 07 3f 5d d3 23 c0
       0.104691945 -0.20526157 0.52879757 -2.5597756
0002d0 2f 53 bb bf 51 2a 12 bd 43 df 11 40 ec 92 0e bf
       -1.4634761 -0.035684887 2.2792518 -0.55692935
0002e0 93 fd 87 bf b3 f6 a8 3e 7b 4c 08 bf 07 6f 3c 3f
       -1.062426 0.33000717 -0.532417 0.73606914
0002f0 a9 c7 45 bf 66 2b b0 3e c2 1d 3f 3f 53 15 4b bf
       -0.7725778 0.3440811 0.7465478 -0.79329413
000300 01 30 73 3f e5 90 d4 be a8 94 34 3f bb 1d 3b bd
       0.94995123 -0.41516796 0.7053933 -0.04568265
000310 25 f7 22 bf 02 cd 90 3f 06 b9 88 bd f4 42 ba be
       -0.6365836 1.1312563 -0.066759154 -0.36379206
000320 21 94 80 be 67 b9 a3 bf c4 6b fc bf 7f 2f 56 bf
       -0.25113013 -1.2790955 -1.9720387 -0.83666223
000330 e8 7f 34 c0 40 dc d9 3d 82 76 a7 be 67 00 02 c0
       -2.8203068 0.106377125 -0.32707602 -2.0312746
000340 ff df a8 be de 48 d6 bf a4 ad dc be 12 c3 3c be
       -0.32983395 -1.6740987 -0.43101227 -0.18433788
000350 2b d0 0c bf 4d de 88 be 19 20 9b bf 84 e7 41 bf
       -0.5500514 -0.26732102 -1.211917 -0.7574389
000360 a9 90 15 bf 6c 7f d2 bc b3 5e b0 3d d2 1e cd 3f
       -0.5842386 -0.025695525 0.086118124 1.6025031
000370 36 0e 18 bf df b1 19 bf e7 56 90 bf 91 cc 47 bf
       -0.59396684 -0.60037035 -1.127652 -0.7804652
000380 42 cf 17 c0 b5 60 2c c0 31 d9 42 40 11 0d ae bf
       -2.372025 -2.6934025 3.0445063 -1.3597738
000390 15 0b be 3f 4a 89 42 bf 63 37 e1 be 5e 35 5a be
       1.4847132 -0.75990736 -0.4398757 -0.2130942
0003a0 f0 28 c1 bf c1 a4 21 40 c8 e7 17 3f 77 8d 02 40
       -1.5090618 2.5256808 0.59338045 2.0398843
0003b0 a7 5c 27 bf e6 e8 bc 3f eb be 88 bf 14 53 13 bf
       -0.6537575 1.4758575 -1.0683264 -0.5754864
0003c0 43 f4 28 bf da 63 bd 3f 4d 34 0b 3f ff a9 e3 be
       -0.65997714 1.4796097 0.5437668 -0.44465634
0003d0 38 d0 55 3f 5c cd e6 bd fd 5f 60 40 4a 90 10 bf
       0.8352084 -0.11269638 3.5058587 -0.5647017
0003e0 04 5f ea 3e 67 50 91 bc 1a 9f 95 bf 03 41 a7 3d
       0.45775616 -0.017738534 -1.1689179 0.08166697
0003f0 c0 02 11 3e 5d 7e 41 bf 65 3b e2 bf 65 b2 b5 bf
       0.14161205 -0.7558344 -1.7674376 -1.4195067

fc3.bias f4 [4]
000000 c4 e9 af be d0 a7 43 bf bd dd a0 3e 51 e9 f7 be
       -0.34358037 -0.76427937 0.31419173 -0.48420194
