weights2000/g0.1_lr1e-05_decay_0.9999.pth (torch, 12865 bytes, 6 tensors)

fc1.weight f4 [32, 8]
0.17101608 -1.2033079 0.014168716 -1.0828046 0.18901347 0.26807567 0.3392345 0.74725777
-0.8552733 -2.9551463 0.47736573 -1.1243112 0.42760044 -0.28004465 0.48894894 0.022309283
-0.20468701 0.3592243 -0.7463127 0.28796002 0.44059345 0.6352223 1.1582927 -0.047570776
-1.2283273 -3.5130806 0.3937973 -0.47334608 0.1908963 -0.5521303 -0.22464207 0.9930616
-0.38855824 -2.545386 0.21837501 -0.6630198 -0.5692034 0.08753715 0.26449853 -0.03893394
-0.5492287 -3.175979 0.0467389 -1.1955261 0.14873728 -0.13237935 0.4944163 0.33387673
0.32294133 -0.50863665 -0.68413675 1.6044513 0.19505592 0.20866852 0.110488005 0.39381292
-0.8518309 -2.6915214 -0.23621744 -0.24239962 -0.09004634 0.46933106 0.9334344 -0.065378234
0.15818042 0.003374984 -0.10897233 0.096578315 1.5632267 0.3667452 -0.45515803 0.22815801
-1.7090485 8.981925 0.09601728 -0.105125844 0.3337331 0.064298265 0.122114405 -0.29448313
0.8786783 0.044653576 1.5145057 -1.1887594 0.21227922 0.114956684 0.5914832 -0.57498986
-0.9440173 -0.037402622 1.6058763 0.47360885 0.84366596 0.5767242 -0.09695293 -0.2186739
-0.08296498 -0.036194053 -2.9362433 -0.41053188 0.2954172 -0.19850665 -1.53717 -0.8132246
-2.2192028 -6.2238455 0.4985638 -0.3523724 0.056636434 0.063989095 -0.097981684 0.124352574
0.1265285 0.35611728 -0.9073469 -1.2897965 -0.76021445 0.5074969 -0.49611574 0.35871783
0.17323214 0.0376777 -0.019963397 -0.17228352 -0.7627715 -0.77829736 -0.035719756 0.22997984
0.028946377 -2.7845247 -0.4420694 -0.51556104 -0.45248932 -0.2825198 0.72539365 -0.39136288
-0.0028980742 0.04745167 0.03292915 -0.12286144 1.2480254 0.14794104 0.9404043 -0.98427963
-0.10166682 0.5913912 1.4520911 0.7071996 -0.48019192 -0.14173742 -0.2201243 0.55436194
0.20099728 -2.2113078 -0.62981695 -0.6232286 0.23368111 -0.48422357 -0.061691664 -0.37551433
0.15656494 -5.9719286 -0.14793694 -0.06900075 0.44886568 0.14100741 0.39039403 -0.6997232
-1.1498678 -0.92429906 0.17226985 -0.44492018 0.38677132 0.3243715 -0.06787616 1.1393112
-0.23321179 -1.3383723 0.23062474 -1.1518064 0.74134576 -0.100788325 0.83257407 0.24244212
-0.2800386 -4.428286 0.0821233 -0.16584502 -0.25403437 -0.08154565 0.3976467 0.43816087
-0.86048657 -5.3515434 -0.74725163 -0.29797363 -0.5687841 -0.15583546 0.030518344 -0.187461
0.30497864 -3.9250758 -0.005563252 -0.14794949 -0.301691 0.56730646 -0.2055236 -0.15116917
0.052904997 -0.002579701 0.019276474 -0.029532792 1.6612549 -0.17620336 -0.4795941 -0.017968053
-0.17188707 -4.328056 0.0907884 -0.7155012 -0.54071313 0.7100344 0.43423718 -0.4255638
-1.14337 -2.7173808 -0.7138076 0.1762079 0.59415257 0.018217642 0.6821519 0.4296265
0.48117736 -0.29065073 0.112560965 -1.7426667 0.342272 -0.23509437 0.17441137 0.053815193
-0.54437 -2.4437494 -0.1931067 -0.750646 0.7165172 -0.49494073 -0.686279 -0.51381594
-0.3547095 -0.43730038 -0.12476844 0.7140038 1.0905786 0.16505557 0.015108652 -0.6474089
00000000: d71e 2f3e fe05 9abf e723 683c 5799 8abf
00000010: bf8c 413e 3741 893e 25b0 ad3e 494c 3f3f
00000020: 31f3 5abf 1e21 3dc0 4869 f43e 6ee9 8fbf
00000030: 72ee da3e 0362 8fbe 8457 fa3e f5c1 b63c
00000040: 7999 51be 3fec b73e 590e 3fbf 7f6f 933e
00000050: 7795 e13e ee9d 223f ef42 943f 93d9 42bd
00000060: d439 9dbf 50d6 60c0 cd9f c93e 6b5a f2be
00000070: 527a 433e 6958 0dbf 9208 66be 4939 7e3f
00000080: 1bf1 c6be 9be7 22c0 b39d 5f3e aabb 29bf
00000090: 50b7 11bf ad46 b33d 5a6c 873e 3279 1fbd
000000a0: 419a 0cbf 3d43 4bc0 4a71 3f3d 0007 99bf
000000b0: 964e 183e 748e 07be 2224 fd3e e4f1 aa3e
000000c0: 9158 a53e 0336 02bf 9623 2fbf a95e cd3f
000000d0: bdbc 473e 33ad 553e 8947 e23d d9a1 c93e
000000e0: 9711 5abf e341 2cc0 fce2 71be 9b37 78be
000000f0: 376a b8bd 294c f03e 8ff5 6e3f 06e5 85bd
00000100: 0cfa 213e d62e 5d3b e32c dfbd daca c53d
00000110: d017 c83f 07c6 bb3e 790a e9be 41a2 693e
00000120: 1ac2 dabf f7b5 0f41 b5a4 c43d 384c d7bd
00000130: 11df aa3e cfae 833d 1e17 fa3d 7ec6 96be
00000140: 10f1 603f abe6 363d 53db c13f 4529 98bf
00000150: b95f 593e 696e eb3d 716b 173f 8932 13bf
00000160: 1eab 71bf 7e33 19bd 5b8d cd3f dc7c f23e
00000170: 7efa 573f 32a4 133f 428f c6bd 0dec 5fbe
00000180: 8be9 a9bd 3740 14bd 69eb 3bc0 3c31 d2be
00000190: ec40 973e 5445 4bbe fdc1 c4bf 7d2f 50bf
000001a0: 6b07 0ec0 be29 c7c0 c143 ff3e 286a b4be
000001b0: 9bfb 673d b70c 833d 9faa c8bd 90ac fe3d
000001c0: b090 013e 0155 b63e e347 68bf 0d18 a5bf
000001d0: 6a9d 42bf 51eb 013f e202 febe dda9 b73e
000001e0: c463 313e ef53 1a3d 478a a3bc 176b 30be
000001f0: fe44 43bf 7f3e 47bf e14e 12bd d67f 6b3e
00000200: f420 ed3c a735 32c0 ec56 e2be cffb 03bf
00000210: aeac e7be 6fa6 90be 66b3 393f b760 c8be
00000220: 9eed 3dbb af5c 423d b7e0 063d c79e fbbd
00000230: 4cbf 9f3f db7d 173e 56be 703f c0f9 7bbf
00000240: b236 d0bd 6a65 173f 1fde b93f 080b 353f
00000250: b7db f5be 9d23 11be 4468 61be aaea 0d3f
00000260: 3bd2 4d3e 1186 0dc0 af3b 21bf e98b 1fbf
00000270: 1a4a 6f3e 27ec f7be 66b0 7cbd 6a43 c0be
00000280: 8f52 203e 0a1a bfc0 c87c 17be 4450 8dbd
00000290: b9d1 e53e 3f64 103e bae1 c73e 0f21 33bf
000002a0: de2e 93bf dd9e 6cbf 8267 303e 94cc e3be
000002b0: e406 c63e 0514 a63e a802 8bbd f3d4 913f
000002c0: 12cf 6ebe c94f abbf e428 6c3e 646e 93bf
000002d0: d6c8 3d3f 1c6a cebd 9323 553f bf42 783e
000002e0: 3861 8fbe 85b4 8dc0 4330 a83d 47d3 29be
000002f0: cb10 82be 6801 a7bd 5998 cb3e 9f56 e03e
00000300: d948 5cbf d83f abc0 e24b 3fbf 0090 98be
00000310: d69b 11bf 5593 1fbe 9b01 fa3c c7f5 3fbe
00000320: 2926 9c3e 7134 7bc0 f14b b6bb 1280 17be
00000330: 3e77 9abe ff3a 113f c774 52be 17cc 1abe
00000340: e9b2 583d 3310 29bb b2e9 9d3c c1ee f1bc
00000350: 00a4 d43f a76e 34be 5c8d f5be bd31 93bc
00000360: 2a03 30be 6f7f 8ac0 45ef b93d 162b 37bf
00000370: 2d6c 0abf d0c4 353f 5654 de3e 80e3 d9be
00000380: f359 92bf 91e9 2dc0 18bc 36bf d86f 343e
00000390: 621a 183f 2a3d 953c 82a1 2e3f 01f8 db3e
000003a0: e15c f63e 2cd0 94be 5d86 e63d b40f dfbf
000003b0: 473e af3e 94bc 70be e598 323e 526d 5c3d
000003c0: d55b 0bbf 6466 1cc0 c3bd 45be 562a 40bf
000003d0: ac6d 373f df68 fdbe fbaf 2fbf 7189 03bf
000003e0: 7c9c b5be d6e5 dfbe 9986 ffbd f4c8 363f
000003f0: 1498 8b3f 5404 293e 488a 773c 97bc 25bf

fc1.bias f4 [32]
-0.7784167 -0.47945848 -1.1565593 -0.7707025 -1.0206656 -0.43264154 1.1470443 0.112963155
-0.036827218 0.79232174 0.04177415 -0.12584956 0.19934751 0.6125494 -0.19958779 -0.096000716
-0.25350463 -0.072712906 0.24999514 -1.0863287 0.2052362 -0.5551873 -0.51932144 -0.45343524
-0.43478885 -1.3182759 -0.016011368 -0.76280725 -0.4560255 0.6857574 -0.69712275 -0.8528565
00000000: 5146 47bf 957b f5be 230a 94bf c24c 45bf
00000010: 2ca5 82bf 3183 ddbe 59d2 923f 3a59 e73d
00000020: 23d8 16bd 99d5 4a3f 5f1b 2b3d b5de 00be
00000030: c121 4c3e 0ad0 1c3f be60 4cbe 069c c4bd
00000040: 5ccb 81be 81ea 94bd bafe 7f3e d20c 8bbf
00000050: 7029 523e c120 0ebf 40f2 04bf aa28 e8be
00000060: a59c debe 44bd a8bf 462a 83bc 5647 43bf
00000070: 2d7c e9be cc8d 2f3f a376 32bf ce54 5abf

fc2.weight f4 [64, 32]
0.55955595 0.73632634 -1.2158713 0.37591207 0.68899494 0.44204512 -0.021693876 -0.30075774
0.17070648 0.09529015 -0.18817943 -0.4326208 -1.5324668 0.58741325 0.3284722 -0.5530513
0.7071874 -0.43965313 -0.3992524 0.27896956 -0.31026074 0.4653555 0.39585555 0.26458943
1.1568484 1.2093133 0.37122226 -0.11036997 -0.4739926 0.48877278 -0.21113686 -1.0801628
0.42909402 -0.3185979 0.90359634 -0.6064546 0.80503166 -0.34646255 -1.8752244 0.075054236
0.56790876 -2.3172853 -1.176502 1.2779714 0.10815576 1.1988635 -0.9600914 0.42208588
0.7616114 0.6554273 0.6826144 0.825383 -0.39531967 0.55195105 0.764304 -0.14926632
0.38269675 0.2524633 -0.01698019 0.20467716 -0.29757464 -0.44700775 0.71093386 1.7285775
0.5124189 0.2694326 -1.232401 -0.1802641 0.74492556 0.18985607 -2.7479756 0.5269452
0.1226489 -3.9042585 -0.9173434 0.74710685 -0.37606716 1.8494405 0.24192815 -0.0598093
0.34906375 -0.46341246 0.08730953 0.40856704 -1.5481578 0.4843069 0.6893472 -0.1726695
0.6138175 0.6222013 0.0847999 1.1370746 -1.2785292 0.23933741 1.0899262 0.36558327
0.6171826 0.3222534 0.3366663 0.6388401 0.9229002 0.7060501 -0.7963317 0.14422958
0.84929115 -2.0513725 -0.6719178 0.42069796 -0.446955 0.76662236 -0.37190726 0.30944645
0.19874412 0.49981847 0.38903594 -0.2833039 0.4524513 -0.38288444 0.49157107 0.8565714
1.2491239 0.98900837 -0.37029085 -0.015281188 0.38808405 -0.16616657 -0.58499587 0.79823095
-0.07974968 -0.09620105 -0.002387797 0.0725353 0.009464686 -0.16907069 -0.100120425 0.03997209
0.03662064 -0.21924724 -0.0951644 -0.18015897 -0.1337661 0.035682287 -0.16944373 -0.022761686
0.15004419 -0.08997576 -0.20013501 -0.09423922 0.012509258 -0.19336535 0.003923919 -0.19316904
-0.18138473 -0.17176695 -0.06762717 0.07024122 -0.18796293 0.049568374 -0.089023024 0.020010278
0.044543482 0.5385017 0.5400895 1.1490575 -0.56974614 0.89689827 -0.72902876 -0.04743553
-1.0631695 0.013757102 0.47495645 -0.06159338 0.78900224 -2.169121 0.75696796 0.0102419695
0.38444233 -0.21230114 -0.03662007 0.4153845 -0.16431396 -0.94484204 0.27505383 0.48662737
0.0634876 -0.47709867 1.5600251 0.4482373 -1.4741234 0.27578312 0.10352131 0.69936705
0.37200007 -0.116806 0.107985124 -0.5693031 -0.68563575 0.29096177 -0.1776212 0.7808479
0.06663176 0.008670782 0.19056302 0.7559941 -0.03742228 0.8053364 -0.07800893 0.46350145
0.8514737 -0.7295416 0.14513595 0.14948922 0.035173416 0.85462064 0.46427345 -0.41048568
-0.56383985 0.39460713 -0.05760348 0.49433193 -0.23890764 -0.19798733 0.43385762 -0.28520626
0.7263505 0.42525604 -0.34530687 0.7820207 1.1083863 0.34318882 -0.9175987 -0.64107966
0.86145145 -0.09698365 0.14850964 0.32467112 -3.1753843 -0.46762696 0.38827378 0.7548313
-0.018296259 0.7315848 1.2900697 0.7955091 -1.364194 -0.8999359 0.40650275 0.7543889
0.92175317 -0.24714264 -1.5723342 -0.40458316 0.003977688 0.83518016 0.4174288 -0.10249149
00000000: 0f3f 0f3f e27f 3c3f aca1 9bbf 8c77 c03e
00000010: f961 303f bd53 e23e 5bb7 b1bc ebfc 99be
00000020: aecd 2e3e 7b27 c33d 1cb2 40be 7980 ddbe
00000030: df27 c4bf b760 163f 822d a83e c594 0dbf
00000040: 3c0a 353f 371a e1be d06a ccbe 19d5 8e3e
00000050: 7fda 9ebe 1343 ee3e 94ad ca3e 4478 873e
00000060: 9c13 943f c7ca 9a3f d810 be3e a709 e2bd
00000070: 28af f2be 6d40 fa3e 4334 58be c642 8abf
00000080: 36b2 db3e 441f a3be 1752 673f 9c40 1bbf
00000090: 8e16 4e3f 8a63 b1be 5a07 f0bf 09b6 993d
000000a0: 7862 113f 674e 14c0 9e97 96bf 9194 a33f
000000b0: c480 dd3d 5c74 993f 8dc8 75bf a41b d83e
000000c0: f7f8 423f 15ca 273f d1bf 2e3f 4d4c 533f
000000d0: 5767 cabe aa4c 0d3f 6da9 433f 45d9 18be
000000e0: d4f0 c33e df42 813e 0a1a 8bbc e496 513e
000000f0: b45b 98be 33de e4be c3ff 353f 0742 dd3f
00000100: e32d 033f 12f3 893e 51bf 9dbf 2797 38be
00000110: 71b3 3e3f a169 423e d5de 2fc0 e1e5 063f
00000120: 592f fb3d 5fdf 79c0 04d7 6abf 6542 3f3f
00000130: e08b c0be 77ba ec3f 03bc 773e 99fa 74bd
00000140: 7cb8 b23e 6644 edbe 57cf b23d b32f d13e
00000150: 092a c6bf 13f7 f73e 0f79 303f 46d0 30be
00000160: 2523 1d3f 9648 1f3f 92ab ad3d a98b 913f
00000170: d8a6 a3bf de14 753e b482 8b3f bb2d bb3e
00000180: aeff 1d3f 66fe a43e 865f ac3e 068b 233f
00000190: 3043 6c3f b3bf 343f 65dc 4bbf ebb0 133e
000001a0: 256b 593f b049 03c0 ce02 2cbf b965 d73e
000001b0: 49d7 e4be 5d41 443f a16a bebe c46f 9e3e
000001c0: 9483 4b3e 35e8 ff3e b82f c73e 350d 91be
000001d0: b2a7 e73e 6e09 c4be 34af fb3e 4348 5b3f
000001e0: 4be3 9f3f a72f 7d3f c396 bdbe f35d 7abc
000001f0: f4b2 c63e 9227 2abe 4ac2 15bf dd58 4c3f
00000200: cd53 a3bd 0e05 c5bd 967c 1cbb 638d 943d
00000210: c511 1b3c de20 2dbe f00b cdbd c6b9 233d
00000220: 86ff 153d 5982 60be 8ee5 c2bd 987b 38be
00000230: fbf9 08be 9727 123d a882 2dbe b776 babc
00000240: 2fa5 193e 3645 b8bd 31f0 4cbe 7e00 c1bd
00000250: a2f3 4c3c 9101 46be 3894 803b 1bce 45be
00000260: ebbc 39be ade3 2fbe 1d80 8abd a1da 8f3d
00000270: 5b79 40be 3508 4b3d b451 b6bd 98ec a33c
00000280: 3a73 363d 3fdb 093f 4e43 0a3f 5114 933f
00000290: e2da 11bf 209b 653f a1a1 3abf c24b 42bd
000002a0: f015 88bf 7865 613c 7e2d f33e 5749 7cbd
000002b0: 0dfc 493f e1d2 0ac0 a7c8 413f efcd 273c
000002c0: a0d5 c43e 7865 59be edfe 15bd 47ad d43e
000002d0: eb41 28be 2be1 71bf dbd3 8c3e 3927 f93e
000002e0: c905 823d 4746 f4be e7ae c73f 5c7f e53e
000002f0: 13b0 bcbf 7233 8d3e fb02 d43d b809 333f
00000300: cb76 be3e fc37 efbd 4e27 dd3d d9bd 11bf
00000310: d385 2fbf f1f8 943e 55e2 35be a6e5 473f
00000320: 3b76 883d e50f 0e3c f422 433e d488 413f
00000330: 1b48 19bd 872a 4e3f 25c3 9fbd 1050 ed3e
00000340: 2efa 593f 3dc3 3abf 859e 143e b413 193e
00000350: 0012 103d 6bc8 5a3f 40b5 ed3e 2e2b d2be
00000360: cf57 10bf f209 ca3e a0f1 6bbd 1319 fd3e
00000370: 34a4 74be 31bd 4abe 9622 de3e 8e06 92be
00000380: 1bf2 393f 29bb d93e 10cc b0be 8232 483f
00000390: 9adf 8d3f 72b6 af3e c0e7 6abf cc1d 24bf
000003a0: 1588 5c3f 5d9f c6bd e912 183e 4b3b a63e
000003b0: 7f39 4bc0 cd6c efbe d2cb c63e a03c 413f
000003c0: 09e2 95bc 2449 3b3f 0121 a53f 7ca6 4b3f
000003d0: e99d aebf 3362 66bf 2121 d03e a21f 413f
000003e0: 04f8 6b3f f612 7dbe 3f42 c9bf 8625 cfbe
000003f0: 4457 823b 5ece 553f 3ab9 d53e 0fe7 d1bd

fc2.bias f4 [64]
0.3130376 -0.5926025 0.06282575 -0.3929439 -0.06961708 -0.48156407 0.38017815 -0.09784885
0.19634157 0.18100908 -0.13871056 0.20036437 0.09905075 -0.72036624 -0.014360639 -0.026218474
-0.34804454 -1.0541272 0.022320038 -0.057390112 -0.21661943 -0.37399217 -0.054597303 0.1502825
-0.98819125 -0.93962353 -1.3555493 0.30407447 -0.04148673 -0.17746314 -0.9089611 -0.2952242
0.01783191 -0.5341461 -0.0021530383 -0.11624369 0.86020166 0.6612728 -0.13371868 -0.013832383
-0.04512266 -0.10199738 0.31401622 -0.14593928 0.6445419 -0.032998983 -0.37037605 -0.23022278
0.14165786 -0.1195444 0.023300283 -0.4038416 0.1289405 0.0212807 0.028870553 0.11045179
-0.3481116 0.90567595 -0.4759723 -0.27775022 0.02306165 -0.04630518 0.015054235 -0.9119625
00000000: 7746 a03e ccb4 17bf c9aa 803d f12f c9be
00000010: 6693 8ebd 918f f6be b6a6 c23e fa64 c8bd
00000020: c40d 493e 725a 393e 240a 0ebe 512c 4d3e
00000030: 1fdb ca3d ec69 38bf e348 6bbc 20c8 d6bc
00000040: e532 b2be a4ed 86bf 83d8 b63c e511 6bbd
00000050: 7cd1 5dbe e77b bfbe 6ca1 5fbd a8e3 193e
00000060: 1afa 7cbf 2b8b 70bf a482 adbf a6af 9b3e
00000070: fded 29bd e6b8 35be adb1 68bf a027 97be
00000080: 3a14 923c ccbd 08bf fd19 0dbb 2c11 eebd
00000090: 2d36 5c3f 2d49 293f 8ded 08be 38a1 62bc
000000a0: 8ad2 38bd 01e4 d0bd bcc6 a03e 1b71 15be
000000b0: b300 253f f129 07bd eea1 bdbe 85bf 6bbe
000000c0: c20e 113e b2d3 f4bd 3ce0 be3c 54c4 cebe
000000d0: fa08 043e dd54 ae3c f081 ec3c 8c34 e23d
000000e0: af3b b2be 61da 673f a4b2 f3be 4735 8ebe
000000f0: c9eb bc3c 80aa 3dbd 0aa6 763c 6076 69bf

fc3.weight f4 [4, 64]
0.14425354 -1.6495746 -1.6887465 0.7743012 -0.023370452 1.5344129 -0.47025275 -1.0018936
-1.7940335 -1.3132495 1.0665357 -0.44983748 -0.72105867 -0.90330344 -0.3751482 -0.119336575
-1.4756193 -1.3789713 -1.7105166 -0.97486395 -0.5817912 -1.0982087 -0.88909084 -1.0867269
-1.847197 2.5637834 -1.0956368 -0.38699004 -0.70324445 -0.48284656 -2.4259958 2.0082028
-1.305215 -1.6505069 -2.0035074 0.08175559 1.1971009 0.4573236 -0.027593192 0.52830744
-0.8347398 0.3315803 -0.71340585 0.16720444 -0.6363403 0.06303856 -0.9306623 -0.83860064
-0.6661443 -0.9990635 -1.7079052 -0.61092764 -1.6830155 -1.9684173 1.1179286 -0.8959457
2.2889123 -0.3198377 0.9884269 0.029370539 0.43983966 -1.2666255 1.4089061 -2.3958092
1.0831892 -1.4262315 -2.9089117 0.5791967 -0.0302291 0.69040513 -0.08558622 -0.5945875
-2.1267838 -2.128426 1.8454921 -1.3732426 0.004501337 -1.260414 -1.048633 0.007225767
-0.57378274 -0.5396953 -0.15270452 -2.4943986 -1.1961759 -0.8612221 -1.309546 -0.27281246
-1.6351882 1.1607529 0.14360201 2.0365362 -0.6595121 -0.92041636 -1.7449661 2.0894356
-0.66984975 -0.2955402 -2.2410657 0.03350354 0.10104019 0.4662794 -0.07822203 1.9106333
-1.3966241 0.37364772 -1.7768153 1.0885069 -0.42136613 0.016253373 -1.2383753 -1.231637
0.1796684 -2.1976178 -2.696244 -1.402906 1.8549399 -1.2162533 2.303731 -0.8572653
0.5606836 -0.071597524 -0.8089121 -0.05187688 -0.055484843 -1.2922843 1.7276827 -1.8055544
0.31550005 -2.1902606 -1.3498672 -1.2494894 -0.018491372 0.96224535 0.4639627 -1.6234089
-1.2606415 -1.2750955 -2.8277044 -1.7377881 -1.5054128 -1.2650502 -0.7350986 -0.034705628
-0.8943659 -2.320127 -0.2639404 -1.3676436 -0.8846952 -0.5453384 -1.2123158 -0.56805354
-2.274587 0.63946533 -1.2330925 2.2737617 -1.1069472 -1.7284501 -1.6087871 1.8630303
-1.3821462 -1.3286593 -0.42794874 -0.058234446 1.5893855 1.6771091 -0.05318382 -1.1347755
-0.6071674 -0.94004947 -1.58389 -1.4714632 0.17990963 0.09429241 -1.4817802 -1.1368589
-1.4341948 -1.3464259 -0.95914763 -1.920645 -0.4151098 -0.07103332 1.972793 -0.6878742
-1.4046817 0.8034264 -0.37229142 0.0260355 -1.986984 -0.5459387 0.03697684 -2.1277258
-0.9301416 -2.3530328 -1.4714051 -0.7935479 0.1139766 2.3596961 -0.041834574 -0.6219303
-0.57303363 -0.6962929 -0.039029263 -0.9753772 -0.45069468 0.097448796 -0.25994897 -0.095350936
-0.22993301 -1.110205 -0.99053276 -0.68248695 -1.7767041 -0.21498488 -2.4721782 -1.1341505
-2.161422 1.348131 1.6232506 1.4119004 -0.45889547 -1.7970014 -2.1197867 0.80049664
-0.73416406 -1.3831321 0.40610722 -0.13585807 0.7221071 0.45503858 -0.015479526 0.44694358
-2.3534584 0.82900345 -1.4470552 0.3248736 -0.4169705 0.026642352 -1.7693822 -2.2851982
-0.80790985 -0.6763627 -0.75565135 -2.134666 0.06995783 0.54898965 0.76160926 -0.8694791
-1.6221112 -0.18942222 1.7238653 0.059587196 0.70998377 -1.4239517 -0.5200485 -1.9039408
00000000: 33b7 133e 4325 d3bf d828 d8bf 9a38 463f
00000010: 6473 bfbc a467 c43f f8c4 f0be 0d3e 80bf
00000020: e4a2 e5bf 8f18 a8bf 3e84 883f 1951 e6be
00000030: 4d97 38bf e53e 67bf 6d13 c0be bc66 f4bd
00000040: 18e1 bcbf 2282 b0bf 35f2 dabf af90 79bf
00000050: 45f0 14bf 1a92 8cbf 759b 63bf de19 8bbf
00000060: f470 ecbf 0715 2440 d43d 8cbf 8f23 c6be
00000070: d407 34bf aa37 f7be 8443 1bc0 6586 0040
00000080: 4911 a7bf cf43 d3bf 7739 00c0 7a6f a73d
00000090: 9a3a 993f 5226 ea3e 1e0b e2bc 283f 073f
000000a0: 82b1 55bf e5c4 a93e c4a1 36bf a437 2b3e
000000b0: 33e7 22bf 5c1a 813d e23f 6ebf 88ae 56bf
000000c0: 6f88 2abf a0c2 7fbf a39c dabf c165 1cbf
000000d0: 0d6d d7bf 19f5 fbbf 4918 8f3f b35c 65bf
000000e0: 8a7d 1240 c4c1 a3be 8c09 7d3f 7c9a f03c
000000f0: aa32 e13e c920 a2bf 0957 b43f f054 19c0
00000100: f2a5 8a3f c18e b6bf 9c2b 3ac0 3c46 143f
00000110: 04a3 f7bc 64be 303f d447 afbd e336 18bf
00000120: 3a1d 08c0 2238 08c0 1639 ec3f 6ac6 afbf
00000130: f47f 933b 3f55 a1bf 9b39 86bf 20c6 ec3b
00000140: 6de3 12bf 7929 0abf 935e 1cbe 3aa4 1fc0
00000150: 4b1c 99bf 0d79 5cbf 349f a7bf 13ae 8bbe
00000160: d94d d1bf 8d93 943f 680c 133e 9c56 0240
00000170: c9d5 28bf 68a0 6bbf 0d5b dfbf 50b9 0540
00000180: 467b 2bbf 0c51 97be 9f6d 0fc0 023b 093d
00000190: 29ee ce3d 2cbc ee3e df32 a0bd a28f f43f
000001a0: 94c4 b2bf c14e bf3e af6e e3bf 3254 8b3f
000001b0: 4dbd d7be cb25 853c 1583 9ebf 48a6 9dbf
000001c0: fefa 373e c5a5 0cc0 438f 2cc0 6c92 b3bf
000001d0: ac6e ed3f 30ae 9bbf 5470 1340 bd75 5bbf
000001e0: f688 0f3f b9a1 92bd dd14 4fbf da7c 54bd
000001f0: 1344 63bd 9269 a5bf b524 dd3f 681c e7bf
00000200: 3989 a13e 3b2d 0cc0 73c8 acbf 45ef 9fbf
00000210: 387b 97bc b655 763f 858c ed3e ddcb cfbf
00000220: b35c a1bf 5436 a3bf 1cf9 34c0 d76f debf
00000230: 5eb1 c0bf 2aed a1bf 6c2f 3cbf 7d27 0ebd
00000240: 2af5 64bf f67c 14c0 3223 87be f20e afbf
00000250: 627b 62bf 4c9b 0bbf 2a2d 9bbf f56b 11bf
00000260: d592 11c0 00b4 233f fad5 9dbf 5085 1140
00000270: 72b0 8dbf da3d ddbf bcec cdbf c777 ee3f
00000280: 2bea b0bf 8211 aabf 191c dbbe 3e87 6ebd
00000290: fc70 cb3f 83ab d63f 47d7 59bd 5340 91bf
000002a0: 536f 1bbf 15a7 70bf e8bc cabf e858 bcbf
000002b0: 3b3a 383e 611c c13d f9aa bdbf 9884 91bf
000002c0: b293 b7bf af57 acbf b38a 75bf b2d7 f5bf
000002d0: 4689 d4be eb79 91bd 7b84 fc3f 8618 30bf
000002e0: 9ccc b3bf 5aad 4d3f fb9c bebe 6748 d53c
000002f0: 7e55 febf a3c2 0bbf 0775 173d a92c 08c0
00000300: c31d 6ebf 1798 16c0 0157 bcbf f525 4bbf
00000310: 906c e93d 4305 1740 bb5a 2bbd d336 1fbf
00000320: 55b2 12bf 4040 32bf 26dd 1fbd 52b2 79bf
00000330: 74c1 e6be 3c93 c73d 0818 85be 5a47 c3bd
00000340: 8f73 6bbe 331b 8ebf 8e93 7dbf 77b7 2ebf
00000350: 0a6b e3bf ff24 5cbe 2b38 1ec0 d82b 91bf
00000360: bd54 0ac0 8e8f ac3f adc6 cf3f 27b9 b43f
00000370: 59f4 eabe 2404 e6bf 96aa 07c0 59ed 4c3f
00000380: 2df2 3bbf 790a b1bf 49ed cf3e 611e 0bbe
00000390: 03dc 383f d1fa e83e d69d 7dbc cad5 e43e
000003a0: 109f 16c0 9239 543f 1b39 b9bf d555 a63e
000003b0: 287d d5be 1041 da3c 1e7b e2bf b040 12c0
000003c0: 2ed3 4ebf 1b26 2dbf 5e72 41bf 5e9e 08c0
000003d0: 0d46 8f3d 968a 0c3f d3f8 423f 2f96 5ebf
000003e0: 57a1 cfbf e6f7 41be 9ea7 dc3f b411 743d
000003f0: 7fc1 353f 0d44 b6bf e621 05bf 55b4 f3bf

fc3.bias f4 [4]
0.24181558 -0.3480553 0.946193 -0.6570137
00000000: 819e 773e 4e34 b2be b439 723f 0d32 28bf
