weights2000/g0.5_lr1e-05_decay_0.99999999.pth (torch, 12865 bytes, 6 tensors)

fc1.weight f4 [32, 8]
0	0x3c80aae5	0.015706489
1	0x3ecc736d	0.39931813
2	0xbe638bb9	-0.22221269
3	0xbf210db3	-0.6291153
4	0x3e023ab7	0.1271771
5	0x3ed30ca7	0.4122059
6	0x3e89e89f	0.26935288
7	0x3f4b104e	0.79321754
8	0x3ee45970	0.44599485
9	0xbfad5403	-1.3541263
10	0x3dc5a585	0.09650711
11	0xbf15db6d	-0.5853794
12	0xbf67c773	-0.9053871
13	0xbf20aa08	-0.6275945
14	0x3de665d4	0.11249891
15	0x3e90e77d	0.28301612
16	0x3dcc4d06	0.099756286
17	0x3eea9335	0.45815435
18	0xbec05a69	-0.37568977
19	0xbef4a51e	-0.47782224
20	0x3f231453	0.6370289
21	0x3f0ed9da	0.55801165
22	0x3f18b776	0.5965494
23	0x3f4d3205	0.8015445
24	0x3d0c3e93	0.034239363
25	0xbf2bef13	-0.67161673
26	0x3e66d20b	0.22541063
27	0xbe56ae6c	-0.20964974
28	0xbe7c9ed6	-0.24669966
29	0xbf97854f	-1.1837558
30	0xbe927c8f	-0.28610656
31	0x3f87b152	1.0600989
32	0xbe0e2fad	-0.13885374
33	0xc0111826	-2.267099
34	0xbc3b2a2c	-0.011423629
35	0xbf0ba382	-0.5454637
36	0xbe2bdb40	-0.16782856
37	0x3eb9e8cf	0.3631043
38	0x3ec5ff20	0.38671207
39	0x3f1027d1	0.56310755
40	0x3dba8943	0.09108212
41	0xbf968e16	-1.1762111
42	0x3d92e184	0.0717192
43	0xbf02d9ed	-0.5111378
44	0xbf1b46f1	-0.60655123
45	0xbf5a3620	-0.8523884
46	0x3f315784	0.69274163
47	0x3e90de13	0.2829443
48	0xbee0eee7	-0.43932268
49	0x3e0414f2	0.12898615
50	0xbc9cce4c	-0.019141339
51	0x3e2600b6	0.16211209
52	0x3f0b7b78	0.54485273
53	0x3f883959	1.0642501
54	0x3f7a6040	0.97803116
55	0xbf122610	-0.5708933
56	0x3db66a58	0.08907002
57	0xbf9a795a	-1.2068284
58	0xbe21260d	-0.15737171
59	0xbecbc650	-0.39799738
60	0x3e3dc06e	0.18530437
61	0x3e91fab9	0.285116
62	0x3d9b1e9d	0.075741984
63	0x3eb20559	0.34769705
64	0xbc91c90c	-0.017796062
65	0xbe161975	-0.14658149
66	0xbe9a793e	-0.30170625
67	0xbe0b7f8a	-0.13622871
68	0x3e577000	0.21038818
69	0x3fd3225d	1.6494862
70	0x3f056f9f	0.52123445
71	0xbf5af43c	-0.8552892
72	0x3e31d081	0.17364694
73	0x3f2b9d24	0.6703665
74	0x3f54719a	0.8298584
75	0x3f12b414	0.5730603
76	0xbf058cb5	-0.52167827
77	0xbfcb61fc	-1.5889277
78	0x3e5a8cab	0.21342723
79	0xbe196e24	-0.14983422
80	0xbe78ed77	-0.24309336
81	0xbf41c243	-0.75687045
82	0x3d1711f9	0.036882374
83	0xbf522c8d	-0.8209923
84	0x3e26c11e	0.16284606
85	0xbcab2b94	-0.020894803
86	0x3f007b68	0.50188303
87	0x3dfc9006	0.12332158
88	0x3e1edfeb	0.15515105
89	0x3f032dd8	0.51241827
90	0xbe3a2658	-0.1817869
91	0xbe70e072	-0.23523119
92	0xbcecaf94	-0.028892316
93	0x3fbc025a	1.4688218
94	0xbfa99397	-1.3248166
95	0xbed637e4	-0.41839516
96	0x3d4a78df	0.049431678
97	0x3eaff418	0.34365916
98	0xbf1d1416	-0.61358774
99	0xbf5cbd38	-0.86226225
100	0x3f52c315	0.8232892
101	0x3f30e5d5	0.69100696
102	0xbe8c93e5	-0.27456585
103	0xbe25adea	-0.16179624
104	0xbf20505f	-0.62622637
105	0xbfb4c6bb	-1.4123148
106	0xbe62fd59	-0.22166957
107	0xbec5358f	-0.38517424
108	0x3dfd9374	0.1238164
109	0x3e10f0fc	0.14154428
110	0x3eaa0324	0.3320552
111	0x3e88da69	0.26729134
112	0xbcfb6b9b	-0.030690959
113	0x3e52dd60	0.2059226
114	0x3db71a7e	0.089406
115	0xbf90fec7	-1.1327752
116	0xbd357d07	-0.04430869
117	0xbf04b98e	-0.51845634
118	0x3ed0140a	0.4064029
119	0xbf21eec5	-0.6325496
120	0x3f15ffbb	0.5859334
121	0x3eab377b	0.33440766
122	0xbd89d4cb	-0.0673004
123	0x3e807900	0.25092316
124	0xbf21e770	-0.6324377
125	0xbf7cba23	-0.9872152
126	0xbe11c564	-0.14235455
127	0xbf95b5a7	-1.1696061
128	0xbe4d59cd	-0.20053788
129	0xbf8dc4a3	-1.1075634
130	0xbe3569cb	-0.17716138
131	0xbe91dbec	-0.284881
132	0xbe85bd26	-0.2612087
133	0xbee789c8	-0.45222306
134	0x3f47e4f3	0.78083724
135	0x3e222904	0.15835959
136	0xbe7a4228	-0.24439299
137	0x3e45608a	0.19275108
138	0xbdc45889	-0.09587199
139	0x3e3c0e7d	0.18364902
140	0x3f2cadd9	0.6745277
141	0x3e805ec6	0.25072306
142	0x3f94e93e	1.163368
143	0xbe153a12	-0.14572933
144	0xbf40b42b	-0.75274915
145	0xc016c987	-2.3560503
146	0xbe88d9f0	-0.26728773
147	0xbdc0ab54	-0.09407678
148	0xbec83a2d	-0.39106885
149	0xbf14e3db	-0.5816018
150	0xbeb28be1	-0.34872344
151	0xbf05fab4	-0.5233567
152	0xbd26687f	-0.040627
153	0x3bc392e7	0.00596844
154	0xbd5c8f29	-0.053847466
155	0xbf8447b9	-1.0334388
156	0xbc086aac	-0.008326214
157	0x3e60f121	0.21966983
158	0xbcfe2401	-0.031023027
159	0xbf426aea	-0.7594439
160	0x3e632ec0	0.22185802
161	0xbf27e306	-0.65580785
162	0xbeddf0b9	-0.4334772
163	0x3eb0623f	0.34449956
164	0x3ecf80b6	0.40527886
165	0x3f080ea0	0.53147316
166	0x3e7e6893	0.2484458
167	0x3f28e6b9	0.65977055
168	0xbd9d62db	-0.07684871
169	0xbc13e8ad	-0.009027642
170	0x3ed7098a	0.41999465
171	0xbf08b050	-0.5339403
172	0x3eabf89f	0.3358812
173	0x3f021b2e	0.5082272
174	0x3e3f3a49	0.18674578
175	0x3eb08413	0.34475765
176	0x3f318bc7	0.6935391
177	0xbfbae6a7	-1.460164
178	0x3f0f04ef	0.55866903
179	0xbecc1c9f	-0.39865586
180	0xbea8b26e	-0.3294863
181	0xbe222311	-0.1583369
182	0x3f064f3b	0.52464646
183	0x3eefee26	0.4686138
184	0x3e85bcb4	0.26120532
185	0xc0268533	-2.6018798
186	0x3ca1e78d	0.019763732
187	0xbeb16e4c	-0.34654462
188	0xbef001e1	-0.46876433
189	0x3ef76ec5	0.48326698
190	0x3ee8bbed	0.45455876
191	0x3ed0ca13	0.4077917
192	0xbf1d7c22	-0.61517537
193	0xbfb96a5c	-1.4485583
194	0xbf117c9e	-0.56830776
195	0xbed0ec99	-0.4080551
196	0xbe8625f7	-0.2620084
197	0x3e96c9dc	0.2945088
198	0x3e852939	0.26008013
199	0x3e37454d	0.1789753
200	0x3ec71822	0.388856
201	0xbfa7291d	-1.3059422
202	0x3e01f7aa	0.12692133
203	0xbf13389f	-0.5750827
204	0x3dab97eb	0.083785854
205	0x3eb48cbf	0.3526363
206	0x3e6b93eb	0.23005645
207	0x3f487e1c	0.7831743
208	0x3f138b6e	0.5763463
209	0xbf136b82	-0.5758592
210	0x3e2efa33	0.17087631
211	0xbeccc133	-0.3999115
212	0x3da41026	0.080108926
213	0x3e4f4f52	0.20245102
214	0x3e015ba2	0.12632611
215	0x3f0c18b9	0.54725224
216	0xbf565525	-0.8372367
217	0xbfde2eeb	-1.7358068
218	0xbdb075e5	-0.086162366
219	0xbeecc587	-0.4624445
220	0x3e5d568c	0.21615046
221	0x3ec2d91a	0.3805626
222	0x3ea607db	0.32427868
223	0x3ea105ba	0.31449682
224	0xbf3dcd57	-0.7414145
225	0xbf0b1027	-0.5432152
226	0xbebcc9a1	-0.3687258
227	0x3d64c05b	0.055847507
228	0x3e998c43	0.29989824
229	0xbfc10f14	-1.5082726
230	0xbf3662f7	-0.7124476
231	0x3f47e573	0.78084487
232	0x3f0200ca	0.50782454
233	0xbf3335c4	-0.70003915
234	0x3eaef505	0.3417131
235	0xbe96541c	-0.29361045
236	0xbe43be23	-0.191155
237	0xbf604ed8	-0.87620306
238	0x3e14c0d1	0.14526679
239	0x3e856a71	0.2605777
240	0xbe8a1e8b	-0.26976427
241	0xbe9081b6	-0.28223962
242	0xbd892b7a	-0.066977456
243	0xbe97b387	-0.29629156
244	0x3a00b454	0.00049096835
245	0xbf087fc3	-0.5331995
246	0x3f6f144e	0.9339036
247	0x3d004e60	0.031324744
248	0xbe22976a	-0.15878072
249	0xbe46774c	-0.19381446
250	0xbf1aa877	-0.60413307
251	0x3f60418f	0.87600034
252	0x3ed5dc6e	0.41769737
253	0x3e8ce0eb	0.2751535
254	0x3f54d69e	0.8313998
255	0x3ed32263	0.41237172

fc1.bias f4 [32]
0	0xbef7edce	-0.48423618
1	0xbb7f6e68	-0.003897572
2	0xbf0d6f07	-0.5524754
3	0xbf2d536b	-0.6770541
4	0xbeccc4d4	-0.39993918
5	0xbe3da4df	-0.18519925
6	0xbc946a27	-0.018117024
7	0xbe921663	-0.28532705
8	0x3d28488e	0.04108482
9	0x3f258744	0.64659524
10	0xbf015118	-0.50514364
11	0x3f099424	0.5374167
12	0x3e07ce95	0.13262399
13	0xbe79d0a8	-0.24396002
14	0xbe2b3749	-0.16720308
15	0xbe8c3a20	-0.27388096
16	0xbeb3a11b	-0.3508385
17	0xbe7d84c8	-0.24757683
18	0x3ce44259	0.027863668
19	0xbe780eb5	-0.2422436
20	0x3ed15b5b	0.4089001
21	0xbeb740c0	-0.35791588
22	0xbec3afd1	-0.38220075
23	0xbd4c56b0	-0.04988736
24	0xbe222bad	-0.15836973
25	0xbef64d5e	-0.481059
26	0xbeba4fcc	-0.36389005
27	0xbe1320de	-0.14368007
28	0xbe88059b	-0.26566777
29	0x3eb6f628	0.35734677
30	0xbe7e1b63	-0.24815135
31	0x3f347a95	0.70499545

fc2.weight f4 [64, 32]
0	0x3db935b9	0.0904345
1	0xbd50ae76	-0.05094763
2	0xbd6a11ea	-0.05714599
3	0x3ed1c548	0.40970826
4	0x3e80ecd4	0.25180686
5	0xbe55014d	-0.20801277
6	0xbbd1e532	-0.006405496
7	0x3d76eeee	0.060286455
8	0x3f323f7f	0.6962814
9	0xbdbf1ffb	-0.09332272
10	0xbe1503ed	-0.14552279
11	0x3e8b1569	0.27164772
12	0x3e747669	0.23873295
13	0x3e7f7484	0.24946791
14	0x3e7cea8d	0.24698849
15	0x3ceaac97	0.02864675
16	0xbe915ea6	-0.28392524
17	0xbeb37109	-0.35047176
18	0xbf03d294	-0.5149319
19	0xbd6ccf62	-0.057814963
20	0x3b7e9d13	0.0038850948
21	0x3e62f375	0.22163184
22	0xbe033a06	-0.12815103
23	0x3e0569c1	0.13028623
24	0x3f03204d	0.5122116
25	0x3e81e958	0.2537334
26	0x3eb06e29	0.34459046
27	0x3e8ffe22	0.28123575
28	0x3e0cbde2	0.1374431
29	0x3da320fa	0.07965274
30	0xbe5e497f	-0.21707724
31	0xbf3080c9	-0.6894651
32	0x3eb08e09	0.34483364
33	0x3eae62dc	0.340598
34	0x3e613213	0.21991758
35	0x3f7648f7	0.96205086
36	0x3e943ebd	0.28954116
37	0x3f007c09	0.5018926
38	0x3f85222b	1.0401052
39	0x3d70906e	0.05873149
40	0x3f2d5c32	0.67718804
41	0xbfa32e2b	-1.2748464
42	0xbe066dc8	-0.13127816
43	0xbfcc12c0	-1.5943222
44	0x3e63401f	0.22192429
45	0x3e965f93	0.29369792
46	0xbeabb367	-0.3353531
47	0x3ecff966	0.40619963
48	0x3f227faa	0.6347605
49	0x3f7736cc	0.9656799
50	0x3dde67a1	0.108596094
51	0xbf6635c4	-0.8992579
52	0xbe78f44f	-0.24311946
53	0x3d001e8d	0.031279135
54	0x3f070264	0.5273802
55	0x3d0f0745	0.034919042
56	0xbd851446	-0.064980075
57	0x3f2e8a6f	0.6817998
58	0x3ef7dda7	0.48411295
59	0x3e07254c	0.13197821
60	0x3eb36f0f	0.35045668
61	0x3dc2da63	0.0951431
62	0x3e8d2a45	0.27571312
63	0xbd967a22	-0.07347514
64	0x3e67655a	0.22597256
65	0x3eb077bd	0.34466353
66	0x3e104597	0.14089046
67	0x3f3ff958	0.74989843
68	0x3f0b9bf0	0.54534817
69	0x3ea2cd07	0.31797048
70	0x3e141498	0.14460981
71	0x3e6686cf	0.22512363
72	0x3f524026	0.8212913
73	0xbc88cd16	-0.016699355
74	0xbdf6de30	-0.12054098
75	0xbd2f0251	-0.04272682
76	0x3eeb5c4b	0.4596885
77	0x3edb366e	0.42814964
78	0x3f0cc752	0.5499164
79	0x3eba1d01	0.36350253
80	0x3e35b4a7	0.17744695
81	0x3e114264	0.14185482
82	0xbdf56d62	-0.11983754
83	0xbdbe6a47	-0.092976145
84	0xbe78c9f9	-0.24295796
85	0xbdf48447	-0.119392924
86	0x3e6c22bc	0.23060125
87	0x3ec2019b	0.3789185
88	0x3f30dc05	0.69085723
89	0x3f4af27a	0.7927624
90	0x3f139e65	0.57663566
91	0x3f077d50	0.52925587
92	0x3edb539a	0.4283722
93	0x3df49875	0.11943141
94	0x3e963d72	0.29343754
95	0xbeece935	-0.46271673
96	0x3eca242b	0.3948072
97	0x3e445a7c	0.19175142
98	0x3e8dc95c	0.27692688
99	0x3e6ad0a2	0.2293115
100	0x3e057691	0.1303351
101	0x3e3783b3	0.17921333
102	0x3f3d8f96	0.7404722
103	0x3e2ca687	0.168604
104	0x3eeff0ce	0.46863407
105	0xbf2f5099	-0.6848236
106	0xbd27c6a7	-0.040960934
107	0xbdd23acb	-0.1026512
108	0x3f160a3d	0.5860937
109	0x3e72c157	0.23706566
110	0xbde00666	-0.109387204
111	0xbe1db3e7	-0.15400659
112	0x3e3b01d7	0.1826242
113	0x3e75f295	0.24018319
114	0xbe9f60b8	-0.31128478
115	0xbea3fa16	-0.32026738
116	0xbd5651f4	-0.05232425
117	0xbbae9372	-0.0053276354
118	0x3e8805d3	0.26566944
119	0x3e5b9c00	0.21446228
120	0x3dc01993	0.09379878
121	0x3f23ef2f	0.6403684
122	0x3e7cbe31	0.24681927
123	0x3e5da3c8	0.21644509
124	0x3ef1e4e1	0.47244933
125	0xbe1a393a	-0.15060893
126	0x3e1cc347	0.15308867
127	0xbd3219b4	-0.043481544
128	0x3eb845b9	0.35990694
129	0x3dc23cca	0.09484251
130	0x3e98dab8	0.2985437
131	0x3f2e4503	0.68074054
132	0xbc10eb44	-0.008845154
133	0xbcdf9b49	-0.027295725
134	0x3f2ca455	0.6743825
135	0x3df16513	0.117868565
136	0x3f5bbce1	0.8583508
137	0xbf84f976	-1.038863
138	0x3e473704	0.1945458
139	0xbfe6be0d	-1.8026749
140	0x3e4ad162	0.19806436
141	0x3dc46901	0.095903404
142	0x3dbc9019	0.09207172
143	0xbe93f6bc	-0.2889918
144	0x3de35f26	0.111021325
145	0xbe0546c0	-0.1301527
146	0xbf3d36a8	-0.73911524
147	0xbe4d243f	-0.20033358
148	0xbeaafbac	-0.33395135
149	0x3d622326	0.0552093
150	0x3e8f5bdb	0.27999768
151	0xbe54786f	-0.20749067
152	0xbecc2d1d	-0.3987817
153	0x3df21425	0.118202485
154	0x3eb5dba8	0.35519147
155	0x3db58e3e	0.08865021
156	0x3ef4be65	0.4780151
157	0x3e21b1cd	0.15790482
158	0x3dcbeb86	0.09957032
159	0xbf3c34f9	-0.7351833
160	0xbf421381	-0.7581101
161	0x3e8f1bbd	0.2795085
162	0xbf95ab61	-1.1692926
163	0x3f5f8f9b	0.873285
164	0x3de11fb7	0.10992377
165	0x3f58f34e	0.84746253
166	0xbf33f474	-0.7029488
167	0xbe81762a	-0.25285465
168	0xbfcc0964	-1.5940366
169	0x3e045679	0.12923612
170	0x3ebb6491	0.36600164
171	0xbfeff65d	-1.8747059
172	0xbfa00fe1	-1.2504846
173	0x3be8c541	0.0071035926
174	0x3ed89185	0.42298523
175	0xbe502073	-0.20324878
176	0x3f625efe	0.88426197
177	0xbeb66202	-0.3562165
178	0x3e2b7ec6	0.16747579
179	0x3e225a58	0.15854776
180	0x3e5cce56	0.21563086
181	0xbf63ad21	-0.8893605
182	0x3f015b6a	0.5053011
183	0x3e9250f6	0.28577393
184	0x3e7429cc	0.23844069
185	0xbf42f81e	-0.76159847
186	0x3e2b57dc	0.16732734
187	0xbed8641d	-0.4226388
188	0x3f176a2a	0.5914637
189	0x3edda19b	0.43287358
190	0x3f1ba64c	0.60800624
191	0x3f9a0a5a	1.2034409
192	0xbdae04ea	-0.08497031
193	0xbac0f0ac	-0.0014720163
194	0xbe49263f	-0.19643496
195	0x3f3364f7	0.70075935
196	0x3ed5cd2c	0.41758096
197	0x3e917d8c	0.28416097
198	0x3e88ad81	0.26694873
199	0x3e7cc7b2	0.24685553
200	0x3f5c5fc0	0.860836
201	0xbdc3634c	-0.09540424
202	0xbda2b21e	-0.079441294
203	0x3e58fb72	0.21189669
204	0x3ec1dbcc	0.37863004
205	0x3dac3cb8	0.08410019
206	0x3f11453d	0.56746274
207	0x3e98f101	0.2987137
208	0x3d845b14	0.06462684
209	0xbda17a6c	-0.07884678
210	0x3d8f1c9c	0.06987879
211	0x3db8efac	0.09030089
212	0xbe0d7cc1	-0.13817121
213	0x3d22a15a	0.039704658
214	0x3ec2918f	0.38001677
215	0x3eec649f	0.46170518
216	0x3f47fc07	0.7811894
217	0x3e536544	0.20644099
218	0x3e89450c	0.2681049
219	0x3ebe5e29	0.37181213
220	0x3e493c30	0.19651866
221	0x3e39e8c6	0.18155202
222	0x3d232566	0.039830588
223	0xbecbdd4e	-0.3981728
224	0x3ed4ad74	0.41538584
225	0x3e7deb4f	0.24796794
226	0x3efd4cfd	0.494728
227	0x3f810763	1.0080379
228	0x3e80dc26	0.2516796
229	0x3ddb7170	0.10714996
230	0x3f3d21d7	0.7387976
231	0x3cf4e2ba	0.029893268
232	0x3f8e5d56	1.1122234
233	0xbfb66b1e	-1.425144
234	0x3e92a6c4	0.28642857
235	0xbffa6021	-1.9560586
236	0x3dcd37a7	0.100203805
237	0x3cae4646	0.021273743
238	0x3e857062	0.26062304
239	0xbd51b76f	-0.051200327
240	0x3e4c2c95	0.19938882
241	0x3e4e9c7c	0.20176882
242	0xbe15b127	-0.1461836
243	0xbec82ea4	-0.39098084
244	0xbef5ee65	-0.48033443
245	0xbde15c7b	-0.110039674
246	0x3e5036db	0.20333426
247	0x3d2a74e7	0.041615393
248	0x3daeb6d4	0.085309654
249	0x3ef885b9	0.48539522
250	0x3f03309f	0.51246065
251	0x3e425efd	0.18981548
252	0x3f082e9b	0.53196114
253	0x3c1a5f72	0.00942217
254	0x3c8b1546	0.016977917
255	0xbf9bf1d0	-1.218317

fc2.bias f4 [64]
0	0x3e1fe010	0.15612817
1	0xbf40c95b	-0.75307244
2	0x3e121878	0.14267147
3	0xbe0d2e99	-0.13787307
4	0xbe7730b2	-0.2413967
5	0x3e804fe3	0.2506095
6	0x3e88380c	0.2660526
7	0xbf1bf12c	-0.60914874
8	0xbe1cb284	-0.15302473
9	0xbec7079c	-0.38872993
10	0xbda88955	-0.08229319
11	0xbf689d88	-0.90865374
12	0x3e6f83b2	0.23390082
13	0xbf729604	-0.94760156
14	0x3e1da3e2	0.15394548
15	0xbf23c90f	-0.63978666
16	0x3e8dbc08	0.2768252
17	0x3e4c363f	0.19942568
18	0xbf01e4cc	-0.5073974
19	0xbf3c484e	-0.7354783
20	0xbf005c8d	-0.5014122
21	0x3e8f9ab8	0.2804773
22	0xbebbfb6e	-0.36715263
23	0xbe3fbb0b	-0.18723695
24	0xbf4ac12e	-0.7920102
25	0xbc3990ac	-0.011325996
26	0x3e53223a	0.20618525
27	0xbd96c264	-0.07361296
28	0xbd2aa462	-0.041660674
29	0x3d6e824a	0.058229722
30	0xbf5cd7d4	-0.8626683
31	0x3df2d5c9	0.118571825
32	0x3ef5f0cf	0.48035285
33	0xbea2f0ee	-0.3182444
34	0xbececbe6	-0.40389937
35	0xbe146094	-0.14489967
36	0x3ed1f006	0.41003436
37	0xbe96c636	-0.29448098
38	0xbf47c088	-0.78028154
39	0x3db3e3d8	0.08783692
40	0xbd525cf2	-0.05135817
41	0xbf5d0451	-0.8633471
42	0xbe1cca2b	-0.15311496
43	0x3e74a7e6	0.23892173
44	0xbefb1d97	-0.49046013
45	0xbe11daf5	-0.14243682
46	0x3d06b156	0.032883964
47	0xbdf6e3fa	-0.12055202
48	0xbe326c88	-0.17424214
49	0xbf1bfbb1	-0.60930926
50	0xbf080b1d	-0.5314196
51	0xbf55cfb3	-0.8352005
52	0xbd7ef265	-0.062242884
53	0x3eadedcc	0.33970487
54	0x3f12610d	0.5717934
55	0xbf522ce6	-0.8209976
56	0xbe4b721d	-0.1986775
57	0x3ee9e78a	0.45684463
58	0xbeee308d	-0.46521416
59	0xbe7e3216	-0.24823794
60	0x3f42c579	0.7608257
61	0x3ea1fca8	0.31638074
62	0x3df0816d	0.11743436
63	0xbf4ae4b0	-0.792552

fc3.weight f4 [4, 64]
0	0xbeda0109	-0.42578915
1	0xbf445a5e	-0.7670039
2	0xbed36c5e	-0.41293615
3	0xbe4aebee	-0.19816563
4	0xbf6af909	-0.9178625
5	0x3f32ee25	0.6989463
6	0xbf13f1f0	-0.5779104
7	0xbf93f0f6	-1.155791
8	0xbd8a141d	-0.067421176
9	0xbee69349	-0.45034245
10	0xbf008666	-0.50205076
11	0xbf451770	-0.7698889
12	0x3f34b6de	0.70591533
13	0xbf8dbaec	-1.1072669
14	0xbe36d7ad	-0.17855711
15	0xbf9661fb	-1.1748651
16	0xbeb782f0	-0.35842085
17	0xbe88d3f9	-0.26724222
18	0xbed0216a	-0.40650493
19	0xbf87c9e9	-1.0608493
20	0xbf133bd5	-0.5751317
21	0xbf05a4ab	-0.5220439
22	0xbe80754a	-0.25089484
23	0xbf5c6ea5	-0.8610633
24	0xbf4ef5d1	-0.80843836
25	0xbcccb440	-0.024988294
26	0xbf8aece6	-1.0853546
27	0x3fef6811	1.8703634
28	0xbeefdcf0	-0.4684825
29	0xbd4d9aad	-0.05019634
30	0xbf6f9a67	-0.93594974
31	0xbf7a1a57	-0.9769644
32	0x3f5ab03a	0.8542515
33	0xbd828b1e	-0.06374191
34	0xbe5e5bdd	-0.2171473
35	0xbe43c00d	-0.1911623
36	0x3f4126df	0.7544994
37	0x3dd343ab	0.10315641
38	0xbf66885b	-0.9005181
39	0xbecfbb7a	-0.4057272
40	0xbbddaf2b	-0.0067652664
41	0xbf426840	-0.7594032
42	0xbf31723a	-0.6931492
43	0x3f6435fb	0.8914487
44	0xbf384229	-0.7197595
45	0x3f164020	0.58691597
46	0xbeab7bfe	-0.33493036
47	0x3b59ec9c	0.0033252602
48	0xbee0c3fe	-0.4389953
49	0xbf337c8d	-0.70111924
50	0xbf08d46f	-0.5344915
51	0xbf5c7b13	-0.86125296
52	0xbcb1d22d	-0.021706665
53	0xbec266a8	-0.37968946
54	0x3fad1f76	1.3525226
55	0xbf573eed	-0.8408039
56	0xbd523d78	-0.051328152
57	0xbf095b16	-0.5365461
58	0xbf14c613	-0.5811474
59	0xbbe3b9ce	-0.00694964
60	0x3fc752de	1.5572164
61	0xbea6045f	-0.3242521
62	0x3f874ffc	1.0571284
63	0xbf78f11d	-0.9724291
64	0xbdc898cb	-0.09794768
65	0xbf1df325	-0.61699134
66	0xbe9f5f5b	-0.31127438
67	0xbe943302	-0.28945166
68	0xbf9f7796	-1.245837
69	0x3f7643c6	0.96197164
70	0xbe882a5a	-0.26594812
71	0xbf919647	-1.1373986
72	0xbefe23c9	-0.49636677
73	0xbf19a99d	-0.60024434
74	0x3e1edba1	0.1551347
75	0xbf6e92af	-0.9319257
76	0x3f0a964d	0.5413559
77	0xbf8213f8	-1.0162344
78	0xbf0ae253	-0.54251593
79	0xbf3b9d45	-0.7328685
80	0xbf08d7cf	-0.534543
81	0xbeb21a2a	-0.34785587
82	0xbf0b5907	-0.5443272
83	0xbf1ddb22	-0.61662495
84	0xbf0f989f	-0.56092256
85	0xbf122c52	-0.5709888
86	0x3ecbaf37	0.39782116
87	0xbf727ff6	-0.947265
88	0xbf3480c2	-0.7050897
89	0xbb50b040	-0.0031843334
90	0xbf93ef19	-1.1557342
91	0x3fe3c1ee	1.7793558
92	0xbeb41872	-0.351749
93	0x3bbc4d50	0.005746521
94	0xbf89bb84	-1.076035
95	0x3fbc7eda	1.4726212
96	0x3f4f6dc2	0.8102685
97	0xbe8ee276	-0.2790715
98	0xbf0c6545	-0.54842025
99	0x3f943bd4	1.1580758
100	0x3ebe381c	0.37152183
101	0x3ddf9f25	0.10919026
102	0xbf593f2e	-0.8486203
103	0xbdab4f81	-0.083647735
104	0xbd07290b	-0.032998126
105	0xbf3752d8	-0.71610785
106	0xbe4e06f1	-0.20119835
107	0x3f94de70	1.1630383
108	0xbf5e4704	-0.8682711
109	0x3f40d3a7	0.75322956
110	0xbf0ffbf2	-0.56243813
111	0x3c8eb76d	0.017421449
112	0xbedc469d	-0.43022624
113	0x3f0a5272	0.5403205
114	0xbf1731c2	-0.590603
115	0xbf53effc	-0.8278806
116	0xbe452b44	-0.19254786
117	0xbef02e75	-0.46910444
118	0x3f9b9582	1.2155001
119	0xbf4ff3e0	-0.812315
120	0x3bbadf2e	0.0057028746
121	0xbe951208	-0.2911532
122	0xbfd30477	-1.6485738
123	0xbe04a422	-0.12953237
124	0x3f6eecaf	0.933299
125	0xbeff410d	-0.49854317
126	0x3f6f866d	0.9356449
127	0xbf3a1aba	-0.7269703
128	0xbd9104fe	-0.0708103
129	0xbf1588c8	-0.58411837
130	0xbdc8ae86	-0.09798913
131	0xbecc499b	-0.39899907
132	0xbf606bcc	-0.87664485
133	0x3f9d9956	1.231242
134	0x3e276ea9	0.16350807
135	0xbf551089	-0.83228356
136	0xbf07bd95	-0.53023654
137	0xbee769b2	-0.45197827
138	0xbf4f6379	-0.8101116
139	0xbf4afd5f	-0.79292864
140	0x3d6d0aae	0.057871513
141	0xbf3db08b	-0.7409751
142	0xbedc7138	-0.4305513
143	0xbf17ef20	-0.5934925
144	0xbede27d6	-0.43389767
145	0xbf78095c	-0.9688928
146	0xbef7916f	-0.48353145
147	0xbf2d958b	-0.6780631
148	0xbf3a0757	-0.7266745
149	0xbebaf329	-0.3651364
150	0xbedf8fbc	-0.43664348
151	0xbf2c2d4a	-0.67256606
152	0xbf373a50	-0.7157335
153	0x3bc276c0	0.0059345663
154	0x3b67acfc	0.003535091
155	0x400fd326	2.2472625
156	0xbf131200	-0.5744934
157	0xbfb29b1e	-1.3953588
158	0xbf4bfbff	-0.7968139
159	0x3f13ab72	0.5768348
160	0x3e6a6e8d	0.22893734
161	0xbedf6e8a	-0.43639022
162	0xbf0c36fc	-0.547714
163	0x3e65f7dd	0.22457834
164	0x3d682ead	0.05668514
165	0xbf10e1e4	-0.5659468
166	0xbf30fa0e	-0.69131553
167	0xbede3f0f	-0.43407485
168	0x3d134604	0.035955444
169	0xbf243e56	-0.6415762
170	0xbe9f007b	-0.31055054
171	0x3ed9802e	0.42480606
172	0xbf1fc2b9	-0.624065
173	0x3e97c904	0.2964555
174	0xbf387837	-0.72058433
175	0xbc90da18	-0.01768212
176	0xbf357057	-0.7087454
177	0xbe877227	-0.2645428
178	0xbef3be9e	-0.47606367
179	0xbf3c23d9	-0.734922
180	0xbf3bd28c	-0.73368144
181	0x3d778e15	0.060438234
182	0x3f3592a7	0.709269
183	0xbf1219ea	-0.5707079
184	0xbca773aa	-0.020440895
185	0x3e4682f9	0.193859
186	0xbf9847ab	-1.1896871
187	0x3e2e0e9c	0.1699776
188	0x3fdaffc2	1.7109301
189	0xbe1bbf63	-0.15209727
190	0x3ee806c9	0.45317677
191	0xbf599a1a	-0.85000765
192	0xbee88965	-0.45417324
193	0xbf3f99e5	-0.748442
194	0xbf15dbd8	-0.5853858
195	0xbebd265c	-0.36943328
196	0xbedb811c	-0.4287194
197	0x3f8bd0b9	1.0923072
198	0xbedbf236	-0.4295823
199	0xbf8b735e	-1.0894582
200	0x3efc32c0	0.4925747
201	0xbf119c5e	-0.5687922
202	0x3e18bf47	0.14916717
203	0xbf6b27d2	-0.91857636
204	0x3f3d739d	0.74004537
205	0xbf9ec695	-1.2404352
206	0xbe5158f4	-0.20444089
207	0xbf731348	-0.94951296
208	0xbee737ad	-0.45159665
209	0xbee4f6b6	-0.44719476
210	0xbf099f52	-0.5375873
211	0xbf9ad97d	-1.2097622
212	0xbf2613a7	-0.6487374
213	0xbecf47f6	-0.4048459
214	0x3e0d9f19	0.13830222
215	0xbf1fb485	-0.62384826
216	0xbf4e05b9	-0.8047748
217	0xbdf44bc8	-0.119285166
218	0xbf4a1656	-0.7894033
219	0x3fbe336b	1.4859442
220	0xbe85b24e	-0.26112598
221	0xbf457a41	-0.7713967
222	0xbf91389b	-1.13454
223	0x3f3f87d6	0.74816644
224	0x3f6e455b	0.9307458
225	0xbeec87ce	-0.4619736
226	0xbee53dda	-0.44773751
227	0xbe1b50ff	-0.15167616
228	0x3f7b4175	0.98146755
229	0x3f636917	0.8883223
230	0xbf218c70	-0.63104916
231	0xbed20833	-0.4102188
232	0xbdcb4c1e	-0.099266276
233	0xbf45f6c1	-0.7732964
234	0xbf1d7e1c	-0.6152055
235	0x3f369945	0.7132762
236	0xbf6aae9b	-0.91672677
237	0x3e2901d7	0.16504608
238	0xbe209545	-0.15681942
239	0xbbb807c3	-0.0056161596
240	0xbee2fa91	-0.44331792
241	0xbf5c8bcb	-0.8615081
242	0xbef58f4d	-0.47960892
243	0xbf370d62	-0.71504796
244	0x3e725aea	0.23667493
245	0xbed98ea1	-0.4249163
246	0x3f918f15	1.137179
247	0xbeda144b	-0.42593607
248	0x3d479f09	0.048735652
249	0xbf020c94	-0.5080044
250	0xbfb36748	-1.4015894
251	0xbd5559c2	-0.052087553
252	0x3fbb4429	1.4630176
253	0xbf0f7e08	-0.56051683
254	0x3fad2a7b	1.3528589
255	0xbf6696f8	-0.9007411

fc3.bias f4 [4]
0	0xbe528c39	-0.20561303
1	0xbeb1f307	-0.34755728
2	0x3ea614b5	0.32437673
3	0x3bf83682	0.007574857
