weights2000/g1.0_lr1e-05_decay_0.9999.pth (torch, 12865 bytes, 6 tensors)

fc1.weight f4 [32, 8]
000000 8d 38 ca be 10 8f a4 bd e0 d8 4d bb ea 7a ae be
       -0.3949627 -0.080350995 -0.0031409785 -0.3407815
000010 f0 ec f8 3e 7e c6 94 3f 2f 54 56 3f 93 f0 04 3f
       0.4861827 1.1623075 0.83722204 0.5192959
000020 08 a0 5c bd 10 6b a4 3e 2b 03 c8 be 46 0e e5 3e
       -0.053863555 0.32112932 -0.39064917 0.44737452
000030 a2 40 de 3e 54 b1 3f bf b0 0c 94 bf f6 20 45 3f
       0.43408686 -0.74879956 -1.1566372 0.7700342
000040 d5 70 de be 0d 24 ea be 7b 6b 76 3e 97 e6 64 bf
       -0.4344546 -0.4573063 0.24064438 -0.8941435
000050 4d 2c 69 bf a2 df 9c 3f e8 22 88 3e e9 f0 0b bf
       -0.9108322 1.2255747 0.2658913 -0.54664475
000060 b4 5d 67 bd 34 07 be be 7e 71 f3 3d 7e 66 5c bf
       -0.056485847 -0.3711487 0.11886881 -0.8609389
000070 36 88 71 bf e7 c4 9f bf 4b ce 6e bf c2 d8 70 3e
       -0.94348466 -1.2481965 -0.9328353 0.23520187
000080 4e 97 f4 3e 77 23 5f bf ee b7 aa be d6 69 c4 bf
       0.47771686 -0.8716349 -0.33343452 -1.5344799
000090 ba c7 ba bf bd 78 52 bd ca e1 a5 3e 3c 69 6c 3e
       -1.4592202 -0.051384676 0.32398826 0.23087019
0000a0 79 61 3e 3f a8 c4 09 bf cc b1 f1 3e 36 17 21 bf
       0.7436748 -0.538157 0.4720596 -0.6292604
0000b0 c4 34 c5 bf 6f 16 7d bf aa 51 3d be b2 c3 13 3d
       -1.5406728 -0.98862356 -0.18488184 0.0360753
0000c0 d5 9f f3 be 33 2c c4 bf 3a e1 45 bf 70 2d 12 bf
       -0.4758288 -1.5325989 -0.77296793 -0.5710058
0000d0 2a a5 26 3f d8 60 ab be bc c7 b1 3e 55 ca 56 3e
       0.6509577 -0.33472323 0.34722698 0.20975621
0000e0 c9 17 3a 3f 0f 43 2b be 36 b2 2f 3f ea cc 18 bf
       0.72692543 -0.167248 0.68631303 -0.59687674
0000f0 67 3b 9a bf 1e 39 49 3f eb 76 33 bf e5 ad 3c bf
       -1.2049378 0.7860278 -0.7010333 -0.7370284
000100 ee f4 05 be 40 49 d4 3e 65 4b b0 3f 94 3c 2c c0
       -0.13081715 0.41462135 1.3773009 -2.6911974
000110 60 d0 40 3f ee fb c1 3e e1 d3 29 3e 27 84 8f bf
       0.75317955 0.3788752 0.16584732 -1.1212205
000120 9d 02 b4 3d d1 d5 65 3f 58 ee 3f 3f ab 8a a6 3f
       0.08789561 0.8977938 0.7497306 1.3011068
000130 17 9f 05 3f c1 27 51 bf 40 e7 be be c7 1f 89 bf
       0.52195877 -0.81701285 -0.37285805 -1.0712823
000140 5b 22 99 3d 83 c4 47 3f 8f 3c 0f 3e 00 2a d2 bf
       0.07477256 0.7803423 0.13987945 -1.6419067
000150 80 fb 35 3d c2 04 6e bf e0 85 b1 bf db 2d f2 be
       0.044429302 -0.9297601 -1.386898 -0.4730061
000160 af 04 02 3f 15 6e 1b c0 e7 09 0b 40 1b 25 3b bf
       0.50788397 -2.4285939 2.1724794 -0.73103493
000170 3e 7a 0a 3f 4e a3 59 3e c8 1c c8 be 69 56 af be
       0.54092777 0.21253702 -0.39084458 -0.34245613
000180 4c 6e 4b 3f 1f 99 37 3f 09 cf 0d be 0e c9 66 bf
       0.79465175 0.7171802 -0.13848509 -0.90150535
000190 6e 70 ce 3f f7 f2 9f 3e 49 af ef 3e 61 b1 34 bf
       1.6128061 0.31240055 0.4681342 -0.7058316
0001a0 4f f4 4b bf 11 be 73 3e d6 53 10 c0 c6 2b 5c bf
       -0.7966966 0.23802973 -2.255117 -0.8600429
0001b0 e4 d4 74 3f 8b d8 51 be 8f 11 dd be 21 00 f2 3d
       0.95637345 -0.20492761 -0.4317746 0.11816431
0001c0 ec 16 20 be 87 8b bf 3c 5a ea b8 bb 47 67 c6 bc
       -0.15633744 0.023381962 -0.0056431713 -0.024219168
0001d0 bb 55 60 c0 63 de 77 bd 5e fc b9 be 63 c5 2f 3e
       -3.5052326 -0.06051482 -0.36325353 0.17165141
0001e0 87 b1 0b bf 08 f6 23 3d 74 30 ca bf e6 c3 be be
       -0.5456776 0.040029556 -1.5796037 -0.37258834
0001f0 c7 e3 47 3f dc 81 93 be bb a4 66 be c1 4a df bd
       0.78081936 -0.28810012 -0.22523777 -0.1090293
000200 33 7c 9c bf a0 a5 7c 3c 71 57 46 bf 50 f1 2f bf
       -1.2225403 0.015420347 -0.77477175 -0.6872759
000210 52 4c 61 bf 38 81 b4 3e 25 5c ec be 97 b1 57 bf
       -0.8800708 0.35254836 -0.4616405 -0.84255356
000220 37 66 85 3f 03 db 26 bd 97 f6 1c 3f 52 98 03 bf
       1.0421818 -0.04073621 0.61313766 -0.514043
000230 ca 01 fd bf fe b2 c6 be 14 9e 27 3e bd 15 9f bd
       -1.9766171 -0.38808435 0.16368896 -0.07767818
000240 39 86 d3 bf eb e3 fc be 53 70 2a bf db b6 fa be
       -1.6525337 -0.49392638 -0.66577643 -0.48967633
000250 6b 75 c9 3d be e7 f5 3e cf 7c 4f bd d3 39 86 bf
       0.09836849 0.48028368 -0.050656136 -1.0486397
000260 3b 9f 82 be c6 56 1c 3f f4 b9 fb 3f d5 65 03 bf
       -0.25512108 0.61069906 1.9666123 -0.5132726
000270 2c 6a 8b be 96 3a 76 3e 1d 71 b4 3e ba 00 9c bf
       -0.2722944 0.24045786 0.3524255 -1.2187722
000280 12 c3 45 bf 73 fd c7 3e dd 78 be bf 31 48 22 3f
       -0.7725078 0.39060554 -1.4880635 0.63391405
000290 3d b4 bf 3f 67 88 3d 3f 23 b1 50 bf a3 0b 1b 3f
       1.4976879 0.7403626 -0.8152029 0.6056463
0002a0 0c 4a aa 3f ef 4c ca bf fe 55 e5 3f 53 32 94 bf
       1.3303847 -1.5804728 1.7916868 -1.1577858
0002b0 cb c7 51 bf 49 ed 3f 3e 0a 60 7a 3e a6 a6 b5 3d
       -0.81945485 0.18742861 0.24450698 0.08869676
0002c0 48 15 84 3e 4c 5c 58 c0 65 38 00 40 45 4c bc bf
       0.25797486 -3.3806334 2.003442 -1.4710776
0002d0 55 54 f7 be 1c c5 90 bf 9d ca b0 3e e8 f1 9b be
       -0.48306528 -1.1310153 0.34529582 -0.30457997
0002e0 96 c3 05 bf 2d e3 93 3f c3 73 19 be c6 7c 9c 3f
       -0.52251565 1.1553704 -0.14985566 1.2225578
0002f0 ac ad 8e be 03 47 b5 3f 56 49 36 3f 02 85 83 3e
       -0.27866876 1.4162296 0.7120565 0.25687414
000300 89 24 50 3e d0 df 17 3f c9 b8 06 c0 b9 a7 f7 be
       0.20326437 0.59325886 -2.1050284 -0.4837015
000310 20 86 71 3f 12 ee 7b bc 8d 4b e3 bf 77 25 fc 3e
       0.94345284 -0.015376585 -1.7757431 0.49247333
000320 97 11 d2 be 6f 1b 99 bf f1 8a a7 be ca e7 cc bf
       -0.41029045 -1.1961497 -0.3272319 -1.6008236
000330 9e 37 f7 3f 34 05 94 3f 9e c3 39 3e 8c ae 61 3e
       1.9313848 1.1564088 0.18141028 0.2203924
000340 8a 7f 20 bf c1 59 27 c0 31 1c 03 be f2 28 9d be
       -0.6269461 -2.6148531 -0.12803723 -0.306953
000350 43 79 97 3f 70 20 ab be 64 29 92 3e 34 76 71 3d
       1.1833881 -0.33423185 0.28547204 0.058950618
000360 63 52 40 3f b5 e1 ec be c1 27 aa be 14 22 0c c0
       0.7512571 -0.4626595 -0.33233455 -2.18958
000370 2f 53 1a bd 59 00 ae 3d c7 e2 93 bf 17 b9 45 bf
       -0.037676986 0.0849616 -1.1553582 -0.7723555
000380 dc 91 1d bf df f5 79 be 8f de 9c bf 06 31 15 bf
       -0.6155069 -0.24410199 -1.225542 -0.5827793
000390 88 60 62 bd 69 8d ed be cc 1b 9d 3d 16 07 64 3e
       -0.05526784 -0.4639695 0.076713175 0.22268328
0003a0 23 68 a9 3e 87 0e d9 3d f5 d5 c4 3e 33 3e 04 3e
       0.33087263 0.10598474 0.38444486 0.12914352
0003b0 64 5b b9 be 9a 78 84 bf 00 9b ae bf ac 4e 14 3f
       -0.36202538 -1.0349305 -1.3641052 0.57932544
0003c0 9b 78 ea 3d 25 64 f6 3e 78 a7 83 3f 48 97 36 bf
       0.11448785 0.4812328 1.0285482 -0.71324587
0003d0 ba c0 c4 3f a9 88 26 3f 66 6f 44 3e 06 cb 09 3f
       1.5371315 0.65052277 0.1918312 0.53825414
0003e0 9d 55 a8 be c8 b5 ce 3e 69 17 af 3f 6f 41 02 3e
       -0.32877818 0.40373063 1.3679019 0.12720273
0003f0 ff 7e 9c 3f 40 cd 40 3f 65 b9 79 bf 68 3c 03 3e
       1.2226256 0.75313187 -0.97548515 0.12816012

fc1.bias f4 [32]
000000 82 6d ec be d0 c9 3e bf 00 0e 75 bf 0f 2a be be
       -0.46177298 -0.7452669 -0.9572449 -0.37141463
000010 c2 32 68 be 55 68 89 3d 83 1b 8b 3f 0b 21 44 3f
       -0.22675613 0.06709353 1.0867771 0.7661292
000020 df c4 26 3f 52 22 e7 3e 2d 9c ec 3d 7b 4f 13 3f
       0.6514415 0.45143372 0.11553226 0.5754315
000030 f0 5e 89 3e a9 21 aa 3e 8b 7d 26 bd 75 2b a8 3e
       0.26830244 0.33228806 -0.04064707 0.32845655
000040 ec ce af 3e 51 4d b9 3e 88 f7 8c be 10 32 8a bd
       0.34337556 0.361918 -0.275326 -0.0674783
000050 af 83 de 3e ee 41 a3 be e5 b0 05 bd be f4 54 3f
       0.43459842 -0.31886238 -0.032639403 0.83185947
000060 66 79 39 bd 28 ee 30 bf 25 3e 28 3f 09 99 c1 3e
       -0.04528179 -0.691134 0.65719825 0.3781207
000070 a8 44 08 bf a5 8d 1e bf 9d ed 0c bf 4e cf f9 bc
       -0.5322976 -0.6193488 -0.5505007 -0.030494358

fc2.weight f4 [64, 32]
000000 43 ec 83 bf 0b e1 68 be 01 2d ce bf 6f ef 66 3f
       -1.0306476 -0.22742097 -1.6107484 0.90209097
000010 a0 fa 08 be d4 6d b9 3b 1b 4a 62 3f 62 85 0f bf
       -0.13376856 0.0056588445 0.88394326 -0.560629
000020 0b 38 56 3f d5 82 49 bf 05 48 74 3f 3a f5 67 3e
       0.83679265 -0.7871526 0.95422393 0.2265214
000030 27 ef 9c bd 14 6f 24 bf 87 75 43 3f 52 8d d0 be
       -0.07662802 -0.6423199 0.7635121 -0.4073282
000040 54 80 cd 3e 51 16 14 bf 5f ba 69 be 26 ba 12 3f
       0.4013697 -0.5784655 -0.22825001 0.5731529
000050 ae 1e 1d c0 fe 8c ca bf bb 46 c6 3e 0c f2 8d 3f
       -2.4549975 -1.5824277 0.38725838 1.1089492
000060 69 dd 02 40 39 ea 18 c0 9b eb 70 3f cd ea 83 3f
       2.0447638 -2.3892958 0.94109505 1.030603
000070 e5 1e 04 bf 87 08 85 bd 1f bc 8f 3e c6 da a0 3f
       -0.5160964 -0.06495767 0.28073213 1.2566764
000080 30 84 53 bf 3e 3b 16 3f 83 17 ff 3e 5e 51 b1 3d
       -0.8262358 0.58684146 0.49822626 0.08658098
000090 e8 71 3c 3f 2d 5c 34 3f 2a 9c 00 be 19 91 b3 3e
       0.7361131 0.7045315 -0.12559572 0.35071638
0000a0 09 b6 3f 3f 7b 11 18 3f d3 ee d1 bd 24 36 03 bf
       0.7488714 0.59401673 -0.1025063 -0.5125449
0000b0 8a 83 e2 be f4 b6 3e 3f 87 8c 63 bf 84 fa 49 3f
       -0.4424098 0.74497914 -0.888863 0.7889788
0000c0 09 84 01 3e 83 9a 45 3f aa 7b ed 3e fe 67 fa bd
       0.12648024 0.7718889 0.4638341 -0.12226866
0000d0 53 05 99 be 9b d3 2b 3f 10 73 39 3f 84 47 a2 be
       -0.29886875 0.6711976 0.72441196 -0.31695187
0000e0 2d 7a 67 bf a5 9e 05 bd fc d9 df be a4 a7 4a bd
       -0.904208 -0.032622 -0.43720996 -0.04947628
0000f0 47 7c f5 3e ff 68 40 3f d6 79 ae be 97 bd 0d bf
       0.4794638 0.7516021 -0.34077328 -0.55367416
000100 a8 73 43 bf c6 81 32 3f d2 da 19 3f 9c bd 70 bb
       -0.7634835 0.6972927 0.6009952 -0.003673411
000110 ed ca 95 3e be ed c2 3e de 57 70 be 99 08 0a 3f
       0.29256383 0.38072008 -0.23471019 0.5391937
000120 f9 e4 38 3f 3e 19 18 3f 04 11 85 be 3f c8 4d 3c
       0.72224385 0.59413517 -0.25989544 0.012559949
000130 8b 70 b9 be e5 5c 1e 3f 6f 25 f2 be ee 36 ca 3e
       -0.36218676 0.61860496 -0.47294185 0.39495033
000140 bf 15 1e be be 7c 2b 3f ba b8 af 3e e4 15 88 be
       -0.15437983 0.66987216 0.34320623 -0.265792
000150 ac cc 4e be bf 44 34 3f 09 b3 87 3d 68 d5 36 3c
       -0.20195264 0.704174 0.06625945 0.011159278
000160 2b 70 1a bf 18 28 00 3e ea 4f c4 be da 44 35 be
       -0.60327405 0.12515295 -0.3834222 -0.17702046
000170 d9 00 a5 3e f4 cb 39 3f e3 8d 85 bc b5 fc 93 be
       0.3222721 0.7257683 -0.016303008 -0.28903738
000180 57 0c 1a 3e 27 01 db 3e 72 c4 95 3d 13 7a e2 3e
       0.1504377 0.42774317 0.073128596 0.4423376
000190 54 9e f2 be 3b 4c bf 3e ba cd 88 bd e6 9d 46 3e
       -0.4738642 0.37362847 -0.06679864 0.19396171
0001a0 b9 d1 57 3f d6 a0 c7 3d 76 ec 5d bf de c6 54 bf
       0.84304386 0.09747474 -0.86688936 -0.8311595
0001b0 b4 12 86 3e 61 fc 98 3f 4c 5b 10 c0 36 5c 83 3f
       0.26186144 1.195202 -2.2555723 1.0262516
0001c0 80 e5 b6 3e 4d 67 75 bf 85 b3 3b 3d 6d b2 85 3e
       0.3572197 -0.9586075 0.0458255 0.2611269
0001d0 7a fb f1 3e a4 ef f7 be 15 6f 00 be 78 e9 4c 3e
       0.47262174 -0.4842502 -0.12542374 0.20010936
0001e0 8a d6 c7 bf be c5 83 3f 3d e1 46 3e 67 dc c6 be
       -1.5612347 1.0294721 0.19421859 -0.3884003
0001f0 9e b0 bf 3f 01 fb aa be 79 cb 1e bf 00 94 bf 3d
       1.4975774 -0.33394626 -0.62029225 0.09354401
000200 d9 7c 3b bf 00 65 8c bf 5c 71 0f 3f b2 88 48 c0
       -0.7323738 -1.0968323 0.5603235 -3.1333432
000210 54 fb b9 be eb 58 0e bf 1c c5 ed bf 7c 11 a3 be
       -0.3632456 -0.5560443 -1.8575778 -0.31849277
000220 b2 af cc be 0b 0b 06 3e 9e 45 b0 3f c7 18 66 bf
       -0.39977795 0.1309015 1.3771245 -0.8988156
000230 b0 83 ec 3e 57 59 94 3e b9 cd 31 40 9c ea 63 3e
       0.4619422 0.2897441 2.7781813 0.22257465
000240 2b 7a 0f bf 8d 4b 8d be 30 99 45 bf 85 65 12 3f
       -0.5604579 -0.27596703 -0.7718687 0.57186157
000250 f0 44 70 3e 8e 84 8e 3e 93 bc b0 bf d0 1e ea 3d
       0.23463798 0.27835506 -1.3807548 0.11431658
000260 08 9c 1e 40 6a 00 ca 3d ab 03 1b c0 13 52 25 3f
       2.4782734 0.0986336 -2.4220989 0.6457836
000270 5b 7f 96 bf 97 e9 87 bf 13 a1 87 bf b5 3c b3 bd
       -1.1757616 -1.0618161 -1.0596031 -0.08751813
000280 dc 58 c0 bf 8b 4e 05 bf 0c 1a ed be 4a 45 05 3f
       -1.5027118 -0.5207297 -0.46308935 0.5205885
000290 4a ee 57 bf 41 12 6a bd fb e3 1a 3f f2 84 1f be
       -0.84347975 -0.057146315 0.6050412 -0.15578058
0002a0 a7 aa ec 3e b8 66 a8 be e0 c3 42 3f 81 66 39 3f
       0.46223947 -0.32890868 0.7608013 0.72422034
0002b0 60 38 75 3e 19 95 73 be 02 87 c6 3f 09 e1 d9 3e
       0.23947287 -0.23787345 1.5509951 0.425545
0002c0 f7 2e 21 3f 55 53 04 bf 5e 38 2b 3f 3b af bb 3e
       0.6296229 -0.51689655 0.66882885 0.36657128
0002d0 b5 35 e9 bf 19 23 00 c0 a7 bc e7 bd 85 93 9c 3f
       -1.8219515 -2.0021422 -0.113152795 1.2232519
0002e0 2a 89 66 40 22 42 9b bf 7b 32 6d 3f 2d e0 2d 3f
       3.6021218 -1.2129557 0.9265515 0.6792019
0002f0 92 6c 52 bf 58 17 30 bc 19 2b 95 3e d2 ad fd 3f
       -0.82196915 -0.010747753 0.29134443 1.9818671
000300 c2 6d c3 bf 53 a6 21 3e d4 f3 71 3f 59 f8 27 c0
       -1.526787 0.15786104 0.9451268 -2.624533
000310 5b 07 d1 bf a5 43 72 bf 6e 11 f4 be fc 02 9e bf
       -1.633037 -0.9463447 -0.47669548 -1.2344661
000320 47 79 0a 3e 8f 53 82 3e b4 09 2f 3f d6 58 9b 3f
       0.13522826 0.25454375 0.6837418 1.2136486
000330 4f 1b 72 3f 58 c6 76 be f3 9d 02 40 86 3b 3e 3f
       0.9457292 -0.240991 2.0408905 0.74309576
000340 db c4 15 be b9 00 80 bf f4 7f 95 3f 5a 74 45 3f
       -0.14625876 -1.000022 1.1679673 0.77130663
000350 c9 27 9e bd 8f ec b8 be 25 b0 07 3c 11 b7 f2 3d
       -0.07722432 -0.3611798 0.008281742 0.118513234
000360 c1 81 e9 3f e9 75 69 bf 85 a3 41 be 27 f6 24 bb
       1.8242723 -0.9119554 -0.18910034 -0.0025171132
000370 d4 1e 8d be 2b eb 93 bf 09 56 54 3e 98 98 b7 3f
       -0.27562582 -1.1556143 0.20735945 1.4343443
000380 b8 cb d2 bf 2a ab 7d 3f 26 2f e0 bf de 93 f5 3e
       -1.646842 0.990893 -1.7514389 0.47964376
000390 7f b4 73 be d7 68 1c 3f 79 55 bd be 89 b4 14 be
       -0.23799323 0.6109747 -0.36979273 -0.14521994
0003a0 16 eb fd be 01 a9 1c 3f e2 4b 49 3f 93 ed 0b c0
       -0.4959342 0.6119538 0.78631413 -2.1863754
0003b0 9b fc c3 bf 37 d5 44 3f d1 6e 2b 3e 47 25 da 3e
       -1.5311464 0.7688784 0.16741492 0.42606565
0003c0 c9 53 8a 3e da 32 e6 bd 1f 3d a8 be 8b b0 fe 3e
       0.27017048 -0.11240168 -0.32859132 0.49744067
0003d0 4d 7c 0c bf 74 c0 9f 3d ca af b0 bf 81 61 1b bf
       -0.5487717 0.078003794 -1.3803647 -0.60695654
0003e0 7b 2f 99 3e 4b 2c e9 bf 7b f5 a8 bd f8 92 2a 3f
       0.29919037 -1.8216642 -0.08249947 0.66630507
0003f0 08 1e 2c 3f 87 b2 ba bc 18 be 00 bf 07 d6 00 3f
       0.67233324 -0.022790207 -0.5029006 0.5032658

fc2.bias f4 [64]
000000 16 e0 35 3f 72 1c cc bc ee e8 4d 3d b4 ff 84 3e
       0.71045053 -0.024915908 0.050270967 0.25976336
000010 43 4c dc 3e 53 bd 36 3e e1 05 27 3e a8 68 6c 3e
       0.43026933 0.17845659 0.16310836 0.23086798
000020 aa dd f3 be 90 e6 6c 3d d7 8d a3 3f d8 df 0f 3e
       -0.47630054 0.05783707 1.2777661 0.14050233
000030 71 97 0c 3f 6c bc 6e 3e 7f 33 c2 be 19 65 9a 3e
       0.5491858 0.23314065 -0.37929913 0.30155256
000040 e0 11 cd 3d cd a4 96 3e 15 c5 fe 3d 2e 16 83 be
       0.10013175 0.29422608 0.12439934 -0.2560286
000050 28 29 da bd 02 24 e3 bd 8d e0 41 3d 04 78 9c be
       -0.10652381 -0.11090852 0.04733329 -0.30560315
000060 19 74 83 3d 18 66 30 bd b4 45 16 3f f7 58 9d 3e
       0.06418628 -0.043066114 0.5870011 0.30731937
000070 53 05 d1 3c 4a c6 9a 3e 2e d5 a2 3d 75 e1 09 3f
       0.025515234 0.30229408 0.07950817 0.53859645
000080 eb b2 e5 3e a9 b6 3a 3b 4c 49 8f 3f 3b 54 a8 3f
       0.44863066 0.0028490222 1.1194243 1.3150705
000090 22 b7 48 3f d2 4d a0 be e4 6d c2 3e 14 52 d8 3d
       0.7840444 -0.31309372 0.37974465 0.1056253
0000a0 7a ef 61 3d d4 92 55 bd 9e 45 25 3f c9 d8 36 3f
       0.055160023 -0.05214198 0.6455935 0.7142454
0000b0 a3 18 f8 3e cf 7e 59 3f bf 3d 61 bd 85 c1 5d be
       0.48456296 0.8495912 -0.054990526 -0.21655853
0000c0 51 36 3f 3e 91 19 27 bf fd 19 78 bd b8 dd cd 3e
       0.18673064 -0.65273386 -0.06057166 0.4020822
0000d0 2f c5 a7 bb cb d4 e1 be 29 f7 26 3f dc 07 86 3f
       -0.0051199417 -0.4410766 0.65220886 1.0471148
0000e0 03 29 5a be 98 26 d7 3e 49 65 7e be ab a5 66 be
       -0.21304707 0.42021632 -0.24843325 -0.22524135
0000f0 4c 78 fe 3e 28 97 1e be cc bd 36 be f1 e7 63 be
       0.49701154 -0.15487349 -0.1784584 -0.22256447

fc3.weight f4 [4, 64]
000000 2b 8d 89 3f a0 29 27 bf ae 6a e1 be 76 06 9f bf
       1.0746206 -0.6529789 -0.44026703 -1.2423847
000010 22 5c 00 40 45 fd db 3f bb 7d a4 3f 1e e2 20 c0
       2.0056233 1.7186667 1.285087 -2.513801
000020 73 17 0b bf 38 5e f4 be 64 85 f9 3f fc e9 45 bf
       -0.54332656 -0.47728133 1.9493833 -0.77310157
000030 35 c5 42 bf 2b 75 cd bf ff 69 65 bf e6 c9 40 bf
       -0.76082164 -1.6051382 -0.8961486 -0.7530807
000040 15 72 4e bf 54 da 37 bf 10 5b a8 bf f7 21 f4 3f
       -0.80642825 -0.7181752 -1.315279 1.9072865
000050 d7 5e 25 bf 01 ef db be 9a 5d 4f bf 58 80 61 bf
       -0.6459784 -0.42955783 -0.810022 -0.8808646
000060 0c cb 2c bf 40 b4 cc bc 8d 65 c3 bf f2 8a ad 3f
       -0.67497325 -0.024988294 -1.5265366 1.3558028
000070 96 b2 d2 be bf f9 4e bf 08 fd d2 be 98 21 f8 3f
       -0.41151875 -0.8084983 -0.41208673 1.9385252
000080 04 48 5d bf b3 10 83 bf e7 01 4d 40 5e e7 c7 3f
       -0.8643801 -1.0239471 3.203241 1.5617483
000090 42 38 d7 3f 7d 6b 11 bf b7 1f 40 be a5 fe 12 bf
       1.6814044 -0.5680464 -0.18762098 -0.57419807
0000a0 3d 62 78 3e d6 35 b5 bf be 65 63 40 d0 5e ff 3f
       0.24256225 -1.4157054 3.5530849 1.995081
0000b0 d5 89 3d be 75 f0 0c 40 87 58 24 40 94 90 f2 be
       -0.1850961 2.2021763 2.5679033 -0.4737593
0000c0 98 64 34 be a1 02 16 c0 d5 90 49 3f 40 bd 56 bf
       -0.17616498 -2.3439105 0.7873662 -0.8388252
0000d0 4f ad 12 bf 63 fe 1a bf 20 11 0a 40 fc 7b 64 40
       -0.572957 -0.60544413 2.1572952 3.5700674
0000e0 1f 98 03 bd 64 16 2f 3f 5f 1f ab 3f a0 cf de 3c
       -0.032127496 0.6839354 1.3368949 0.027198613
0000f0 24 5a 6b bf 0b fd fe be af f3 6c 3d 32 1a 26 bf
       -0.9193442 -0.4980243 0.057849582 -0.6488372
000100 5c 2f dc 3f ef a9 1a be 98 b3 a6 be dc e5 6e bf
       1.7201953 -0.15103887 -0.32558894 -0.9331949
000110 df 46 ff 3f 82 0b 91 3f 74 fe c4 3f ee 04 16 bf
       1.9943503 1.1331637 1.5390153 -0.5860127
000120 84 95 ea bf 6d 76 a3 be 1a 80 cf 3f 4b a4 59 bf
       -1.8326879 -0.3192629 1.6210968 -0.85016316
000130 5c 05 4d bf 13 6b 8d bf ee 8d 93 3e 41 f8 0f bf
       -0.800863 -1.1048301 0.2881922 -0.5623818
000140 73 79 36 bf b4 de e9 3d 3d a8 3b bf ec 38 81 3f
       -0.71279067 0.114194304 -0.73303586 1.0095496
000150 a5 23 49 bf 63 24 81 bf 9a ad 04 bf c9 3b 9f bf
       -0.78570014 -1.0089229 -0.51827395 -1.244012
000160 c1 d2 44 bf 40 b0 50 bb 05 25 e8 3e 20 e9 7e 3f
       -0.76884085 -0.0031843334 0.45340744 0.9957447
000170 fe a7 da be 68 30 f3 be 43 c2 53 bf 57 06 ca 3f
       -0.42706293 -0.4749787 -0.82718295 1.5783185
000180 30 c7 34 bf 2e f3 d9 be 6d 36 5e 40 65 07 9c 3f
       -0.70616436 -0.42568344 3.472072 1.2189757
000190 96 f4 26 40 68 b9 4b bf 60 26 30 bf 31 48 d0 be
       2.6086783 -0.7957978 -0.68808556 -0.40680078
0001a0 01 4a 5b 3d f6 2c f0 bf cd d6 48 40 f5 84 d2 3f
       0.053537372 -1.8763721 3.1381104 1.6446825
0001b0 31 b9 bf be 7a 17 ea 3f 1e b6 39 40 4f d0 0b bf
       -0.37445977 1.8288414 2.9017406 -0.5461473
0001c0 5e 54 e1 be 49 fa 58 bf bb 29 ad be 75 4a ff be
       -0.4400968 -0.84756905 -0.338209 -0.49861494
0001d0 5a 5b 37 bf 42 9e 6d bf 61 56 08 40 40 63 81 40
       -0.71623766 -0.9281961 2.1302722 4.0433655
0001e0 57 1f 94 3b 6d ca 18 3f e4 4e 47 3f e2 38 88 bd
       0.0045203376 0.5968388 0.7785475 -0.066514745
0001f0 cc 49 bb bf 7b 93 0a 3f 1b da 81 3d 0c 9a 66 bf
       -1.4631896 0.5413129 0.063404284 -0.90078807
000200 e6 33 c8 3f e6 21 00 bf f1 0f 01 bf 0d ee a2 bf
       1.5640838 -0.50051725 -0.5041495 -1.2728897
000210 e4 4a ff 3f b5 ac aa 3f dd 45 c4 3f 80 50 8f bf
       1.994473 1.3333956 1.533382 -1.1196442
000220 18 cc 15 bf 47 e2 bb be 7c 67 b2 3f e1 a1 52 bf
       -0.5851455 -0.36696073 1.3937831 -0.8227826
000230 48 c0 8a bf 6d c0 d4 bf d3 c5 fa bf 74 c9 26 bf
       -1.083993 -1.6621224 -1.9591621 -0.65151143
000240 e0 14 2b bf a2 a0 a7 bf 16 f4 ce be 28 7d 93 3f
       -0.6682873 -1.3095896 -0.40420598 1.152257
000250 94 f4 fd be 24 25 39 be 13 77 21 bf f7 cb 7d 3d
       -0.4960066 -0.18080574 -0.6307232 0.061962094
000260 76 0a 37 bf c0 76 c2 3b 2a 4c 3d 3f d7 95 fa 3f
       -0.7150034 0.0059345663 0.7394434 1.9576977
000270 08 9b 54 bf 22 78 3b bf 96 5e 59 bf b5 68 fa 3f
       -0.8304906 -0.73230183 -0.8490995 1.9563204
000280 63 3c 53 bf 0d 9a 0d bf 48 18 9e 40 08 ca 6a 3f
       -0.8251402 -0.5531319 4.940464 0.91714525
000290 ae 50 f0 3f 1b ab e7 3d f9 17 8a bf 13 0f 27 bf
       1.8774621 0.11311933 -1.0788566 -0.65257376
0002a0 9c e3 0d 3f 3e b2 93 bf 30 59 18 40 9d 6a d6 3f
       0.5542543 -1.153877 2.3804436 1.6751286
0002b0 e7 2e 25 ba e0 3b f8 3f a9 52 2b 40 7b be 2b bf
       -0.00063012395 1.9393272 2.6769202 -0.67087525
0002c0 e4 a8 51 bf e7 3c 44 bf 8b 88 13 3f b5 40 94 bf
       -0.8189833 -0.7665543 0.57630223 -1.1582247
0002d0 3b 57 5a bf 2b 0e 8b 3e cc 52 a4 3f 21 1e c3 3f
       -0.85289353 0.27159247 1.2837768 1.524357
0002e0 fe 06 cb bc 5e 33 61 3f 98 c5 be 3f 1e 1e 3f 3d
       -0.024783608 0.87969005 1.4904051 0.04665958
0002f0 bb b6 aa bf 63 03 71 3f d0 2c 07 3d 5a 13 30 be
       -1.3337015 0.9414579 0.03300172 -0.17194882
000300 a5 2a a7 3e 72 04 24 bf ef 79 9d be ad df 13 bf
       0.32649723 -0.64069283 -0.3075709 -0.5776318
000310 ec fa f1 3f 47 08 16 40 4c 56 c6 3f 38 9d 55 c0
       1.89047 2.3442552 1.5495086 -3.3377209
000320 ce 93 80 bd 1e cb 6b bf c7 d9 2d 3f d9 17 85 bf
       -0.062781915 -0.9210681 0.67910427 -1.0397903
000330 04 0d 4b bf 9f c6 f0 bd 15 45 fe bf 29 48 83 bf
       -0.79316735 -0.11756634 -1.9864832 -1.0256397
000340 b3 1a e1 be a3 0e 52 bf bc a8 2b bf 6c 6e 0e 40
       -0.43965682 -0.82053584 -0.67054343 2.2254896
000350 68 22 47 bf 5a cf a9 be 56 19 f7 be 91 5c 36 bf
       -0.77786875 -0.3316601 -0.48261517 -0.71234995
000360 b6 34 1d bf 01 b5 b3 bd cc 5b bb 3f 5e f3 04 40
       -0.61408556 -0.08774758 1.4637389 2.077354
000370 ea 9e 4b bf 97 f9 bd be 7a a8 f2 be 37 eb 08 40
       -0.7953936 -0.37104484 -0.47394162 2.1393564
000380 60 48 52 bf 9d eb 7a bf ce a8 59 40 09 11 6e 3f
       -0.82141685 -0.9801577 3.400928 0.92994744
000390 aa 29 97 3f 4a 68 86 bf fe ff d6 be 20 d8 56 bf
       1.180959 -1.0500576 -0.41992182 -0.8392353
0003a0 5e 54 b4 be f1 f7 7a bf fb d6 17 40 26 e0 c4 3f
       -0.35220617 -0.9803458 2.3724964 1.5380905
0003b0 fb 3e b7 bf 5c e7 ce 3f 50 f3 32 40 eb d3 39 bf
       -1.4316095 1.6164355 2.7961006 -0.72588986
0003c0 83 b9 ff be 8b 77 70 bf 11 94 8b 3f 3d e2 36 bf
       -0.49946222 -0.9393241 1.0904561 -0.7143896
0003d0 e1 c2 1f bf 0d d0 9c 3f c1 88 46 40 99 40 87 40
       -0.62406737 1.2250992 3.1020968 4.2266355
0003e0 28 a8 8b 3d f8 29 4a 3f 45 7c 1e 3f 17 ed 40 3d
       0.06819183 0.7897029 0.6190837 0.047101106
0003f0 5f 05 a1 be d3 04 7e bf df c4 01 3d 93 cb 42 bf
       -0.3144941 -0.9922611 0.03168189 -0.7609188

fc3.bias f4 [4]
000000 78 a8 95 be 8d b6 04 3f b4 c1 fb 3d 6b df 16 be
       -0.29230094 0.5184105 0.12292805 -0.14733665
