weights/g0.1_lr1e-05_decay_0.9999.pth (torch, 12865 bytes, 6 tensors)

fc1.weight f4 [32, 8]
00000000: 3446 1abf f7ec c7c0 a014 00bf d60f a5be
00000010: 3aa2 163f 7654 cdbd ebec 863f 0be4 28bc
00000020: 9e04 75bf a89a 2c41 d47b 25bf 51db ccbf
00000030: 7fb0 bfbe 41cb 343f 2c96 2cbc 7839 0cbf
00000040: f9c9 e4be 7907 8a3e 6989 03bf 0981 2abf
00000050: fa4b 853f 9dc3 3a3f 5bb4 62bf b52b 353f
00000060: b810 d9bf e10e 1fbe ff57 563f 71dd b9bf
00000070: 1eae 33bd 14f0 2bbe d6ac ebbc dcef 4e3f
00000080: 3cde 4d3f 5e97 07c1 0bbc 19bc 9c30 25bf
00000090: 66a1 3bbf 4d18 bd3d eab9 893f 5d0b 0bbe
000000a0: aaa6 e5bf 2983 1ac1 8076 c73e 0b03 62bf
000000b0: b431 bd3d f788 5f3e 6640 c4be 68bd f13e
000000c0: 52a6 5b40 c013 edbe da3f 02bf 9aec b83f
000000d0: 58c7 37bf 254b 393f 368a fe3e c8bd b0be
000000e0: 46ca 67be c78b c0c0 ca2f cbbe d111 a33f
000000f0: 2d54 243f 68f3 4e3f 50a5 84bf 5287 263d
00000100: 663e 3b3d 18e6 393d 34a0 bcbb 963b 233f
00000110: eece 943f 5230 e43e 2ed7 9a3f 4ce0 05be
00000120: 9d7d 273e d7c0 133d b3f4 2940 2c17 94bd
00000130: a284 8fbe 0af4 bb3d 5d51 2dbf 22dd 8c3f
00000140: 286c 72be 5e11 003e 10fa 2940 7b06 76bf
00000150: b1b7 023f ad2a 47be d751 543f 5bc8 4fbf
00000160: d17f bfbe f79d 5440 7872 893e b54c 3e3c
00000170: a6fb 5b3f 8d22 613e b15d 2b3e 8c47 a8be
00000180: 5f89 e7bc ad6a 003d 6cd8 4b3d 768b f8bd
00000190: 3052 ca3f 3c86 bd3d 03db 22bf cf7f eebf
000001a0: d256 da3e 5850 4ac1 7783 c2bd c8ef 45bf
000001b0: bfc8 8a3d e8c9 d53b 6cd9 81bc 5de6 1cbe
000001c0: 0fdf 24bf 9503 3c3f a8b6 443e 5875 5ebf
000001d0: f688 0dbf 621b 4fbf 8c44 553f 6582 46bf
000001e0: 63b7 a0be 0dd6 b93f 1205 7ebf f741 793f
000001f0: 541d 00bf a016 7cbc a9eb 4abe 1854 8e3d
00000200: 1a28 e0be b6ab 57c0 8f85 103f e1f1 6d3f
00000210: 6a2e 82bf 89d8 e13e 1725 b13e a66d adbf
00000220: 44b6 d8bd 56f8 acc0 efe8 523f 344b ff3e
00000230: 0537 ef3e 5ce0 893d 0c7b cd3f 3527 1abe
00000240: 9b9a b0be 6eaf 76bd f314 d33f a79b d2bd
00000250: b98e 0cc0 d064 693c 3a7d 043e ddc4 ebbe
00000260: 1329 1fbe 36e2 d63d d700 623e c1ac d9bf
00000270: b9ff 3ebf c7c7 c43e 1510 063f 18ca e4be
00000280: 892f 27bd bff9 2cc1 cd2b 983e 70fa 80bf
00000290: a471 9a3e 3aca 35be 79f2 50c0 1b06 c2bd
000002a0: 60f2 1cbf 4994 a0c0 5fce f93e 582c 173f
000002b0: a6a0 853f 825e 883e d302 c23d 085d fcbe
000002c0: 6c14 2bbf 132d 2fc1 4bec dcbd e6fd 94be
000002d0: d6b9 5bbf 57e1 2bbd 259c e43e 62d0 28be
000002e0: 8f0b ae3e 7eb9 02c1 5390 1dbe 179d ccbe
000002f0: a428 33bf 5d71 773c 1244 82be e808 9c3f
00000300: a93e d83e 1681 34c1 40ab 2bbf ddce 7fbf
00000310: ee47 dabe de12 133f b5f8 573e 62ac f7bf
00000320: 382f 8ebf 39e3 bbc0 f7c1 43be 6516 9abf
00000330: 22ed c5be 28fb 1c3f cf18 bd3d 04dc 023f
00000340: 1c02 823f 9896 2bbf 08a4 a33e c8fe ec3e
00000350: c721 d43e 70fb 7a3e 8b53 d33d 4a5c 49be
00000360: 5f60 7cbf 919d 8dc0 d6dc 803f a9bc 783f
00000370: 9c6d 5e3e 699e 9f3f 618a c43d c022 1f3f
00000380: 4c92 a6c0 7d85 09c0 6dc6 23bf b5e5 693e
00000390: dfa6 4a3d f83c 1a3f 4e23 1a3e 451d 9ebe
000003a0: 3f8b 293f 4602 ba40 007e af3e 300b b5bf
000003b0: 22d3 913e 8ff8 b13d 52c3 f2bd 229b 1a3e
000003c0: 7553 c93b a9ed a2bd 4a84 16c0 0fbe 84be
000003d0: 5d76 a9be 3395 e8bd 41ab 1e3f e6a3 b4be
000003e0: 058a 41be 8fe6 be3a 8019 c6be eaf7 08bf
000003f0: 4041 b43f fe6c cebe 1e69 95bf 6e2c d1bf
-0.6026337 -6.2476764 -0.5003147 -0.32238644 0.5884129 -0.10025875 1.0541052 -0.010308276
-0.9571017 10.787758 -0.6464207 -1.600443 -0.37439343 0.7062264 -0.010533851 -0.5477519
-0.44685343 0.26958826 -0.51381546 -0.6660314 1.0413811 0.7295473 -0.8855645 0.70769817
-1.6958227 -0.1553302 0.8372802 -1.4520704 -0.043867223 -0.16790801 -0.028768938 0.80834746
0.8041723 -8.474455 -0.009383212 -0.645273 -0.7329315 0.09233151 1.0759861 -0.13578553
-1.7941487 -9.6570215 0.38957596 -0.88285893 0.09237996 0.21829592 -0.38330382 0.47214818
3.4320264 -0.4630413 -0.5087868 1.4447205 -0.7178855 0.72380286 0.49714822 -0.34519792
-0.22635755 -6.0170627 -0.39684898 1.2739812 0.6419094 0.8084016 -1.0362949 0.040656395
0.045713805 0.04538545 -0.0057564024 0.63762796 1.162565 0.44568115 1.2096918 -0.13073844
0.16356511 0.03607258 2.6555603 -0.07230982 -0.28030878 0.09177406 -0.67702276 1.1004984
-0.23674071 0.12506625 2.6558876 -0.9610364 0.5106154 -0.19449873 0.8293738 -0.81165093
-0.37402204 3.3221414 0.26845145 0.011614968 0.8593086 0.21985836 0.16734959 -0.32867086
-0.028263746 0.031351734 0.049766943 -0.12135975 1.5806332 0.09254119 -0.63615435 -1.8632754
0.42644364 -12.644615 -0.09497731 -0.77319 0.067765705 0.0065243132 -0.015850745 -0.15322252
-0.6440286 0.73442966 0.19210303 -0.868978 -0.5528711 -0.8090116 0.8330772 -0.77542716
-0.31389913 1.4518448 -0.99226487 0.9736628 -0.5004475 -0.015386254 -0.1981646 0.06949633
-0.43780595 -3.3698554 0.56453794 0.929472 -1.0170414 0.44110516 0.3459861 -1.3549087
-0.105816394 -5.4053144 0.8238668 0.49862063 0.46721664 0.06732246 1.6053176 -0.15054019
-0.34492955 -0.060225897 1.6490768 -0.102835946 -2.196211 0.014245227 0.12938395 -0.46048632
-0.15543012 0.10492365 0.22070633 -1.7005845 -0.7460895 0.38433668 0.5236829 -0.44685435
-0.040816817 -10.810973 0.29720917 -1.0076427 0.30164826 -0.17752925 -3.2647994 -0.09473821
-0.61307335 -5.018101 0.4879026 0.5905204 1.0439651 0.26634604 0.09473195 -0.49289727
-0.66828036 -10.948504 -0.10787257 -0.2909996 -0.8583044 -0.041962948 0.4465038 -0.16485742
0.33993194 -8.170286 -0.15387087 -0.399636 -0.6998389 0.0151027115 -0.2544256 1.2190218
0.42235306 -11.281515 -0.6705818 -0.99925023 -0.42633003 0.57450664 0.21090968 -1.9349482
-1.110816 -5.871487 -0.1911696 -1.2038084 -0.3865748 0.61320734 0.092332475 0.5111697
1.0156894 -0.6702666 0.31961083 0.46288133 0.4143202 0.24509978 0.10318669 -0.19664112
-0.9858455 -4.425484 1.0067394 0.9716287 0.217215 1.2470218 0.09596706 0.621624
-5.2053585 -2.1487725 -0.6397465 0.22841533 0.049475547 0.6024928 0.1505253 -0.30881706
0.662281 5.8127775 0.34275818 -1.4144039 0.28481394 0.08689987 -0.11853661 0.15098241
0.006143982 -0.07955486 -2.3518243 -0.25926253 -0.33098117 -0.113565825 0.6198006 -0.35281295
-0.18900307 0.0014564561 -0.3869133 -0.53503287 1.4082413 -0.4031753 -1.1672704 -1.6341684

fc1.bias f4 [32]
00000000: fb2b 46bf 7218 eb3d 876a b2be 26b8 61be
00000010: ad53 4ebf 6a20 c9be 08f2 ae3d b3ef 87bf
00000020: f197 a2bd 7723 073e 504f 3dbd 5a4a f73f
00000030: f878 56bd ca7f 733d 997e 16be 37e7 883f
00000040: f28b 57bf f4e8 5ebf 7a1b 373c ced0 a1bd
00000050: f42c 6d3e 8ee8 0cc0 0f60 40bf 69c5 6bbf
00000060: bbb0 513e ef5d d5be 5cc1 64bf 8a58 71bf
00000070: 0399 42bf 9cf2 273f 7dc4 e03d ef18 3dbd
-0.7741086 0.11479272 -0.348469 -0.22042903 -0.8059643 -0.39282542 0.085422575 -1.0620025
-0.07939137 0.13197123 -0.046218216 1.9319565 -0.05236146 0.05944804 -0.1469673 1.0695561
-0.84197915 -0.8707421 0.0111759845 -0.079011545 0.2316168 -2.201694 -0.75146574 -0.920981
0.20477574 -0.41673228 -0.89357543 -0.94275725 -0.7601473 0.6560457 0.10974977 -0.046166357

fc2.weight f4 [64, 32]
00000000: f15a d93e 71df da3e 6dcc e1be 0ad7 88be
00000010: 7b62 cb3f be88 2c3f 5282 903e 1de3 383f
00000020: 322f ccbd 84ab dcbf bd88 bd3e e29a 7b3d
00000030: 2430 3f3f 9ec5 403f 2fef 173e 32d1 233e
00000040: 5645 02c0 f7c2 71bf 31d9 01be b988 df3e
00000050: 6963 be3c e354 33bf ff29 6d3d a33a ee3c
00000060: dffc 923f b492 333f af38 543e 368f 8f3f
00000070: 63e6 c33e 843d a63e ef4b 323f e1d7 fcbe
00000080: 40db 8b3f dcc2 42c0 eacc 853d 5379 d43e
00000090: c087 033f 53da 52bf a0f4 22c0 4a42 9e3f
000000a0: c9bf 553f e85f 6bbf abcf afbe 35c9 f1bf
000000b0: 2e43 4e3f b6f5 183d 29db eabc 56d0 3a3f
000000c0: 3f04 ed3f 4572 793f b84b 23bf 682e 3fbe
000000d0: f4f1 9c3e 7550 893f 414e 803f 855a 943e
000000e0: 900d 42bf 0465 d63e 58c4 0e3e 4a87 0c3f
000000f0: 28ad 14c0 c527 40bf ca75 1c3f 0be3 353f
00000100: 0c0f 2c3f 9074 d53c 3346 2d3c 7d9f df3e
00000110: 1f80 f43e 62c0 fd3e 4145 0c3f a38f 703e
00000120: 97b7 cb3e 13ad be3f 9cc4 be3e 8821 7fbf
00000130: b151 cc3e b8e9 913f 29ed 343e 0c70 e9bf
00000140: 2a47 abbf 6c7f 933f 3b77 49bf 09c6 91be
00000150: 94b6 ccbe 2acc 08be 6d88 113f fc8f bd3e
00000160: 305b 07bf ff0b 183f 3714 8c3f b4bf cf3f
00000170: 2932 3d3e f288 24bf f044 f5bf a5bf 57bf
00000180: a6be 01bf 3900 8abe 16fc 9f3f 64ef dc3e
00000190: 5f3c 403f 2416 e9be cfb8 44bf 0108 3dbf
000001a0: 3357 edbe 466a a13d 891b 05bf 897c 423e
000001b0: a05a febf d7a2 d13e 1507 cbbd 54bb 7e3f
000001c0: fe89 e53f 1403 fdbd 5d35 ccbc 5d90 71bf
000001d0: c414 e9bf a814 5f3d f90f ec3f 0c27 3e3f
000001e0: 70ec 95bf 9d74 f53d 0f70 1dbf 3f61 413f
000001f0: 61d8 a3be 3df7 b13e 2dd1 3cbf 64a7 03bf
00000200: 2c55 fdbf 1cec d0bd a72b 4d3f 56a2 103f
00000210: c7e5 303f bf57 243f 74e6 64be cecb cc3f
00000220: c66f 14bf 68e3 103f 429c 9ebf 8aa0 b23e
00000230: 3187 86c0 7558 9fbf d418 2cbf be91 95bf
00000240: e652 a3be 3ae8 af3f 920d db3e 0706 2bbf
00000250: 9c0e 633f b688 a03f 4061 07bf 511b df3f
00000260: 72f8 9abf 8749 c3bd 62c0 57be b72d fcbe
00000270: fbb9 2bbd 8ead cf3e f06c 1dbe 7cfd 1040
00000280: 9cdf c8bf d349 81bc b1ea c83f 653d 113f
00000290: ceaa bb3f 2536 8bbe 2864 85bf 4288 923f
000002a0: d611 9dbf 9390 93be 0aff e1bf 9b71 afbe
000002b0: d252 d4bf 383a 593f efc3 2fbf 5cab 46c0
000002c0: 7a2d 863f 4c20 993f af00 1a3f 6fc2 5a3e
000002d0: 8fdd 613f 4727 8e3f 30f3 523f f030 a43f
000002e0: 294f 5f3f 425c ddbe 801a abbd 8715 37be
000002f0: 7810 debf 00d2 233f ff75 87bf 1904 b8bf
00000300: b6b4 a5be 81d9 abbe 95b8 14c0 4b56 613e
00000310: fc57 913f 35c5 a13e a2fe 0ebe 1fb5 ef3f
00000320: 9c8d f8be 398b 80be 2e4a 043f 9b74 c23e
00000330: bca3 e53f 3e5d 97bd 4820 4e3e 59b4 30bf
00000340: 4870 7fbf e348 a9bd cbc8 0fbf bcc1 1bbe
00000350: bede 9b3f 6a63 81bf 64ba 5e3f 4f65 b43e
00000360: 21d1 cf3f 1ecd 983e 8098 dd3e 08cd 823f
00000370: 5195 803f 2390 0ebf b619 8dbe 7404 303f
00000380: 0996 5cbf 788d 61bd d231 d2be 12f4 0abe
00000390: d30b bcbe 5f55 7fbf 2f90 693f 5f09 3040
000003a0: fe74 b7be 6098 95bd 66a2 30bf 162c 2a3e
000003b0: c18c e73f bad8 49c0 a983 af3e 0cca 083d
000003c0: fadc 693f 7069 553f c04a d3be 1767 f6bd
000003d0: 0fca 38c0 56f0 663f 9e98 f9be e930 f53e
000003e0: 1f1a 8a3e 81f7 d63e a37d df3b fd76 c73f
000003f0: 171c 88be 420e a9be 9964 bf3e 3dad 49c0
0.42452195 0.42748597 -0.44101277 -0.26726562 1.5889429 0.6739615 0.28224427 0.7222155
-0.09969939 -1.7239842 0.37018386 0.061427005 0.7468283 0.7530154 0.14837335 0.1599777
-2.035482 -0.9443812 -0.12680508 0.43659 0.023240762 -0.700514 0.05790138 0.029080695
1.148342 0.70145726 0.20724748 1.121558 0.3826171 0.32468808 0.69647115 -0.49383453
1.0926285 -3.0431433 0.06533225 0.41498813 0.51379013 -0.82364386 -2.5461807 1.236398
0.83495766 -0.91943216 -0.34338126 -1.8889529 0.8057126 0.037343703 -0.028668957 0.72974145
1.8516921 0.97439986 -0.6378741 -0.18670046 0.30653346 1.0727679 1.0023881 0.2897531
-0.75801945 0.41873944 0.13942087 0.54893935 -2.3230686 -0.75060683 0.6111723 0.71049565
0.6721046 0.026056558 0.010575819 0.43676367 0.47754 0.4956084 0.54793173 0.23492293
0.39788505 1.4896568 0.37259376 -0.9966054 0.39906076 1.139945 0.17668594 -1.8237319
-1.3381093 1.1523261 -0.78697556 -0.284714 -0.39983046 -0.13359132 0.56848794 0.37023914
-0.52873516 0.59393305 1.0943669 1.6230378 0.18476166 -0.6427146 -1.9161663 -0.842768
-0.5068153 -0.26953295 1.2498806 0.4315139 0.7509212 -0.45524704 -0.76844496 -0.7384034
-0.4635559 0.07881598 -0.5199514 0.18992819 -1.9871407 0.4094455 -0.0991346 0.9950459
1.7932737 -0.12354103 -0.02492779 -0.94360906 -1.8209462 0.05446306 1.8442374 0.7427833
-1.171278 0.11985133 -0.6149911 0.7553901 -0.32001022 0.3475894 -0.73756677 -0.5142729
-1.9791617 -0.10201284 0.80144733 0.56497705 0.6910061 0.6419639 -0.22353536 1.5999696
-0.5798305 0.56596994 -1.2391436 0.34888107 -4.204003 -1.244887 -0.67225385 -1.1685102
-0.31899184 1.3742745 0.4278379 -0.6680607 0.8869417 1.2541721 -0.52882767 1.7430211
-1.210707 -0.095355086 -0.21069482 -0.49253628 -0.04192541 0.405621 -0.15373588 2.2654715
-1.569324 -0.015782272 1.5696622 0.56734306 1.46615 -0.27189746 -1.042119 1.1447833
-1.2271068 -0.2882124 -1.7655957 -0.34266362 -1.6587775 0.8485446 -0.68658346 -3.104209
1.0482628 1.1962981 0.60157293 0.21363233 0.88228697 1.1105736 0.82402325 1.2827435
0.87230164 -0.4323445 -0.08354664 -0.17879306 -1.7348776 0.6399231 -1.0582885 -1.437625
-0.32364434 -0.3356438 -2.323766 0.22005574 1.1354976 0.3159577 -0.13964322 1.8727149
-0.4854554 -0.25106218 0.5167569 0.37979588 1.7940593 -0.073908314 0.20129502 -0.6902519
-0.997807 -0.08265855 -0.5616576 -0.15210623 1.217735 -1.0108464 0.8700316 0.35233542
1.6235696 0.29843992 0.4328041 1.021882 1.0045568 -0.55688685 -0.27558678 0.68756795
-0.86166435 -0.055066556 -0.41053635 -0.13569668 -0.3672777 -0.9973964 0.9123563 2.750572
-0.35831445 -0.07304454 -0.689978 0.1661838 1.808983 -3.153853 0.34280136 0.033395812
0.9135281 0.8336401 -0.41267967 -0.120313816 -2.8873327 0.90210474 -0.4874925 0.47888878
0.26973054 0.41985705 0.006820397 1.5583187 -0.2658393 -0.3301869 0.37381437 -3.1511986

fc2.bias f4 [64]
00000000: 2cb2 1d3f d47e 5ebf d29a 5ebe f62a 85be
00000010: 7985 9abc 0149 1b3e 1f54 e03e 38f3 e43e
00000020: be86 f4be ce29 08bf 8b34 f23d 7f37 b2bf
00000030: 6853 a13d 015e 3abf a786 91bf 5ebd 10be
00000040: ea62 6cbd b05c 78bf 9026 00be b7bf 053f
00000050: 98ac 93bf 897f 76be 08fb 71be 00d9 3dbf
00000060: 166c 70bf c112 8fbd cdc7 50bf 8723 203f
00000070: 045e 29be c12b 043e a5b4 c63e 1f30 31be
00000080: dbe8 df3e 7f37 4ebf aad0 07bf 73a5 c7bf
00000090: bde0 803f a8b2 16be 2a70 4ebf 38ca 133f
000000a0: e7ed 80be 351d 08bf 8835 f73b b8d5 283f
000000b0: 90a1 f43e 3b69 30bf db8b 3dbf 62e0 d7be
000000c0: 28ea 4d3e 2cd1 91bf 1390 64be 5f92 b1bf
000000d0: 02eb 2d3f bef7 6d3f 75dc 443f 3916 54be
000000e0: 6fd0 96bf f83b 39bd 9ff4 d13e c1e6 fc3e
000000f0: 419d b5be 310f 02bf ac43 1cbe 2726 a5be
0.61599994 -0.86912274 -0.21738747 -0.2600934 -0.018862473 0.15164568 0.4381418 0.4471681
-0.4775905 -0.5318879 0.11826428 -1.3923186 0.078772366 -0.7279969 -1.1369218 -0.14134738
-0.05771152 -0.9701643 -0.1251471 0.5224566 -1.1537046 -0.24072088 -0.23630917 -0.7415924
-0.93914926 -0.06985999 -0.8155487 0.6255421 -0.1653977 0.12907316 0.38809696 -0.17303513
0.43732342 -0.8055343 -0.5305277 -1.5597366 1.0068585 -0.1471659 -0.806399 0.57730436
-0.25181505 -0.53169566 0.007544223 0.6595111 0.47779512 -0.6891057 -0.7404153 -0.42163378
0.20108855 -1.1391959 -0.22320585 -1.3872794 0.6793672 0.9295615 0.7689889 -0.20711602
-1.1782359 -0.045223206 0.41006944 0.493948 -0.35471538 -0.5080443 -0.1526019 -0.3225567

fc3.weight f4 [4, 64]
00000000: b1f1 48bf b767 8c3f f153 cebf 3d06 8e3e
00000010: 00d9 c43f 7ff0 afbf 69a4 84bf de9e 883f
00000020: 7d12 703e 4fcf 0ec0 0a77 0bbf d289 a83f
00000030: cbd6 79c0 d73e a2bf 2ea8 76c0 8b5b 18bf
00000040: 1ec4 8cbf 6a4a bebe 7e41 2ebf 4e16 84bf
00000050: 36fe 17c0 38d3 91bf 29f6 95bf 778c bfbf
00000060: 0612 73c0 40b4 ccbc 7e95 e53f 7692 6dbf
00000070: cf1e b7be ac5a cabf e4e3 d8be ac9c cabe
00000080: 7119 1340 f2da 29bf ee19 5640 7345 98bf
00000090: 066b a4be 79c7 a7bf 5e18 c13e b19a 1bbf
000000a0: 9238 8abc ad07 b13d 7297 08be 3d0a c03f
000000b0: 4677 64be 33db 8140 7202 7fc0 61a0 62bd
000000c0: 3c4a 27bf ccab 36c0 6faa 8cc0 d0a4 4cc0
000000d0: ef04 dfbf 6a0f 8bbf d3f0 54bf 3c8b 883c
000000e0: 3145 b0be c636 c6be 5012 e3bd f813 e53f
000000f0: bb91 d3bd 5296 89c0 d012 423d ab24 883e
00000100: b3bd 5e3e 44e5 e9bf 8dd4 28bf cc92 ca3e
00000110: 522a 0b40 eec4 903f 2353 693f 3967 203f
00000120: 3ea6 7a40 a199 7cbe 5950 9dbf 734f 9dbf
00000130: 1c91 193f aa9d 30bf 5531 02c0 4087 c3bf
00000140: a104 4fbf d951 803e 23fb a4bf 8a54 3ebf
00000150: 6705 8dc0 d52b 96be 27c7 3ec0 dec4 8bbf
00000160: 44b4 48c0 40b0 50bb a721 983f 12df 77bf
00000170: 72c9 9bbc d9a7 073e 081f a7bf 301b b7bf
00000180: 1d30 1140 6ab3 2fbf 9ebd 1c40 fae1 34bf
00000190: 5513 f4be 5f9e df3e f128 64c0 24e0 31be
000001a0: ad1d f0be faa3 62c0 ed13 b73f e244 fe3f
000001b0: 32f4 36bf 2811 6c40 c5d3 22c0 289d d9bf
000001c0: a4db 063f f53a abc0 5f0f 1ac0 321f 1cc0
000001d0: c0e8 e9bf 640a 9cbf c3c8 6abf cf84 cabd
000001e0: 70ba a4c0 8b89 a7bf 8ec7 76bf cfab ea3f
000001f0: 521c e73f c033 5fc0 204d 983d e37f 46c0
00000200: 2c17 fa3e a071 eabf cdc1 5d3e 7889 7bbf
00000210: 05d9 b540 fa1f aabe 0215 943e 99f2 4ebf
00000220: eb5e 1740 744b 00bf da20 4bc0 cac0 d8bf
00000230: baed a3bf 2be0 b8bf eb65 5bc0 343c 41c0
00000240: b8b0 99bf 44b7 54c0 f743 22c0 578e fa3d
00000250: 03c9 5fc0 beb2 90bf c157 81bd fdf1 28bf
00000260: aa27 46c0 bec3 d2bc 52ba 533f 3b5a c43f
00000270: 6602 d9bf 27eb 75c0 87d9 81bf a84e a8c0
00000280: c056 493e 8cd7 f9be 6f29 aabf 0259 29c0
00000290: ba73 aa3e 53b2 bd3f bc29 fcbf 3e07 e13e
000002a0: c37d cf3e bea1 52c0 7323 a4bf f29f 3d40
000002b0: d17b 503d af47 d040 5000 1cbf 71aa 5fc0
000002c0: 9544 38c0 5e3e a6bf f8ac bcbf 10b5 4ac0
000002d0: 45ef 66bf be65 1cbe 9d2c e0be c567 ddbb
000002e0: a8e2 b8bf bddd 683f f707 953e e211 cd3f
000002f0: a47f 72bf 79aa d3bf 8252 a93d 7baf 4ec0
00000300: ba99 07bf 5f3c 92c0 c366 f2be 4711 da3d
00000310: df5b 0240 8b6d 5a40 bc4d f23e 024c 6d3f
00000320: 510c 0e40 4c79 b6c0 1f09 eabf 7c92 2ac0
00000330: 23a2 93bf 9f00 64bf dbdd 37bf b1fc 97bf
00000340: 198c c1bf 9cfb 4f3f af66 913e babf 98bf
00000350: 684d 4cc0 ba3b 32bf 1301 4cbf cce5 58c0
00000360: 822c 47c0 3e73 bdbd a7d1 0a40 b135 fe3e
00000370: 044a 0dbf a963 e8bd 479f e4bd 2d13 1a3e
00000380: 59aa dc3f bc8e 6fbf ee1f 6040 f321 72c0
00000390: 37f4 8ebf 9dda 653f 47d0 50bf 0543 c1bf
000003a0: 46f8 5dc0 b1d5 84bf 87fc 9cc0 a8a0 2640
000003b0: 8bc6 5a3d 7f19 7f40 3ee3 4bc0 ff45 0fc0
000003c0: 7bed e4bf 9ab3 9dbf 82fb 83c0 5d00 5dc0
000003d0: d944 f5bd 0e7b bebe e59e 26bf 918b c23d
000003e0: 0264 463d e07e 19c0 ce94 22bf e646 3c40
000003f0: 97c7 c13f 9f31 68c0 6c84 703c 1db4 cebf
-0.7849379 1.0969151 -1.6119367 0.27739134 1.5378723 -1.3745269 -1.0362674 1.0673482
0.23444553 -2.231403 -0.54478514 1.316706 -3.903735 -1.2675427 -3.8540149 -0.59514683
-1.099735 -0.37166148 -0.68068683 -1.0319307 -2.3748908 -1.1392584 -1.1715747 -1.4964741
-3.797975 -0.024988294 1.7936246 -0.92801607 -0.35765693 -1.5808921 -0.42361367 -0.39572656
2.2984278 -0.6634971 3.3453326 -1.1896194 -0.32112902 -1.3107749 0.37713903 -0.60782915
-0.016872678 0.08644042 -0.13339022 1.5003124 -0.22311124 4.0580077 -3.9845243 -0.05532873
-0.6534765 -2.8542356 -4.395805 -3.1975594 -1.7423381 -1.0864079 -0.8317997 0.016667955
-0.3442779 -0.38713664 -0.11087477 1.7896719 -0.1033053 -4.2995996 0.047381222 0.26590475
0.21752052 -1.8273091 -0.65949327 0.39565122 2.174458 1.1310098 0.9114248 0.62657505
3.9163966 -0.2466798 -1.2290145 -1.2289871 0.59987044 -0.68990576 -2.034261 -1.527565
-0.8086644 0.25062445 -1.2889141 -0.74347746 -4.4069095 -0.29330316 -2.9809053 -1.0919454
-3.1360025 -0.0031843334 1.188527 -0.96824753 -0.019016955 0.13247623 -1.3056345 -1.4305172
2.2685616 -0.6863314 2.4490733 -0.7065731 -0.47671 0.43675515 -3.5649989 -0.17370659
-0.4689764 -3.5412583 1.4302956 1.9864771 -0.7146636 3.6885471 -2.5441754 -1.7001085
0.52678895 -5.350947 -2.4071882 -2.439404 -1.8274155 -1.2190671 -0.9171259 -0.098886125
-5.1477585 -1.308885 -0.96398246 1.8333682 1.8055518 -3.4875336 0.074365854 -3.1015556
0.48845804 -1.8315926 0.2165596 -0.98256636 5.6827416 -0.3322752 0.28922278 -0.80838925
2.3651683 -0.5011513 -3.17388 -1.6933835 -1.2806923 -1.4443411 -3.4280956 -3.0192995
-1.2007055 -3.3236856 -2.5353982 0.122341804 -3.4966438 -1.1304548 -0.06315566 -0.65994245
-3.096171 -0.025728103 0.8270618 1.5340036 -1.6953857 -3.8424776 -1.0144509 -5.2596016
0.19661999 -0.48797262 -1.3293895 -2.6460576 0.33291417 1.4820045 -1.9700236 0.43950838
0.40525636 -3.291122 -1.2823318 2.9628873 0.05089933 6.5087504 -0.60937977 -3.494778
-2.879186 -1.2987783 -1.4740286 -3.1673012 -0.90208846 -0.15273187 -0.43784037 -0.006756755
-1.444417 0.90963346 0.2910764 1.6021082 -0.94726014 -1.6536399 0.0826769 -3.2294605
-0.52968943 -4.5698695 -0.47344026 0.10647827 2.0368574 3.412936 0.47324932 0.92694104
2.2195017 -5.7023067 -1.8284034 -2.6651907 -1.1533855 -0.8906345 -0.718229 -1.187399
-1.512088 0.812433 0.28398654 -1.193351 -3.1922245 -0.69622386 -0.7968914 -3.3890257
-3.1120915 -0.09250496 2.1690462 0.49650338 -0.55191064 -0.11347134 -0.11163192 0.15046377
1.7239486 -0.9357717 3.5019488 -3.783322 -1.1168278 0.897867 -0.81567806 -1.5098578
-3.4682784 -1.0377713 -4.905826 2.6035557 0.053412 3.9859312 -3.1857448 -2.2386472
-1.7884973 -1.2320435 -4.1244516 -3.4531472 -0.11976022 -0.37203258 -0.65086204 0.094992764
0.04843522 -2.3983688 -0.6350831 2.9418273 1.5139035 -3.6280286 0.014680009 -1.6148716

fc3.bias f4 [4]
00000000: f155 6cbf e8ab 2cbf 12ab 263f 21a1 0dbf
-0.92318636 -0.6744981 0.6510478 -0.5532399
