weights/g0.1_lr1e-05_decay_0.99999999.pth (torch, 12865 bytes, 6 tensors)

fc1.weight f4 [32, 8]
000000 b1 cc 6c 3e bb 74 49 bf 90 10 fa bc 32 e6 d1 be
       0.23124959 -0.7869374 -0.030525476 -0.40995938
000010 2b 70 ba 3c 4d b5 20 3e bb b6 c5 3e 6f 23 6a 3f
       0.022758564 0.15694161 0.38615975 0.9146032
000020 3f 64 48 3e f9 b4 80 bf 4f cd 19 be 74 26 ef 3d
       0.19569491 -1.0055228 -0.15019725 0.11677256
000030 aa 86 2d bd ee ab a3 bf 0f 21 15 be 54 be 4e 3f
       -0.042364754 -1.2786844 -0.14563392 0.8075917
000040 e4 2a 35 be ee 31 05 bf c3 5d b9 be 53 72 cb be
       -0.17692143 -0.5202931 -0.36204347 -0.3973566
000050 07 b6 c9 3e 4a e2 0b 3f ae b0 02 3f 4d 02 47 3f
       0.39396688 0.54642165 0.5105084 0.77737886
000060 48 9f 68 3e 4d bb d4 be 71 26 8b 3d f7 b2 c9 be
       0.22717011 -0.4154915 0.067944415 -0.39394352
000070 15 22 4c bf 1c 46 07 3e 82 c3 b9 3d 99 6e 9f 3f
       -0.79739505 0.13210338 0.09070493 1.2455627
000080 dd ff bf be a9 27 c6 bf d0 78 2c be 47 51 a0 be
       -0.37499896 -1.5480853 -0.16842961 -0.3131201
000090 a9 38 da 3d 91 87 45 3e f1 0e 16 3f 8c 73 24 3f
       0.10655338 0.19289996 0.5861655 0.6423881
0000a0 6e 82 a7 3e b4 8a c7 bf 1c 62 67 3e 78 90 0e bd
       0.32716697 -1.5589204 0.2259602 -0.034805745
0000b0 24 13 05 be d7 af 89 be 27 95 68 3f c8 e8 3d 3f
       -0.12995583 -0.26891968 0.9085259 0.7418332
0000c0 fe 3b 95 be 7a 9e 34 3f 19 80 85 be d7 77 a4 3e
       -0.29147333 0.70554316 -0.26074293 0.3212268
0000d0 e5 28 5d 3f 21 55 22 3f a1 95 a6 be af aa c7 be
       0.86390525 0.63411146 -0.32536033 -0.3899741
0000e0 69 03 af 3e 9d 09 8c bf 70 3a 00 be 9e 21 93 be
       0.3418229 -1.0940434 -0.12522292 -0.28736585
0000f0 5d bc 82 3e 04 17 a9 3e d3 7f 32 3e 32 44 36 3f
       0.25534335 0.33025372 0.17431574 0.7119781
000100 2c 9b e9 bc 9d 49 41 3e 19 10 5e be 53 88 bc be
       -0.028516375 0.18875737 -0.21685828 -0.36822757
000110 6a 54 00 3f 3b 71 4b 3f 4e f8 90 bf fe 31 32 bf
       0.50128806 0.7946965 -1.1325777 -0.6960753
000120 c6 fc a6 3d 8a f3 3d be 6e bf 57 3f 90 c2 7a 3f
       0.081536815 -0.18549934 0.84276474 0.9795313
000130 5d 7b 41 be 5a 4f 90 bf 42 78 47 3f b8 c2 e3 3e
       -0.18894716 -1.1274216 0.77917874 0.44484496
000140 94 96 0b bf 6c 46 37 be 64 4a ad 3e ac 53 54 bf
       -0.5452664 -0.17897958 0.33845818 -0.82940173
000150 6e f8 7f bd f6 6a fc 3e 94 59 0c be 4f c3 24 bf
       -0.06249278 0.49300355 -0.13706046 -0.6436052
000160 1c f6 41 bd eb f7 56 bf e9 17 a0 be 73 28 eb 3e
       -0.04735385 -0.8397204 -0.31268242 0.45929298
000170 c2 2d 25 3f c6 cb 93 3f 02 5d 70 3e 4b d0 04 3f
       0.64522946 1.1546562 0.2347298 0.5188033
000180 a5 bc 38 be 40 04 94 3e b5 89 70 be 70 bf ee be
       -0.18040712 0.28909492 -0.23490031 -0.4663043
000190 ce 1c 01 3f 75 9d 53 3f ea 3a 16 3f 66 d1 86 b8
       0.5043458 0.82662135 0.58683646 -6.4286214e-05
0001a0 75 c2 c4 be 15 d6 70 be a7 5f 3d be 32 33 b4 be
       -0.3842961 -0.23519166 -0.1849352 -0.3519531
0001b0 4a 4c 3a 3e e8 3a f5 3e b0 df 93 3e 69 a9 39 3f
       0.18193164 0.47896504 0.28881598 0.72524124
0001c0 ae 0b 0a bd 76 6e 03 3f 26 f2 3b 3f 99 e5 ac be
       -0.033702545 0.51340425 0.73416364 -0.3376892
0001d0 68 78 c4 be 13 34 9a be c4 af 2f 3f 76 96 a3 3e
       -0.38373113 -0.30117854 0.6862757 0.3195073
0001e0 c4 1b 45 3f 85 45 86 bf fb e3 48 3d e8 92 88 3e
       0.7699549 -1.0489966 0.049045544 0.2667458
0001f0 77 a2 27 bf 61 77 17 bf 8c 34 d9 3e ec c7 7f 3e
       -0.65482277 -0.5916653 0.42422903 0.24978608
000200 39 c7 f5 3c 04 48 58 bf 27 c0 f8 bd 8e 7f 6e 3f
       0.030002223 -0.8448489 -0.12146025 0.93163383
000210 25 b6 5a bf 1a d5 84 3e 78 ed 17 3f e5 f3 7e be
       -0.8543418 0.25943834 0.59346724 -0.24897726
000220 69 54 90 3a 2b 2d 2d bf 29 b6 19 bc ef 0a fd 3d
       0.0011011484 -0.67647046 -0.009381809 0.12355601
000230 42 4e b7 3e 4c 86 bb 3f c1 58 60 3f fa fe d1 be
       0.35801893 1.4650359 0.8763543 -0.41014844
000240 cf f3 48 3e 5c 5f 12 be b8 30 0e 3f f7 9c 4e 3d
       0.19624256 -0.14294189 0.5554309 0.050442662
000250 34 31 2d bf c2 8b 1f bf 73 09 82 be 42 73 36 3d
       -0.67653203 -0.6232263 -0.25397834 0.044543512
000260 bc 9f 7d be 4b 44 ac bf ea b6 16 3e 37 ff 38 be
       -0.24767965 -1.3458341 0.14718214 -0.18066107
000270 ad 19 3d 3f 61 39 10 bf c0 f4 ae bd 17 ec ff 3e
       0.73867303 -0.56337553 -0.08542776 0.4998481
000280 ca dd 69 3f 63 db 44 bf 20 e3 63 3d 02 70 74 be
       0.9135405 -0.7689726 0.055636525 -0.23870853
000290 58 b0 01 be 66 cd f6 3e 45 5c 04 be cf dd 6d 3f
       -0.12664926 0.48203582 -0.12925823 0.9291658
0002a0 45 c5 a7 be 72 1e 6b 3f 7b e0 c5 bd d5 8d 95 3c
       -0.32767692 0.9184333 -0.09661957 0.018256107
0002b0 1f 8d 3b 3f 9a 36 01 40 75 a2 04 bf fe 6b 59 3e
       0.7326221 2.0189576 -0.5181039 0.21232602
0002c0 4f 36 8f be 5f ba b6 bf 07 05 ec 3c 6d 97 13 be
       -0.27971122 -1.4275626 0.028810991 -0.14413233
0002d0 26 85 9c 3e 0e 7d ec be a8 37 93 3f 5c c3 f1 3e
       0.30570334 -0.4618916 1.150136 0.4721936
0002e0 5a 85 9d 3e 2e 5b 9f bf f1 da 5f bd df 46 1a be
       0.30765802 -1.2449701 -0.05465216 -0.15066098
0002f0 56 2c 5c 3d 51 32 8d 3e c0 71 3e 3f 07 36 47 3f
       0.05375322 0.2757745 0.7439232 0.77816814
000300 a5 a4 2a bf 8f 3c 3b bf a2 d1 7b be 4b e0 ae be
       -0.6665748 -0.7313928 -0.24591687 -0.34155497
000310 24 82 87 be 21 d4 ca 3d 2f af 9c 3e c0 a6 bb 3e
       -0.26466477 0.09903742 0.30602404 0.36650658
000320 d6 44 97 3e ab 71 53 bf be 80 1e bc f4 ce cc be
       0.29544705 -0.8259532 -0.009674249 -0.40001643
000330 a7 b0 78 bd d4 e6 37 3e 09 5c a0 3e d5 7e 66 3f
       -0.060715344 0.17959148 0.31320217 0.9003728
000340 e5 64 bb 3e 1c 11 57 3b 15 76 ab 3d de 9b 01 3f
       0.36600414 0.0032816594 0.08372132 0.5062846
000350 4f 09 9a bd 10 4d 77 be f5 4a 8f bf 3d 07 30 be
       -0.07521307 -0.24150491 -1.119475 -0.17190261
000360 c2 40 96 be 86 2f 91 bf ce 5a 58 3e ff 28 e8 3c
       -0.2934628 -1.1342628 0.21128389 0.028339861
000370 e1 a9 7a be e0 76 c8 3f 07 32 29 3f af f4 2b bf
       -0.24478866 1.5661278 0.6609196 -0.6717023
000380 8c 3d 48 bf 68 3a d1 be 44 61 7d be 0c 4a 55 be
       -0.78218913 -0.40864873 -0.24744135 -0.20829028
000390 81 5e 66 be 7b 35 16 3e 4b 86 da 3e 24 09 3d 3f
       -0.22496988 0.14668839 0.42680582 0.7384207
0003a0 13 dc 20 3e c8 13 32 3f e9 70 16 3d d3 ca 11 bf
       0.15708952 0.69561434 0.036728773 -0.5695011
0003b0 27 f2 b4 bd a3 b2 51 bf ac 23 1c bf 70 1e 0a 3f
       -0.088352494 -0.81913203 -0.6099193 0.53952694
0003c0 ac 28 86 bd 3f 59 5b bf 7f 07 36 bd 7b d8 36 bd
       -0.06550726 -0.85683054 -0.044440743 -0.044640046
0003d0 71 c0 b9 3e 29 35 09 bf 25 9b a3 3f 2e 30 c4 3e
       0.36279634 -0.5359674 1.2781721 0.38318008
0003e0 03 76 14 bf ee 8a c8 bf b5 0f 4e bf 9d 98 23 3f
       -0.5799257 -1.5667398 -0.8049272 0.63904744
0003f0 c1 55 52 3f 6c 0f 0f 3f 84 4c 3f 3f 0e 2a 90 3e
       0.821621 0.55882907 0.7472613 0.28157085

fc1.bias f4 [32]
000000 72 50 17 bf 42 ec be be da 38 a1 be 43 a9 1b bf
       -0.59107125 -0.37289625 -0.31488687 -0.6080515
000010 21 5b 1f bf b8 86 76 be ca 0c bd bd f6 48 a1 3c
       -0.62248427 -0.24074829 -0.09230955 0.01968811
000020 2f 32 57 be fc 9f 21 3f 5f 7e 0d bd 84 ea bd 3e
       -0.21015237 0.6313474 -0.034544345 0.37092984
000030 82 16 f6 3e 9c c9 61 be 95 e9 0e be 66 21 45 bf
       0.48064047 -0.22049564 -0.13956292 -0.77004087
000040 ad ab a9 bd 5a 56 36 be 8f 1d 2f bf 2a d2 2b bf
       -0.08284698 -0.17806378 -0.6840448 -0.6711756
000050 73 43 8a 3d 05 22 a6 be 24 97 c1 be 1a 8a 4c be
       0.06751146 -0.3244783 -0.37810624 -0.19974557
000060 4a 27 e2 be f9 23 03 bf 57 b4 58 be 53 69 8a be
       -0.441706 -0.51226765 -0.21162544 -0.2703348
000070 6b b9 ae be 2e b4 02 3d f0 9c 9a be d3 67 f2 3d
       -0.34125838 0.031910114 -0.3019786 0.11836209

fc2.weight f4 [64, 32]
000000 63 2c 6e be 1d 4c 12 be dd b5 2d 3c 4a 80 bb 3e
       -0.2325912 -0.14286847 0.010602442 0.36621314
000010 d3 9d 39 be bb 58 76 be 6e ab 26 be 10 85 04 bd
       -0.18126611 -0.24057285 -0.16276333 -0.03235346
000020 38 79 60 bf b1 ec 6d be 02 12 17 3f 19 5e 69 3d
       -0.87684965 -0.23234822 0.5901185 0.056974504
000030 62 d2 d8 3d 66 e7 30 3e 6c fa 89 bd 16 23 b8 3d
       0.10587002 0.17275771 -0.06737217 0.08991067
000040 f6 63 dd 3d 78 e2 2c 3e 41 25 3c 3e 90 b1 2e 3e
       0.10810082 0.16883266 0.18373586 0.17059922
000050 1d 76 cb 3e af d5 bd be b4 e8 2a bf 8d 34 2c be
       0.3973855 -0.3707709 -0.66761327 -0.16816922
000060 aa 96 16 3e 11 76 6e be d0 f6 82 3e d9 17 0c 3f
       0.14705911 -0.23287226 0.25578928 0.5472389
000070 dc 86 a4 bd 79 f0 e9 3d 83 fd 02 bf a0 70 fa 3c
       -0.08033535 0.1142282 -0.5116808 0.030571282
000080 a8 1d 19 3f 39 0c 0d 3f 74 5f 77 3e 15 c8 af be
       0.59810877 0.55096775 0.24157506 -0.34332338
000090 e3 37 1c 3f b5 68 23 3e e2 30 07 3e 6c 73 7d 3d
       0.61022776 0.15957911 0.13202241 0.061877653
0000a0 0a 94 d9 3e 71 b7 9c bf ef 44 08 bf 5c e8 fd be
       0.42495757 -1.2243482 -0.53230184 -0.4959134
0000b0 d9 ac fe 3e 03 17 b8 3e 15 d7 28 be bf 2f b0 3e
       0.49741247 0.35955057 -0.16488297 0.34411427
0000c0 93 83 c7 bf 9d 72 62 3f fb 5e f1 3e b8 b5 56 3f
       -1.5587028 0.88456136 0.47142777 0.8387103
0000d0 42 74 ad 3d 78 e7 3b be 73 3f d1 3e f0 03 f9 3e
       0.0846944 -0.18350017 0.4086872 0.48635817
0000e0 47 e6 f4 3d dd bc 21 3f 9c ac b7 bd af 77 31 3f
       0.119579844 0.6317881 -0.089684695 0.6932325
0000f0 33 12 b3 3e 9a df 4d be a8 6f 96 3e 66 cc 96 be
       0.34974822 -0.20104828 0.29382062 -0.2945282
000100 d2 7a 03 3f c0 07 13 3f 7a 2e c1 3e 4e 8b a2 be
       0.51359284 0.574337 0.3773077 -0.31746906
000110 0d 26 84 3e 7f fd 06 bd d3 a6 e5 3d e7 12 94 3d
       0.2581028 -0.032956596 0.1121346 0.07230168
000120 ab a4 97 3e f0 95 a2 bf 22 db b0 be 40 64 2f be
       0.2961782 -1.2702007 -0.34542185 -0.17128086
000130 20 8e e3 3e f7 9f b0 3e 13 46 87 3e 8a fc 9c be
       0.4444437 0.34497043 0.2642065 -0.30661422
000140 76 04 0e c0 ed 46 36 3f df 4f cf bd a5 0f 3c 3f
       -2.2190223 0.71201974 -0.10122656 0.7346137
000150 a0 be 6f 3d f9 93 41 be 69 1c 7c be 01 e7 83 3e
       0.058531404 -0.18904103 -0.24620213 0.2576218
000160 3f 09 8a 3e 21 54 1b 3f 3d a4 13 3e 4c 57 4f 3f
       0.2696018 0.60675246 0.1441812 0.8099258
000170 a3 7b fe 3e 71 29 59 be 17 d6 29 3e b9 22 a7 be
       0.49703702 -0.21207215 0.16585575 -0.3264368
000180 b7 5d e4 3e f2 3c 3d 3f 65 ed 24 3f 53 77 63 3f
       0.4460275 0.7392112 0.64424735 0.8885395
000190 e8 e0 d8 3d 04 b4 69 3e 0d 79 34 bf b7 18 bd 3e
       0.105897725 0.22822577 -0.7049721 0.36932918
0001a0 86 2f 66 bf 88 9b 59 bf 2d eb 01 bf 24 07 d1 bf
       -0.89916265 -0.85002947 -0.50749475 -1.6330304
0001b0 06 7e 16 3e e4 13 ee 3e 23 33 d0 3c 4a ca 47 3f
       0.14696512 0.4649955 0.025415009 0.78043044
0001c0 18 17 6b be f3 54 74 3f 44 6f 12 3f b6 50 dd 3e
       -0.22958028 0.9544212 0.5720103 0.4322564
0001d0 90 bd 23 3f 91 c4 f3 bf 6e 50 bb 3e 81 73 aa 3e
       0.63961124 -1.9044362 0.365848 0.33291247
0001e0 a0 cd 37 3e 69 24 f8 3e 31 00 75 bf 9e 3e 9c 3f
       0.17949533 0.4846528 -0.9570342 1.2206609
0001f0 b2 89 ec 3e 6c 04 45 bc 37 96 8f bd 9c 61 ba bf
       0.46198803 -0.01202498 -0.07011073 -1.4561038
000200 83 84 e2 3d 5e 17 d9 bf fa 30 b3 3e 76 6d 6d 3f
       0.11060431 -1.6960256 0.34998304 0.9274515
000210 c0 7c 90 bd a8 1a 38 bf 39 26 fb be ac 5b 12 3f
       -0.07055044 -0.71915674 -0.490526 0.5717113
000220 a5 5b 59 3e 56 91 a8 bf 82 a6 ce 3e e8 95 e1 3e
       0.21226366 -1.3169353 0.4036141 0.44059682
000230 76 46 a7 3e b2 16 52 3e e0 f7 1d bf 2c f8 8b 3e
       0.32670945 0.2051647 -0.6170635 0.27337778
000240 1e 47 d9 3f 9c c8 c1 3e 8c 41 05 3f 74 7c dd bf
       1.6974828 0.37848365 0.5205314 -1.7303605
000250 9c 69 6c 3e f9 e5 16 3e 6b cd f6 bf b7 d0 43 3d
       0.23087162 0.14736165 -1.9281439 0.047806468
000260 67 4f fe be 36 d8 eb 3d 80 ec 3c be 86 25 f8 3e
       -0.49669954 0.11515848 -0.18449593 0.48466128
000270 38 68 e3 be 77 3c 20 3f 55 08 2b c0 8f c8 03 be
       -0.4441545 0.6259226 -2.6723835 -0.12869476
000280 bc bb c8 3c 5b 2c 38 bf 1b f3 5d 3d e7 05 89 3e
       0.024503581 -0.7194268 0.05418692 0.26762316
000290 ad 18 c1 bd 46 02 c4 be c2 62 54 3f b4 56 89 3e
       -0.09428535 -0.38282984 0.8296319 0.26823962
0002a0 45 37 da be 1f 31 7c 3f f4 a5 8f 3e dd 05 69 bf
       -0.42620292 0.9851245 0.280563 -0.9102457
0002b0 cb 01 fd be f7 38 a0 bd 95 76 9d 3d 19 bc 9a bf
       -0.4941543 -0.07823365 0.07688633 -1.2088653
0002c0 3f 1f 0a bf bb 6c dd 3e f0 07 31 be 05 06 7e bf
       -0.5395393 0.43247017 -0.17288184 -0.99227935
0002d0 f9 f3 af 3e d9 8c 7b bd 13 34 17 bf a4 c8 b0 3c
       0.34365824 -0.06141362 -0.59063834 0.021580048
0002e0 ef 7b a1 3e 73 be 65 bd 6b 13 8d 3d 2a e2 04 3f
       0.31539866 -0.05608983 0.06888469 0.519076
0002f0 55 c5 eb be c8 7d be bd af aa 88 bf c7 d9 ba be
       -0.4604899 -0.093013346 -1.0677088 -0.36494276
000300 2c 12 96 3e 93 0d 29 3f 31 bb ff 3d 0e 06 05 bf
       0.2931074 0.6603634 0.12486876 -0.51962364
000310 74 ed 82 3e ad 07 97 3c 39 53 85 3d 31 51 ac 3d
       0.25571787 0.018436277 0.06510014 0.084139235
000320 a7 d4 df 3e 1d 57 af bf 4e fd 27 be 4f 85 75 be
       0.43716928 -1.369846 -0.16405222 -0.23976634
000330 74 5e db 3e 1f fb 82 bd a1 c7 8c 3e e2 c1 b0 be
       0.428455 -0.06395554 0.27496055 -0.3452292
000340 92 c6 13 c0 04 44 52 3f 35 19 67 3c c1 f7 2e 3f
       -2.3089948 0.82135034 0.014105131 0.6834679
000350 37 51 bc bd 62 99 01 bd fe cf 4d 3d dd fa 08 3f
       -0.09195178 -0.031640418 0.050247185 0.53507787
000360 83 a4 05 3e ff 30 6d 3e 7a 45 3c 3d 04 8e 52 3f
       0.13051037 0.23163222 0.045964696 0.8224795
000370 48 23 65 3e f3 40 b0 be 82 10 2b 3e f4 f1 ae be
       0.2237674 -0.34424552 0.16705516 -0.3416897
000380 65 2d 0d 3f 05 2f f1 3e ce ce 40 3f c0 c2 42 3f
       0.5514739 0.47106186 0.7531556 0.76078415
000390 96 2a ae 3e 4c 38 ac 3c 3c 22 d5 3f 4a 23 20 3f
       0.34016865 0.021022938 1.6651073 0.62553847
0003a0 e0 30 87 bf 93 8c dc bd b1 54 be be c0 d6 e9 bf
       -1.056179 -0.10769 -0.3717399 -1.8268661
0003b0 fd ce e8 be 9d 6d 8a 3e 45 e1 de 3e 7b e4 27 3f
       -0.4547042 0.27036753 0.43531242 0.6558301
0003c0 a2 45 95 be e1 5a 90 3f 2e e2 81 3f 5d 05 01 3f
       -0.29154688 1.1277734 1.014715 0.5039881
0003d0 6d 92 0c 3f d6 43 08 c0 29 6e 78 3d 37 40 5c 3e
       0.5491093 -2.1291404 0.060651932 0.21508871
0003e0 2a f3 44 3e 0f 9d d6 3e 31 0b 54 bf 9b 8e bc 3f
       0.19233385 0.419167 -0.82829577 1.473102
0003f0 69 3a 57 3e 57 1f ca 3e 18 79 92 bd 95 30 bf bf
       0.21018375 0.39477035 -0.07152003 -1.4936701

fc2.bias f4 [64]
000000 d8 2e 84 3e 62 3b 07 be 9d fb 3c be d1 26 0b bf
       0.2581699 -0.13206246 -0.18455358 -0.54356104
000010 93 fc e7 3e 96 d9 27 bd b9 7c 51 be d1 02 f7 3d
       0.45309886 -0.04097899 -0.20457734 0.12061084
000020 4b 4d 63 be c0 97 b0 3d 59 4b 24 bf 47 44 bc bc
       -0.22197454 0.08622694 -0.6417747 -0.022981776
000030 ce 36 d1 be 6d b5 2c bf f0 8c 08 3f 45 ea 0b bf
       -0.40862125 -0.67464334 0.53340054 -0.5465434
000040 a2 c4 0c bf 8f 2f 8b be b0 cd db bd 7c 9e ab be
       -0.5498754 -0.27184722 -0.10732591 -0.3351935
000050 9b 7c 9f 3c d1 f1 22 3d d2 bb c8 be dd c1 ac 3e
       0.019468596 0.039781395 -0.39205796 0.33741656
000060 25 c6 19 bf bd 05 6c bd f5 04 41 3f 71 cc 42 be
       -0.6006797 -0.05762266 0.7539819 -0.190233
000070 8a 8b 6b be d9 06 b2 3d fd 26 ec be e0 ba f2 be
       -0.23002449 0.08692712 -0.46123496 -0.474082
000080 82 70 9c be a8 83 02 bf aa 45 3d be 60 5c 9c be
       -0.30554587 -0.5098214 -0.18483606 -0.30539227
000090 cd 95 d4 3d b9 ff 0a bf 04 e8 2b be 2e e4 a1 3e
       0.10380135 -0.5429645 -0.16787726 0.316194
0000a0 4b bf ab 3e 72 6e 5b bf b1 f1 aa be 6a de c4 be
       0.33544382 -0.857154 -0.3338752 -0.38450938
0000b0 ad 71 9a 3d ca de da bd 1b ce 29 bf 09 dc 0a bf
       0.07541213 -0.10687025 -0.66330117 -0.54241997
0000c0 e2 cf f3 be c4 a2 f1 be 6f 2c 5d 3e 7d 14 6c be
       -0.4761954 -0.47194493 0.21598981 -0.2305469
0000d0 56 b1 cd bd 6a a3 71 be f5 ef 92 3b 90 1b aa 3e
       -0.1004359 -0.23597494 0.0044841715 0.33224154
0000e0 1e 02 6d be a7 78 3f 3f fd 5e 0f 3e de 48 93 3e
       -0.23145339 0.74793476 0.14001079 0.2876653
0000f0 6d f8 25 bf 67 20 81 bd b4 de 88 be b0 9a 26 bf
       -0.6483219 -0.063050084 -0.2673241 -0.65079784

fc3.weight f4 [4, 64]
000000 08 1c 5f bf ad 82 c6 be d7 fa c4 be c1 ac 44 bf
       -0.8715215 -0.38771573 -0.38472626 -0.768261
000010 69 35 d9 3e bd 08 61 bd a5 72 0c bf 4e fa 1b bf
       0.4242356 -0.054939974 -0.54862434 -0.6092881
000020 77 7c 1c bf ae 60 d9 be 0d ea 60 bf ce 50 94 bf
       -0.6112742 -0.42456573 -0.87857133 -1.158716
000030 25 51 4d be ab a1 1f bf 68 97 27 be ab 37 4b bf
       -0.20050485 -0.6235606 -0.1636635 -0.7938182
000040 09 80 18 bf d7 cb cd be 40 8a af be 15 6c 61 bf
       -0.59570366 -0.4019458 -0.34285164 -0.88055545
000050 60 b3 f4 be ef 2e 14 bf 5e bf 1a bf 69 e7 7a bf
       -0.47793102 -0.57884115 -0.60448253 -0.98009354
000060 6c d7 55 bf 0b 99 34 bd 4e 1e a6 3f 70 8b 93 bd
       -0.8353183 -0.044091266 1.2977998 -0.0720433
000070 a5 54 d2 3d 04 ca 47 3f b1 df 90 bf 27 f9 6b bf
       0.10270051 0.78042626 -1.1318265 -0.9217705
000080 0a 92 00 bd 74 d5 dc be 3d ef 20 bf 93 0a 08 3f
       -0.031389274 -0.43131602 -0.6286505 0.53141135
000090 2d 73 2a 3f 9c 05 a5 bf d0 c0 2e bd e5 f2 5b 3e
       0.66581994 -1.2892337 -0.04266435 0.21479376
0000a0 90 64 ef be 56 bb 0c bf 48 77 8c bf b2 dc 68 bf
       -0.4675641 -0.5497335 -1.0973902 -0.90961754
0000b0 ef 5f ae be c7 c2 d4 3f be cb 3d bf 61 78 8c bf
       -0.34057567 1.6621941 -0.7413901 -1.0974237
0000c0 2e 76 f3 be cc a0 92 bf 65 1e a2 be b3 dd 01 3d
       -0.475511 -1.1455321 -0.31663814 0.03170557
0000d0 d8 67 4a bd e8 eb 9f bf 20 b4 8a 3d 5a 38 d3 bd
       -0.04941544 -1.2493868 0.06772637 -0.103134826
0000e0 89 b1 e1 bd c9 25 d3 bf ee 78 b0 be 27 ee cf 3f
       -0.1102019 -1.6495906 -0.34467262 1.6244553
0000f0 ec 5c e8 be b6 27 d9 be 0e aa 0b 3e b8 24 3d bf
       -0.45383394 -0.4241311 0.1363909 -0.73884153
000100 5e c3 b0 3e 8f 23 d4 be 16 62 cc be 06 b3 84 bf
       0.34524053 -0.4143338 -0.39918584 -1.0367134
000110 f4 cf 91 3f d1 c1 19 3f 56 60 b4 be 36 c2 38 bf
       1.1391587 0.60061365 -0.35229748 -0.7217134
000120 92 11 43 bf 95 93 fa be c5 16 fd be d8 da d2 bf
       -0.76198685 -0.4894072 -0.49431434 -1.6473036
000130 18 df 1c 3c 29 14 5f bf 9e a6 33 be 0c 48 21 bf
       0.009574674 -0.87140137 -0.17544028 -0.6300056
000140 96 71 2b bf 68 fa 1b bf d0 80 02 bf 3c 05 a6 bf
       -0.66970193 -0.60928965 -0.509778 -1.2970347
000150 7d e5 1d bf 54 b3 ef be d7 82 14 bf 9f 56 9b bf
       -0.61678296 -0.46816504 -0.58012146 -1.213581
000160 1f df 9b bf 40 b0 50 bb 78 94 07 3f 10 e8 07 3d
       -1.2177466 -0.0031843334 0.5296092 0.033180296
000170 b6 00 10 3e ba 59 1e 3e 7a f6 9d bf 60 35 16 bf
       0.14062771 0.15463915 -1.2340844 -0.58675194
000180 b8 26 b2 3d f7 be 02 bf 39 96 6a bf 79 fc 5a be
       0.08698791 -0.5107264 -0.9163547 -0.21385373
000190 1d a8 27 3e 88 28 83 bf 10 37 8a bd 42 ed 76 3f
       0.16372724 -1.0246744 -0.067487836 0.96455777
0001a0 3f 41 13 be 62 e8 ef be e0 34 88 bf 2a 9a 9a be
       -0.14380358 -0.46856982 -1.0641136 -0.30195743
0001b0 7c da 16 bf 66 1c 4f 3f 6e a0 50 bf 7d 67 83 bf
       -0.5892713 0.8090271 -0.81494796 -1.0265957
0001c0 7e fb c5 be 72 9b 81 bf ff 1b 2a bf 02 3e 69 bc
       -0.38668436 -1.0125563 -0.6644897 -0.014235975
0001d0 a7 d0 6b 3c 02 93 97 bf ef 1b 9a be c9 a4 1b be
       0.014393008 -1.1841738 -0.30099437 -0.1519958
0001e0 65 54 be bc 9f 37 a9 bf d0 b8 11 bf b0 6d 83 3f
       -0.023233602 -1.3220099 -0.56922626 1.0267849
0001f0 5f d0 47 3e ea 88 11 bf 22 40 8c 3d ae 6a 25 bf
       0.19513081 -0.5684954 0.0684817 -0.64615905
000200 60 c8 dc 3d c5 ec 72 be e6 8b 8e be eb cc 93 bf
       0.10780406 -0.23723133 -0.2784111 -1.1546911
000210 db 86 da 3f 86 44 d6 bf 7d 65 7b be af c2 89 bf
       1.7072405 -1.6739662 -0.24550433 -1.0762538
000220 29 c5 5f bf c6 d1 92 be 3f 8b 24 bf 7c 78 c3 bf
       -0.8741022 -0.2867567 -0.6427497 -1.5271144
000230 5c 74 b4 be 1a 61 67 bf b3 7d 9c bf 3f 87 27 bf
       -0.35245025 -0.9038254 -1.222586 -0.65440744
000240 16 d9 d2 be 07 23 57 bf ad 59 8f be 4b ea 7f bf
       -0.41181248 -0.8403782 -0.27998105 -0.9996688
000250 c5 c2 fb be 4f de 96 be f9 48 04 bf 38 1c cb be
       -0.49172035 -0.29466483 -0.5167385 -0.39669967
000260 82 f9 7a bf 6d d5 26 3c 39 b7 d4 3f 5e c3 b6 3d
       -0.9803697 0.010182721 1.6618415 0.08923982
000270 a1 e6 ba bd 74 b9 d8 3e ab 6f 23 bf 69 d7 4c bf
       -0.0912602 0.4232899 -0.63842267 -0.8001619
000280 06 cc 8a be 1b 08 00 bf 3d 4f 50 bf 59 c2 0e 3d
       -0.27108783 -0.5001237 -0.8137091 0.034853313
000290 4a 6d 27 3f f7 fd 53 bf 60 3f 5b bc 6f 8d 07 be
       0.65401137 -0.82809395 -0.013381809 -0.13237546
0002a0 5b 55 60 3f 47 5a 22 bf 38 96 41 bf 1a f7 13 bf
       0.8763024 -0.63419 -0.7561984 -0.5779892
0002b0 c7 09 6f be 42 a2 7f bd b1 9c 99 be 0c 01 1f bf
       -0.23343574 -0.0624106 -0.3000236 -0.6211097
0002c0 2d 9b 3e bf 50 2c 34 bf 4f 97 90 be ac f8 39 bd
       -0.7445553 -0.70380116 -0.2824044 -0.045403168
0002d0 7c 31 fe bd 99 88 b3 be 0f 5d bd bd 77 7d 9d bf
       -0.12411782 -0.35065153 -0.09246265 -1.2303914
0002e0 79 7b ad 3c 3a 5d 87 bf c3 c0 9b bd 31 bf c2 3e
       0.02117704 -1.0575325 -0.07605126 0.38036492
0002f0 a7 17 1d bf 7e bc a3 be 9b 12 24 3e b7 e3 1f bf
       -0.61364216 -0.31979746 0.16022722 -0.6245684
000300 7b 8f 19 be 90 f6 ff be 5b 92 05 bf 03 c1 56 bf
       -0.1499614 -0.499928 -0.52176446 -0.8388826
000310 9b 83 82 3f b8 26 9e be 86 11 02 bf 57 33 2f bf
       1.0196413 -0.30888915 -0.5080799 -0.68437713
000320 a9 0c f6 be 56 03 1c bf 54 44 23 bf d6 d8 b6 bf
       -0.48056534 -0.6094259 -0.63776135 -1.4284923
000330 85 7f bd be 1d c0 55 bf 80 15 4b bc 4a 7e 35 bf
       -0.37011352 -0.83496267 -0.012395263 -0.70895827
000340 fe f5 0b bf 66 e1 6d bf 21 35 02 bf 6b 5c 93 bf
       -0.5467223 -0.92922056 -0.5086232 -1.1512579
000350 dc 48 25 bf ca 18 d1 be 21 f0 20 bf aa a5 7f bf
       -0.645643 -0.40839225 -0.6286641 -0.9986216
000360 05 d2 7a bf 2f 08 cd bd 26 25 bf 3f 38 fd 6c 3d
       -0.97976714 -0.100113265 1.4933212 0.057858676
000370 4e c4 a0 bc 71 6e 0b 3f 80 bc 14 bf f9 0e 24 bf
       -0.019624855 0.54465395 -0.5810013 -0.64085346
000380 29 aa 02 3e 06 0b 45 bf 41 8d b1 be 3e 08 04 bf
       0.12760223 -0.76969945 -0.3467808 -0.51575077
000390 17 ca 1d be 78 c9 68 bf 75 10 05 bd 8c 77 45 3e
       -0.15409122 -0.90932417 -0.032486398 0.19283885
0003a0 d8 7c 05 bf 2e a1 19 bf 4e a8 47 bf 8a 2a 13 bf
       -0.5214362 -0.60011566 -0.7799119 -0.57486784
0003b0 41 22 d6 be d2 a4 85 3e 10 e0 31 bf 7c d7 2c bf
       -0.4182301 0.2610231 -0.6948252 -0.67516303
0003c0 f0 ae 38 bf 98 dc 4b bf 62 aa cb be 4b 5e b1 bc
       -0.72141933 -0.79633474 -0.3977843 -0.021651408
0003d0 b3 05 e4 3c 95 73 63 bf 34 00 ce be 8d 2e c3 3e
       0.027834749 -0.8884824 -0.4023453 0.38121453
0003e0 49 1a 80 3d 84 c8 cc bf bd 58 30 3f 2d 61 8c 3f
       0.062550135 -1.5998693 0.68885404 1.0967156
0003f0 91 23 8c be e1 dc 10 bf b6 b2 ad be 56 f1 42 bf
       -0.27370885 -0.56587034 -0.33925408 -0.761495

fc3.bias f4 [4]
000000 62 96 36 be d0 29 99 be 12 86 5e 3e 5c 71 08 3e
       -0.17830804 -0.29914713 0.21730831 0.13324493
