weights/g0.1_lr0.001_decay_0.9999.pth (torch, 12865 bytes, 6 tensors)

fc1.weight f4 [32, 8]
0.079483844 0.020559514 -0.7369692 -0.7867214 -0.48981312 0.25423276 -0.12329858 -0.70871365
-0.5035758 -0.33575368 -0.36986804 -0.32799134 -0.52439505 -0.08357028 0.13884543 0.6809464
-0.16347346 0.4202711 -0.9610075 -0.16930574 0.28647995 0.46915185 0.31073433 -0.28776994
0.3129043 -2.448844 0.15836185 -0.5480378 -0.27679282 -0.3638512 0.3366171 0.32421467
-0.029614408 -2.156197 -0.21199813 -0.44889593 -0.24320708 0.14685296 0.9934614 0.4383239
0.29602286 -2.2651584 -0.066342756 -0.7809555 0.0140670175 -0.40489054 0.6994306 0.19751748
-0.32289413 -2.9783964 0.25953245 0.47175968 0.28407258 0.4099569 0.8723655 0.07882457
0.27348575 -1.3583684 -0.22600055 -0.22208396 0.29715958 0.38676456 0.5589327 0.8166111
0.4662905 0.109948985 -0.29219684 0.08518948 0.4176114 0.44907027 -0.26084444 -0.35664517
1.4234123 1.660628 0.9161682 0.43907073 0.31288162 0.016436232 0.27727655 -0.4703624
0.028435169 0.030040525 1.0544561 -1.095861 -0.26557425 0.2127433 0.59087235 -0.6903181
0.6340017 0.00058339746 -0.2333985 -0.25516132 0.5619585 0.03946632 -0.48383963 -0.25277978
0.15721929 -0.008606391 -0.10820196 -0.0773702 0.77903163 0.5771304 -0.3098853 0.026264612
-0.13349213 -3.0928273 -0.23567756 -0.5673134 -0.030917238 -0.028551046 0.41795102 -0.002575639
0.052805226 -0.0073973564 1.0552924 -0.6199363 0.13471234 -0.16009071 0.8441804 -0.0069850176
0.06902514 0.09268069 -0.073492385 0.11315722 -1.1401166 -0.50239444 0.13367583 0.12396986
-0.6574003 -0.08432524 -0.8247898 0.7904898 -0.60734946 0.296597 0.57738084 0.18337178
-0.26156828 0.19208635 -0.54161304 0.07416488 0.4757037 0.20916292 0.44222596 -0.9162003
0.19363426 0.21853183 1.1604384 -0.58998495 -0.30294135 -0.032037202 -0.8509596 -0.003903312
0.19921978 0.6699581 0.7376196 -0.9290761 0.17026074 0.061458167 -0.28864145 -0.080249265
0.16969019 0.22768652 -0.7224675 -0.5620399 0.4856399 -0.4587294 -0.008209815 0.5413364
-0.036763985 -2.7259517 0.15280788 -0.33457324 0.6887839 -0.032608368 -0.8621013 -0.007122473
-0.34499183 -4.0590453 0.18651608 -0.28127855 0.38771108 0.0993332 0.6317485 0.13958271
0.5104595 -3.1047924 -0.12679744 -0.21578854 -0.45633775 -0.0475112 0.62076557 0.29679817
0.14206092 -3.6374257 -0.16525546 -0.50942904 -0.30253223 0.70527357 0.031625263 -0.172647
0.14751059 -3.747202 -0.04395987 -0.6321142 -0.1992473 0.5511101 0.091915615 0.15165363
0.07702392 0.033002913 -0.051697847 -0.0233274 0.045048483 -0.035816714 -0.02324686 0.014556094
-0.4684762 -5.9395313 0.22687161 -0.22500007 0.033844877 0.5718795 0.11317775 -0.24174948
-0.057975937 0.1483681 -0.7743321 -0.45319307 0.09443453 -0.26245978 0.27884546 -0.5410024
0.009727994 -0.20750782 0.32411167 -0.6731681 0.42070168 -0.5812277 -0.07451742 -0.47868827
0.59527653 -1.3279899 -0.10998841 0.038236003 -0.12618414 -0.82841915 0.75055414 -0.2456594
-0.078225434 -0.022696823 -0.6286076 -0.15027022 0.64300376 -0.5311511 -1.5507587 0.118212506
00000000: 6dc8 a23d 6d6c a83c 03aa 3cbf 9366 49bf
00000010: c9c8 fabe cc2a 823e f783 fcbd 426e 35bf
00000020: 58ea 00bf e8e7 abbe 585f bdbe 7bee a7be
00000030: c13e 06bf e526 abbd 7f2d 0e3e 8152 2e3f
00000040: 9665 27be c62d d73e 9604 76bf 7c5e 2dbe
00000050: 80ad 923e ac34 f03e 9218 9f3e 9556 93be
00000060: fe34 a03e dcb9 1cc0 9c29 223e 354c 0cbf
00000070: cab7 8dbe b44a babe 1459 ac3e 77ff a53e
00000080: ea99 f2bc 22ff 09c0 0a16 59be b0d5 e5be
00000090: 470b 79be 9f60 163e 7c53 7e3f fd6b e03e
000000a0: 4f90 973e 5bf8 10c0 b6de 87bd b3ec 47bf
000000b0: 5979 663c d04d cfbe e20d 333f 0642 4a3e
000000c0: 6152 a5be 0c9e 3ec0 70e1 843e 7c8a f13e
000000d0: f671 913e dfe5 d13e 5853 5f3f c76e a13d
000000e0: 5306 8c3e 04df adbf b06c 67be fa69 63be
000000f0: 4d25 983e 0106 c63e 3716 0f3f 6d0d 513f
00000100: a1bd ee3e ef2c e13d d39a 95be d277 ae3d
00000110: 29d1 d53e 8aec e53e 678d 85be 329a b6be
00000120: 6032 b63f 758f d43f 008a 6a3f e1cd e03e
00000130: 0532 a03e 47a5 863c 31f7 8d3e 57d3 f0be
00000140: dff0 e83c 8c17 f63c 6bf8 863f 2c45 8cbf
00000150: 59f9 87be 61d9 593e 6943 173f b0b8 30bf
00000160: ef4d 223f 24ef 183a 0400 6fbe 81a4 82be
00000170: 83dc 0f3f 70a7 213d d4b9 f7be 5a6c 81be
00000180: 18fe 203e d201 0dbc fd98 ddbd 4474 9ebd
00000190: 9e6e 473f d1be 133f 49a9 9ebe e228 d73c
000001a0: 29b2 08be e2f0 45c0 7555 71be 733b 11bf
000001b0: 2646 fdbc e2e3 e9bc adfd d53e 0dcc 28bb
000001c0: 4b4a 583d 8665 f2bb d213 873f 25b4 1ebf
000001d0: 08f2 093e d2ee 23be 351c 583f 93e2 e4bb
000001e0: 0d5d 8d3d 60cf bd3d 2d83 96bd f9be e73d
000001f0: 57ef 91bf ec9c 00bf 51e2 083e e9e3 fd3d
00000200: 634b 28bf b6b2 acbd 6d25 53bf 8a5d 4a3f
00000210: 417b 1bbf 90db 973e 3bcf 133f d0c5 3b3e
00000220: 47ec 85be 49b2 443e 27a7 0abf c2e3 973d
00000230: 6f8f f33e ce2e 563e 716b e23e 1a8c 6abf
00000240: 0f48 463e cfc6 5f3e 3f89 943f 4109 17bf
00000250: 211b 9bbe 7139 03bd 7dd8 59bf b5ce 7fbb
00000260: 4500 4c3e 6082 2b3f a3d4 3c3f eed7 6dbf
00000270: d558 2e3e 8fbb 7b3d d0c8 93be ba59 a4bd
00000280: 44c3 2d3e a826 693e a1f3 38bf d9e1 0fbf
00000290: cba5 f83e 94de eabe 7682 06bc 0695 0a3f
000002a0: d595 16bd fe75 2ec0 ab79 1c3e 2f4d abbe
000002b0: 2454 303f 5a90 05bd acb2 5cbf a263 e9bb
000002c0: c5a2 b0be b3e3 81c0 12fe 3e3e be03 90be
000002d0: 1182 c63e 346f cb3d 45ba 213f c5ee 0e3e
000002e0: 79ad 023f ebb4 46c0 30d7 01be acf7 5cbe
000002f0: 1aa5 e9be 1b9b 42bd 7eea 1e3f eef5 973e
00000300: 6b78 113e 95cb 68c0 ba38 29be f169 02bf
00000310: 81e5 9abe cf8c 343f 7e89 013d 60ca 30be
00000320: 040d 173e 28d2 6fc0 440f 34bd 3cd2 21bf
00000330: 7c07 4cbe 8d15 0d3f 413e bc3d 174b 1b3e
00000340: b8be 9d3d 102e 073d 1fc1 53bd 1b19 bfbc
00000350: c284 383d 8cb4 12bd 3370 bebc af7c 6e3c
00000360: 1ddc efbe a410 bec0 0851 683e 6b66 66be
00000370: eda0 0a3d b266 123f bcc9 e73d 2d8d 77be
00000380: 2d78 6dbd cfed 173e a13a 46bf ec08 e8be
00000390: e466 c13d 2161 86be d5c4 8e3e 227f 0abf
000003a0: 2a62 1f3c ee7c 54be f7f1 a53e bf54 2cbf
000003b0: 3666 d73e 57cb 14bf 979c 98bd a116 f5be
000003c0: 0b64 183f 93fb a9bf 9a41 e1bd 5b9d 1c3d
000003d0: 6a36 01be 4713 54bf 5124 403f 238e 7bbe
000003e0: a834 a0bd b0ee b9bc 6dec 20bf 70e0 19be
000003f0: e59b 243f 85f9 07bf 437f c6bf 6619 f23d

fc1.bias f4 [32]
-0.0005810352 0.58156675 -0.7211909 -0.8003713 -0.7578992 -0.42989585 -0.23610508 -0.57626086
-0.8071181 0.88708603 0.17437032 -0.8774642 0.021574447 -0.40887535 0.09645942 0.01946062
-0.23363237 0.24836145 -0.2749387 0.19910096 0.23840664 -0.95805556 -0.6849556 -0.5041817
-0.3575046 -0.6957888 -0.33382463 -0.39769736 0.13880964 0.47446966 -0.7418551 -0.10028322
00000000: 9d50 18ba 8fe1 143f f89f 38bf 22e5 4cbf
00000010: af05 42bf 4f1b dcbe 88c5 71be d585 13bf
00000020: 4b9f 4ebf 1218 633f 228e 323e 7ea1 60bf
00000030: e5bc b03c 1c58 d1be 848c c53d e16b 9f3c
00000040: 533d 6fbe 7752 7e3e c4c4 8cbe 1fe1 4b3e
00000050: df20 743e 2143 75bf 4059 2fbf 0d12 01bf
00000060: d80a b7be 371f 32bf 10eb aabe fd9e cbbe
00000070: 1d24 0e3e b0ed f23e 37ea 3dbf 4a61 cdbd

fc2.weight f4 [64, 32]
0.7210851 0.20587145 -0.42748734 -0.53881913 0.07617467 0.22265325 -0.26168895 0.21447669
0.2190858 0.4055605 0.78554505 -0.08609163 -0.17798154 -0.42802158 0.37227488 -0.50361544
-0.8022279 -0.7573262 -0.4994617 0.86073595 0.20216314 -0.36567047 -0.88447106 -0.4738024
0.28878835 -0.96769345 0.07301762 -0.30954868 -0.29125965 0.3877028 -0.032148357 0.43196774
0.0967494 -0.027055418 -0.22544457 0.61562175 0.73037577 0.37131837 0.20229936 -0.048104282
-0.15730536 0.12773944 -0.07338986 -0.48010114 0.4085004 0.39874536 0.14557943 0.30937037
-0.2842086 0.25641742 0.21125536 -0.07979849 0.16543499 -0.051452536 0.999625 0.8166998
0.9444044 1.2690536 0.075943224 0.59693444 -0.0020389534 0.33599612 0.34981516 -0.49947402
0.0411547 -0.16694227 -0.40143415 0.70088756 0.5396091 0.48132578 -0.0539082 -0.05995906
-0.2514228 -0.47567946 0.09066651 0.32417604 0.12430844 0.6671022 0.50970525 0.051159408
-0.99974895 -0.33083367 -0.032248694 0.030593384 -0.4166221 0.40706244 0.998274 0.44013482
1.3435999 1.303341 0.117312446 0.7077979 -0.0797028 0.1353477 0.6245589 -0.85276484
-0.28275922 0.11084299 0.18195161 0.7189437 -0.45697495 0.18382592 -0.80265003 -0.06048311
0.02803544 -0.6152135 0.21783979 0.7114242 0.82482874 0.62247753 -0.26947764 0.83372855
-0.79659307 0.2985864 0.8925763 0.8952285 0.21537359 0.3563315 0.13782917 -0.11737518
-0.6604911 0.0018891856 -0.1049319 -0.6847794 0.09965973 0.1452253 -0.09617389 0.2898847
0.037210476 -0.17566302 -0.16741583 0.85559106 1.0197735 0.31019738 0.030931098 0.19545701
-0.053308323 -1.688802 0.18062592 0.22132885 -0.19458625 0.9139796 0.299806 0.042417243
-0.6404293 -0.073774725 -0.05388297 -0.033520043 0.030293979 0.37686786 1.2831995 0.4548773
0.71334565 0.8243008 -0.044747755 0.62975657 0.042517 0.37887132 0.21093632 -0.122054584
-0.0150223505 -0.19018564 0.14660604 0.06445339 0.15035555 0.06408095 -0.1394081 0.13911216
0.009500763 0.03262239 -0.16031516 -0.050845664 -0.18200989 -0.09229076 0.008491401 -0.16680342
0.033586018 0.05217085 0.0013709501 -0.14515014 -0.1595726 -0.054538548 0.057869952 0.15073705
0.07034734 -0.050444994 0.061980817 -0.19132096 -0.17300381 0.056488447 -0.13181609 0.0850465
-0.7281847 -0.62444913 -0.9797923 0.66927946 0.6634633 0.5609413 0.15539742 -0.17154534
-0.66619384 0.117386684 0.298887 -0.6009114 0.20075664 0.62618816 0.5313496 -1.2879403
-0.2846741 -0.26387066 -0.25062698 0.3553348 -0.35016596 0.19721033 1.2395635 0.86137176
0.79665476 0.50115275 0.03506675 1.186867 -0.5209896 0.01343962 -0.037688185 -0.4414134
-0.3664268 -0.07741504 0.15522689 0.8040567 0.10763802 0.13459642 0.4717952 0.3162738
0.1854785 -0.082581654 -0.10714161 -0.007308654 0.21212114 0.4032942 0.11497554 0.6224245
-0.4752712 0.28596848 0.86097395 -0.22789882 0.12517652 0.12135822 0.7730313 0.44586465
-0.017963655 0.60142 -0.07140355 0.5347606 0.2637365 0.13535711 0.48796198 -0.23134321
00000000: 0899 383f f7cf 523e 9fdf dabe 0df0 09bf
00000010: 7701 9c3d 37ff 633e 18fc 85be c79f 5b3e
00000020: 0758 603e a0a5 cf3e 7b19 493f cf50 b0bd
00000030: cb40 36be a525 dbbe d09a be3e f1ec 00bf
00000040: cf5e 4dbf 21e0 41bf 72b9 ffbe 3159 5c3f
00000050: db03 4f3e 2939 bbbe b26c 62bf 3a96 f2be
00000060: 11dc 933e c2ba 77bf 438a 953d 2a7d 9ebe
00000070: fc1f 95be fb80 c63e ffad 03bd e02a dd3e
00000080: 8d24 c63d 53a3 ddbc f1da 66be 6399 1d3f
00000090: e8f9 3a3f 711d be3e 9027 4f3e ff08 45bd
000000a0: a814 21be 21ce 023e 6c4d 96bd d1cf f5be
000000b0: f726 d13e 5a28 cc3e c612 153e cb65 9e3e
000000c0: ca83 91be 2549 833e 5353 583e 646d a3bd
000000d0: ca67 293e e5bf 52bd 6de7 7f3f 3d13 513f
000000e0: 7dc4 713f 5970 a23f 1f88 9b3d b2d0 183f
000000f0: f69f 05bb af07 ac3e f91a b33e 0fbb ffbe
00000100: d591 283d eaf2 2abe c788 cdbe 5e6d 333f
00000110: d223 0a3f 5570 f63e d8ce 5cbd a297 75bd
00000120: 7dba 80be 428c f3be 5daf b93d 67fa a53e
00000130: 6c95 fe3d 36c7 2a3f 0b7c 023f 878c 513d
00000140: 8cef 7fbf 0863 a9be 3517 04bd fa9e fa3c
00000150: 7e4f d5be 7d6a d03e e38e 7f3f 5a59 e13e
00000160: 15fb ab3f e1d3 a63f 8241 f03d 3e32 353f
00000170: 393b a3bd 9698 0a3e 18e3 1f3f cc4e 5abf
00000180: d1c5 90be a601 e33d 8651 3a3e b20c 383f
00000190: 9ff8 e9be dd3c 3c3e 797a 4dbf 23bd 77bd
000001a0: 94aa e53c a27e 1dbf 6511 5f3e e51f 363f
000001b0: fa27 533f b05a 1f3f f9f8 89be 3c6f 553f
000001c0: 86ed 4bbf 51e0 983e e17f 643f b22d 653f
000001d0: e58a 5c3e 1571 b63e 1723 0d3e 6662 f0bd
000001e0: f215 29bf 8d9e f73a 89e6 d6bd b44d 2fbf
000001f0: 671a cc3d f1b5 143e d1f6 c4bd c46b 943e
00000200: 036a 183d 02e1 33be 0e6f 2bbe 0408 5b3f
00000210: f087 823f 31d2 9e3e 3763 fd3c e225 483e
00000220: d459 5abd aa2a d8bf 00f6 383e 08a4 623e
00000230: 9e41 47be 91fa 693f 2c80 993e b4bd 2d3d
00000240: 2df3 23bf 3417 97bd 64b4 5cbd 504c 09bd
00000250: 142b f83c d3f4 c03e e23f a43f ade5 e83e
00000260: d29d 363f 6105 533f 6c49 37bd ba37 213f
00000270: 4e26 2e3d 6cfb c13e b1ff 573e c1f7 f9bd
00000280: 4e20 76bc 06c0 42be e51f 163e 2400 843d
00000290: cef6 193e e03c 833d ffc0 0ebe 6b73 0e3e
000002a0: 17a9 1b3c 0e9f 053d a829 24be 8b43 50bd
000002b0: cd60 3abe f002 bdbd 841f 0b3c 84ce 2abe
000002c0: 7e91 093d 1ab1 553d 74b1 b33a 3da2 14be
000002d0: 0067 23be d063 5fbd 0b09 6d3d d05a 1a3e
000002e0: 4412 903d 699f 4ebd 99df 7d3d a4e9 43be
000002f0: e927 31be 6e60 673d ccfa 06be dc2c ae3d
00000300: 506a 3abf e6db 1fbf abd3 7abf e655 2b3f
00000310: bbd8 293f d999 0f3f 8020 1f3e 95a9 2fbe
00000320: ae8b 2abf 6e68 f03d b807 993e 54d5 19bf
00000330: 2693 4d3e de4d 203f 8706 083f 3adb a4bf
00000340: cec0 91be 0e1a 87be 2e52 80be 71ee b53e
00000350: f448 b3be 81f1 493e 04aa 9e3f dc82 5c3f
00000360: 91f1 4b3f 8c4b 003f 27a2 0f3d 42eb 973f
00000370: 935f 05bf da31 5c3c ed5e 1abd f000 e2be
00000380: 4b9c bbbe c78b 9ebd ccf3 1e3e a9d6 4d3f
00000390: 5271 dc3d a5d3 093e 248f f13e a4ee a13e
000003a0: 13ee 3d3e 9220 a9bd 0f6d dbbd 6f7d efbb
000003b0: 4936 593e 947c ce3e 4c78 eb3d 3657 1f3f
000003c0: bf56 f3be 766a 923e ca68 5c3f 4f5e 69be
000003d0: 462e 003e a98a f83d 61e5 453f 5f48 e43e
000003e0: 8428 93bc a9f6 193f 063c 92bd 12e6 083f
000003f0: 7808 873e 0e9b 0a3e 27d6 f93e 3ce5 6cbe

fc2.bias f4 [64]
0.5495073 0.43809623 -0.3559862 -0.3381727 -0.35536885 -0.083709866 -0.19083245 0.28132263
-0.4818909 -0.012209859 -0.41372755 0.012631628 -0.33443567 -0.52481425 0.42099342 -0.32980874
0.24807931 -0.35576236 0.30354306 -0.54347146 0.29380643 0.2388324 -0.007000629 -0.47751275
-0.095949106 -0.030315913 0.12087465 -0.16689195 -0.15754686 0.109702475 -0.72601277 0.04072665
-0.056237403 -0.4976786 0.14786907 0.18710904 0.537656 0.199669 -0.596351 0.99965733
0.28931096 0.384085 0.022684602 0.19167659 0.4401556 -0.0431652 -0.6653853 -0.6089034
0.13425569 0.13899194 0.09045256 0.44636828 -0.10327552 0.4665998 -0.6029775 -0.037931275
-0.2740405 0.43224353 0.36889 -0.054101065 0.24094509 0.20759511 -0.9337906 -0.6624711
00000000: 83ac 0c3f 264e e03e d343 b6be f924 adbe
00000010: e8f2 b5be 1470 abbd 9569 43be 8509 903e
00000020: 67ba f6be dc0b 48bc 19d4 d3be e3f4 4e3c
00000030: 273b abbe 3a5a 06bf 738c d73e b1dc a8be
00000040: 8108 7e3e 7c26 b6be ff69 9b3e f220 0bbf
00000050: cc6d 963e 7b90 743e 8865 e5bb 8d7c f4be
00000060: f780 c4bd 1459 f8bc 218d f73d b9e5 2abe
00000070: f753 21be b1ab e03d f9db 39bf fdd0 263d
00000080: 3159 66bd bbcf febe fd6a 173e 8399 3f3e
00000090: d3a3 093f 0876 4c3e 76aa 18bf 8be9 7f3f
000000a0: 9120 943e caa6 c43e 0fd5 b93c de46 443e
000000b0: 135c e13e fecd 30bd b156 2abf 18e1 1bbf
000000c0: 537a 093e e753 0e3e 313f b93d 628a e43e
000000d0: 1e82 d3bd 2be6 ee3e bc5c 1abf d35d 1bbd
000000e0: 094f 8cbe 064f dd3e 26df bc3e 1499 5dbd
000000f0: 4fba 763e d093 543e e70c 6fbf b597 29bf

fc3.weight f4 [4, 64]
0.8337282 -0.42193982 -0.67789036 0.15499435 -0.60039645 0.0024535845 -0.6171135 -0.5279834
-0.63215506 -0.8847939 -0.8930784 0.033030592 -0.6122426 -0.84503496 -0.34185138 -0.9022558
-0.47991052 0.014629937 -0.48020858 -0.76330316 -0.36934868 -0.44366398 -0.78088635 -0.5640192
-0.32547173 -0.0784256 -0.07440932 -0.0720433 -0.49979427 -0.43908253 -0.37596565 -0.5631346
-0.6148935 -0.46377403 2.9703212 0.12780698 0.92090905 0.15135628 -0.7433217 0.9633093
0.2225938 0.8201533 -0.81884545 0.29873657 -0.4730813 0.6165097 -0.49042907 -0.6681589
-0.55075747 -0.14411362 -0.42865103 -0.23316368 -0.04941544 -0.3549786 0.64758146 -0.6590208
0.008359341 -0.44520688 0.11739573 -0.60126793 -0.29446563 -0.3562535 0.26477194 -0.5649508
1.494251 -0.41208556 -0.93492466 -0.10308618 -1.3350606 0.07648207 -1.3378897 -0.3159701
-1.3082622 -0.5570445 -0.11676414 0.008878821 0.11035171 -0.9105098 -0.29513103 -0.06251463
-0.37266997 -0.25696924 -0.33931693 -0.9459194 -0.2971381 -0.49440834 -0.8107931 -1.2121081
-0.076964565 0.00079940766 -0.104327105 0.018918669 -0.2109297 -0.25221685 -1.2894287 -0.42809033
0.11043114 0.2521934 1.8364348 -0.0505355 1.1730051 -1.0779812 -0.9362378 1.6024535
0.06866031 0.565351 -1.5169544 -1.4932438 -0.9891223 0.49610323 -1.3398591 -1.007531
-0.16089779 -1.41981 -1.4583458 -0.5827449 0.008917434 -0.9682385 0.8206933 -0.33965716
-1.898505 -0.5198071 -0.29890993 -1.1950959 -0.44662434 -0.65086204 0.9411543 -1.1409857
1.1547111 0.066886894 0.1575069 -1.6075082 -0.72309434 0.00045077596 0.8776761 -0.3048348
-0.70859396 0.060959928 -0.62901515 -0.8758127 -1.1152486 -0.7251521 -0.9937744 -0.66536576
-0.27366966 -0.60705763 0.09000169 -0.54254353 -0.2618213 -0.15238598 -0.11413205 -0.6697176
-0.6655134 0.050858825 0.14228378 0.07538489 -0.8450248 -0.7025641 -0.79983157 -0.47022295
-1.2524724 -1.0638586 0.16358076 -0.95334655 1.0164136 0.049475186 -0.71314657 -2.1023393
0.82031983 -0.2938039 0.4945093 0.117532566 0.29963443 1.8190973 -0.75740683 -0.7401891
-0.34298387 0.28212407 0.16728123 -0.79260755 -0.12411782 0.4219406 0.4925628 -0.45699394
0.066554934 0.5888871 -0.4813609 0.92915237 -0.24841586 0.3311037 0.14676547 -0.8789911
0.5129738 -0.3772488 -0.8173494 0.10950014 -0.6853606 0.056412295 0.3128023 -0.21472381
-0.44726348 -0.85397184 -1.5015987 -0.5598087 -1.0814481 -0.57511646 -0.33818686 -1.2409239
-0.29540017 -0.5534687 -0.36488572 -0.3913612 -0.45244494 -0.25650978 -0.4634421 -1.0640994
-0.3667623 -0.057454687 0.08790108 0.10241954 -0.35890844 -0.4275758 -0.79411596 -0.34871867
-0.7517354 -1.1411835 2.290824 -0.5275236 0.8637695 -0.24762991 -0.6865325 0.43613777
-1.3102604 1.9299935 0.40640837 0.83428293 -0.26777953 1.2129092 -0.99537885 -0.9440356
-0.14222334 0.52388287 -0.21006021 0.025043568 0.037096635 -0.16378082 1.5568959 -0.37165558
0.18518929 -0.08009079 -1.0194528 -0.10414315 0.1010161 -0.5237221 -0.05191886 -0.9542137
00000000: 366f 553f 7f08 d8be 398a 2dbf d7b6 1e3e
00000010: 95b3 19bf 51cc 203b 26fb 1dbf ec29 07bf
00000020: ead4 21bf da81 62bf c9a0 64bf 164b 073d
00000030: eebb 1cbf 3654 58bf 2507 afbe 3cfa 66bf
00000040: d5b6 f5be 67b2 6f3c e6dd f5be d667 43bf
00000050: 451b bdbe ed27 e3be 2be8 47bf 9063 10bf
00000060: 3ba4 a6be 9a9d a0bd ea63 98bd 708b 93bd
00000070: 09e5 ffbe 6dcf e0be 927e c0be 9729 10bf
00000080: a969 1dbf ca73 edbe be19 3e40 d5df 023e
00000090: b2c0 6b3f 24fd 1a3e 554a 3ebf 709b 763f
000000a0: a1ef 633e 91f5 513f db9f 51bf 00f4 983e
000000b0: b637 f2be 94d3 1d3f 8519 fbbe 760c 2bbf
000000c0: 71fe 0cbf 8592 13be 2678 dbbe 76c2 6ebe
000000d0: d867 4abd c1bf b5be e6c7 253f 96b5 28bf
000000e0: 9ef5 083c 28f2 e3be 2c6d f03d b2ec 19bf
000000f0: 33c4 96be dc66 b6be 3090 873e 9ea0 10bf
00000100: 9e43 bf3f e1fc d2be 3957 6fbf d91e d3bd
00000110: 44e3 aabf a2a2 9c3d f83f abbf d5c6 a1be
00000120: 2375 a7bf 789a 0ebf 0a22 efbd 7978 113c
00000130: 1400 e23d 2c17 69bf 6a1b 97be ac07 80bd
00000140: 99ce bebe 7991 83be f3ba adbe c627 72bf
00000150: 7c22 98be 1723 fdbe 2390 4fbf 5c26 9bbf
00000160: 999f 9dbd 578f 513a 73a9 d5bd 53fb 9a3c
00000170: f5fd 57be 9122 81be 000c a5bf a82e dbbe
00000180: b929 e23d 7e1f 813e 4c10 eb3f 50fe 4ebd
00000190: 0825 963f 4afb 89bf 48ad 6fbf 321d cd3f
000001a0: c79d 8c3d d8ba 103f 902b c2bf 9d22 bfbf
000001b0: 1e37 7dbf 3e01 fe3e 8180 abbf c7f6 80bf
000001c0: 64c2 24be 56bc b5bf 13ab babf c52e 15bf
000001d0: 6e1a 123c 7ade 77bf f518 523f 8be7 adbe
000001e0: 3602 f3bf 1412 05bf b90a 99be e7f8 98bf
000001f0: f2ab e4be e59e 26bf 7def 703f d20b 92bf
00000200: 93cd 933f fffb 883d 7d49 213e d4c2 cdbf
00000210: b61c 39bf 2056 ec39 62af 603f 4f13 9cbe
00000220: 6a66 35bf 1eb1 793d 2307 21bf 4335 60bf
00000230: 77c0 8ebf 91a3 39bf 0068 7ebf 6955 2abf
00000240: 6e1e 8cbe 2168 1bbf ce52 b83d 22e4 0abf
00000250: 710d 86be 120b 1cbe 10be e9bd 9d72 2bbf
00000260: 165f 2abf 5851 503d d7b2 113e 6563 9a3d
00000270: 8c53 58bf 3edb 33bf c3c1 4cbf 10c1 f0be
00000280: 0451 a0bf 852c 88bf b781 273e 850e 74bf
00000290: d719 823f 7ea6 4a3d c690 36bf ba8c 06c0
000002a0: 7b00 523f 776d 96be 5330 fd3e eab4 f03d
000002b0: af69 993e 2ed8 e83f 6ae5 41bf 087d 3dbf
000002c0: 959b afbe 9172 903e c54b 2b3e 54e8 4abf
000002d0: 7c31 febd 9908 d83e 3131 fc3e 1cfb e9be
000002e0: f44d 883d 4ec1 163f f074 f6be eedc 6d3f
000002f0: ba60 7ebe 6d86 a93e b049 163e 9005 61bf
00000300: 4052 033f c126 c1be cf3d 51bf 9c41 e03d
00000310: cb73 2fbf 9410 673d a027 a03e 8fe0 5bbe
00000320: b8ff e4be e69d 5abf 6334 c0bf 9f4f 0fbf
00000330: e46c 8abf d53a 13bf d426 adbe 98d6 9ebf
00000340: b13e 97be 20b0 0dbf 4dd2 babe 7f60 c8be
00000350: dda6 e7be 4055 83be 4848 edbe 6934 88bf
00000360: 45c8 bbbe 9b55 6bbd 7b05 b43d 56c1 d13d
00000370: d9c2 b7be 37eb dabe 2f4b 4bbf 418b b2be
00000380: bb71 40bf 4d12 92bf dc9c 1240 c90b 07bf
00000390: ff1f 5d3f b292 7dbe 98c0 2fbf 734d df3e
000003a0: 9db6 a7bf 070a f73f c214 d03e 9193 553f
000003b0: 661a 89be 9c40 9b3f 26d1 7ebf 51ac 71bf
000003c0: ffa2 11be 301d 063f 061a 57be 2b28 cd3c
000003d0: a4f2 173d 29b6 27be 5d48 c73f a449 bebe
000003e0: 43a2 3d3e a406 a4bd 6e7d 82bf 0149 d5bd
000003f0: 87e1 ce3d a712 06bf dfa8 54bd 5947 74bf

fc3.bias f4 [4]
-0.44192174 -0.28148186 0.24813835 -0.123244226
00000000: 9143 e2be 641e 90be fb17 7e3e 7867 fcbd
