weights/g0.1_lr0.001_decay_0.99999999.pth (torch, 12865 bytes, 6 tensors)

fc1.weight f4 [32, 8]
0	0xbd9f1da6	-0.07769327
1	0xbf14ae60	-0.58078575
2	0xbe2ee042	-0.17077735
3	0xbf0f8ec8	-0.5607724
4	0x3dfe7eac	0.124265045
5	0x3e0f88d0	0.14017034
6	0x3f01b1e5	0.5066207
7	0x3f272660	0.6529293
8	0x3ea31ad6	0.31856412
9	0xbd951b20	-0.07280564
10	0x3dd27cca	0.10277708
11	0xbe00feaf	-0.12597154
12	0xbeb8819b	-0.3603638
13	0xbf94dff1	-1.1630841
14	0xbf070689	-0.52744347
15	0x3f5908d5	0.847791
16	0x3e0279b2	0.12741736
17	0xbdd70498	-0.10498923
18	0xbe8dff04	-0.27733624
19	0xbed8d3d2	-0.42349106
20	0x3ee2d392	0.4430204
21	0x3ee20420	0.44143772
22	0x3eebe4f4	0.46073115
23	0x3f5cf712	0.863145
24	0x3ea0e832	0.3142715
25	0xbf41710c	-0.7556312
26	0x3eb279a6	0.34858435
27	0xbee8d863	-0.4547759
28	0xbecb1f03	-0.39672098
29	0xbdb864e8	-0.09003621
30	0x3e8c7213	0.27430782
31	0x3f334f7b	0.7004315
32	0xbeea25dd	-0.45732012
33	0xbf8ae21b	-1.0850252
34	0xbc4ad3d7	-0.012379608
35	0xbf040b76	-0.5157999
36	0x3e1b38f5	0.15158446
37	0x3dd803e3	0.10547616
38	0x3f2c0453	0.671941
39	0x3ef2f042	0.47448927
40	0x3dff4ed6	0.12466209
41	0xbf899ecf	-1.075159
42	0x3ec30bd3	0.3809496
43	0xbecdebb5	-0.40218893
44	0xbea71ba0	-0.32638264
45	0xbefc6d2e	-0.49302047
46	0x3f084e78	0.53244734
47	0x3f1190e4	0.5686171
48	0xbf24b4da	-0.6433846
49	0x3ee47f57	0.44628403
50	0xbe11d48f	-0.14241241
51	0x3ee3470d	0.44390145
52	0x3f710950	0.94154835
53	0x3f1d0d34	0.6134827
54	0xbee08540	-0.43851662
55	0xbe73e9f6	-0.23819718
56	0x3e828ab7	0.25496456
57	0xbf858ce5	-1.0433623
58	0xbea7c93e	-0.32770723
59	0xbe8ac050	-0.27099848
60	0x3e2daa76	0.16959557
61	0x3f1f1f24	0.6215689
62	0x3ed8f28e	0.42372555
63	0x3f275004	0.6535647
64	0x3f44eea1	0.7692662
65	0xbf2a23f6	-0.6646112
66	0x3eedbe1c	0.46434104
67	0xbee35bfb	-0.44406113
68	0xbdd66a5d	-0.10469506
69	0x3f6bee84	0.9216082
70	0x3f0d60c3	0.5522577
71	0xbf830f44	-1.0239034
72	0x3e2efc15	0.17088349
73	0xbe20b326	-0.1569334
74	0x3fa9fc88	1.3280191
75	0x3f1e6060	0.61865807
76	0xbf250969	-0.64467484
77	0xc000827f	-2.0079648
78	0x3e3af139	0.18256082
79	0x3e4f3796	0.20236048
80	0xbf128fcc	-0.57250667
81	0x3e8e800d	0.2783207
82	0x3da1137c	0.078650445
83	0xbf4ecf2d	-0.80784875
84	0x3c0c43c2	0.008561077
85	0xbed5dc82	-0.41769797
86	0x3e6bd27e	0.23029515
87	0xbe805d2c	-0.25071084
88	0x3e0b3535	0.13594516
89	0x3f0a803a	0.5410191
90	0xbeebfbe7	-0.46090624
91	0x3de870a7	0.11349612
92	0x3ee6378f	0.44964263
93	0x3f7ed732	0.9954711
94	0xbf567af4	-0.8378136
95	0xbf22182d	-0.6331814
96	0xbd81e91f	-0.063432924
97	0x3ebe8987	0.372143
98	0xbe8fa41b	-0.2805489
99	0xbf1e16f0	-0.6175375
100	0x3f59f4f6	0.85139406
101	0x3f1c5e33	0.61081237
102	0xbde2c4bf	-0.110726826
103	0x3c3a28ba	0.011362249
104	0xbf462523	-0.77400416
105	0xbf926dd5	-1.1439768
106	0xbefc159f	-0.49235246
107	0xbee558a9	-0.44794205
108	0x3d6b1494	0.05739267
109	0x3e580374	0.21095067
110	0x3ef91f0f	0.48656508
111	0x3ec87e3e	0.39158815
112	0xbe60dee1	-0.21960022
113	0x3f522e19	0.8210159
114	0x3f3957f4	0.7239983
115	0xbf171a5b	-0.5902459
116	0xbe03827d	-0.12842746
117	0xbe4e54f5	-0.20149596
118	0x3f30c19c	0.69045424
119	0xbd6cc76c	-0.05780737
120	0x3f36d4bd	0.7141836
121	0x3e0def1e	0.13860747
122	0x3e1bc6ec	0.15212601
123	0x3ea02fd4	0.3128649
124	0xbf35ad7b	-0.70967835
125	0xbf243787	-0.6414723
126	0xbdf2d28c	-0.11856565
127	0xbee73671	-0.45158723
128	0xbed05097	-0.40686485
129	0xbf9bf33c	-1.2183604
130	0xbe3d189b	-0.18466417
131	0xbecdb913	-0.40180263
132	0xbe4cbec3	-0.19994645
133	0xbe330b52	-0.17484787
134	0x3f2ab175	0.6667703
135	0x3e864d15	0.26230684
136	0xbe6f25e7	-0.23354302
137	0xbf3c4bb1	-0.73552996
138	0x3da53ea9	0.08068592
139	0xbd0a04d4	-0.03369601
140	0x3f23b079	0.6394115
141	0x3f24f619	0.64438015
142	0x3f877d50	1.0585117
143	0xbeb5d5b9	-0.3551462
144	0xbe095668	-0.13411868
145	0x3e0d43a2	0.13795331
146	0x3e9abf3a	0.3022402
147	0xbcac2988	-0.021015897
148	0xbeec97b0	-0.46209478
149	0xbf72e905	-0.9488681
150	0xbf0885a6	-0.5332893
151	0xbfa8ad8c	-1.3177962
152	0x3d870553	0.065928124
153	0x3d09a447	0.033603933
154	0x3e840e08	0.25791955
155	0xbe55341d	-0.20820661
156	0x3dd7e89b	0.10542413
157	0xbfa09063	-1.2544063
158	0xbe6a3b21	-0.22874118
159	0x3f3985d5	0.72469836
160	0x3eb974d5	0.36221948
161	0xbfc4d7ad	-1.5378319
162	0xbe8b54f6	-0.27213258
163	0xbde3adbc	-0.111171216
164	0xbeb66611	-0.35624745
165	0xbd8e9b09	-0.06963164
166	0x3db56439	0.088570066
167	0x3f33ebdf	0.70281786
168	0xbe5d53cf	-0.21614002
169	0xbfa7579b	-1.307361
170	0x3eb19bec	0.3468927
171	0xbe9250ec	-0.28577363
172	0x3e9db257	0.30800125
173	0x3de49861	0.111618765
174	0x3efcd655	0.49382272
175	0x3ed73ee6	0.42040175
176	0x3d793b89	0.060847793
177	0xbfa46c9f	-1.2845649
178	0x3eed60c4	0.4636289
179	0xbec3e1c7	-0.38258192
180	0x3e2e467f	0.1701908
181	0xbe3b5b0e	-0.18296453
182	0x3f22b804	0.63562036
183	0x3edf4c6b	0.4361299
184	0xbe24e45e	-0.1610274
185	0x3db6c82c	0.089248985
186	0xbd41ee6b	-0.047346514
187	0xbd1f72b5	-0.038927753
188	0xbe92ae3c	-0.28648555
189	0x3d80abcd	0.062827684
190	0x3e887546	0.26651973
191	0x3dfd4f27	0.12368613
192	0xbf010d96	-0.50411355
193	0xbf08cfe1	-0.534422
194	0xbed5b890	-0.41742373
195	0xbf019871	-0.5062323
196	0xbe9ec07c	-0.3100623
197	0x3e413ecd	0.18871613
198	0x3e487f94	0.19579917
199	0x3f066ff4	0.52514577
200	0x3e6349f3	0.22196178
201	0xbe940864	-0.28912652
202	0xbd51ecad	-0.051251102
203	0xbf04c63d	-0.5186499
204	0xbe00c9a7	-0.12576924
205	0x3e48241f	0.19545029
206	0x3e3f9b0f	0.18711494
207	0x3f66de66	0.90183103
208	0x3e98c74a	0.29839545
209	0xbf2d4b98	-0.6769347
210	0x3d9fd7b8	0.07804817
211	0xbe624d8d	-0.22099896
212	0xbcfab971	-0.030606003
213	0xbf0c80bd	-0.5488394
214	0xbd588ce7	-0.05286875
215	0x3f3d5c72	0.73969185
216	0xbee66d41	-0.4500523
217	0x3f11107a	0.56665766
218	0x3eac1767	0.33611605
219	0xbf43a6ad	-0.764262
220	0x3e83e148	0.25757813
221	0x3e0b12fa	0.13581458
222	0x3eb89aef	0.36055705
223	0x3e4cc14b	0.1999561
224	0x3e110db5	0.14165385
225	0xbf175a8e	-0.5912255
226	0x3dcec841	0.10096789
227	0xbe17e179	-0.14832105
228	0xbec71427	-0.38882563
229	0xbf2bd4ff	-0.6712188
230	0xbe729d28	-0.23692763
231	0x3f6d2b02	0.9264375
232	0x3e424ec3	0.18975358
233	0x3efddbd6	0.49581784
234	0x3e0f3d97	0.13988338
235	0xbf1fff80	-0.6249924
236	0x3df58559	0.11988325
237	0xbf417d11	-0.7558146
238	0xbefa284b	-0.48858866
239	0x3f431d80	0.7621689
240	0x3da7cce3	0.08193376
241	0xbe50c861	-0.20388938
242	0x3d69707a	0.05699203
243	0xbe9760fb	-0.29566178
244	0xbab7d66e	-0.0014025697
245	0xbf03670c	-0.5132911
246	0x3f4fe79a	0.8121277
247	0x3e2e0127	0.16992627
248	0xbe718583	-0.23586087
249	0xbf443553	-0.76643866
250	0xbe90e8ed	-0.28302708
251	0xbe726bb5	-0.236739
252	0x3ec45f52	0.38353974
253	0x3de2c2f5	0.11072341
254	0x3f1d9e30	0.615695
255	0x3d5e971d	0.05434333

fc1.bias f4 [32]
0	0xbf268ba6	-0.65056837
1	0xbea96029	-0.33081177
2	0xbf0e00e1	-0.5547009
3	0xbf1e771f	-0.61900514
4	0xbf25d326	-0.6477531
5	0xbefbff4c	-0.49218214
6	0xbebcdf3f	-0.36889073
7	0xbe9b8ad3	-0.30379352
8	0xbf061ced	-0.5238789
9	0x3f1996c0	0.5999565
10	0xbd00f558	-0.031483978
11	0x3f393862	0.7235166
12	0x3d9c4c7a	0.07631774
13	0xbec62b55	-0.38704935
14	0xbf1c0677	-0.60947365
15	0xbf086349	-0.532765
16	0xbedfcc4a	-0.43710548
17	0xbebdacad	-0.37045804
18	0xbe017046	-0.12640485
19	0xbf369b69	-0.7133089
20	0x3d4060be	0.04696726
21	0xbf0d1ed7	-0.5512518
22	0xbefc1185	-0.49232116
23	0x3f64dfc6	0.8940395
24	0xbeb64f65	-0.35607448
25	0xbf0d2cb9	-0.55146366
26	0xbf21c96c	-0.6319797
27	0xbebb4ef1	-0.36583665
28	0xbf0364e5	-0.5132583
29	0x3d7a35f0	0.061086595
30	0xbec2cc66	-0.3804657
31	0xbe8ccf7b	-0.27502045

fc2.weight f4 [64, 32]
0	0xbd836dfe	-0.06417464
1	0x3e4985ce	0.19679949
2	0x3b66f12b	0.0035238962
3	0x3e0d2e20	0.13787127
4	0x3e5e0005	0.21679695
5	0xbe2a34ae	-0.16621658
6	0xbf4627e8	-0.7740464
7	0x3da530f2	0.08065976
8	0x3edb0953	0.4278055
9	0x3e90c3d9	0.2827442
10	0x3d0baebe	0.034102194
11	0x3c19006d	0.00933848
12	0xbe840df8	-0.25791907
13	0xbdc675b1	-0.096904166
14	0x3dd37482	0.103249565
15	0xbdd2848f	-0.1027919
16	0xbe469b07	-0.19395076
17	0x3f066aaa	0.52506506
18	0x3db20ef0	0.08694255
19	0x3f706083	0.93897265
20	0x3d994172	0.07483186
21	0x3f359fe1	0.7094708
22	0x3e202372	0.15638521
23	0x3da4117c	0.080111474
24	0xbedb5560	-0.42838573
25	0x3e50f9fe	0.20407864
26	0x3f04c076	0.5185617
27	0x3e54e308	0.2078973
28	0xbe50e0b7	-0.20398222
29	0x3ea71f97	0.3264129
30	0xbe28a6b4	-0.16469842
31	0xbdf5de21	-0.12005258
32	0x3e8f43a3	0.2798129
33	0x3f1556bc	0.5833547
34	0x3e0388c4	0.1284514
35	0x3e5f559e	0.21810004
36	0x3f0a0561	0.5391446
37	0x3e9bb5ad	0.30412045
38	0x3eff2073	0.49829444
39	0x3c5989d9	0.013277494
40	0x3f40c19a	0.7529541
41	0xbe49829b	-0.19678728
42	0x3debf188	0.11520678
43	0xbf01f729	-0.5076776
44	0x3eb3730a	0.35048705
45	0x3f19f337	0.6013674
46	0x3ef193a4	0.47182953
47	0x3e933d35	0.28757635
48	0x3f2758fa	0.6537014
49	0x3f1bb519	0.6082321
50	0x3f22c121	0.6357594
51	0x3f848781	1.0353853
52	0xbe431d50	-0.1905415
53	0x3e8b8109	0.27246884
54	0x3ed9d292	0.42543465
55	0x3eb5f238	0.3553636
56	0x3e541aaf	0.20713304
57	0x3f0a15f4	0.5393975
58	0x3f2ed05e	0.68286693
59	0x3e8136c3	0.25237092
60	0x3e014729	0.12624802
61	0x3e243ce8	0.16038859
62	0x3deaf560	0.11472583
63	0x3e7328ad	0.23745985
64	0x3e54d817	0.20785557
65	0x3f24a1a7	0.6430916
66	0x3e91bae5	0.28462902
67	0x3e8cff32	0.2753845
68	0x3e9bb8de	0.3041448
69	0x3e5e7dbd	0.21727653
70	0x3ea69f1c	0.32543266
71	0xbb079241	-0.002068654
72	0x3f18a8fb	0.59632844
73	0xbe75ed10	-0.24016213
74	0x3e1c0c18	0.15238988
75	0xbdbb0d6e	-0.09133421
76	0x3e9ae068	0.30249333
77	0x3f1f95d6	0.62338006
78	0x3f49e731	0.78868395
79	0x3c545708	0.012960203
80	0x3ed3facd	0.41402283
81	0x3edf3f23	0.43602857
82	0x3eae8469	0.34085396
83	0x3f87f457	1.0621442
84	0xbe928458	-0.28616595
85	0x3e3e7ebb	0.18603031
86	0x3dcf501a	0.101227
87	0x3e7b6be7	0.2455288
88	0x3ef57d78	0.47947288
89	0x3efc8862	0.49322802
90	0x3f373d60	0.71578026
91	0x3eb24c4f	0.34823844
92	0x3ed4a674	0.41533244
93	0x3da03464	0.07822493
94	0x3ea4663f	0.32109258
95	0x3e726ffb	0.2367553
96	0x3f1ac75d	0.60460454
97	0x3f43d9c4	0.7650416
98	0x3ed1e7c3	0.40997133
99	0x3f1574b2	0.5838119
100	0x3e90fbcc	0.28317106
101	0x3eda502a	0.42639285
102	0x3f03feb3	0.51560515
103	0x3e208f60	0.15679693
104	0x3f418d0e	0.7560586
105	0xbf399a65	-0.7250121
106	0xbe01fc5c	-0.12693924
107	0xbf79aeb5	-0.97532207
108	0x3e444f23	0.19170813
109	0x3e476f6a	0.19476095
110	0x3ea54b9d	0.3228425
111	0x3eb965f5	0.362106
112	0x3f0314cf	0.51203626
113	0x3f37ddad	0.71822625
114	0x3dae27e7	0.085037045
115	0x3f5b8130	0.85744
116	0x3d4f0cf1	0.05054945
117	0x3d9f1658	0.077679336
118	0x3efb0880	0.49029922
119	0xbe42ebb4	-0.19035226
120	0x3d218520	0.0394336
121	0x3f2322ae	0.6372479
122	0x3edab8d4	0.42719138
123	0xbd8d77de	-0.069076285
124	0x3f0d5639	0.5520969
125	0xbe688b9d	-0.22709508
126	0x3ce383ab	0.027772745
127	0x3e4606c6	0.19338521
128	0x3d22509b	0.039627653
129	0x3e7f4b4e	0.2493107
130	0x3bf43f95	0.0074538686
131	0x3ea07367	0.31338045
132	0xbd8c8ad1	-0.06862415
133	0x3e87b154	0.26502478
134	0x3e4a6ce7	0.19768105
135	0x3c977ff9	0.01849364
136	0x3e93cb80	0.28866196
137	0xbf00bebb	-0.5029103
138	0x3e360a8f	0.17777465
139	0x3dd7bb79	0.105338044
140	0x3dccbd2e	0.09997021
141	0x3e562380	0.2091198
142	0x3e054938	0.13016212
143	0x3f1f2a82	0.62174237
144	0x3f3dfe7b	0.7421643
145	0xbc75d65e	-0.015004722
146	0x3f21618d	0.63039476
147	0xbe5d5593	-0.21614675
148	0x3d7e5a3f	0.062097784
149	0xbf1b5098	-0.6066985
150	0x3aab0e25	0.001305048
151	0x3db000a7	0.085938744
152	0x3e8fde8a	0.2809947
153	0xbdf08b13	-0.11745276
154	0xbe5a6240	-0.21326542
155	0xbe025ada	-0.1272997
156	0x3e592670	0.21206069
157	0x3daea2b7	0.08527129
158	0x3f0684a8	0.5254617
159	0x3e302e39	0.17205133
160	0xbe0b5995	-0.13608392
161	0x3da00d0e	0.0781499
162	0xbfbb67bd	-1.4641033
163	0x3f1723a6	0.5903877
164	0x3f245a94	0.6420071
165	0x3f00169e	0.5003451
166	0x3fe3126c	1.7739997
167	0xbefbb696	-0.4916274
168	0x3d4773c8	0.048694402
169	0xbdb97050	-0.09054625
170	0xbd6b7a57	-0.05748972
171	0x3e86545d	0.2623624
172	0xc007c1bd	-2.1211998
173	0xbf8ac71c	-1.0842013
174	0x3e614d45	0.22002132
175	0xbfd7e1ae	-1.6865747
176	0x3ebeea19	0.37287977
177	0xbfaee935	-1.3664919
178	0xbfcbca0d	-1.5921036
179	0x3f05a3cf	0.5220308
180	0x3e51f0de	0.2050204
181	0x3ef3a377	0.4758565
182	0x3f596384	0.84917474
183	0x3e2f879c	0.17141575
184	0xbe3dcd07	-0.18535243
185	0x3de535a9	0.111918755
186	0x3f615ccc	0.8803222
187	0x3df0b4f9	0.11753268
188	0x3e845504	0.25846112
189	0x3f18fe11	0.59762675
190	0x3e754f7e	0.23956105
191	0xbfd1b29b	-1.6382631
192	0x3a22d28c	0.00062111835
193	0xbfb7528a	-1.4322064
194	0xbe2e5bdf	-0.17027234
195	0xbec6c22a	-0.3882001
196	0x3f314fe9	0.6926256
197	0x3e438a22	0.19095662
198	0x3d713fc6	0.05889871
199	0x3e033b64	0.12815624
200	0x3e8e8219	0.27833632
201	0xbf429e7d	-0.76023084
202	0xbe2e4cad	-0.17021437
203	0x3e63ed0c	0.22258395
204	0x3e23b7bc	0.15988058
205	0x3d798aad	0.060923267
206	0x3f0bfb05	0.546799
207	0xbc1d4894	-0.0095998235
208	0x3e01c082	0.12671092
209	0x3ea8230b	0.32839236
210	0x3eed15fd	0.46305838
211	0xbfbcff44	-1.4765401
212	0xbf1acac2	-0.60465634
213	0x3d00ab09	0.03141311
214	0x3d36e77f	0.044654366
215	0x3efb5b30	0.49093008
216	0x3f1aa447	0.6040692
217	0xbe949881	-0.290226
218	0xbfd62628	-1.6730394
219	0x3f06d32d	0.5266598
220	0xc008a152	-2.1348462
221	0xbfaa2e79	-1.3295432
222	0x3da3db94	0.080008656
223	0x3e20c32c	0.15699452
224	0x3ef7eeeb	0.48424467
225	0x3f0a92a1	0.5412999
226	0x3ea93d2c	0.33054483
227	0x3ea9388a	0.33050948
228	0x3e75611f	0.2396283
229	0x3dbb9790	0.09159768
230	0x3f0f92b1	0.5608321
231	0x3d9d6a1c	0.076862544
232	0x3f7d443f	0.9893226
233	0xbf1e5924	-0.6185477
234	0xbd6e7692	-0.058218546
235	0xbf8e9f42	-1.1142352
236	0x3e14881b	0.14505045
237	0x3e562ed0	0.20916295
238	0x3ec122c1	0.37721828
239	0x3ec41f56	0.38305157
240	0x3f023d42	0.5087472
241	0x3f05c41f	0.5225238
242	0x3ec93dc4	0.39304936
243	0x3f657ba0	0.8964176
244	0xbe2c70a4	-0.16839844
245	0xbd189f0c	-0.037261054
246	0xbd36ff1f	-0.044676896
247	0xbed8c5ad	-0.42338315
248	0x3e72ae2c	0.23699254
249	0x3ed4abb2	0.41537243
250	0x3f03d7d7	0.5150122
251	0xbc8feddb	-0.017569473
252	0x3ea773ef	0.32705638
253	0xbd9fbeed	-0.07800088
254	0x3d983b0c	0.07433137
255	0x3e33e8ad	0.17569228

fc2.bias f4 [64]
0	0x3c083c63	0.008315179
1	0xbd98243b	-0.074287854
2	0xbe6f20f8	-0.2335242
3	0xbf5cbdbd	-0.8622702
4	0x3dce0aa1	0.10060621
5	0x3e613018	0.21991003
6	0xbebe5302	-0.37172705
7	0xbf3405fb	-0.70321625
8	0xbf36a9f6	-0.7135309
9	0xbe0bd15b	-0.13654082
10	0xbf21b58d	-0.6316765
11	0xbf052b3c	-0.52019095
12	0xbf245308	-0.64189196
13	0xbf62bda7	-0.88570637
14	0xbf3b6432	-0.7319976
15	0x3e4a14fe	0.1973457
16	0xbf3ba6b0	-0.7330122
17	0xbf76baf8	-0.9637904
18	0xbe403176	-0.18768868
19	0xbe85aa0a	-0.26106292
20	0xbf24712d	-0.6423519
21	0xbdf84a9e	-0.12123607
22	0xbf140016	-0.5781263
23	0x3e8b6f41	0.27233317
24	0xbf5eaf45	-0.8698619
25	0xbd308012	-0.043090887
26	0x3e7497fc	0.23886102
27	0xbe1b4e0b	-0.1516649
28	0xbda1883d	-0.078873135
29	0x3f0ec118	0.5576339
30	0xbf5e53c4	-0.86846566
31	0x3f3003e3	0.6875593
32	0xbf2d4d5d	-0.6769617
33	0xbf4e9cea	-0.8070818
34	0x3d8a62d8	0.06757134
35	0xbad0099f	-0.0015872008
36	0x3e209bf6	0.15684494
37	0xbf718f86	-0.94359624
38	0xbe50dfbb	-0.20397846
39	0x3ecac429	0.39602783
40	0x3ecb484c	0.39703596
41	0xbf840d32	-1.0316527
42	0x3e06ac11	0.13151576
43	0x3c56c816	0.013109228
44	0xbd54d5eb	-0.05196182
45	0x3d3b6c4e	0.045757584
46	0xbf4eab43	-0.80730075
47	0xbf7a8dbf	-0.9787254
48	0xbf38f97f	-0.722557
49	0xbf38efdc	-0.72240996
50	0xbef91cb6	-0.48654717
51	0xbf6966c5	-0.9117244
52	0xbe46e64f	-0.19423793
53	0xbe4194bc	-0.18904394
54	0xbf00b3d3	-0.5027439
55	0xbf4e29de	-0.80532634
56	0xbf5d294e	-0.8639115
57	0x3dc37518	0.09543818
58	0x3e5e0862	0.21682885
59	0xbe6d3a75	-0.23166831
60	0xbe15fcc8	-0.1464721
61	0xbeccf7ba	-0.4003275
62	0xbe1c7e8f	-0.15282653
63	0xbf59af61	-0.8503323

fc3.weight f4 [4, 64]
0	0x3e32d8ff	0.1746559
1	0xbe8165ce	-0.25272983
2	0xbec6ea8a	-0.38850814
3	0xbf1e848a	-0.6192099
4	0xbe98abfe	-0.2981872
5	0x3f9ea5c4	1.2394338
6	0xbf650de2	-0.8947431
7	0xbf28e313	-0.6597149
8	0xbf7d0509	-0.9883581
9	0xbe930fa2	-0.28722864
10	0xbf6164b1	-0.8804427
11	0xbf2f0923	-0.68373317
12	0xbf35cd3a	-0.71016276
13	0xbf4926ea	-0.78575003
14	0xbf0cd37e	-0.5501021
15	0x3f5c88ed	0.8614643
16	0xbf34bc4e	-0.7059983
17	0xbf0b01a9	-0.5429941
18	0xbeaf407b	-0.34228882
19	0x3e89d08c	0.2691692
20	0xbf67a676	-0.90488374
21	0xbec27a97	-0.37984154
22	0xbfabe530	-1.3429317
23	0xbf87e7d0	-1.0617619
24	0xbf352ba1	-0.707697
25	0xbcccb440	-0.024988294
26	0xbe15194e	-0.14560434
27	0xbd938b70	-0.0720433
28	0xbe27fdea	-0.16405454
29	0x3f2a91a8	0.66628504
30	0xbf4ba644	-0.79550576
31	0x3f8d0f1f	1.102024
32	0xbefae074	-0.4899937
33	0xbeaf0f9b	-0.34191594
34	0x3ed24d45	0.41074577
35	0xbe7736b4	-0.24141961
36	0x3f9e9fb8	1.2392492
37	0xbf55897d	-0.83412915
38	0xbfd2dc3f	-1.6473464
39	0xbe868a6a	-0.26277477
40	0xbf5a591e	-0.8529223
41	0xbf2a259d	-0.66463643
42	0x3f830fdc	1.0239215
43	0xbef5f579	-0.48038843
44	0xbedbb5e3	-0.42912206
45	0x3f3ed127	0.7453789
46	0xbf404903	-0.7511141
47	0xbf3b3994	-0.7313473
48	0xbf1c6d40	-0.611042
49	0xbf75ed32	-0.96065056
50	0xbf4abb4a	-0.7919203
51	0xbf3f7834	-0.7479279
52	0xbe817b50	-0.25289392
53	0xbf169d3a	-0.5883366
54	0xbf19b58a	-0.6004263
55	0xbf76aa73	-0.96353835
56	0xbf7d0738	-0.9883914
57	0x3f7b357f	0.98128504
58	0x3f811a87	1.008622
59	0xbb92d159	-0.0044805226
60	0xbea4e091	-0.3220258
61	0xbee89216	-0.45423955
62	0x3dbd4a91	0.09242738
63	0xbf28fa68	-0.6600709
64	0x3e21f965	0.15817793
65	0xbea76d08	-0.32700372
66	0xbe941d96	-0.28928822
67	0xbf21782f	-0.6307401
68	0xbebd0579	-0.36918238
69	0x3fd57bdc	1.6678424
70	0xbf47ee14	-0.78097653
71	0xbf2223cb	-0.63335866
72	0xbf88493f	-1.0647353
73	0xbea040dc	-0.31299484
74	0xbf1598dd	-0.58436376
75	0xbf3275b3	-0.69710845
76	0xbf16415c	-0.5869348
77	0xbf6628ed	-0.899062
78	0xbf215716	-0.6302351
79	0x3f89d664	1.0768552
80	0xbf27b0fe	-0.65504444
81	0xbf07f516	-0.53108346
82	0xbea57e3d	-0.32322875
83	0x3e8c41b8	0.2739389
84	0xbf83bdc9	-1.0292293
85	0xbecd080e	-0.40045208
86	0xbf88c5f9	-1.0685416
87	0xbfb97e98	-1.4491758
88	0xbf515f55	-0.8178609
89	0xbb50b040	-0.0031843334
90	0xbf94ade3	-1.1615566
91	0x3bebdfdd	0.0071983174
92	0x3e62f5bd	0.22164054
93	0x3f357fcc	0.7089813
94	0xbf661b2f	-0.8988523
95	0x3f94f3af	1.1636866
96	0xbebe94d3	-0.3722292
97	0xbe7810f7	-0.24225222
98	0xbee9d2f2	-0.4566875
99	0x3f0020c0	0.5004997
100	0x3f886f3f	1.065895
101	0xbf1f6420	-0.62262154
102	0xbfbf7753	-1.495829
103	0x3d2d7ccc	0.042355344
104	0xbf407575	-0.75179225
105	0xbf2b1496	-0.66828287
106	0x3f83fd82	1.031174
107	0xbe602b7a	-0.21891585
108	0xbec1d79d	-0.37859812
109	0x3f874601	1.0568238
110	0xbf49985e	-0.7874812
111	0xbf1b1451	-0.60577875
112	0xbeec246c	-0.46121538
113	0xbf2b942e	-0.6702298
114	0xbf6c8138	-0.9238467
115	0xbf586647	-0.8453106
116	0xbdcdf69f	-0.10056805
117	0xbf2e32d2	-0.68046296
118	0xbf3071f2	-0.68923867
119	0xbf100ca3	-0.5626928
120	0xbf1345a1	-0.5752812
121	0x3f6fa7fb	0.9361569
122	0x3f1da8fb	0.6158597
123	0xbce48478	-0.027895197
124	0xbe660171	-0.22461487
125	0xbef33e9e	-0.4750871
126	0x3c84182a	0.016124804
127	0xbf3bd615	-0.7337354
128	0xbdceaf4f	-0.10092031
129	0xbe5fcfa0	-0.21856546
130	0xbe853d3a	-0.26023275
131	0xbf1d0e1f	-0.6134967
132	0xbd9b08e6	-0.075700566
133	0x3f85113c	1.0395885
134	0x3f05f268	0.5232301
135	0xbf0e0997	-0.5548338
136	0xbf95b620	-1.1696205
137	0xbe4f0a69	-0.20218815
138	0xbf234f16	-0.6379255
139	0xbfb0c40a	-1.3809826
140	0xbf5e0e3e	-0.8674048
141	0xbf561951	-0.8363238
142	0xbf2abc9f	-0.6669406
143	0x3f44d042	0.76880276
144	0xbf078493	-0.5293667
145	0xbf4b4f46	-0.79417837
146	0xbe91646f	-0.28396937
147	0x3e70c146	0.23511228
148	0xbf977db0	-1.1835232
149	0xbe8c232a	-0.27370578
150	0xbf740e62	-0.95334446
151	0xbf51615b	-0.8178918
152	0xbf6b04b6	-0.91804063
153	0xbcd39bb9	-0.02583109
154	0xbfc484be	-1.535301
155	0x3da79082	0.081818596
156	0xbf3aadc9	-0.72921425
157	0xbef2a9bf	-0.4739513
158	0xbf6c471f	-0.9229602
159	0x3f65a6eb	0.8970782
160	0xbf1f7c4f	-0.62299055
161	0xbf851ff6	-1.0400379
162	0x3e337d53	0.17528276
163	0x3ed1b333	0.4095703
164	0x3fa59398	1.2935667
165	0xbf0d3347	-0.5515637
166	0xbfab3944	-1.3376851
167	0xbeb39bc1	-0.35079768
168	0x3f2e79df	0.6815471
169	0xbf31ef21	-0.69505507
170	0x3fbfad95	1.4974848
171	0xbf0e918a	-0.55690825
172	0xbe20d5ad	-0.15706511
173	0x3f98ba29	1.1931812
174	0xbf6293f7	-0.88507026
175	0xbf3bed0e	-0.7340859
176	0xbef2e0dc	-0.4743718
177	0xbf15f66d	-0.5857914
178	0xbf0de338	-0.55424833
179	0xbf49dbd4	-0.78851056
180	0xbec32438	-0.3811357
181	0xbe8e3c6e	-0.2778048
182	0xbf9d6e5c	-1.2299304
183	0xbf3a6972	-0.72817147
184	0xbf8450d7	-1.033717
185	0x3f92d3da	1.1470902
186	0x3fabcb2c	1.3421378
187	0x3d6faed9	0.058516357
188	0xbf32acc5	-0.69794875
189	0xbe3a12aa	-0.18171182
190	0x3d79d234	0.06099148
191	0xbee76ad9	-0.45198706
192	0xbf11f161	-0.5700894
193	0xbed242e0	-0.41066647
194	0xbef430ab	-0.4769338
195	0xbf199c5b	-0.60004205
196	0x3df9e1b6	0.12201254
197	0x3f40b731	0.7527953
198	0xbf03fa47	-0.5155377
199	0xbefefa80	-0.4980049
200	0xbf78722e	-0.97049224
201	0xbedcc07b	-0.431156
202	0xbf1c5b1b	-0.61076516
203	0xbf855974	-1.0417924
204	0xbf5e0030	-0.86719036
205	0xbf58f32f	-0.8474607
206	0xbeff5b6a	-0.4987443
207	0x3f8e771a	1.1130097
208	0xbf22008e	-0.63282096
209	0xbf581c2d	-0.8441799
210	0xbee7f1f6	-0.4530179
211	0xbf8d2a04	-1.1028447
212	0xbf84a6de	-1.0363424
213	0xbea3094c	-0.3184303
214	0xbf50344e	-0.8132981
215	0xbf8598a6	-1.043721
216	0xbf3ef1cd	-0.7458771
217	0xbdf44bc8	-0.119285166
218	0xbf6bfcd8	-0.92182684
219	0x3d9759e7	0.073901944
220	0xbe8dbfc4	-0.27685368
221	0x3db0f752	0.086409226
222	0xbf3e2ee7	-0.7429032
223	0x3fa1461a	1.2599518
224	0xbf02865d	-0.5098627
225	0xbf5967cc	-0.84924006
226	0x3eb2a2b3	0.34889755
227	0x3e117ddf	0.14208172
228	0x3f1864f4	0.5952904
229	0xbf2582f7	-0.6465296
230	0xbf8d3ad4	-1.1033578
231	0x3eb2aba1	0.34896567
232	0xbf3b8357	-0.73247284
233	0xbf252f07	-0.64524883
234	0x3f7601ff	0.96096796
235	0x3e1c6aab	0.15275066
236	0xbebd7c3a	-0.3700884
237	0x3f3cca0a	0.7374579
238	0xbf32a231	-0.69778734
239	0xbf5a3b1d	-0.8524645
240	0xbee208fd	-0.44147483
241	0xbf19845d	-0.59967595
242	0xbf13e764	-0.5777495
243	0xbf8449c8	-1.0335016
244	0xbd9b743f	-0.075905316
245	0xbe0b8dbe	-0.13628289
246	0xbf572e5b	-0.8405511
247	0xbf3b8418	-0.73248434
248	0xbf53daac	-0.8275554
249	0x3fa19c87	1.2625893
250	0x3dfff729	0.12498314
251	0x3d8648f4	0.065568835
252	0x3bc7c4c2	0.0060964534
253	0xbeaf135e	-0.34194463
254	0x3d2f33b4	0.042773917
255	0xbef1b214	-0.47206175

fc3.bias f4 [4]
0	0x3d579709	0.052634273
1	0xbd933424	-0.071876794
2	0xbdbb7766	-0.09153633
3	0x3ecd73d1	0.40127423
