weights/g0.1_lr0.001_decay_0.99999999.pth (torch, 12865 bytes, 6 tensors)

fc1.weight f4 [32, 8]
00000000: 9957 da3d 29d7 1abf a9bf ea3d 06ac 0dbf
00000010: 43e2 083e c172 153e 1228 293f 93d1 553f
00000020: e82f 0b3e 39a1 cfbe 8036 eb3e 84cb 04bd
00000030: b1db fbbd de30 91bf fa34 3cbf 1bd3 7f3f
00000040: 0339 ce3d 0ce5 d33d 72fe a4be 2495 9ebe
00000050: 0cdf b63e bfe3 393e 0b7e fb3e b28d 5a3f
00000060: bcf8 483e b00f 97bf 6189 753e 5316 ecbe
00000070: 402d 33bf 2ded 3abe 253d 8c3e e139 723f
00000080: da7f a9be 89e7 43bf a2e9 373e 374c 33bf
00000090: 8dea aa3d a0ba 013e 6960 013f 7038 363f
000000a0: cdf5 713d 0b67 0ac0 1808 063f 93ba f5be
000000b0: f1e3 01bf 7da4 d1bd fafd 083f 25d6 283f
000000c0: c03e 36bf 47ef 063f 70a3 2abe 2a36 0b3f
000000d0: 559f 853f cd09 2c3f aa50 7dbf 25e9 373d
000000e0: da96 ed3d 564d cfbf 627d 3bbf 28cc 2a3d
000000f0: 5d59 bc3d a04e 963d 8af2 533f 6ec4 eb3e
00000100: 7105 483f ef76 54bf e77e 1b3e a296 73be
00000110: 1ca3 e3be e253 a63f 3bf1 243f 7d62 adbf
00000120: 8db2 aabe 45e1 a0be e046 ce3f 0902 393f
00000130: 04cd d1be ce8e 08c0 c5e2 983d 13d1 203e
00000140: 9122 82be d0ad c73e 1224 083f 729a 61bf
00000150: d84c 7e3e ce6a 8abe 04eb b23e f47d 1abf
00000160: 4184 203f 98ec 243f 2844 42be 5cb0 ed3d
00000170: 50a6 ecbe 6ede ae3f 2626 b9bf 6233 a4be
00000180: b334 f8bd 2cd4 9b3e 9832 93be f830 45bf
00000190: c618 593f 2d4e 543f 0c9a c4be 6379 9cbd
000001a0: bc15 37bf ab8d 97bf 95a4 debe fbd4 9cbe
000001b0: 5ba4 96be bfdb ef3d f644 003f 83c5 c73e
000001c0: e064 7fbc 012f 3e3f 8398 d63e bcae 0fbf
000001d0: 6ba9 3dbe 0fbd e6be a13b 7a3f 1848 e93d
000001e0: 86d0 7f3f 96db c5be 235c 3a3e 6b48 013f
000001f0: b7cb a8bf 55a2 1cbe ae52 4c3e 2a7d 72bf
00000200: 54c1 3dbf 0e51 80bf c391 4ebe ad88 07bf
00000210: ca49 b0be 3bfb 89be b2b2 2a3f 9eb7 333e
00000220: a083 a8bd 506a aabf 613e 26be d312 943d
00000230: 5cc9 ff3d faca 9c3f a451 8c3f 1473 1bbe
00000240: 1d14 883e 3bdf ce3d 91f6 5c3e 6b1e 50bd
00000250: 5ceb 85be 86e2 bbbf c8bb 2ebf b7be 39bf
00000260: e2cd 84bd 1357 3abe d8e3 cb3e 6869 6dbe
00000270: dc22 fa3e 62cb d0bf 08f6 693e 9e27 0f3f
00000280: 5d6e e2bc 5761 0fc0 5866 d3be 6ed0 4b3e
00000290: 26e8 54bf b3b7 083e 9248 073f a442 873f
000002a0: de95 6fbe 8b9d 53c0 d0db 6f3e 8595 a3be
000002b0: 0153 533e 9bec 573c 20c6 873e 1e45 8b3e
000002c0: 435b 983e b906 f4bf f740 0f3f e74f c2be
000002d0: b392 fb3e 8a90 cdbd d774 043e a808 0a3f
000002e0: 653f 4bbe dafd 44bd ae0e 233e 3202 ea3e
000002f0: 1740 5d3d cde7 d03d f7ad f13e 1729 bdbd
00000300: ce52 1fbf 5cb7 21bf 232f bbbe 1556 e9be
00000310: 656c 02bf 7329 313e c315 e83d f601 043f
00000320: d6a7 a93e 05f4 a8be 480b d23d 1d11 09bf
00000330: b564 97bd fa27 bc3e cc76 ab3e d46b 853f
00000340: 8b6b d43d 65ec 9abf bb68 aa3e 19d3 d6bd
00000350: ea85 c93e 27a2 6bbe fc24 d5be 2682 3b3f
00000360: fbe8 8cbe 31db 313f 2b22 973e 3e34 5dbf
00000370: 6b86 f83d eb39 8e3e 7bad 893e aca2 ff3e
00000380: d21c fabc f4c4 a8be 59e1 b63e e40a 7cbd
00000390: 9087 c5be e7ed 0bbf 653e 8cbe 775f 973f
000003a0: 44ff 863e 1bb4 263f ca66 613d 675f 3abf
000003b0: 03b5 e13d b0de 9bbf 613b 16bf 5e35 013f
000003c0: 5780 c23e 9e28 f5bd 5730 27bd ea98 bebe
000003d0: 6867 a93e cebe 71be e8f7 783f dc79 c03d
000003e0: a54e 92bd e3fb f6bf 05e7 1fbf c2e7 843d
000003f0: bb9c 4d3e e8c4 6dbe cf34 803f d0b0 93bd
0.10661239 -0.6048456 0.114623375 -0.5534061 0.13367562 0.14594556 0.6607677 0.8352291
0.13592494 -0.4055269 0.45940018 -0.03242065 -0.12297762 -1.1343038 -0.73518336 0.99931496
0.10069468 0.103464216 -0.32225376 -0.3097316 0.35717046 0.18153284 0.491196 0.8537246
0.19626135 -1.1801662 0.23978187 -0.46110782 -0.6999092 -0.18254538 0.273904 0.94619566
-0.33105356 -0.7652517 0.17960218 -0.7003817 0.08345518 0.12668848 0.50537735 0.71179867
0.059072305 -2.1625392 0.523561 -0.47993907 -0.50738436 -0.10236452 0.5351254 0.6595176
-0.711895 0.5270886 -0.16663909 0.5437952 1.0439249 0.67202455 -0.9895121 0.04490008
0.11601038 -1.6195476 -0.73238194 0.041698605 0.09196732 0.07339215 0.8279196 0.460483
0.781333 -0.8299398 0.15185128 -0.2378793 -0.4446038 1.2994349 0.6443059 -1.3545681
-0.33339348 -0.31421867 1.6115379 0.7226873 -0.40976727 -2.133716 0.07465128 0.15704755
-0.25416997 0.38999796 0.5318004 -0.8812629 0.24834001 -0.2703461 0.34944928 -0.6034844
0.62701803 0.64423513 -0.18971312 0.116059035 -0.46220636 1.366163 -1.4464767 -0.32070452
-0.121194266 0.30435312 -0.28749537 -0.77027845 0.84803426 0.82931787 -0.38398778 -0.0764034
-0.7151754 -1.1840109 -0.4348494 -0.3063124 -0.29422268 0.11711835 0.50105226 0.39017877
-0.015588015 0.7429047 0.41913232 -0.56126 -0.18521659 -0.45066115 0.97747236 0.11390704
0.99927557 -0.38644093 0.1819921 0.50501126 -1.3187169 -0.152963 0.19953415 -0.94722235
-0.7412312 -1.0024736 -0.20172791 -0.52942926 -0.34431297 -0.26949486 0.6667892 0.17550513
-0.082282305 -1.3313694 -0.16234733 0.07230153 0.12489578 1.2249444 1.0962415 -0.15180618
0.26577845 0.101011716 0.21578433 -0.05081026 -0.26156127 -1.4678504 -0.6825528 -0.7255663
-0.064845815 -0.18197279 0.39822268 -0.2318474 0.4885472 -1.6312068 0.2284776 0.55919826
-0.027640516 -2.2403162 -0.4128902 0.19903728 -0.8316673 0.13351326 0.5284511 1.0567212
-0.23397014 -3.3064907 0.23423696 -0.31950012 0.20637132 0.01317897 0.26518345 0.2720117
0.29757127 -1.9064552 0.55958503 -0.37951586 0.4913536 -0.10037334 0.12935196 0.5391946
-0.19848402 -0.048093654 0.15923569 0.457048 0.0540162 0.102004625 0.47203037 -0.09236353
-0.62235725 -0.6317041 -0.365594 -0.45573488 -0.50946647 0.17300968 0.11332276 0.5156549
0.3313586 -0.32998672 0.10256058 -0.5354174 -0.07392255 0.3674925 0.33489072 1.0423532
0.10372075 -1.2103392 0.33283028 -0.104894824 0.3935998 -0.23011075 -0.4162978 0.73245466
-0.275215 0.69475085 0.29518256 -0.8640784 0.12135013 0.27778563 0.26890168 0.49928796
-0.03053132 -0.32962763 0.35718802 -0.061533824 -0.38579988 -0.54659885 -0.27391353 1.1826009
0.26366627 0.6511857 0.055029668 -0.7280182 0.11020853 -1.2177334 -0.58684355 0.50472057
0.3798854 -0.11970638 -0.040817585 -0.3722604 0.33086705 -0.23607942 0.97253275 0.09398243
-0.071439065 -1.929562 -0.6246188 0.06489517 0.20079319 -0.23219645 1.0016116 -0.07211459

fc1.bias f4 [32]
00000000: cd97 59bf 08e2 c5be b6b9 6cbf afe3 0abf
00000010: f1fd 50bf a553 0fbf 0988 e8be bd9a b7be
00000020: f590 11bf 786e 2c3f 9b26 bfbe 51a7 603f
00000030: e456 1fbd 7960 03bf 03e2 47bf 0e10 e1be
00000040: 7754 00bf 6104 b4be 9535 cbbd 693d 28bf
00000050: 5cb0 713e 067d 5dbf 9cb3 1abf 1e31 7d3f
00000060: 18c5 c0be 958a 0bbf 3cf5 42bf 5f0e 14bf
00000070: 1ab4 0fbf e7a9 92bc 8bcf 42bf 4da7 a5be
-0.84997255 -0.3864901 -0.9247087 -0.5425367 -0.81637484 -0.55987006 -0.45416287 -0.35860243
-0.5686181 0.6735606 -0.3733414 0.87755305 -0.038901225 -0.5131908 -0.7807924 -0.4395756
-0.50128883 -0.3515959 -0.09922329 -0.65718704 0.23602432 -0.86518896 -0.6043031 0.9890307
-0.3765037 -0.54508334 -0.7615545 -0.5783443 -0.5613419 -0.017903281 -0.76097935 -0.32354203

fc2.weight f4 [64, 32]
00000000: ff4f 08bf 6c63 d5bc 6731 a9be 5d74 b03e
00000010: 9ee1 8ebe 1d58 25be 3553 07c0 bcca f9be
00000020: c157 153f 5586 483d 9b1e e03e b5b1 1c3f
00000030: ec97 1bbe d97c 06bf 1f81 953e 80ee 6fbd
00000040: f477 dfbe ca79 ad3e 66b5 8fbd 89b1 443e
00000050: c417 e4be fc12 de3d 7c34 80be d910 f03c
00000060: bd92 dbbe 939a 5f3e f393 abbe 35e5 113f
00000070: 9474 ebbe fcc1 e33d ef21 ddbe 42ef 4ebf
00000080: 3ee4 123e 51d8 b63e a537 02bd b498 cf3e
00000090: 2be3 7e3e bd29 e43e 369b d43e e8a8 d43e
000000a0: aad2 873f 90c1 1fbe c9d5 9f3e 63a7 e9be
000000b0: 185c a23e d369 183f 49d4 263f 5ab7 073f
000000c0: 2b8d 693f 8b4c b23e 771d 063f c899 4e3f
000000d0: 0cd9 8d3e 1b62 0dbe 56e0 483f 9ab3 ff3e
000000e0: 1881 b73e 0a61 2b3f 7f39 27be 03a5 493e
000000f0: 6a1b b33d 2586 acbd f5c7 b23e ed2e ae3e
00000100: 61c6 893d be3e ef3e af8c f33d 29ad 103f
00000110: 5c14 433c eeb6 cf3e ec9f 893e 73cb 913e
00000120: 2eb8 803f e65d 32be 0110 c73e ca79 c0bb
00000130: 3f4b a13e d782 1b3f 0086 723f 6c2b 9a3e
00000140: 6ec7 253f 7a78 263e f81c 8c3e 749f 523f
00000150: c79b 4b3e 23aa f6bd 13f2 ef3e 177b af3e
00000160: 26a2 263f 71c9 1c3f f654 f4bd 2072 9a3e
00000170: 907a e83e 6a90 05be 161f ee3e 4f15 413e
00000180: db4f 2a3f 9099 4f3f 614a cf3e 7c92 453f
00000190: 86f2 8d3e d771 1d3f ca1a f93e 613d 583e
000001a0: 7831 593f bbfc 3dbf 5b83 4cbe 3e40 94bf
000001b0: b1eb 983d ee3f f1bd 07a5 aa3e aea0 d53e
000001c0: 55fc 1b3f 5a30 e03e 6ddc f13c 5ae2 543f
000001d0: b58b 5a3e 67f2 eebe d1b5 2f3f 2611 52be
000001e0: 1d58 11bd d18c 433f c933 053e 72d9 47be
000001f0: 14fa 3e3f 0c8d 0cbf 659c 833d 6592 9fbe
00000200: 1f87 0d3d 0a1b 8f3d ddf5 113d a8bc 983e
00000210: 4974 3bbe 9cd3 a73e 8169 ae3e 8c27 883e
00000220: c92d f33e abcf 24bf 38c4 4dbe f0c8 103e
00000230: 6607 90bd 0853 173e cd27 b1bd 4866 423f
00000240: 8ad7 603f 75b9 85be 4332 983e 5f94 14bf
00000250: ed3e 9e3e 1053 99bf ae70 ca3e a1c8 153e
00000260: 08ff a73e 9d1f 773e ba40 56bf 0392 fbbe
00000270: fd51 1f3e 996f d1be 6ce9 d23e 2013 0e3d
00000280: 50ef d5bd a4ae 583e 7549 dbbf 80c1 423f
00000290: cc98 363f 666e ef3e 4d6e 1d40 589c 86bf
000002a0: 6c7b f9bd c8e5 afbe 4bbc 13be b6db 3bbd
000002b0: ac2e 33c0 cbdd e3be 6e0b e93d 2015 04c0
000002c0: 9ae2 273f 1c7d 1ec0 0716 edbf 1573 d43d
000002d0: 91c3 993e 22f4 b13f 8377 e33e 5466 73bc
000002e0: 9187 0e3f 8592 a53e caaf b93f 6b39 2f3d
000002f0: 403c ae3e 6e2e 473f 8671 83bd 9828 27c0
00000300: 45e0 4dbe c725 f0bf 7e7f c3bd f8b4 38bf
00000310: 4dab c73e 7a6a 16be 5136 333e 5823 b03e
00000320: 3cc0 693e 2a3f 9cbf 8f76 babd dba4 b23e
00000330: a603 c43e 1f12 473e 4066 193f a55a 0dbf
00000340: 2987 443d 153a 1e3e 03c2 53bf ceb4 d4bf
00000350: 9ab6 49bf acf0 923c 0c7e 7dbe 85b3 d53e
00000360: f596 413f ef44 98be 809e 13c0 dbf0 2c3f
00000370: e09e 10c0 2ab0 adbf 3c4b a8bd fc71 6c3e
00000380: 47e3 063f 3714 133f 9ac7 b13e 229e b83e
00000390: 9aec 7e3e 5c48 b43d bcbd f83e f541 233c
000003a0: 7be6 933f 3fe9 2bbf 83b7 0dbe c59d acbf
000003b0: 6071 683e 1df9 1dbe 6286 a73e 0869 153f
000003c0: 17f1 f33e edcc 7e3e 3ede c03e 5f82 563f
000003d0: 4f5d a3be f41a 05bf 9f9a 4c3e cfab 15bf
000003e0: 4a7a 123e d065 e83e 56aa ce3e e0c0 96bd
000003f0: 6d1c e13e 2955 afbe b6da 2c3c 63e2 babe
-0.53247064 -0.026048385 -0.33045503 0.34463778 -0.27906507 -0.16146894 -2.1144536 -0.48787487
0.58337027 0.048956234 0.4377335 0.6120866 -0.15194672 -0.5253425 0.29200074 -0.05857706
-0.43646204 0.3388198 -0.07017021 0.1920835 -0.44549382 0.10843465 -0.25040042 0.029304909
-0.4288539 0.21836309 -0.33511314 0.5699037 -0.4598738 0.11120984 -0.43189952 -0.8083383
0.1434488 0.3571191 -0.031791348 0.4054619 0.24891345 0.44563094 0.41524667 0.41535115
1.0611165 -0.15601182 0.31217793 -0.45635518 0.31710887 0.59536475 0.6516767 0.5301415
0.9123103 0.34824023 0.5238871 0.807034 0.27704656 -0.13806956 0.7846731 0.49941713
0.35840678 0.66944945 -0.16330527 0.19691853 0.08745463 -0.084240235 0.3491818 0.34020177
0.06727291 0.46727556 0.11892068 0.5651422 0.0119067095 0.40569252 0.26879823 0.28475532
1.0056207 -0.17418632 0.38879398 -0.0058738934 0.3150272 0.6074652 0.9473572 0.30111253
0.6475743 0.16256896 0.2736585 0.82274556 0.19883643 -0.1204417 0.46864375 0.34273598
0.6509117 0.61244875 -0.119302675 0.30165195 0.45406008 -0.13043371 0.46508092 0.18855785
0.665281 0.8109369 0.40486434 0.7717664 0.27724093 0.6150183 0.4865325 0.21117164
0.8484111 -0.7421376 -0.19971983 -1.1582105 0.074668296 -0.11779772 0.3332903 0.4172415
0.60931903 0.4378689 0.029524053 0.83157885 0.21342357 -0.46669313 0.68636805 -0.20514354
-0.035484422 0.76386744 0.13008036 -0.19516543 0.7460034 -0.5490272 0.06426314 -0.31166378
0.03455269 0.06987579 0.035634864 0.29831433 -0.18306078 0.32778633 0.34064868 0.26592672
0.4749587 -0.64379376 -0.20094383 0.14139152 -0.07032661 0.14777768 -0.086501695 0.7593732
0.87828887 -0.26118055 0.29725847 -0.58038896 0.30907384 -1.1978474 0.39539093 0.14627315
0.3281176 0.24133153 -0.83692515 -0.49134836 0.1555862 -0.40905455 0.41193712 0.034686208
-0.10446036 0.2116037 -1.7131792 0.7607651 0.713269 0.46763915 2.4598572 -1.0516462
-0.12181744 -0.34354997 -0.14427297 -0.04586383 -2.7997236 -0.44505152 0.11379133 -2.0637894
0.6558014 -2.476386 -1.8522347 0.10373513 0.30032018 1.3902628 0.44427118 -0.01485594
0.5567561 0.32338348 1.4506772 0.042779367 0.34030342 0.7780522 -0.06418137 -2.6118526
-0.20105083 -1.8761529 -0.095458016 -0.72151136 0.3899788 -0.14689055 0.17501189 0.34401965
0.22827238 -1.2206776 -0.091046445 0.348914 0.38284034 0.19440506 0.59921646 -0.5521644
0.04798046 0.15451844 -0.82717913 -1.6617677 -0.7879425 0.017937027 -0.24755114 0.41738525
0.7562097 -0.29740092 -2.306549 0.67555016 -2.259697 -1.3569386 -0.08217475 0.23090357
0.5269055 0.5745272 0.34722596 0.36058146 0.24894944 0.08802864 0.48582256 0.009964456
1.1554712 -0.6715278 -0.13839535 -1.3485647 0.22699499 -0.1542706 0.32719713 0.5836339
0.47644874 0.2488286 0.37669557 0.8379268 -0.31907126 -0.5199425 0.19980858 -0.58465284
0.14304462 0.45390177 0.4036433 -0.07361007 0.43967 -0.3424466 0.010550192 -0.36500844

fc2.bias f4 [64]
00000000: ea8b 143d 1ac1 16be 1868 98be 459d 84bf
00000010: d5c8 2dbd 569e 583e 9cee ddbe a40d 7ebf
00000020: 7e24 46bf cbc4 5ebe 7bca 22bf 52fd c0be
00000030: 76cf 36bf 4f41 72bf 722d 77bf 7ac0 5f3e
00000040: 648a 7abf 59f8 8dbf d508 80be 04ee cabe
00000050: 823a 0dbf 370f 45be 26fc 0ebf 695b fb3e
00000060: 4715 5fbf 184d 99bd 3991 6a3d 0b4e 1bbe
00000070: ec9d 7abe 3b72 0d3f 94fe 8bbf e1f3 833f
00000080: 7a5b 5dbf 32e9 3dbf 5e28 2abd 6d60 973d
00000090: 71b1 dabd 7c51 88bf f296 32bd fd15 823c
000000a0: e821 383f 7aff 9bbf b584 64be b159 1f3e
000000b0: cb14 19be 49d0 52bd a020 65bf 3afb 89bf
000000c0: 3a9b 6bbf 1ec3 67bf 0f74 e7be 1108 80bf
000000d0: 6673 d9be ff3f 7bbe 827a d5be 416e 71bf
000000e0: 3567 3fbf 0bbd a0bd 70d2 f83e 7dec 98be
000000f0: fda4 1bbe 671e e7be 8f7e 1cbe 5e22 74bf
0.036266245 -0.147221 -0.29766917 -1.0360495 -0.042427856 0.2115415 -0.43346107 -0.99239564
-0.7739943 -0.21754758 -0.6359021 -0.37693268 -0.7141031 -0.94630903 -0.9655372 0.21850768
-0.9786742 -1.1091415 -0.25006738 -0.39634717 -0.551674 -0.19244085 -0.558535 0.49093178
-0.8714184 -0.074854076 0.0572674 -0.1516649 -0.24474305 0.55252427 -1.0937066 1.0308801
-0.8646771 -0.7418395 -0.041542403 0.07391439 -0.106783755 -1.0649867 -0.043600984 0.015879625
0.71926737 -1.218734 -0.22316249 0.15561558 -0.14949338 -0.051468167 -0.89502907 -1.0779793
-0.9203373 -0.905321 -0.45205733 -1.0002462 -0.42470855 -0.24536131 -0.4169503 -0.9430886
-0.74766856 -0.07848557 0.4859805 -0.29867926 -0.15199657 -0.45140383 -0.15282653 -0.9536494

fc3.weight f4 [4, 64]
00000000: c32e 9dbe 8508 8ebe 2fc8 c4be 6d19 36bf
00000010: c409 2cbe 776e f63f 836d 84bf a6f3 61bf
00000020: e54f abbf e0d6 a8be e3cd 7dbf 03e1 a0bf
00000030: db6e 5abf bc22 63bf 003a 44bf fddf 913f
00000040: 5592 4abf 6153 46bf 2df6 b9be 5be9 063f
00000050: c1f1 8fbf 4437 cdbe 239b c5bf b57d dbbf
00000060: 9113 85bf 40b4 ccbc 524b d3be 708b 93bd
00000070: 01ba ffbd 11af 093f ad69 7bbf 998f ce3f
00000080: 4503 05bf 8e13 a1be cd3e 523f f308 d23d
00000090: 7f3d 993f 491b 80bf 08dc 05c0 e10b e3bc
000000a0: 7354 a6bf 2f7e 36bf 45df c83f dad1 b2be
000000b0: 38c3 d5be 8ce0 953f 32d3 54bf 5a3b 43bf
000000c0: f3cb 4ebf 2b9d 85bf a989 75bf cc49 69bf
000000d0: b63b 65be 0096 44bf 5c5b a0bf bbbb 75bf
000000e0: 5e60 8abf 1aa3 c03f efce b73f d974 fd3d
000000f0: 9b66 babe 914c 00bf 914a bd3d 29e6 44bf
00000100: c7c6 9d3e 3a24 f0be f271 d5be 1727 4ebf
00000110: 387c 28bf 08b2 0640 55c6 3ebf 5e7b 38bf
00000120: 4fa8 8bbf cbaa e2be a9a5 f5be 5fac bdbf
00000130: 962e e7be c66f 75bf b12a 33bf cc95 923f
00000140: 600c 5ebf 8173 01bf e7d7 edbe c6d1 b03e
00000150: cfe4 bfbf 7628 08bf 4f8b a0bf a6ff e5bf
00000160: 4f67 8fbf 5221 ea3c f838 6bbf dddf eb3b
00000170: e5b7 b63b 5934 463f 767d 43bf 2ad1 9f3f
00000180: 3fca bcbe 8e0d d63d b2c4 8dbe d24d 8c3f
00000190: 45cb d13f 37bc 47bf 6593 0ac0 d807 d8bd
000001a0: 3dd5 74bf bfe8 3bbf 99b8 f63f 7bfc b6be
000001b0: f806 edbe 649a bf3f 5471 33bf fb7a 0dbf
000001c0: 5a30 10bf 0ae9 33bf 4846 73bf 330e 71bf
000001d0: 1e17 a0be 0b8a 45bf 0496 b2bf ac2b f2be
000001e0: 9731 31bf 3a0a b53f 9eba 353f 7b92 0dbe
000001f0: d6f6 12bf 2ba8 efbb 2a18 843c f5b3 61bf
00000200: 1b50 65be a5c3 56be ebc3 95be c7dc 04bf
00000210: b318 40be 1230 a23f c67b 093f c333 e0be
00000220: b9bb b8bf 6145 39be 5af2 7bbf f7ba d7bf
00000230: 1f65 86bf 248b 6fbf 5772 2ebf 501b 803f
00000240: bcee bbbe 2890 58bf e4ef a6be d295 35bd
00000250: d817 ccbf a68f a2be 2d07 a0bf ac8f 4dbf
00000260: 2e96 82bf b99b d3bc 9dd5 a0bf 8290 a73d
00000270: 8635 4ebf fde4 62bf fb80 91bf afef 933f
00000280: fe9b b1be 38f4 bfbf e611 11bf 8515 773f
00000290: da11 f53f e144 27bf 0968 d7bf 34d3 edbe
000002a0: edaf 713f 3d27 2fbf fa9a 1f40 6f08 31bf
000002b0: 7e25 3cbe 497a b63f a318 7bbf db27 58bf
000002c0: 379b bdbe 43d1 4bbf b1fa 80bf f2a2 6ebf
000002d0: af90 bcbe 457a ebbe 736d e1bf 4e1c 7bbf
000002e0: 8fa9 b0bf 08fd 883f 3839 c03f e90a 12bf
000002f0: eafd 28bf 17b3 19bf 34d2 793d df41 14bf
00000300: cf19 a7be 79c5 c0be 1416 f1be 735d 25bf
00000310: 008a cabe 050f cf3f 6f66 dabe f139 e3be
00000320: 62b5 91bf 54b1 cabe 6efd 53bf 82d5 debf
00000330: 8f5b a3bf 661c 49bf 30bb 88be ac5a 953f
00000340: 058e 1ebf 52d1 65bf ab9f eebe eef9 b0bf
00000350: 0f7b b8bf b68a b3be 9a59 a4bf 4296 bebf
00000360: 66a2 46bf c84b f4bd 60fb 8cbf e759 973d
00000370: 65b9 ddbe 2f0d 1e3f ac02 69bf f8af f23f
00000380: 1881 0cbf 9d4c 31bf 2cbf 803f 467c ca3e
00000390: 7833 993f 7bd7 04bf 315b cabf a174 053e
000003a0: 3e64 66bf c500 33bf 93cc 0340 3e8b 1c3e
000003b0: dfab d7be 28b0 983f 6869 7fbf 6d7d 9fbf
000003c0: ee45 a7be 74a3 4cbf fbc7 44bf 5c09 b0bf
000003d0: 538d 0ebe 0535 49bd 72b5 b8bf 6e3d 90bf
000003e0: 3152 97bf 6e32 cb3f 3c81 253f cdb8 2c3f
000003f0: aa80 dfbe f8de d2be b433 2f3d 1bf9 b5be
-0.3069974 -0.27740875 -0.38433978 -0.71132547 -0.168006 1.9252461 -1.034592 -0.88262403
-1.3383757 -0.32976437 -0.99142283 -1.2568668 -0.853254 -0.88724875 -0.76651 1.1396481
-0.79129535 -0.77470976 -0.3632063 0.5269982 -1.1245652 -0.40081227 -1.5437969 -1.7147738
-1.0396596 -0.024988294 -0.41268402 -0.0720433 -0.12486649 0.53782755 -0.98208123 1.6137573
-0.51958114 -0.31460232 0.82127076 0.10255613 1.1971892 -1.0008327 -2.0915546 -0.027715625
-1.2994522 -0.7128629 1.5693136 -0.3492573 -0.41750503 1.1709151 -0.8313476 -0.7626244
-0.8077995 -1.0438589 -0.9591318 -0.9112823 -0.22386059 -0.7679138 -1.2527881 -0.9598958
-1.0810659 1.5049775 1.4360026 0.123758025 -0.36406407 -0.5011683 0.09242738 -0.76913697
0.30815718 -0.4690264 -0.41688496 -0.80528396 -0.6581454 2.1046162 -0.7452138 -0.72063243
-1.0910739 -0.4427093 -0.4797795 -1.4818228 -0.4515273 -0.9587368 -0.69987017 1.1451964
-0.8673763 -0.5056687 -0.46453783 0.34535044 -1.4991702 -0.5318674 -1.2542514 -1.7968643
-1.1203402 0.028580341 -0.918838 0.0071983174 0.005576121 0.77423626 -0.76363313 1.2485707
-0.36873052 0.10451804 -0.2768913 1.0961249 1.6390158 -0.7802157 -2.1652462 -0.10548371
-0.95637876 -0.7340202 1.9275085 -0.35739502 -0.4629438 1.4968991 -0.700948 -0.5526578
-0.5632378 -0.70277464 -0.95029116 -0.9416229 -0.31267637 -0.7716376 -1.3952031 -0.47298944
-0.69216293 1.4143746 0.7098788 -0.13825409 -0.5740789 -0.0073137484 0.016124804 -0.8816522
-0.22393839 -0.2097307 -0.29251036 -0.5189938 -0.18759422 1.267092 0.5370449 -0.4378949
-1.4432288 -0.18092872 -0.98416674 -1.6853932 -1.049961 -0.93571687 -0.6814322 1.0008335
-0.36705577 -0.84594965 -0.32604897 -0.044332333 -1.5944777 -0.3175022 -1.250219 -0.8029735
-1.0202081 -0.02583109 -1.256519 0.081818596 -0.8055042 -0.8863066 -1.1367487 1.1557521
-0.34689325 -1.4996405 -0.56667936 0.9651721 1.9146073 -0.65339476 -1.6828624 -0.46450198
0.94409066 -0.6841925 2.493834 -0.69153494 -0.18373677 1.4256068 -0.9808447 -0.84435815
-0.37032482 -0.79616183 -1.0076505 -0.93217385 -0.36829135 -0.45991722 -1.7611526 -0.98090065
-1.3801745 1.0702219 1.5017462 -0.570479 -0.6601244 -0.60038894 0.06099148 -0.5791301
-0.32636878 -0.3765066 -0.47087157 -0.6459572 -0.3955841 1.6176459 -0.42656276 -0.44380143
-1.1383479 -0.39588416 -0.8280858 -1.7408907 -1.2762316 -0.7855896 -0.26705313 1.1668296
-0.61935455 -0.8977252 -0.46606192 -1.3826272 -1.4412555 -0.35066766 -1.2839844 -1.4889605
-0.7759155 -0.119285166 -1.1014214 0.073901944 -0.43305507 0.61738867 -0.910197 1.8959951
-0.5488448 -0.6925753 1.0058341 0.39547938 1.1968832 -0.518913 -1.580908 0.13032772
-0.8999671 -0.6992305 2.0593612 0.15287492 -0.42123315 1.1928759 -0.9977021 -1.2460152
-0.3267054 -0.7993691 -0.76867646 -1.3752856 -0.13921098 -0.04912283 -1.4430373 -1.1268747
-1.1821958 1.5874765 0.6465032 0.67469484 -0.4365285 -0.41185737 0.042773917 -0.35541615

fc3.bias f4 [4]
00000000: 9919 623e e10b 92be d3f4 2ebd a8a6 b33e
0.22080077 -0.28524688 -0.04271395 0.35088086
