weights/g0.5_lr1e-05_decay_0.99999999.pth (torch, 12865 bytes, 6 tensors)

fc1.weight f4 [32, 8]
0	0xbdfcdaea	-0.12346442
1	0x3d8cc480	0.06873417
2	0xbe34e4bb	-0.17665379
3	0xbf3b22b9	-0.7309986
4	0x3dab2e45	0.083584346
5	0xbd8fb1dc	-0.07016346
6	0x3f1e93d9	0.6194435
7	0x3f0ab265	0.5417846
8	0xbf27318b	-0.6530997
9	0x3fcf56ff	1.6198424
10	0xbf5fe235	-0.8745454
11	0xbe1f8be2	-0.15580705
12	0xbf64f4bc	-0.89435935
13	0xbe02d86b	-0.1277787
14	0xbf65f547	-0.8982739
15	0xbea85a5c	-0.3288144
16	0x3e074012	0.13208035
17	0xbf9a21b3	-1.2041534
18	0xbf149763	-0.580435
19	0xbe754bc7	-0.23954688
20	0x3f3a4ef8	0.72776747
21	0x3d8333bb	0.06406351
22	0x3f76b447	0.9636883
23	0x3e09d5c9	0.13460459
24	0x3dc3a0d4	0.0955216
25	0xbeca4b7a	-0.3951071
26	0x3eaba94a	0.33527595
27	0xbf287688	-0.65805864
28	0xbed37e39	-0.41307238
29	0xbf610ed8	-0.87913275
30	0x3ef28427	0.4736645
31	0x3e554b16	0.20829424
32	0xbee1516b	-0.4400743
33	0xbfbb27c8	-1.4621515
34	0xbef81a26	-0.4845745
35	0xbf1892f5	-0.5959924
36	0xbe023aad	-0.12717696
37	0x3cb08499	0.021547602
38	0x3eff4140	0.4985447
39	0x3ee27d91	0.44236425
40	0x3eba4a43	0.36384782
41	0xbf00a512	-0.5025188
42	0x3e6a90b3	0.22906761
43	0xbf1ca379	-0.6118694
44	0xbe9234ac	-0.2855581
45	0xbf5d50c7	-0.8645138
46	0x3f0b03f6	0.5430292
47	0x3e19079b	0.14944308
48	0xbed0b3cb	-0.4076217
49	0x3e59f5ec	0.21285218
50	0xbefcaf96	-0.4935271
51	0x3ebf3162	0.37342364
52	0x3eac1bd2	0.33614975
53	0x3fceaca1	1.6146432
54	0x3faae836	1.3352115
55	0xbe0cf3eb	-0.13764922
56	0x3f20a445	0.62750655
57	0xc0496a78	-3.1471233
58	0xbdc789cf	-0.09743082
59	0xbe959275	-0.292133
60	0x3edfdc80	0.43722916
61	0x3f381960	0.7191372
62	0x3e07bb6b	0.13255088
63	0xbe3a8734	-0.18215638
64	0x3db2252f	0.086984985
65	0xbdb2202d	-0.08697543
66	0xbea24b7c	-0.31698215
67	0x3e116ac5	0.14200886
68	0xbef7b36a	-0.4837907
69	0x40111954	2.267171
70	0x3d3ff0c4	0.04686047
71	0xbe88740c	-0.26651037
72	0xbece5462	-0.40298754
73	0x3e7aa4ec	0.24476975
74	0x3ecc3aed	0.39888707
75	0x3f925cb0	1.1434536
76	0x3deebb54	0.11656824
77	0xbe163f1a	-0.14672509
78	0x3e283809	0.16427626
79	0xbe462c28	-0.19352782
80	0xbf4705d5	-0.77743274
81	0x3f1b6298	0.6069732
82	0x3f37ac51	0.7174731
83	0xbf91ed66	-1.1400573
84	0xbe5897e2	-0.21151689
85	0x3eb58e31	0.35460046
86	0x3da0a37c	0.07843682
87	0x3f4dd82e	0.8040799
88	0xbf3242fc	-0.6963346
89	0x3ec0451e	0.37552732
90	0xbea1e893	-0.31622753
91	0x3e4a6932	0.19766691
92	0x3f827af1	1.0193769
93	0x3f63ef78	0.89037275
94	0x3e977086	0.29578036
95	0xbec5d8ad	-0.38641873
96	0x3eba4c35	0.36386266
97	0xbeb356ef	-0.35027263
98	0xbf2b3690	-0.6688013
99	0xbf0757b1	-0.5286818
100	0x3f49445d	0.7861994
101	0x3f15f06d	0.58569986
102	0x3e06aa10	0.13150811
103	0x3d844db9	0.06460137
104	0xbf627b64	-0.8846953
105	0xc04772e0	-3.1163864
106	0xbecfa0e1	-0.40552428
107	0xbed0b2b6	-0.40761346
108	0xbe53d1ec	-0.20685548
109	0xbddd5544	-0.10807279
110	0x3e3fe5b9	0.18739976
111	0xbeb9e29c	-0.36305702
112	0x3e624b82	0.22099116
113	0x3f42a049	0.76025826
114	0x3ec862c0	0.3913784
115	0xbf450d34	-0.7697327
116	0xbef9f3a0	-0.48818684
117	0xbf6029c0	-0.87563705
118	0x3f0869f0	0.5328665
119	0xbe2b1b66	-0.1670967
120	0x3f322979	0.6959453
121	0x3f32f783	0.6990892
122	0x3f1de68d	0.6167992
123	0x3f2cc29b	0.67484444
124	0xbf7af2b0	-0.9802656
125	0xbf4391b3	-0.76394194
126	0x3d53cdb3	0.051709842
127	0xbf44a4dd	-0.7681406
128	0xbf2f676a	-0.6851717
129	0xbf8f8ffd	-1.1215817
130	0xbeabe785	-0.33575073
131	0xbf063d38	-0.5243716
132	0xbe3867c0	-0.18008327
133	0xbe9f1433	-0.31070098
134	0x3f6f65f2	0.9351493
135	0x3e1c4ba0	0.15263224
136	0xbdfda655	-0.12385241
137	0xbf032d64	-0.51241136
138	0xbe8aa842	-0.27081496
139	0x3e8b50d9	0.2721012
140	0x3f098831	0.53723437
141	0x3f7c71ab	0.98610944
142	0x3fa4965f	1.285839
143	0xbe153c60	-0.14573812
144	0xbc80211b	-0.015640786
145	0xbc95b5ec	-0.018275224
146	0x3f014310	0.50492954
147	0xbe76eb56	-0.24113211
148	0xbe52ed76	-0.20598397
149	0xbff0c505	-1.8810126
150	0xbf987ae5	-1.1912504
151	0x3f034d35	0.51289684
152	0xbf1e421e	-0.61819637
153	0x3efba556	0.4914958
154	0x3f04d1dc	0.5188272
155	0xbf4b889c	-0.79505324
156	0xbd24f175	-0.040269334
157	0xbfa07bbd	-1.2537762
158	0xbe99f329	-0.3006833
159	0xbf9a1363	-1.2037166
160	0x3ea1a128	0.31568265
161	0x3f0da641	0.5533181
162	0xbde44d29	-0.1114753
163	0xbf38f36c	-0.7224643
164	0xbda28af9	-0.07936663
165	0xbb52ff97	-0.00321958
166	0x3e4f41f3	0.20240001
167	0x3ea4c038	0.321779
168	0xbea82cf1	-0.32846788
169	0xc0129fa0	-2.2909927
170	0xbd7c6e44	-0.061628595
171	0xbf023da9	-0.50875336
172	0x3f094d27	0.5363335
173	0xbd303c46	-0.04302623
174	0x3e57562e	0.21028969
175	0xbe92395e	-0.28559393
176	0x3e2dda3f	0.16977786
177	0x3f0932d0	0.5359316
178	0x3eb9a505	0.36258712
179	0xbee0716c	-0.43836534
180	0xbdcdb920	-0.100450754
181	0x3e8a9945	0.2707006
182	0x3f63bf07	0.8896336
183	0x3e497f47	0.19677459
184	0x3cd8ad04	0.026449688
185	0xbf116c82	-0.56806195
186	0xbf123f3a	-0.57127726
187	0xbee2d6b9	-0.44304445
188	0xbf12ff72	-0.5742103
189	0xbdcd9186	-0.10037522
190	0x3f456c21	0.77118117
191	0x3ef40ce9	0.476661
192	0xbf736618	-0.9507766
193	0xbfa651b1	-1.299368
194	0xbf21227c	-0.62943244
195	0xbf0edfe7	-0.558104
196	0xbea99b65	-0.3312637
197	0xbeed954b	-0.46402964
198	0xbe6e9b29	-0.23301376
199	0xbe929d3e	-0.2863559
200	0x3ec14453	0.3774744
201	0x3e8ad797	0.27117607
202	0xbe7f2046	-0.24914655
203	0xbede780c	-0.43450963
204	0xbd896b68	-0.06709939
205	0x3da6122b	0.08108934
206	0x3ef4d75b	0.47820553
207	0x3f7d2320	0.9888172
208	0xbe91fa2b	-0.28511176
209	0xbc78a520	-0.015176088
210	0x3cd9e67c	0.026599161
211	0xbe2cfb0f	-0.16892646
212	0x3f081f99	0.53173214
213	0xbf6e7c2e	-0.93158233
214	0xbf140c69	-0.57831436
215	0x3f1a78ec	0.6034076
216	0x3b78fb52	0.0037991595
217	0xc02f91ab	-2.7432659
218	0xbe4eb4fa	-0.20186225
219	0xbea3943e	-0.31949037
220	0x3f06be60	0.5263424
221	0x3ebde8ac	0.37091577
222	0x3ed1a6da	0.4094761
223	0x3e3cf23e	0.18451783
224	0xbf3940b2	-0.7236434
225	0x3ef04efe	0.46935266
226	0xbee2f8bb	-0.4433039
227	0x3eed32f9	0.46327952
228	0x3edf6237	0.4362962
229	0xbf35d8c9	-0.7103391
230	0xbf81fc16	-1.0155056
231	0x3f583df0	0.8446951
232	0xbeb1e5cc	-0.34745634
233	0xbf8425df	-1.0324057
234	0x3eccabde	0.39974874
235	0xbefe3a6f	-0.49653956
236	0x3e804c62	0.25058275
237	0xbf905eee	-1.127897
238	0xbe2573a1	-0.1615739
239	0x3f087632	0.5330535
240	0x3e21e626	0.15810451
241	0x3f33090b	0.69935673
242	0x3dda6fcb	0.10665854
243	0xbf05c23f	-0.5224952
244	0x3f08eb69	0.5348421
245	0xbfd7d5f6	-1.6862171
246	0xbe861a23	-0.26191816
247	0xbfc1bc19	-1.5135528
248	0x3eaf9a68	0.3429749
249	0x3f04313a	0.51637614
250	0xbfc60537	-1.5470341
251	0x3bd14ed2	0.00638757
252	0x3f8f7adf	1.1209372
253	0x3fbc649c	1.4718204
254	0x3da6dcc5	0.08147577
255	0xbf3cfa55	-0.73819476

fc1.bias f4 [32]
0	0xbf68b105	-0.9089511
1	0x3edd1952	0.4318338
2	0xbec70e28	-0.38877988
3	0xbe8a21db	-0.26978955
4	0xbeb10870	-0.3457675
5	0xbe89b675	-0.26897016
6	0x3e83c993	0.25739726
7	0x3e08bf87	0.13354312
8	0x3e96ac94	0.29428542
9	0x3f9aeefd	1.2104183
10	0xbef08333	-0.46975097
11	0xbe75c0d9	-0.23999347
12	0x3db6ad04	0.08919719
13	0x3d013bae	0.031551056
14	0xbed9b383	-0.4251977
15	0xbef944d0	-0.48685312
16	0xbe92cca0	-0.2867174
17	0xbe2aefe1	-0.16693069
18	0xbcd4cb6a	-0.025975902
19	0xbf1b5c4f	-0.60687727
20	0xbe151f82	-0.145628
21	0xbe85816e	-0.2607531
22	0xbf6af13b	-0.9177434
23	0xbed922cc	-0.4240936
24	0xbe118294	-0.14209968
25	0xbf3b1c11	-0.730897
26	0xbf00faa0	-0.50382423
27	0x3d8b15c7	0.06791263
28	0xbf3d05ea	-0.7383715
29	0x3df1fcd1	0.11815799
30	0x3e22def2	0.1590536
31	0xbe214681	-0.15749551

fc2.weight f4 [64, 32]
0	0x3f40864f	0.7520494
1	0xbda47cf6	-0.08031647
2	0xbdeeeece	-0.11666642
3	0xbe4555cf	-0.19271015
4	0x3f166bbd	0.58758146
5	0xbe41754d	-0.18892403
6	0x3e242b83	0.16032223
7	0xbe31b296	-0.17353281
8	0x3ede77e5	0.43450847
9	0x3ece4637	0.40287945
10	0x3f3adb20	0.7299061
11	0xbf371eee	-0.7153157
12	0xbbe25633	-0.0069072484
13	0x3e3b1e0e	0.18273184
14	0xbe66c10e	-0.22534582
15	0x3f9c9c78	1.223525
16	0x3d474fa1	0.048659924
17	0xbe3eb709	-0.1862451
18	0xc04e7875	-3.226102
19	0x3f149136	0.58034074
20	0x3e4ce630	0.20009685
21	0x3e8d7c1b	0.27633747
22	0x3ecde091	0.40210393
23	0x3f48e1b2	0.78469384
24	0x3f083d57	0.532186
25	0x3f413bd1	0.754819
26	0xbf303da4	-0.68844056
27	0x3ec85a93	0.39131603
28	0xbf4e0318	-0.8047347
29	0xbe748ed0	-0.23882604
30	0xbec54a80	-0.385334
31	0xbf123f5d	-0.57127935
32	0x3e5888b7	0.21145903
33	0xbf8d9fa4	-1.1064343
34	0x3db13a87	0.08653741
35	0x3e7acbfc	0.24491876
36	0x3e9bc0a1	0.30420402
37	0x3e9ac019	0.30224684
38	0x3dc4b5f4	0.09605017
39	0xbdcb89c7	-0.09938388
40	0x3ddd86c3	0.108167194
41	0xbffe1ce7	-1.985257
42	0xbf209d93	-0.6274044
43	0x3f4b4620	0.7940388
44	0x3ecd5f6a	0.40111858
45	0x3e13be51	0.14428069
46	0x3ea2eba1	0.31820396
47	0x3f9ba0a8	1.2158403
48	0x3f53fc54	0.828069
49	0x3efd3104	0.49451458
50	0x3f75184b	0.95740193
51	0xbefc02fd	-0.4922103
52	0xbe917262	-0.2840758
53	0x3e0d24d7	0.13783585
54	0x3f4ddf57	0.80418915
55	0x3e454f06	0.19268426
56	0x3e35d37d	0.17756458
57	0x3ee54d72	0.4478565
58	0x3f975d1f	1.1825293
59	0x3e570784	0.2099896
60	0x3ee73271	0.4515567
61	0xbf13c348	-0.5771985
62	0xbf7e3a3c	-0.9930761
63	0xbe3747d9	-0.17898501
64	0x3e85055c	0.2598065
65	0xbf186210	-0.5952463
66	0x3d59ded0	0.053191006
67	0x3e08e388	0.13368046
68	0x3f033d3a	0.512653
69	0x3e5e9afe	0.21738812
70	0xbe230c78	-0.15922725
71	0x3ea52334	0.3225342
72	0x3e86597e	0.26240152
73	0xc02f87e7	-2.7426698
74	0xbe109376	-0.14118752
75	0x3ef2a0a5	0.47388187
76	0x3eb34e03	0.35020456
77	0x3f128f52	0.5724994
78	0x3ee77ff5	0.4521481
79	0x3eadef4f	0.3397164
80	0x3f610b29	0.87907654
81	0x3e8496ca	0.25896293
82	0x3ee57202	0.44813544
83	0xbf186863	-0.5953428
84	0x3d3e249c	0.046421632
85	0x3e0f22d4	0.1397813
86	0x3e0d5e53	0.13805513
87	0x3ec6814f	0.3877053
88	0x3f4e623d	0.8061865
89	0x3f017c72	0.50580513
90	0x3fafdbed	1.3738991
91	0x3ed8bccf	0.4233155
92	0x3f49dd1d	0.7885302
93	0xbe78c66b	-0.2429444
94	0xbf29b72b	-0.6629512
95	0xbf3727d4	-0.7154515
96	0x3ec7e06d	0.3903841
97	0xbf1d550e	-0.6145791
98	0x3edc4a67	0.43025514
99	0x3ede5806	0.43426532
100	0x3db3a555	0.08771769
101	0x3e4f7c7e	0.20262334
102	0x3e0d61e7	0.13806878
103	0xbd9fe990	-0.078082204
104	0x3d811be3	0.06304147
105	0xbfc4d3ff	-1.5377196
106	0xbf15651e	-0.5835742
107	0x3f826a7e	1.0188749
108	0x3eb73377	0.35781452
109	0x3df84214	0.121219784
110	0x3ea48cd7	0.32138702
111	0x3f9a66fc	1.2062678
112	0x3f3ca2da	0.7368599
113	0x3f110204	0.566437
114	0x3f395711	0.7239848
115	0xbf14c1d2	-0.58108246
116	0xbe1e521b	-0.15461008
117	0x3dfbbf54	0.12292352
118	0x3f4674d0	0.7752199
119	0x3e314804	0.17312628
120	0x3e83cc40	0.25741768
121	0x3ea40744	0.32036793
122	0x3f857a9f	1.0428046
123	0xbd24ba33	-0.040216636
124	0x3f4aade7	0.79171604
125	0xbee41c6f	-0.44552943
126	0xbf8bd567	-1.09245
127	0xbea3e65d	-0.3201169
128	0x3e1857c2	0.14877227
129	0xbfa4ecf8	-1.2884817
130	0x3c7049e4	0.014666054
131	0x3ed22f3c	0.41051662
132	0x3df77226	0.12082319
133	0x3db8a154	0.09015146
134	0xbe2330f5	-0.15936644
135	0xbe9d96ae	-0.30779022
136	0x3f2ec4a1	0.6826878
137	0xc04b76be	-3.1791224
138	0x3d8c0302	0.06836511
139	0x3e9828e0	0.29718685
140	0xbd5430f9	-0.051804516
141	0xbdd9228a	-0.10602291
142	0x3e7ce7e0	0.24697828
143	0x3f61c938	0.8819766
144	0x3ef6ae25	0.48179737
145	0x3ee9e402	0.4568177
146	0x3f4ed696	0.8079618
147	0xbfad529a	-1.3540833
148	0x3e4a5763	0.19759898
149	0xbf0f29ca	-0.5592314
150	0x3f14b041	0.5808144
151	0x3e1cc04a	0.15307727
152	0xbf097a52	-0.5370227
153	0x3e50ef1c	0.20403713
154	0x3fb1529d	1.3853337
155	0xbd19e062	-0.037567504
156	0x3f1a7958	0.60341406
157	0xbe9ab9ba	-0.30219823
158	0xbfdb9e1a	-1.7157624
159	0xbfc04f7a	-1.5024254
160	0x3ed68854	0.41900885
161	0xbd572817	-0.052528467
162	0x3f00c030	0.50293255
163	0xbe938367	-0.2881119
164	0x3f1cfb80	0.6132126
165	0xbd560665	-0.052252192
166	0x3eaa98f7	0.33319828
167	0x3eeb624e	0.45973438
168	0xbd6f47da	-0.058418132
169	0x3f4f92f9	0.8108364
170	0xbf577be3	-0.8417341
171	0xbe32aa11	-0.17447688
172	0xbd2f7cb3	-0.04284353
173	0x3ed99e7e	0.42503732
174	0xc0054365	-2.0822384
175	0x4042ffb7	3.0468576
176	0x3e617021	0.2201543
177	0x3ef98141	0.48731425
178	0xbffe586b	-1.9870733
179	0xc01787ee	-2.3676715
180	0xbec104f8	-0.37699103
181	0x3ef2b803	0.47406015
182	0x3e0d9ae1	0.13828613
183	0x3f639e55	0.8891347
184	0x3ef36d0f	0.47544143
185	0xbd0f9bb9	-0.035060618
186	0xbe8e308f	-0.27771422
187	0x3db552a6	0.088536546
188	0x3dabf7d1	0.083968766
189	0x3f351ee0	0.70750237
190	0xbe651297	-0.22370373
191	0x3e3e0461	0.18556358
192	0x3c9999c6	0.018750083
193	0xbfb912f2	-1.4458907
194	0xbeb24b7c	-0.34823215
195	0x3c73c2fb	0.01487803
196	0x3e92587d	0.28583136
197	0xbc6b0228	-0.014343776
198	0x3e09c495	0.13453896
199	0xbe4e226c	-0.20130318
200	0x3f09e57c	0.5386579
201	0xc00034ea	-2.0032296
202	0x3ea771fe	0.32704157
203	0xbe9de21c	-0.3083657
204	0x3d305a19	0.043054674
205	0xbdf52dfa	-0.1197166
206	0x3eb4327c	0.35194767
207	0xbde65ec8	-0.11248547
208	0x3ced7855	0.028988043
209	0xbe118889	-0.1421224
210	0x3f228e02	0.63497937
211	0xbf80b079	-1.0053855
212	0xbda988fc	-0.08278081
213	0xbe9bd818	-0.30438304
214	0x3f18481e	0.5948504
215	0x3f13cdc7	0.57735866
216	0x3bb37039	0.0054760245
217	0x3edd8d00	0.43271637
218	0x3fb4bcdf	1.4120139
219	0x3e1e29a7	0.15445577
220	0x3c4fbaa3	0.012678775
221	0xbeb39c55	-0.3508021
222	0xbfceb958	-1.6150312
223	0xbfbe64fc	-1.4874568
224	0x3e28ed78	0.16496837
225	0xbfb49ee1	-1.4110986
226	0x3eaff099	0.3436325
227	0x3f182e8e	0.59446037
228	0x3eb3e634	0.3513657
229	0x3edd5ead	0.43236294
230	0xbe0d829b	-0.13819353
231	0x3f2903ac	0.6602123
232	0x3e848c2a	0.25888187
233	0xbfbf1d4a	-1.4930813
234	0x3dbc4e4e	0.09194623
235	0x3dc94c79	0.09829039
236	0x3ee3f0d5	0.44519678
237	0x3e61e0e8	0.22058451
238	0x3f1db5b6	0.61605394
239	0x3ec0e74e	0.3767647
240	0x3f420e40	0.75802994
241	0xbe0cea3b	-0.13761227
242	0x3f238997	0.6388182
243	0xbe1fcfdb	-0.15606634
244	0xbd9003e8	-0.07031995
245	0x3eac0c75	0.33603254
246	0xbe0ffd3e	-0.14061448
247	0x3ea40716	0.32036656
248	0x3e34a405	0.17640693
249	0x3ec3149f	0.3810167
250	0x3e9bd090	0.30432558
251	0x3f0bfa07	0.54678386
252	0xbec8dd75	-0.39231458
253	0x3d6a7649	0.05724171
254	0xbf1a5d4f	-0.6029863
255	0xbf731517	-0.94954056

fc2.bias f4 [64]
0	0x3db63eab	0.08898672
1	0xbf8160ad	-1.0107628
2	0xbf16eb4f	-0.589528
3	0xbf94607a	-1.1591942
4	0xbe86c372	-0.26320988
5	0x3eb0d274	0.34535563
6	0xbd2e3104	-0.042527214
7	0x3e64f308	0.22358334
8	0x3d9c052b	0.07618173
9	0xbe2225f8	-0.15834796
10	0xbdc78756	-0.0974261
11	0xbee2a3d4	-0.44265616
12	0xbf2ecb4a	-0.68278944
13	0xbf471a45	-0.7777446
14	0xbdf66f3a	-0.120329335
15	0x3cff6c5b	0.031179598
16	0xbe55be2e	-0.20873329
17	0xbf265250	-0.6496935
18	0xbea7d4ae	-0.3277945
19	0xbe995382	-0.29946524
20	0xbddc71f9	-0.10763926
21	0xbe414d6b	-0.18877189
22	0x3e2f3631	0.17110516
23	0x3d6689d6	0.056283794
24	0xbf91ddfe	-1.1395872
25	0xbe95170a	-0.2911914
26	0xbd82a26a	-0.06378634
27	0xbe26f2ea	-0.16303602
28	0xbf20b855	-0.6278127
29	0xbd68402d	-0.056701828
30	0xbef5768f	-0.47942016
31	0xbe72400f	-0.23657249
32	0xbe059f28	-0.13048995
33	0xbef50760	-0.4785719
34	0xbee51f78	-0.4475057
35	0xbe22a0bc	-0.15881628
36	0x3d91d4f3	0.07120695
37	0xbf688d32	-0.90840447
38	0xbeb8646b	-0.36014113
39	0xbd896ffb	-0.06710812
40	0x3f0049b0	0.5011244
41	0xbf4dcb52	-0.8038837
42	0x3f13bbc0	0.5770836
43	0xbeab12dc	-0.33412826
44	0xbc4085f3	-0.011750686
45	0x3f4f047c	0.8086622
46	0xbf0a141b	-0.5393693
47	0xbf27f63e	-0.6561011
48	0x3e09f563	0.13472514
49	0xbe960d49	-0.2930701
50	0xbe31e2c1	-0.17371656
51	0xbf9c45cc	-1.22088
52	0x3e1b0bee	0.1514127
53	0xbd8a17f2	-0.067428485
54	0x3df00a00	0.11720657
55	0x3e9d3a59	0.30708578
56	0x3e587e43	0.21141915
57	0xbdf413b7	-0.11917823
58	0x3e1da6d4	0.15395671
59	0xbe63f33c	-0.22260755
60	0x3ddfba12	0.10924162
61	0xbda9fd0b	-0.08300217
62	0xbeb30a6b	-0.34968886
63	0xbe32a3e1	-0.17445327

fc3.weight f4 [4, 64]
0	0x3f5921ad	0.8481701
1	0xbf3f4147	-0.7470898
2	0xbef7536f	-0.48305842
3	0xbf6d2a23	-0.9264242
4	0xbf92ff66	-1.1484191
5	0x3f31e6ea	0.6949297
6	0xbfb5fed5	-1.4218394
7	0xbf1fa231	-0.6235686
8	0xbf47bb7b	-0.7802045
9	0xbf0b1c30	-0.54339886
10	0xbeca3b0a	-0.39498168
11	0xbf4c52c2	-0.7981378
12	0xbf37d510	-0.7180948
13	0xbf315c7d	-0.6928175
14	0xbeecb5bc	-0.46232402
15	0x3f71e893	0.94495505
16	0xbeb05f41	-0.34447673
17	0xbe1a902b	-0.15094058
18	0xbecb91e1	-0.39759734
19	0xbeafde9e	-0.3434953
20	0xbec702bb	-0.3886927
21	0xbebf9beb	-0.37423643
22	0xbf0a14e4	-0.53938127
23	0xbf70b7bb	-0.9403035
24	0xbf6af045	-0.9177287
25	0xbe4a0429	-0.1972815
26	0xbe2c680b	-0.16836564
27	0xbcd1c8f3	-0.025608515
28	0xbfa3da96	-1.2801082
29	0xbefbe4df	-0.49198052
30	0xbeb215e2	-0.3478232
31	0xbfbaf7e8	-1.4606905
32	0xbe8c1b63	-0.27364644
33	0xbe6f52e5	-0.23371466
34	0xbf03bab6	-0.51456773
35	0x3d730cd5	0.05933841
36	0x3d9e2697	0.07722204
37	0xbdc4a2a4	-0.09601334
38	0xbf8ed230	-1.1157894
39	0x40058b12	2.0866132
40	0xbf391386	-0.72295415
41	0xbeeb42db	-0.45949444
42	0x3f551089	0.83228356
43	0xbe9afccb	-0.3027099
44	0xbef77879	-0.483341
45	0x3f873179	1.0561973
46	0xbf52249f	-0.8208713
47	0xbf74168e	-0.95346916
48	0xbf54739d	-0.8298891
49	0xbfcc09b6	-1.5940464
50	0xbe8d87ca	-0.2764266
51	0xbf5ff7c5	-0.8748744
52	0xc0057cd0	-2.085743
53	0xbedbd6e0	-0.42937374
54	0x3fae28a6	1.3606155
55	0xc01689a6	-2.3521514
56	0xbf785415	-0.970033
57	0xbf63ea60	-0.890295
58	0x3fd857ef	1.6901835
59	0x3f6ec8ff	0.93275446
60	0x3eb3f1f3	0.3514553
61	0xbebf062e	-0.37309402
62	0x3f95245f	1.1651725
63	0x3eff4c08	0.49862695
64	0x3f989f00	1.1923523
65	0xbf2a42ba	-0.66508067
66	0xbf0e0167	-0.5547089
67	0xbf837a8b	-1.0271772
68	0xbfdfa5b8	-1.7472448
69	0x3f651fb1	0.8950148
70	0xbf06f273	-0.527137
71	0xbf288e61	-0.6584225
72	0xbf1760a5	-0.5913184
73	0xbf08afe2	-0.53393376
74	0xbeb6d2f8	-0.3570783
75	0xbfb6f94a	-1.4294827
76	0xbef2ddb4	-0.4743477
77	0xbf5eb0d1	-0.8698855
78	0xbf0142bf	-0.5049247
79	0x3f8fc3ef	1.1231669
80	0xbeea4c28	-0.45761228
81	0xbe27ef8f	-0.16399978
82	0xbea6ab7e	-0.32552713
83	0xbef92509	-0.48661068
84	0xbeec7636	-0.46183938
85	0xbedd0fdf	-0.4317617
86	0xbf09dff4	-0.5385735
87	0xbfbeb213	-1.4898094
88	0xbf709368	-0.93974924
89	0xbed61edf	-0.41820428
90	0x3e6220f5	0.22082885
91	0x3d90ff6b	0.07079967
92	0xbf6deefd	-0.9294279
93	0xbdc4f77c	-0.096175164
94	0xbee4b36c	-0.44668138
95	0xbfc7924b	-1.559152
96	0xbdda076d	-0.106459476
97	0xbeb5e825	-0.35528675
98	0xbf685922	-0.90761006
99	0x3e84d712	0.25945336
100	0x3cd2c61a	0.025729228
101	0x3efab45e	0.48965734
102	0xbff689f0	-1.9260845
103	0x3ffcb85c	1.9743762
104	0xbf0d66f5	-0.55235225
105	0xbef89238	-0.48549056
106	0x3f9aef27	1.2104234
107	0xbd006463	-0.031345736
108	0xbee76397	-0.4519317
109	0x3f732a9d	0.949869
110	0xbf2d20ba	-0.6762806
111	0xbf841b5c	-1.032085
112	0xbf390c19	-0.72284085
113	0xbfc2de08	-1.5224009
114	0xbedea610	-0.4348607
115	0xbf63a1aa	-0.88918555
116	0xbec35377	-0.38149616
117	0xbef1974a	-0.47185737
118	0x3fcd5bd4	1.6043649
119	0xbfa782c9	-1.3086787
120	0xbf75ab7a	-0.9596478
121	0xbe899689	-0.26872662
122	0x3f7dd58a	0.9915396
123	0x3f9f65f8	1.2452993
124	0x3d7de185	0.06198265
125	0xbefef837	-0.49798748
126	0x3f85f358	1.0464888
127	0xbd9575ae	-0.07297836
128	0x3f9165bb	1.1359171
129	0xbf07a910	-0.52992344
130	0xbf1ba453	-0.60797614
131	0xbf3aee1c	-0.73019576
132	0xbf9d49d3	-1.2288154
133	0x3c0ef69f	0.008725791
134	0xbf8c9f9d	-1.098621
135	0xbf177ab5	-0.5917161
136	0xbf35396a	-0.7079073
137	0xbedff444	-0.43741047
138	0xbec828b5	-0.39093557
139	0xbfb61a5d	-1.4226795
140	0xbf837336	-1.0269535
141	0xbf83d896	-1.0300472
142	0xbe83aaae	-0.25716156
143	0x3e6367b5	0.2220753
144	0xbec19e6e	-0.37816185
145	0xbf1e7c9b	-0.6190888
146	0xbe9a64e2	-0.30155092
147	0xbe670328	-0.22559798
148	0xbec08cf6	-0.37607545
149	0xbe56ec65	-0.20988615
150	0xbf00d39f	-0.5032291
151	0xbf307b03	-0.689377
152	0xbf551b58	-0.8324485
153	0xbea45d8a	-0.32102615
154	0x3f0b065f	0.54306597
155	0x3d91a4fb	0.07111546
156	0xbfb8fa43	-1.4451374
157	0xbf302b80	-0.68816376
158	0xbea05d78	-0.3132131
159	0xbf9c9c41	-1.2235185
160	0xbeb575bd	-0.3544139
161	0xbf2febd8	-0.68719244
162	0xbe512e22	-0.20427755
163	0xbda8f73b	-0.082502805
164	0xbc128fe5	-0.00894544
165	0xbed7de65	-0.4216186
166	0xbf9315ab	-1.1490988
167	0x3fc84719	1.5646697
168	0x3f1dd095	0.61646396
169	0xbeeaee10	-0.45884752
170	0x3fcff472	1.6246474
171	0xbed411ee	-0.4141993
172	0xbd892c12	-0.06697859
173	0x3f7ed6f9	0.9954677
174	0xbf1b3e06	-0.60641515
175	0xbfa54adb	-1.2913469
176	0xbf46f5d9	-0.77718884
177	0xbfae99f0	-1.3640728
178	0xbe82560d	-0.25456277
179	0xbf4d05b6	-0.8008684
180	0xbfcd597f	-1.6042937
181	0xbdb9a8b9	-0.090653844
182	0x3f9b8e0b	1.2152723
183	0xbfa9648d	-1.3233811
184	0xbf13c410	-0.5772104
185	0xbf49f30e	-0.788865
186	0x3fcf36e8	1.6188631
187	0x3f6085e7	0.8770432
188	0xbed0e733	-0.4080139
189	0xbe3978ea	-0.18112531
190	0x3ecfcf35	0.40587774
191	0xbdc78e3d	-0.09743927
192	0x3ef31aed	0.4748148
193	0xbf0c4e11	-0.5480662
194	0xbf5770ca	-0.8415648
195	0xbee7ab03	-0.4524766
196	0xbfa891a5	-1.3169447
197	0x3f41c95b	0.7569787
198	0xbf8a3608	-1.0797739
199	0xbec5712d	-0.3856291
200	0xbe979f26	-0.29613608
201	0xbf1bdec2	-0.60886776
202	0xbefc1994	-0.49238265
203	0xbfad2ddd	-1.3529621
204	0xbf4c07ba	-0.7969929
205	0xbf946865	-1.1594359
206	0xbeef9cd8	-0.4679935
207	0x3f181f24	0.59422517
208	0xbe9c9878	-0.30585074
209	0xbeeb903f	-0.4600849
210	0xbf13a30e	-0.57670677
211	0xbe92cc46	-0.28671473
212	0xbf1ba953	-0.60805243
213	0xbe1c775b	-0.15279905
214	0xbf23d683	-0.63999194
215	0xbf8796c3	-1.0592884
216	0xbefb002a	-0.49023563
217	0xbeaa7c0d	-0.33297768
218	0x3f1c1615	0.60971195
219	0x3e53a6e6	0.20669135
220	0xbf730c5a	-0.9494072
221	0xbf54c17c	-0.83107734
222	0xbec88561	-0.3916426
223	0xbfa23da2	-1.2675059
224	0xbea63986	-0.32465762
225	0xbeb32bf3	-0.34994468
226	0xbf0a973e	-0.5413703
227	0xbe13ac6b	-0.14421241
228	0xbd1b2b22	-0.03788293
229	0xbe9be3ba	-0.3044718
230	0xbfd05b3a	-1.627784
231	0x3ff7134b	1.9302763
232	0xbf5cb510	-0.8621378
233	0xbedaad01	-0.42710117
234	0x3f85c090	1.044939
235	0xbefd2220	-0.49440098
236	0xbebf5863	-0.3737212
237	0x3f538afe	0.8263396
238	0xbf765b2e	-0.9623288
239	0xbf8840c0	-1.064476
240	0xbf4648a6	-0.774546
241	0xbfc2aec0	-1.520958
242	0xbeb5746f	-0.35440394
243	0xbf3e063f	-0.7422828
244	0xbf9c53f0	-1.2213116
245	0xbe1d99f5	-0.15390761
246	0x3fa8eea9	1.3197833
247	0xbf8f49bb	-1.1194376
248	0xbf34cd8e	-0.7062615
249	0xbf6bb6b3	-0.9207565
250	0x3ff1373d	1.8844982
251	0x3f3a68e0	0.72816277
252	0x3f0183ca	0.5059172
253	0xbee823a2	-0.45339686
254	0x3fa057ba	1.2526772
255	0xbd9aede0	-0.07564902

fc3.bias f4 [4]
0	0x3e37e025	0.17956598
1	0xbecbc296	-0.39796895
2	0x3f0ea871	0.5572577
3	0x3eae479f	0.34039018
