weights/g0.5_lr1e-05_decay_0.99999999.pth (torch, 12865 bytes, 6 tensors)

fc1.weight f4 [32, 8]
-0.003180396 -0.40241352 -0.25272414 -0.6076707 0.060966223 0.10382449 0.57542294 0.5126681
-0.44868162 0.8741384 -0.66200787 -0.06090273 -0.58450997 -0.06658764 -0.50047344 -0.13584714
-0.20468174 -0.74584484 -0.40808105 -0.291381 0.4509475 0.25664783 0.6244742 0.49106032
0.22996269 -0.68482214 0.37998927 -0.76832676 -0.5583876 -0.55137813 0.52606285 0.118221074
-0.2757618 -1.5885911 -0.33824527 -0.62359285 0.1599012 0.33670026 0.41047987 0.5240753
0.36066356 -1.0728862 0.18419445 -0.67613876 -0.4611711 -0.7589087 0.6599184 0.035057176
-0.538104 0.014231767 -0.3082572 0.3125192 0.3116827 1.8907398 0.8823498 0.27693957
0.17652637 -1.7333174 -0.300843 -0.44478002 0.44543174 0.3856418 0.15398544 0.24553376
0.44096273 -0.109520115 -0.13059884 0.16886213 0.001938156 2.1223876 0.22133552 -0.36041465
-0.3785805 1.4181871 0.087583125 0.5643428 -0.14580739 -0.17214823 -0.11972603 -0.30709767
-0.5246455 0.85496736 0.5406619 -1.1768175 0.15035658 0.42760453 0.42496416 0.27593154
-0.61563027 0.4619459 -0.2295608 0.3082192 0.8543028 0.76480114 -0.3591245 -0.41345656
0.23959276 -0.9003245 -0.39255944 -0.43737403 0.7736471 0.59332997 -0.055495944 0.12606825
-0.7261881 -1.6354609 -0.47316635 -0.48271525 -0.027220663 -0.0635611 0.24874416 0.1589706
-0.08066965 0.5411385 0.22474545 -0.7421505 -0.50685614 -0.72020805 0.74957556 -0.27367413
0.617855 0.64393204 0.39952302 0.44907328 -0.8412647 -0.8509368 -0.14311638 -1.0048714
-0.29487342 -1.1030787 -0.37584645 -0.47940105 -0.04852961 -0.383333 0.75045466 0.06472477
-0.36724252 -0.072816655 -0.09875196 0.15988877 0.46566722 1.1794467 1.0312635 -0.3452292
-0.06323549 -0.07097908 0.4232788 -0.32985574 -0.3254277 -1.5987844 -1.1626391 0.390673
-0.318328 0.33340675 0.34450966 -0.72025335 -0.13329232 -1.2325999 -0.34153512 -0.8708354
0.11487368 0.5303507 -0.20414098 -0.7163014 -0.07271923 0.0021608807 0.1636885 0.107892856
-0.59765625 -1.5644335 -0.02109791 -0.49374884 0.35891968 0.4446589 0.13271177 0.34443843
0.0417111 -0.19546364 0.29596126 -0.5035514 0.05155627 0.34759292 0.63383174 -0.26037776
0.27655828 -0.9180648 -0.48405406 -0.47430155 -0.43308282 0.18848039 0.500472 0.69612
-0.45957568 -1.1577737 -0.44506454 -0.47820282 -0.09057785 -0.3828479 0.10135155 -0.036604133
0.34224278 -0.7656835 -0.20943679 -0.5436775 -0.07102445 0.2239844 0.2514266 0.80429465
-0.20559734 0.61073893 -0.17622261 -0.13540089 0.2534815 -0.80204964 -0.41816056 0.41661835
-0.30838072 -1.7651185 -0.10706643 -0.42777485 0.62351644 0.695088 0.25243014 0.5995396
-0.5579031 0.4112042 -0.3617024 0.113323376 0.1791998 -0.22168079 -0.84063464 0.6948981
-0.24686225 -0.8582366 0.37089407 -0.38560563 0.31330642 -0.95304185 -0.06172187 0.7022844
0.0950989 0.5524127 0.015030689 -0.4196702 0.023256395 -1.485387 -0.27471867 -1.2432293
-0.10839045 0.28195626 -1.4954756 0.006491025 1.3518451 1.3038594 -0.24472529 -0.33076817
00000000: 316e 50bb 2509 cebe 0f65 81be 4f90 1bbf
00000010: b8b7 793d efa1 d43d eb4e 133f 373e 033f
00000020: 99b9 e5be 89c7 5f3f 5979 29bf 2475 79bd
00000030: 72a2 15bf 1a5f 88bd 071f 00bf 831b 0bbe
00000040: 1798 51be b0ef 3ebf 00f0 d0be e42f 95be
00000050: 97e2 e63e 5867 833e 8bdd 1f3f 426c fb3e
00000060: 577b 6b3e 8150 2fbf f48d c23e 10b1 44bf
00000070: 7df2 0ebf 1e27 0dbf 0eac 063f e41d f23d
00000080: a730 8dbe f456 cbbf 7c2e adbe c8a3 1fbf
00000090: 24bd 233e fa63 ac3e 6b2a d23e cd29 063f
000000a0: e5a8 b83e 5654 89bf 789d 3c3e 6e17 2dbf
000000b0: 9e1e ecbe d747 42bf 6af0 283f 1d98 0f3d
000000c0: 2fc1 09bf 5b2c 693c e3d3 9dbe 8402 a03e
000000d0: e094 9f3e c303 f23f ade1 613f 06cb 8d3e
000000e0: 54c3 343e 58dd ddbf 1808 9abe 35ba e3be
000000f0: a10f e43e d872 c53e 5cae 1d3e 346d 7b3e
00000100: dec5 e13e 154c e0bd b4bb 05be 32ea 2c3e
00000110: b909 fe3a 33d5 0740 c7a5 623e 4588 b8be
00000120: 4ed5 c1be 2887 b53f c85e b33d c578 103f
00000130: 884e 15be a047 30be ec32 f5bd e83b 9dbe
00000140: 2b4f 06bf 24df 5a3f d168 0a3f f5a1 96bf
00000150: 13f7 193e fbee da3e e794 d93e e646 8d3e
00000160: f299 1dbf 2c84 ec3e fd11 6bbe e8ce 9d3e
00000170: 97b3 5a3f 02ca 433f 2bdf b7be 94b0 d3be
00000180: ce57 753e ab7b 66bf 8dfd c8be 7def dfbe
00000190: bd0d 463f 79e4 173f b74f 63bd 0918 013e
000001a0: 77e7 39bf c856 d1bf dc42 f2be 7426 f7be
000001b0: defd debc 522c 82bd cab6 7e3e 30c9 223e
000001c0: 2136 a5bd 0e88 0a3f ac23 663e 93fd 3dbf
000001d0: 53c1 01bf 8e5f 38bf 2fe4 3f3f 041f 8cbe
000001e0: bf2b 1e3f bbd8 243f 488e cc3e efec e53e
000001f0: 205d 57bf fed6 59bf 1a8d 12be a09f 80bf
00000200: a6f9 96be af31 8dbf f26e c0be 0e74 f5be
00000210: fcc6 46bd 3944 c4be cc1d 403f 6c8e 843d
00000220: 3607 bcbe e620 95bd 783e cabd e2b9 233e
00000230: ef6b ee3e 1cf8 963f 7100 843f e2c1 b0be
00000240: 9c81 81bd 7b5d 91bd 00b8 d83e dae2 a8be
00000250: 769e a6be f8a4 ccbf 5cd1 94bf 4b06 c83e
00000260: e3fb a2be 4ab4 aa3e 9263 b03e 8662 38bf
00000270: c87d 08be d5c5 9dbf b1dd aebe 12ef 5ebf
00000280: e442 eb3d 10c5 073f 550a 51be 875f 37bf
00000290: d2ed 94bd 909d 0d3b f59d 273e eef6 dc3d
000002a0: 0000 19bf 5b3f c8bf 86d5 acbc a6cc fcbe
000002b0: 52c4 b73e 55aa e33e 98e5 073e 3c5a b03e
000002c0: 42d9 2a3d 9f27 48be 3c88 973e bfe8 00bf
000002d0: ab2c 533d b3f7 b13e cc42 223f 3c50 85be
000002e0: 0c99 8d3e 4b06 6bbf efd5 f7be a7d7 f2be
000002f0: 08bd ddbe 0101 413e ef1e 003f ec34 323f
00000300: 814d ebbe ee31 94bf 80df e3be 00d7 f4be
00000310: e180 b9bd a404 c4be 6791 cf3d 37ee 15bd
00000320: 723a af3e d503 44bf 9976 56be 732e 0bbf
00000330: 4475 91bd 2b5c 653e fdba 803e 41e6 4d3f
00000340: 1c88 52be 6359 1c3f b373 34be 88a6 0abe
00000350: 54c8 813e 2053 4dbf 2419 d6be 004f d53e
00000360: 14e4 9dbe 67ef e1bf a545 dbbd 4e05 dbbe
00000370: c69e 1f3f 4af1 313f 863e 813e 6d7b 193f
00000380: bdd2 0ebf 5b89 d23e 0f31 b9be 1616 e83d
00000390: 2780 373e 4a00 63be d533 57bf d8e4 313f
000003a0: 75c9 7cbe 65b5 5bbf d4e5 bd3e 1a6e c5be
000003b0: b369 a03e 8dfa 73bf 12d0 7cbd e9c8 333f
000003c0: 36c3 c23d eb6a 0d3f 4743 763c 03df d6be
000003d0: 3284 be3c 2921 bebf eda7 8cbe 2322 9fbf
000003e0: d0fb ddbd 925c 903e bf6b bfbf aab2 d43b
000003f0: 4309 ad3f dde4 a63f 4499 7abe 725a a9be

fc1.bias f4 [32]
-0.5031614 0.6622897 -0.32347992 -0.3442809 -0.3345138 -0.24523792 0.3491653 0.041099455
0.04246598 0.9234884 -0.22970197 -0.23661993 0.14543413 -0.123208925 -0.37421316 -0.4468227
-0.45174158 -0.20763046 0.020444967 -0.41947737 -0.19059235 -0.16983171 -0.6841662 -0.25167438
-0.32345292 -0.53610444 -0.51307344 0.034602627 -0.49354553 0.115073144 0.07662107 0.049063556
00000000: 2fcf 00bf d18b 293f 299f a5be 9645 b0be
00000010: 6545 abbe a61f 7bbe cbc5 b23e e757 283d
00000020: cff0 2d3d bc69 6c3f fe36 6bbe 7f4c 72be
00000030: afec 143e f654 fcbd de98 bfbe f2c5 e4be
00000040: ac4a e7be 149d 54be 347c a73c bdc5 d6be
00000050: a42a 43be 5de8 2dbe 8425 2fbf 77db 80be
00000060: 9f9b a5be 243e 09bf c858 03bf 7cbb 0d3d
00000070: 00b2 fcbe 78ab eb3d 82eb 9c3d def6 483d

fc2.weight f4 [64, 32]
0.3819484 -0.26711962 0.04053659 -0.25405616 0.42818066 -0.18047072 0.15494722 0.19018498
0.30727303 0.11048136 0.5415847 -0.610961 0.109968536 0.123955645 -0.24848127 0.5322973
-0.08338099 -0.20089339 -2.2956183 0.609753 0.24607697 0.18567884 -0.13262598 0.68802726
0.18743902 0.4949812 -0.91712594 0.529716 -0.5086915 0.15632387 0.116519526 -0.28852192
0.12453771 -0.9273524 -0.057294168 0.4035887 0.42806894 0.4482365 0.07774878 0.096966065
0.21288492 -1.5826483 -0.36361074 0.5414015 0.25034478 0.07797441 0.25375694 0.7780228
0.66422826 0.4053272 1.0334703 -0.47629547 -0.21023455 0.2046572 0.51644355 0.3230796
0.047679186 0.6139669 1.0824828 0.29084915 0.11924224 -0.4514998 -0.9929681 -0.4301554
0.26150844 -0.5942621 0.16658823 0.29497385 0.44548392 0.33551234 -0.10555292 0.14817274
0.062561534 -1.4852905 -0.08418222 0.56304723 0.16407758 0.36190128 0.5156745 0.247521
0.716767 0.29913285 0.6333466 -0.48187396 -0.046225153 0.21954294 0.20887685 0.41313943
0.51356363 0.69503456 1.2193067 0.42215547 0.38608736 -0.37870207 -0.77720827 -0.6336971
0.33032325 -0.4099211 0.3316347 0.57912713 0.20970166 0.31989536 0.039859224 0.040284112
-0.04174852 -1.1969527 -0.30984673 0.7706803 0.2180971 0.07348599 0.2609847 0.80703306
0.59644514 0.36696345 0.7857287 -0.5964502 0.024652066 0.18032038 0.40437362 0.32772893
0.08712624 0.52824444 0.8809605 0.0044916957 0.46060294 -0.2968367 -1.1608567 -0.5402121
0.22641449 -0.560778 0.14518619 0.47117782 0.342255 0.14001319 -0.15397602 0.1570818
0.345454 -1.6179583 0.026457267 0.06527019 0.008683487 0.1905478 0.23251577 0.5789795
0.6710998 0.5093607 0.7557036 -0.93021435 0.1599901 0.059410237 0.47876468 0.1629323
0.00874947 0.2990904 1.0867649 0.22631474 0.012285121 -0.25462908 -1.2829168 -1.2013116
0.352463 -0.35275015 0.46128628 -0.4119479 0.545181 -0.2410887 0.41446447 0.5362058
0.048278127 0.4952218 -0.45958045 -0.19838385 0.009628425 0.27540362 -1.573859 4.1311207
0.10357958 0.572253 -2.1352444 -1.8218391 -0.21774995 0.29756978 0.68267286 0.8274252
0.18619183 0.12245923 -0.7413159 0.13525242 -0.20461376 0.50593686 -0.7491115 0.24998504
-0.07102036 -0.6395351 -0.3519428 0.07561199 0.22672102 0.08590411 -0.016667478 0.1511189
0.37575725 -0.8636344 0.22210486 0.15146852 0.19087744 -0.24623896 0.3267049 0.14439052
-0.028598282 -0.04547165 0.36342144 -0.332806 -0.2139964 0.17119963 0.52113104 0.31794313
0.13380817 0.23134917 0.89132935 0.2108978 -0.39325252 -0.5243558 -0.82350993 -0.99875754
0.19364382 -0.78399724 0.19785644 0.59603643 0.26458958 0.4255745 0.054720547 0.3103946
0.39770836 -1.2847157 0.100134455 0.4336745 0.25343788 0.09919622 0.56530815 0.17516562
0.62802756 0.1388909 0.71188504 -0.24233203 -0.18578935 0.2738912 0.21462066 0.26694852
0.2729479 0.37335512 0.57289875 0.33920842 -0.031584084 -0.11125632 -0.73011416 -0.71044207
00000000: be8e c33e e7c3 88be b209 263d a613 82be
00000010: 7f3a db3e 51cd 38be 7caa 1e3e dabf 423e
00000020: e452 9d3e 0d44 e23d 4ba5 0a3f f167 1cbf
00000030: 2f37 e13d 75dc fd3d e071 7ebe a344 083f
00000040: a7c3 aabd ffb6 4dbe 69eb 12c0 c618 1c3f
00000050: 9afb 7b3e 9822 3e3e 1bcf 07be 8e22 303f
00000060: 04f0 3f3e 2d6e fd3e c4c8 6abf 789b 073f
00000070: 9b39 02bf 5d13 203e caa1 ee3d 25b9 93be
00000080: a00d ff3d f866 6dbf 4aad 6abd 2ea3 ce3e
00000090: da2b db3e 417f e53e c13a 9f3d 2596 c63d
000000a0: 81fe 593e 3894 cabf 302b babe 4a99 0a3f
000000b0: 312d 803e 0cb1 9f3d 6eec 813e 812c 473f
000000c0: dd0a 2a3f 0c87 cf3e c148 843f 00dd f3be
000000d0: ba47 57be a891 513e a535 043f b06a a53e
000000e0: 404b 433d ef2c 1d3f cc8e 8a3f 2eea 943e
000000f0: 4735 f43d fb2a e7be 2833 7ebf 543d dcbe
00000100: 6fe4 853e 9021 18bf 1b96 2a3e d006 973e
00000110: 7816 e43e 46c8 ab3e 212c d8bd 98ba 173e
00000120: 4320 803d 001e bebf ba67 acbd dd23 103f
00000130: f403 283e 204b b93e 3e03 043f 2576 7d3e
00000140: 0b7e 373f f127 993e 0123 223f 2fb8 f6be
00000150: 9656 3dbd ddcf 603e d0e3 553e 0387 d33e
00000160: e878 033f c9ed 313f 3e12 9c3f c324 d83e
00000170: 3ead c53e 3de5 c1be 1ff7 46bf f939 22bf
00000180: 2120 a93e 2ee1 d1be 06cc a93e ad41 143f
00000190: 08bc 563e 53c9 a33e 6d43 233d f400 253d
000001a0: 7f00 2bbd bf35 99bf 3ba4 9ebe 4e4b 453f
000001b0: d954 5f3e d37f 963d c99f 853e b899 4e3f
000001c0: a1b0 183f a2e2 bb3e 8425 493f f6b0 18bf
000001d0: 21f3 c93c e8a5 383e 0f0a cf3e 16cc a73e
000001e0: 3e6f b23d 073b 073f a186 613f 132f 933b
000001f0: 26d4 eb3e fbfa 97be f496 94bf 574b 0abf
00000200: 33d9 673e 268f 0fbf b0ab 143e 383e f13e
00000210: 0c3c af3e 9e5f 0f3e e4ab 1dbe 0dda 203e
00000220: 59df b03e 4219 cfbf e9bc d83c 61ac 853d
00000230: 2f45 0e3c f61e 433e 9d18 6e3e 0038 143f
00000240: 32cd 2b3f 7665 023f cb75 413f 8722 6ebf
00000250: 72d4 233e 2658 733d a520 f53e bad7 263e
00000260: f059 0f3c 6022 993e 1d1b 8b3f 0dbf 673e
00000270: 8847 493c be5e 82be 9e36 a4bf 94c4 99bf
00000280: 0876 b43e ab9b b4be b72d ec3e d6ea d2be
00000290: fb90 0b3f f5df 76be b034 d43e c944 093f
000002a0: 49bf 453d b68d fd3e 214e ebbe 2325 4bbe
000002b0: 8bc0 1d3c b401 8d3e 3674 c9bf 2432 8440
000002c0: 8821 d43d 2c7f 123f d8a7 08c0 0632 e9bf
000002d0: d8f9 5ebe 115b 983e a6c3 2e3f 23d2 533f
000002e0: 12a9 3e3e e8cb fa3d e1c6 3dbf 9c7f 0a3e
000002f0: 4586 51be 1485 013f c5c5 3fbf 14fc 7f3e
00000300: 1f73 91bd 93b8 23bf d931 b4be 76da 9a3d
00000310: 8e29 683e 7eee af3d 3c8a 88bc eabe 1a3e
00000320: 4163 c03e 2517 5dbf 756f 633e 901a 1b3e
00000330: 6075 433e 1126 7cbe dd45 a73e 1cdb 133e
00000340: f246 eabc 7b40 3abd 6012 ba3e 8c65 aabe
00000350: df21 5bbe f54e 2f3e d868 053f 71c9 a23e
00000360: 0205 093e cce6 6c3e 292e 643f 98f5 573e
00000370: 6558 c9be 2f3c 06bf 8cd1 52bf 93ae 7fbf
00000380: 914a 463e 0bb4 48bf e19a 4a3e d895 183f
00000390: 4978 873e e7e4 d93e a722 603d 0aec 9e3e
000003a0: 6ea0 cb3e 9071 a4bf 4b13 cd3d 960a de3e
000003b0: 9cc2 813e 6327 cb3d 09b8 103f 9e5e 333e
000003c0: 6ac6 203f 6b39 0e3e 193e 363f e325 78be
000003d0: 903f 3ebe 783b 8c3e 85c5 5b3e 7aad 883e
000003e0: d4bf 8b3e 6728 bf3e 7ea9 123f baac ad3e
000003f0: 505e 01bd 5ada e3bd c3e8 3abf 88df 35bf

fc2.bias f4 [64]
0.29881966 -0.68046665 -0.69070065 -0.81689745 -0.51144874 0.32741338 -0.36492935 -0.080345914
0.11052107 -0.26691762 -0.12120876 -0.6078771 -0.5441152 -0.86438763 -0.14044218 -0.2890787
-0.08500294 -0.43807396 -0.5079134 -0.3026544 -0.26619607 -0.13553682 -0.10497171 -0.23463957
-0.8334947 -0.2957259 0.202673 -0.16303602 -0.6508371 0.20720479 -0.52571976 -0.53643245
-0.18291895 -0.4044623 -0.49017558 -0.14689752 0.07120695 -0.53068525 -0.6130113 0.15113075
0.40813112 -0.6925704 0.73432237 -0.23860294 0.04621519 0.7482101 -0.65052736 -0.728699
-0.16164923 -0.58362854 -0.054086205 -0.8776202 -0.16308355 -0.029829461 0.32038623 -0.095143035
0.07199841 -0.2841667 0.40356126 -0.34240603 -0.10066629 0.0042427573 -0.2883987 -0.14682026
00000000: e4fe 983e 1033 2ebf c2d1 30bf 3120 51bf
00000010: 4eee 02bf baa2 a73e 05d8 babe 668c a4bd
00000020: df58 e23d 6da9 88be 4c3c f8bd d59d 1bbf
00000030: 224b 0bbf 8248 5dbf 13d0 0fbe 2002 94be
00000040: 0516 aebd 3b4b e0be 9d06 02bf 84f5 9abe
00000050: da4a 88be 2aca 0abe 68fb d6bd 5b45 70be
00000060: e95f 55bf 6369 97be 8389 4f3e eaf2 26be
00000070: 439d 26bf 7e2d 543e 9295 06bf a353 09bf
00000080: 1b4f 3bbe af15 cfbe 4bf8 fabe 4e6c 16be
00000090: f3d4 913d fdda 07bf 4fee 1cbf 05c2 1a3e
000000a0: 90f6 d03e 4b4c 31bf 8dfc 3b3f 5454 74be
000000b0: 244c 3d3d b28a 3f3f f688 26bf 058c 3abf
000000c0: 6087 25be ae68 15bf 7f89 5dbd b8ab 60bf
000000d0: 60ff 26be ea5c f4bc aa09 a43e 5ada c2bd
000000e0: e773 933d 4c7e 91be 959f ce3e d84f afbe
000000f0: 212a cebd d406 8b3b ffa8 93be 0d58 16be

fc3.weight f4 [4, 64]
0.6811237 -0.6271561 -0.46265444 -0.60083324 -0.86149395 0.7711172 -0.6102729 -0.57257473
-0.64548934 -0.5344661 -0.57192004 -0.6082238 -0.7340277 -0.5705623 -0.36769494 0.7064762
-0.36972755 -0.15337402 -0.38365477 -0.26090837 -0.37870747 -0.36083692 -0.5104265 -0.49662802
-0.62185264 -0.24752529 -0.009518772 -0.025608515 -0.7655135 -0.44311702 -0.31001166 -0.8189507
-0.3488499 -0.2626837 -0.3123734 0.1044251 0.07722204 -0.40662712 -0.7678684 1.7673967
-0.5444453 -0.22806866 1.0722525 -0.4989021 -0.4385761 1.2287837 -0.5992298 -0.66571087
-0.68521523 -0.9854273 -0.26463723 -0.58414537 -1.3214377 -0.39211017 0.53808445 -1.341476
-0.9363608 -0.17519128 0.96696585 0.4823331 0.2097922 -0.34639138 0.9581509 -0.020228866
0.9073544 -0.40086424 -0.61979455 -0.7657143 -0.857196 0.876614 0.017379103 -0.5118545
-0.47180432 -0.47550613 -0.26922932 -0.9473176 -0.27050793 -0.6867056 -0.55719054 0.78872997
-0.40162572 -0.14151332 -0.330014 -0.4584837 -0.40872443 -0.40251395 -0.38426837 -0.8807663
-0.8538193 -0.37293184 0.15268958 0.07079967 -0.4685791 -0.12454234 -0.48721048 -0.84430313
-0.028818961 -0.23912689 -1.2533314 0.005440685 0.025729228 0.42993328 -1.3607147 1.7932907
-0.34092963 -0.5655183 0.8244114 -0.10810989 -0.41707247 0.81781846 -0.73712397 -0.6621413
-0.4153997 -0.7518719 -0.4497638 -0.8495651 -0.117854536 -0.4615907 0.6546931 -0.53968793
-0.64663965 -0.0003341679 0.062272098 0.50815356 0.18997757 -0.45517692 0.77509624 -0.06597032
0.9761859 -0.48628345 -0.45665985 -0.77007556 -0.84731185 0.048078813 -0.45415086 -0.5266916
-0.7347578 -0.4493103 -0.33225277 -1.0692235 -0.7568841 -0.7379939 -0.35261756 0.4416615
-0.42004016 -0.7078684 -0.32092053 -0.38474566 -0.41992983 -0.24377789 -0.31206933 -0.43649545
-0.74935126 -0.48493865 0.3406808 0.07111546 -0.8642652 -0.8541173 -0.3541171 -0.855719
-0.40771204 -0.80630183 0.17155434 -0.097741425 -0.00894544 -0.2119404 -0.84351206 1.785242
0.47779372 -0.43587485 1.5458978 -0.3275208 -0.098648824 0.9609915 -0.4813693 -0.65901667
-0.759952 -0.8216124 -0.27485272 -0.8011259 -1.2246268 -0.12253476 1.0184935 -0.8875902
-0.5384306 -0.15807195 1.1908118 0.8125492 -0.544132 -0.17833653 -0.002027975 0.06143339
0.2486944 -0.5892261 -0.7512683 -0.59680796 -0.778701 0.6584038 -0.5821421 -0.31699437
-0.377978 -0.5215407 -0.4391795 -0.9537137 -0.49606246 -0.77741677 -0.41014013 0.78108096
-0.25695285 -0.48888153 -0.4294714 -0.36657622 -0.4618788 -0.13452579 -0.4349221 -0.8438456
-0.68709296 -0.49537927 0.36586583 0.20669135 -0.716921 -0.8053231 -0.2901274 -0.7856062
-0.24797064 -0.3037353 -0.52337104 -0.07787166 -0.03788293 -0.25326735 -1.2363818 1.6799611
-0.8286475 -0.39673746 1.1328561 -0.21823882 -0.32649156 0.77689415 -0.7564259 -0.84913254
-0.6103802 -0.97118205 -0.2878374 -0.7650111 -0.77707654 -0.13693222 0.81860405 -0.79236424
-0.54095745 -0.27156344 1.524275 0.5578367 0.5501165 -0.39367858 0.91191626 0.028412309
00000000: 1f5e 2e3f 4d8d 20bf 0be1 ecbe 35d0 19bf
00000010: de8a 5cbf f067 453f d83a 1cbf 4294 12bf
00000020: ca3e 25bf c5d2 08bf 5a69 12bf 8eb4 1bbf
00000030: 3de9 3bbf 5f10 12bf 8342 bcbe a0db 343f
00000040: ee4c bdbe 140e 1dbe 666e c4be c895 85be
00000050: f2e5 c1be 9ebf b8be 50ab 02bf 0746 febe
00000060: bc31 1fbf 4577 7dbe a0f4 1bbc f3c8 d1bc
00000070: b1f8 43bf 3ce0 e2be d9b9 9ebe c1a6 51bf
00000080: 749c b2be 7a7e 86be 68ef 9fbe d4dc d53d
00000090: 9726 9e3d 6e31 d0be 0693 44bf 0e3a e23f
000000a0: c460 0bbf d58a 69be 923f 893f 1970 ffbe
000000b0: 0c8d e0be c948 9d3f 2067 19bf 076c 2abf
000000c0: 446a 2fbf f744 7cbf 887e 87be 8d8a 15bf
000000d0: df24 a9bf aac2 c8be e7bf 093f 7cb5 abbf
000000e0: 57b5 6fbf 5865 33be 138b 773f 5df4 f63e
000000f0: c4d3 563e 365a b1be 6149 753f 02b7 a5bc
00000100: 6148 683f 143e cdbe dbaa 1ebf da05 44bf
00000110: 3271 5bbf c669 603f 9f5e 8e3c e608 03bf
00000120: 5690 f1be 8a75 f3be 6dd8 89be 6883 72bf
00000130: 0480 8abe f0cb 2fbf 0aa4 0ebf 35ea 493f
00000140: e3a1 cdbe dee8 10be 98f7 a8be 60be eabe
00000150: 5444 d1be 4f16 cebe d3be c4be e679 61bf
00000160: e793 5abf ecf0 bebe a85a 1c3e 6bff 903d
00000170: 9ae9 efbe 0e10 ffbd a773 f9be 4024 58bf
00000180: be15 ecbc aedd 74be 2a6d a0bf c647 b23b
00000190: 1ac6 d23c 3720 dc3e e62b aebf 8d8a e53f
000001a0: 548e aebe cfc5 10bf a00c 533f b868 ddbd
000001b0: 868a d5be 8d5c 513f 28b4 3cbf 1882 29bf
000001c0: 45af d4be ad7a 40bf 7147 e6be 197d 59bf
000001d0: b85d f1bd 9e55 ecbe f899 273f fd28 0abf
000001e0: 2d8a 25bf 4233 afb9 0711 7f3d 5a16 023f
000001f0: 7b89 423e f30c e9be b56c 463f 721b 87bd
00000200: 52e7 793f 25fa f8be 52cf e9be ac23 45bf
00000210: 6ee9 58bf 4aee 443d 7686 e8be 43d5 06bf
00000220: 1619 3cbf 000c e6be 091d aabe 51dc 88bf
00000230: 28c3 41bf 2bed 3cbf 4a8a b4be 7521 e23e
00000240: 810f d7be dd36 35bf b24f a4be 62fd c4be
00000250: 0b01 d7be e9a0 79be 8dc7 9fbe 557c dfbe
00000260: 7cd5 3fbf e149 f8be b76d ae3e fba4 913d
00000270: 7c40 5dbf 6ea7 5abf d64e b5be 6610 5bbf
00000280: a2bf d0be cc69 4ebf f1ab 2f3e a82c c8bd
00000290: e58f 12bc e706 59be 68f0 57bf cf82 e43f
000002a0: 61a1 f43e fd2a dfbe fbdf c53f ceb0 a7be
000002b0: 6508 cabd 8a03 763f 0976 f6be 51b5 28bf
000002c0: 378c 42bf 3155 52bf 7fb9 8cbe 9616 4dbf
000002d0: 92c0 9cbf 81f3 fabd ff5d 823f 1d39 63bf
000002e0: 96d6 09bf 9ddd 21be 856c 983f 3903 503f
000002f0: 3c4c 0bbf da9d 36be c6e7 04bb 94a1 7b3d
00000300: bfa9 7e3e 86d7 16bf 1f53 40bf 68c8 18bf
00000310: f358 47bf 278d 283f 4407 15bf 164d a2be
00000320: 5586 c1be b183 05bf 23dc e0be 9526 74bf
00000330: e6fb fdbe c904 47bf e3fd d1be ecf4 473f
00000340: 538f 83be ae4e fabe ade3 dbbe e1af bbbe
00000350: 617b ecbe 21c1 09be 1cae debe 4406 58bf
00000360: 53e5 2fbf 5aa2 fdbe c452 bb3e e6a6 533e
00000370: 2288 37bf a829 4ebf 948b 94be 7d1d 49bf
00000380: 04ec 7dbe 3183 9bbe a5fb 05bf 2d7b 9fbd
00000390: 222b 1bbd 42ac 81be c241 9ebf f708 d73f
000003a0: 3e22 54bf 2c21 cbbe 6e01 913f ff79 5fbe
000003b0: e729 a7be 89e2 463f 21a5 41bf c060 59bf
000003c0: e041 1cbf 639f 78bf 6c5f 93be c4d7 43bf
000003d0: 7dee 46bf f637 0cbe 0990 513f 62d8 4abf
000003e0: 307c 0abf 5d0a 8bbe 711b c33f 63ce 0e3f
000003f0: 6fd4 0c3f 3d90 c9be 5873 693f eec0 e83c

fc3.bias f4 [4]
0.028579907 -0.2289838 0.14563258 0.25292236
00000000: 6920 ea3c bb7a 6abe b520 153e 0a7f 813e
