weights/g0.5_lr0.001_decay_0.99999999.pth (torch, 12865 bytes, 6 tensors)

fc1.weight f4 [32, 8]
000000 fd 49 1f 3f f0 c2 8d bf 98 0b 9f 3d 6f f0 00 bf
       0.6222227 -1.1075115 0.07765883 -0.5036687
000010 fd 06 6b be 23 65 b8 3c de 81 80 3e 8f 1f 27 3f
       -0.22951885 0.022509163 0.2509908 0.6528253
000020 a3 67 83 3d 57 3d b7 be 1d c6 2d 3e 24 16 9e be
       0.064162515 -0.35788986 0.16970105 -0.30876267
000030 71 d5 2c bf da f2 6e bf bc 84 fc 3e 53 3f 5a 3e
       -0.67513186 -0.9333931 0.49320018 0.21313219
000040 f7 67 ef 3d ae 7f ec 3e 52 33 4c 3d 1d 5b 17 be
       0.116897516 0.46191162 0.04985363 -0.1478085
000050 f5 b4 68 3e c4 cd b5 3e 65 a4 fa 3e 23 be 63 3f
       0.2272528 0.3550855 0.48953548 0.88962
000060 03 85 26 be 2a 34 b3 be 7a 67 f3 3d 01 9a 87 be
       -0.16261677 -0.35000736 0.11884971 -0.26484683
000070 c6 86 83 be f8 73 23 bf 6e 92 06 3d f3 5b 4c 3f
       -0.2568876 -0.6384883 0.03285449 0.79827803
000080 e1 7d 9f be 81 9e cd bf 0d 58 86 be a7 3b 91 be
       -0.31150725 -1.6063997 -0.26239052 -0.28365824
000090 15 9b 79 3c 95 9d a0 bd c9 99 84 3f a3 67 03 3f
       0.015234728 -0.078425564 1.0359432 0.5133001
0000a0 83 ad ed 3e 79 10 bc bf 39 4d a4 3e 2e f1 c0 be
       0.4642144 -1.4692527 0.32090166 -0.37684005
0000b0 35 1b 07 bf 22 91 84 be 2b fe 11 3f a4 bd b1 3e
       -0.5277589 -0.25891978 0.57028455 0.34714997
0000c0 b5 bd 56 be 57 0e 1e bf 10 4a 4f be d5 d0 12 3e
       -0.20970805 -0.6174063 -0.20243096 0.14337476
0000d0 82 84 f7 3e fe f2 df 3e fc 24 89 3f 94 c7 dc be
       0.48343283 0.43740076 1.0714412 -0.43121016
0000e0 05 10 04 3e ea 48 e6 bf 4c 0e e1 be f5 f5 be be
       0.12896736 -1.7991002 -0.4395622 -0.37297025
0000f0 e3 3f 00 be ae fe 3a 3d 7e 8a 85 3e 3c e8 eb 3e
       -0.12524371 0.045653038 0.26082224 0.46075618
000100 42 d5 8b 3e 7e 7c 6b bf a7 c7 76 3c 58 29 15 be
       0.2731114 -0.91986835 0.015062249 -0.14566553
000110 86 82 c6 be 2c 84 86 3f 46 da 33 3e 5b e5 19 bf
       -0.38771456 1.0509086 0.17563733 -0.60115594
000120 df 37 bc 3e 69 4a 56 3f 97 74 ee 3e 08 50 ab 3e
       0.36761376 0.8370729 0.46573326 0.33459496
000130 48 7e 5e be bc e8 90 bf bc 71 d2 bd 47 16 10 be
       -0.2172786 -1.1321025 -0.10275599 -0.14070998
000140 8a 00 bd be 4d 87 2f 3f 65 74 27 3f 81 3d 0d bf
       -0.36914474 0.6856583 0.6541198 -0.5517197
000150 a7 d1 09 bf 44 53 00 c0 cc cc 3c bd ff c4 23 bf
       -0.5383553 -2.0050821 -0.046093747 -0.6397247
000160 dd 8c 1c bf c8 16 7e bf fc 53 66 be 7e bd 2d 3f
       -0.6115244 -0.9925351 -0.22492975 0.6786727
000170 b3 84 14 3f dc d2 a7 3e 88 89 00 bf 80 d9 0a 3f
       0.5801498 0.3277806 -0.50209856 0.5423813
000180 82 4d 4f 3e 3b 45 37 3f f1 23 79 be 4b e7 2b bf
       0.2024441 0.7159001 -0.24330117 -0.671498
000190 34 1b 95 3f d7 21 c4 3f d1 19 bf 3d 73 df 09 be
       1.1648927 1.5322827 0.09331096 -0.13464145
0001a0 59 25 5a bf 7d cc 91 bf 42 77 b3 be 7c 81 86 be
       -0.8521324 -1.139053 -0.35051924 -0.26270664
0001b0 83 e8 99 be e9 2e 61 3d 61 84 d0 3e dd 0e c9 3e
       -0.30060205 0.054976378 0.40725997 0.39269152
0001c0 25 21 62 3e c7 80 26 3f 1a 04 89 3d d5 f8 58 bf
       0.22082956 0.6504025 0.066902354 -0.8475469
0001d0 84 91 2e bf 95 f0 14 be f9 0b ce 3e b3 db 9e 3e
       -0.6819079 -0.145449 0.4024351 0.31026992
0001e0 db c9 99 3f 82 96 83 be 7a 71 28 be ce ce bd 3e
       1.2014726 -0.25700766 -0.16449538 0.37071842
0001f0 f8 8f d6 be 7f ae 4a be 28 f2 1d bf 7c 6b 9a be
       -0.41906714 -0.19793127 -0.61697626 -0.3016013
000200 65 8c 4f 3e df aa 1f c0 60 3c 2c be a7 4f 95 3f
       0.202684 -2.4948041 -0.16819906 1.1664933
000210 67 fb ce 3c 19 8e ac 3e 40 48 4c 3f fb 68 f2 3e
       0.025266362 0.33702162 0.79797745 0.4734572
000220 2c a5 0b 3e 5a 68 8d bf 17 ed 56 be 63 c3 8c 3e
       0.13637227 -1.104747 -0.2098888 0.27492818
000230 22 d3 9b 3e d3 1d 12 3f 7f af 9f 3f ba 11 70 3e
       0.3043452 0.5707676 1.2475432 0.23444262
000240 45 6e 23 be 58 37 c7 bf 14 d5 0d 3e 75 10 75 3f
       -0.15960033 -1.5563765 0.13850814 0.95728236
000250 58 20 c4 3e c6 fe 90 bf 01 fb 64 bf a1 51 09 3f
       0.38305926 -1.1327751 -0.894455 0.5364018
000260 29 a8 55 be 8a 0c dc be f2 c7 38 3e 4c d7 a9 be
       -0.2086493 -0.42978317 0.18045023 -0.3317207
000270 1e b1 25 3f 0c 21 8e bf 7c 0d 14 bf f3 fd be 3e
       0.64723384 -1.1103835 -0.57833076 0.37303123
000280 f9 fd f5 bc 10 9c ad bf 3f a4 3f be 4c 48 49 bf
       -0.03002833 -1.3563251 -0.18714999 -0.7862594
000290 48 a1 46 be 41 ca 17 bf 8c 9d 17 bf 9f 3e 27 3f
       -0.19397461 -0.5929299 -0.5922477 0.6532993
0002a0 8b aa 84 be 79 23 d6 bf 5c 90 97 3e 6c f1 c4 be
       -0.25911364 -1.6729575 0.29602325 -0.3846544
0002b0 da 85 bb 3d 2a 75 7c 3e ae f4 fb 3d e5 36 1d 3f
       0.091563895 0.2465407 0.12302528 0.6141189
0002c0 3a 10 57 3d ae bf ef bf 3b f4 8e 3e 84 57 dc be
       0.05250571 -1.8730371 0.27920708 -0.4303552
0002d0 70 0c 2a 3e bf 6d 7a be dc f7 2a 3f 2b 79 19 3e
       0.16606307 -0.24455927 0.66784453 0.14987628
0002e0 b4 4d 93 3e 50 0f 0a bf 50 6d 3b bd 6f 7c 14 3e
       0.2877022 -0.53929615 -0.045758545 0.14500593
0002f0 99 a1 06 bf e2 12 04 3f 56 cf 35 3f 8f e2 a1 3e
       -0.5259033 0.5159131 0.71019495 0.31618163
000300 a9 c8 42 bf 80 81 9e bf 9b e7 cc be 1a 3c 9c be
       -0.76087433 -1.238327 -0.4002045 -0.30514604
000310 10 0b a8 be 7f 65 15 3c 52 e9 bf 3e f3 f5 81 3e
       -0.3282094 0.009118437 0.37482697 0.25382957
000320 1f a1 74 3e 69 7b 9d bf 6d 74 a1 bd f0 1e 64 bd
       0.23889588 -1.2303287 -0.078835346 -0.055693567
000330 29 a9 b9 be 07 34 86 3d 42 e7 83 3e fd 29 5a 3f
       -0.3626187 0.06552892 0.25762373 0.8522032
000340 17 4f 74 3e 3c 37 ea bf ca 14 81 3c 52 1c dd be
       0.23858295 -1.8298106 0.015756983 -0.4318567
000350 64 44 11 3d 29 18 b2 be 7b 1b 12 3f 34 d1 9c bd
       0.035465613 -0.34784058 0.5707318 -0.0765709
000360 71 ff d8 bd 02 47 7a bf 98 5a 98 3c f4 a1 1c bd
       -0.105955966 -0.977646 0.018597886 -0.038240388
000370 7c e7 cf 3d 72 56 5d 3f 94 74 50 3f 87 8f 3e 3e
       0.10151574 0.8646003 0.81427884 0.18609439
000380 cf 81 2a 3e a2 6e f2 be 1e 27 cc 3c 66 31 d2 3d
       0.1665108 -0.4735003 0.024920996 0.10263328
000390 26 f0 e3 be 1f e6 18 be f7 7f fc 3c 9c b9 85 3f
       -0.44519156 -0.14931534 0.030822737 1.0447268
0003a0 92 5a 12 3f a3 74 65 be 53 96 d9 3e 98 3f 1b bf
       0.5716945 -0.22407775 0.424975 -0.6064391
0003b0 3c 16 dd 3d 22 c3 85 3e c8 78 78 3d 01 ed 61 3e
       0.107952565 0.26125437 0.06066206 0.22063066
0003c0 30 80 bd 3e 9e ed 89 bf 33 c2 9e bb 60 78 b6 be
       0.37011862 -1.077564 -0.0048449277 -0.35638714
0003d0 3c 3f 25 3e 74 8a 17 bf a7 3c 60 3f 2d 01 eb bd
       0.16137403 -0.5919564 0.8759255 -0.11474834
0003e0 f3 1e 0d 3d b9 82 d1 be 6e c5 13 3e b7 a8 80 bd
       0.034453344 -0.40920046 0.14430782 -0.0628218
0003f0 6c c5 3d 3b 4e e0 b4 bf 9e e5 1c bf 33 40 cb 3e
       0.0028956784 -1.4130952 -0.6128787 0.39697418

fc1.bias f4 [32]
000000 78 23 d4 be f0 1c 9d 3e 56 0f 01 bf d3 1a 55 bf
       -0.4143331 0.3068614 -0.50414026 -0.83244056
000010 82 1d 0c bf 25 7d 3a 3e 4f cc 95 bd 61 bc c2 bd
       -0.54732525 0.18211801 -0.073143594 -0.09508587
000020 45 64 c4 bd 7b 2e 1a bc ce d3 ef be 89 be 7d be
       -0.095894374 -0.009410496 -0.46841282 -0.24779715
000030 dc a7 8a 3e 45 49 01 be b9 37 44 3d ba 6c ef be
       0.27081192 -0.12625606 0.047904704 -0.4676264
000040 ae f9 2c 3f 71 fa 97 be 0e b1 e1 bc ec b1 43 bf
       0.6756848 -0.2968326 -0.027550247 -0.7644336
000050 66 4c 71 bd b2 55 84 be ea 9a 8c be 34 c1 7f be
       -0.05891075 -0.2584663 -0.2746194 -0.24976045
000060 d3 e3 2f bd f5 17 10 bf f4 18 37 be ba e1 05 bf
       -0.04294188 -0.56286556 -0.17880613 -0.52297556
000070 03 dd d7 be 55 ae d1 3e 61 9f 32 be 9a 8d 1e 3d
       -0.42160806 0.40953317 -0.1744361 0.03870926

fc2.weight f4 [64, 32]
000000 7f 36 8a bd 3f 78 78 3d a1 07 f0 3b df 1b 21 3f
       -0.067486756 0.06066155 0.007325128 0.6293315
000010 73 39 99 bd 20 ee 46 bd 79 61 5e 3e 6c 5e 15 bf
       -0.07481661 -0.048566937 0.2171687 -0.583472
000020 9f 52 f2 3e 2d 8f c3 3e 68 80 7b 3e 99 c4 a4 3e
       0.4732866 0.38195172 0.24560702 0.32181242
000030 62 bc 29 3e eb 9b 0d be 5d 8d 08 bf fd 82 dc 3e
       0.16575769 -0.13829009 -0.53340703 0.43068686
000040 3a 12 e9 be 40 9d 2f bb d3 a6 11 3f 60 6c 81 3e
       -0.45521718 -0.002679661 0.5689518 0.25277996
000050 61 47 0b 3d 8e 2b 94 be 8c 57 95 be 50 cd f5 be
       0.03400362 -0.2893948 -0.29168355 -0.48008204
000060 b6 47 32 be f8 b5 74 bd 76 5f e6 bb 4b 7e a5 3e
       -0.17410168 -0.05974385 -0.007030423 0.32322916
000070 db 5e c5 3e 55 a9 5b be f4 fc c2 3d a2 fb ea 3e
       0.3854893 -0.21451314 0.09520903 0.45895106
000080 64 2c 37 3f 90 5a 6d 3e 85 59 08 3f 03 e6 29 3f
       0.7155211 0.23179078 0.53261596 0.66366595
000090 42 00 91 3e b4 41 00 3f 0e c6 31 3f da 02 ec 3e
       0.2832051 0.50100255 0.6944283 0.46095926
0000a0 39 06 da 3e ca 54 3a 3e 23 0e 57 bf 83 51 0f 3f
       0.42582873 0.18196407 -0.84005946 0.5598375
0000b0 e3 8b 76 3e bb 87 01 3f 1b 26 16 be 5d ca 0d 3f
       0.240768 0.50597733 -0.14662974 0.55386907
0000c0 09 30 65 bf 75 0b 73 3f fa 1c 98 be 8b b3 8d 3f
       -0.8952642 0.9493936 -0.29709607 1.1070417
0000d0 18 14 98 be a1 f9 86 3e 1a 99 eb 3e 51 6e 17 3f
       -0.2970283 0.26362327 0.46015245 0.59152704
0000e0 0a f1 ee 3e 49 77 33 3f 01 97 34 3f 73 7a fb 3e
       0.46668273 0.7010389 0.70542914 0.4911686
0000f0 6b c3 62 3f c0 54 8a 3e 2c 35 db 3e 2d 7b 3c 3f
       0.88579434 0.27017784 0.42814004 0.7362545
000100 e4 5f e0 3e 47 24 7a 3e 16 d5 8d 3d a7 13 40 3f
       0.4382316 0.24427901 0.069254085 0.7502999
000110 8e 17 5e bd 8f 2a 75 3e 0f fd c7 3e a9 1b 36 3e
       -0.054221682 0.23942016 0.39060256 0.17783989
000120 2d b3 d3 3e 47 16 88 bd d4 eb 74 bf d4 a3 f3 3e
       0.41347638 -0.06644874 -0.95672345 0.47585928
000130 a6 10 2b bd 91 7f e5 3e ca e0 63 3e 06 a2 68 3e
       -0.041763924 0.44823888 0.22253719 0.22718057
000140 f5 0f 15 c0 4b a2 16 3f ad da 30 bf f8 ed 89 3f
       -2.329099 0.5884139 -0.6908367 1.0775747
000150 f7 8c 80 be 9d 21 d1 bd d9 18 6b bc 87 64 37 3e
       -0.25107548 -0.10211489 -0.014349186 0.17909442
000160 80 73 25 3f f6 4a 64 3e cc 30 20 3f f3 78 07 3f
       0.64629364 0.2229422 0.6257446 0.5291893
000170 26 3b 21 3f 4e b9 c2 bd 9d ba a6 3e 60 f2 4f 3f
       0.6298088 -0.09508 0.3256425 0.8122921
000180 0c cf d7 3e cc 1f 25 3f ab 9f ac bf 6d 52 b7 3e
       0.42150152 0.64501643 -1.3486227 0.35805073
000190 f5 df 8b 3e e3 c5 2e 3f 2b 07 34 bf 2d 4c 18 be
       0.27319303 0.682707 -0.7032344 -0.14872809
0001a0 2c 31 79 bf 5d 45 3c bf 77 73 47 3e 08 42 c8 3f
       -0.97340655 -0.7354334 0.1947764 1.5645151
0001b0 b9 f8 14 c0 9f 9e de be 06 37 ba bd 2b 4e 31 bf
       -2.3276808 -0.43480393 -0.09092526 -0.692599
0001c0 e4 7b de 3f a8 8f 91 be 70 93 50 be 7f bb c5 3e
       1.7381558 -0.28429914 -0.20368743 0.3861961
0001d0 99 bc f8 3e 58 5b 05 be 74 29 79 3f cc 4c 41 3f
       0.4858139 -0.13023126 0.9732888 0.7550781
0001e0 e0 ca 2b bf 1c 7a ef 3d 9e 0a ee 3e 95 b6 8f be
       -0.6710644 0.116932124 0.46492475 -0.28068987
0001f0 a1 71 10 3f d3 89 0c 3e 8a c0 00 3f 3e 14 4c 3e
       0.56423384 0.13724451 0.5029379 0.19929597
000200 d0 90 72 3d 6e 8a df 3b 8f 3b 36 3e e5 12 9c bf
       0.059220135 0.006821922 0.17796157 -1.2193266
000210 34 a2 02 3f e5 d0 9c bd 2b cb a6 bf 8e d9 28 3f
       0.5102875 -0.07657031 -1.3030752 0.6595696
000220 cb e5 c4 bf bb 3b c5 bf a6 a4 60 3f e7 ca c8 bf
       -1.5382627 -1.5408853 0.87751234 -1.5686921
000230 11 d9 8e 3d 8c c9 b1 3e f1 c7 03 3f 51 ce f7 bc
       0.06974996 0.3472408 0.5147696 -0.030249747
000240 8f 8b 4c be 6c de f8 bf 7b 02 2c bf 61 9c 1f c0
       -0.19975112 -1.9442878 -0.67191285 -2.4939196
000250 79 2c 4f 3f aa f9 bc 3e 06 56 ad 3e b1 6d 23 bf
       0.80927235 0.3690923 0.33854693 -0.6383925
000260 24 5a e7 3d 98 66 a8 be ad c7 ab bc a4 3a c4 bf
       0.1129649 -0.32890773 -0.020969236 -1.5330396
000270 68 99 88 bf ed da 3f 3f 3b 55 59 3c 91 a7 d2 bf
       -1.0671816 0.7494343 0.013264949 -1.6457387
000280 f3 1b b3 3e ba 0a 8c 3c 8b 55 e8 bb 8d f6 6b 3f
       0.3498226 0.017094959 -0.0070902756 0.9217308
000290 18 d3 92 3e 76 27 d9 3e c8 f0 bb be 08 a3 82 3e
       0.28676677 0.4241292 -0.3670714 0.25515008
0002a0 0a b1 c8 3e 34 60 77 3f 71 26 c7 be 97 e0 23 bf
       0.3919757 0.9663117 -0.38896516 -0.6401457
0002b0 09 22 5b bf d6 29 53 3e b1 d9 2e 3e 60 cb 04 bf
       -0.8559881 0.20621428 0.1707523 -0.51872826
0002c0 e0 cf 0d bf 8f 7f e5 3d 13 b2 65 bf 30 4a 1b 3f
       -0.5539532 0.112059705 -0.89724845 0.60660076
0002d0 78 c0 97 bc 50 22 44 3e 04 3b 30 3e d0 4d 13 3f
       -0.018524393 0.19153714 0.17210013 0.5754061
0002e0 cc 15 2c 3e c5 9d 49 3e ed 8d 3d 3e 6b 8a fe 3d
       0.1680519 0.1968909 0.18511172 0.12428745
0002f0 30 bf 0b 3f 1f 93 d3 3e 4a 6a 41 be b7 4a 1b 3e
       0.54588604 0.41323182 -0.18888202 0.1516522
000300 d9 d4 9f 3e 3d 62 df 3d ca 46 a2 be 60 03 20 3f
       0.31217077 0.10907409 -0.31694633 0.6250515
000310 aa 92 80 3d 3d 7b aa 3e b0 75 1c 3f 70 76 4d 3e
       0.06277974 0.33297148 0.61117077 0.20064712
000320 9b a8 8b 3e ad 77 07 3e 13 e2 56 be b4 4c a5 bd
       0.27277073 0.13229246 -0.20984678 -0.080712706
000330 50 7b 68 be ad b9 e5 bc 00 6a 16 3f ad 27 ef 3e
       -0.2270329 -0.028042639 0.58755493 0.46709958
000340 cf 30 0f c0 f3 70 a9 3e 16 a8 91 be 7a 9b 88 3f
       -2.237354 0.33093986 -0.28448552 1.0672448
000350 67 44 d4 be ae e7 70 bd d8 c7 a9 3e 0c 49 bd 3e
       -0.41458437 -0.058814697 0.3316028 0.36969793
000360 34 b1 06 3f 2b b7 e4 bd 75 c2 f9 3e db cb 11 3e
       0.5261414 -0.11167749 0.4878117 0.14237921
000370 e6 f9 a0 3e dc 0f 53 bc e9 95 78 3e 52 58 06 3f
       0.31440657 -0.012882199 0.24275936 0.52478516
000380 82 0c 15 3f 67 fc cc 3e c8 e8 ad be 22 ea 5d 3f
       0.5822221 0.40036318 -0.3396666 0.86685383
000390 21 1e 69 3e 03 d3 c2 3e e1 54 a5 3f 5c 83 1b 3d
       0.227654 0.38051614 1.2916528 0.03796707
0003a0 6d d1 13 3f 84 23 d7 3d a4 e5 51 be 6c 84 8d bf
       0.57741433 0.10504821 -0.20497757 -1.1056037
0003b0 fc 4a 0a bf a1 b5 9b 3e 77 f9 e9 3e 07 c2 f2 3e
       -0.5402067 0.3041201 0.4569814 0.47413656
0003c0 09 1d 3a c0 b9 e6 52 3f 75 7f cd be 78 f2 9b 3f
       -2.9080222 0.82383305 -0.40136304 1.218337
0003d0 9b f0 a3 bd e8 64 75 be 92 71 41 3e bb 3c 84 3e
       -0.08004876 -0.23964274 0.1889098 0.25827584
0003e0 1a 09 ff 3e 74 2f 2e bd 28 4e 29 3f b4 22 a6 3e
       0.4981163 -0.042525724 0.6613488 0.3244835
0003f0 27 34 3b 3f 77 00 0b 3e 28 00 bb 3e 60 06 1f 3f
       0.73126453 0.13574396 0.36523557 0.621191

fc2.bias f4 [64]
000000 7e 30 03 be 4e ab 02 be 36 d0 f3 be f5 e9 47 bd
       -0.12811467 -0.1276066 -0.4761979 -0.048807103
000010 c0 0f 6c 3e 5f 61 7e 3e 7e 72 1d be 78 8c ef 3d
       0.23052883 0.24841832 -0.15375707 0.11696714
000020 74 08 0d 3e 03 cc 75 be fc 02 60 be c7 38 1c bd
       0.13772756 -0.24003606 -0.21876138 -0.038140085
000030 35 86 3f 3d d4 b0 0a 3c 8b de 2a 3f 4c 6b 77 3d
       0.04675885 0.008465011 0.66745824 0.06040506
000040 37 03 ab be fa 9b d7 3e 48 24 b2 be c4 64 74 be
       -0.3340089 0.42111188 -0.34793305 -0.23866564
000050 45 f5 51 be 99 9f 40 3e e0 cd c9 bd 62 f6 08 be
       -0.20503719 0.18810882 -0.09853721 -0.13375238
000060 6e 03 d5 be 7d 28 8e bd d9 36 18 3f 4b e8 a7 be
       -0.4160418 -0.06941316 0.5945869 -0.32794413
000070 15 f3 90 3d 5c 8f ce 3e 39 0c b0 be c2 3c 9e 3c
       0.07077614 0.4034375 -0.34384325 0.019316081
000080 19 fe 87 3e 07 1a 22 bd 18 4e 17 3e 7a 0a fa 3d
       0.2656105 -0.039575603 0.14775884 0.122090295
000090 2b 98 ab 3e c6 92 5e be 52 83 f2 bd 95 c0 21 3f
       0.33514532 -0.21735677 -0.118414536 0.6318448
0000a0 34 35 bd be ed 71 02 3f 87 72 97 be 23 80 ec 3e
       -0.36954653 0.50955087 -0.29579565 0.4619151
0000b0 dd 5e c3 3d 4e b8 97 3e 62 72 45 bd bf f8 49 be
       0.09539578 0.296328 -0.048204787 -0.19723795
0000c0 c3 0f cd be 02 ce 37 be 04 6c 92 be b9 b1 8c be
       -0.40051088 -0.1794968 -0.28598034 -0.27479342
0000d0 36 b2 eb 3e cf 48 ba be 29 7b a1 3e 3a cc 51 bd
       0.46034402 -0.36383674 0.31539276 -0.051220156
0000e0 32 86 63 be c4 14 83 3e 5c d7 82 be 39 3f 7d be
       -0.2221916 0.2560178 -0.2555493 -0.24731149
0000f0 e2 8f 45 3f 6c 21 ca be 27 6a 21 be bc 42 df be
       0.7717267 -0.39478624 -0.1576315 -0.43605602

fc3.weight f4 [4, 64]
000000 37 88 3e 3f ff 78 d8 be fd 7f 31 bf bd 97 b7 3f
       0.744266 -0.42279813 -0.6933592 1.4343182
000010 30 1b c1 3f ea 28 a7 3d 29 04 09 bf 7f 38 13 bf
       1.5086422 0.081621006 -0.5352197 -0.5750808
000020 b7 56 30 bf 0e 32 06 bf 58 fd 8e bf d6 e5 12 bf
       -0.68882316 -0.5242013 -1.1171064 -0.5738195
000030 a1 e3 46 bf fe ec f6 be 50 5b 10 be 10 ed 17 bf
       -0.77691084 -0.48227686 -0.14097333 -0.59346104
000040 fc 0a 11 bf 1e 68 ef be 20 d9 0c bf af 66 5f bf
       -0.56657386 -0.46759123 -0.55018806 -0.8726606
000050 3d 55 d9 be 8c 13 03 bf 0f 85 1a bf 1f bb ff be
       -0.42447844 -0.512017 -0.6035928 -0.4994745
000060 91 f1 fc be d5 98 9c 3d 00 f4 46 3f 29 58 c3 3e
       -0.4940305 0.07646338 0.77716064 0.38153198
000070 38 cb 3c 3f 39 87 41 3f 11 45 dc be 9e 06 d8 3d
       0.7374759 0.7559696 -0.43021443 0.10548137
000080 9d c1 38 3f 6d 2e c4 be 88 e6 2a 3f bb f8 00 3f
       0.7217043 -0.3831667 0.6675801 0.5037953
000090 30 1b 45 3f 86 7f f0 be 54 25 05 bd cf 04 b9 be
       0.7699461 -0.46972293 -0.032506302 -0.3613648
0000a0 79 f9 34 bf 9a 6d e8 be 8a 73 22 bf b2 7e 36 bf
       -0.70693165 -0.4539612 -0.6345755 -0.7128707
0000b0 b1 29 02 bf 78 07 61 3f 9b 6e 1b bf c6 be 01 bf
       -0.50844866 0.8790202 -0.60715646 -0.5068172
0000c0 88 a7 32 bf 64 dd 0f bf f6 75 04 bf b2 09 39 bf
       -0.6978688 -0.5619719 -0.51742494 -0.7228042
0000d0 c8 3f 13 bf 15 b7 02 bf 34 93 b9 3f 9a 49 45 bf
       -0.575192 -0.5106061 1.4498048 -0.7706543
0000e0 7b a1 e6 3e 5d 17 e0 be 6a 64 46 3f 42 15 ab 3e
       0.45045075 -0.43767825 0.7749697 0.33414656
0000f0 b4 a2 92 be 17 0f 10 bf 14 04 e1 3d e3 b6 22 bf
       -0.28639758 -0.56273025 0.10987106 -0.63560313
000100 ca 96 f1 3e 08 d1 eb be 32 17 fc be 7c e7 c8 3f
       0.47185355 -0.46057916 -0.49236447 1.5695643
000110 5e 8a c3 3f 2b 78 5d 3e 6c 68 9b be 8f b4 13 bf
       1.5276601 0.21627872 -0.30353105 -0.57697386
000120 c6 3e 1e bf 1b d1 d5 be 72 53 2b bf 4a 10 2c bf
       -0.61814535 -0.41761097 -0.669242 -0.67212355
000130 05 7a ed be 90 85 ed be 7a c1 1d bf e2 d5 c7 be
       -0.46382156 -0.46390963 -0.61623347 -0.39030367
000140 3b fa 19 bf 05 64 da be ff 94 f2 be dc 83 97 bf
       -0.60147446 -0.42654434 -0.473793 -1.1837115
000150 a1 05 13 bf 46 33 12 bf e7 0c b7 be 84 54 f4 be
       -0.57430464 -0.5710949 -0.3575203 -0.4772073
000160 a7 a3 22 bf bf cc 2b 3a 45 98 be be 58 7e 3b 3f
       -0.63530964 0.0006553642 -0.37225547 0.7323966
000170 e0 c7 a0 3f bd 92 b6 3f 7c a8 2d bf 2c f5 cf 3e
       1.2560997 1.4263531 -0.6783521 0.4061674
000180 58 42 8c 3f ed 1d ad bd 10 0a 8f 3d c4 3f b8 3f
       1.0957747 -0.084529735 0.06984341 1.439446
000190 1b c7 03 3f 5f be d5 be 15 fd 61 bd f8 f4 0b bf
       0.51475686 -0.41746804 -0.055173 -0.5467067
0001a0 a2 86 34 bf b6 39 4d bf df 3f ee be 28 c9 9a bf
       -0.70517933 -0.80166185 -0.46533105 -1.2092638
0001b0 6f e4 fe be c3 59 51 3f 9a d1 0e bf db ce d7 be
       -0.49783656 0.8177759 -0.55788577 -0.42150006
0001c0 81 dd a4 be 5a fb d6 be 7f 5e 13 bf ef c5 3c bf
       -0.32200244 -0.4198864 -0.57566065 -0.7373952
0001d0 90 55 15 bf 55 94 27 bf f2 65 a3 3f 8b 2d 3c bf
       -0.58333683 -0.6546071 1.2765486 -0.73506993
0001e0 ca 16 73 3e 11 e7 c4 be 2f b9 e9 3e fa 3d 11 3c
       0.23739162 -0.3845754 0.45649096 0.008864874
0001f0 b8 8a 2c bf e7 c1 fa be ac 24 33 3d 85 56 27 bf
       -0.6739917 -0.4897606 0.043736145 -0.65366393
000200 24 3b aa bb 3d 83 33 be 6f 6f e1 be 85 43 6d 3f
       -0.0051950384 -0.17530532 -0.4403033 0.9268115
000210 1b 05 fe 3f db 73 98 bf 0b c6 ca be ee 4e 77 bf
       1.9845308 -1.1910356 -0.3960422 -0.9660481
000220 7d 0d 34 bf 83 bd 98 be c8 f2 89 bf d5 2d 3a bf
       -0.7033308 -0.29832086 -1.0777216 -0.72726184
000230 a5 d8 6c bf ee 02 9e bf 0d b6 59 bf 70 71 24 bf
       -0.92518073 -1.2344644 -0.8504341 -0.6423559
000240 06 08 b3 be ae ca 5c bf 9d f1 77 be 0a a1 87 bf
       -0.3496706 -0.86246765 -0.24213262 -1.059602
000250 b8 c0 a6 be cc c9 6b be 50 5f 86 be 68 54 24 bf
       -0.32568908 -0.23026198 -0.26244593 -0.64191294
000260 49 98 d6 be 69 00 9b 3c c2 ba d5 be a4 ec 40 3f
       -0.4191306 0.018921094 -0.41744047 0.75361085
000270 fb 95 da 3e da 39 4c bf 8b 2e 2a bf 8b 4a 01 bf
       0.4269255 -0.79775774 -0.6647727 -0.5050437
000280 56 3d bc 3f c8 fe 43 bf 4d bd 97 3f 49 98 74 3f
       1.4706218 -0.7656064 1.1854645 0.9554487
000290 15 43 95 3f 1e 47 4d be 5a 21 9d bd a7 d2 c1 be
       1.1661097 -0.2004666 -0.07672377 -0.37856027
0002a0 3e 6c 5a bf a1 30 5d bf 0b be ca be 21 84 88 bf
       -0.85321414 -0.86402327 -0.39598116 -1.0665323
0002b0 a3 23 af bd 3e 58 b7 3f e5 ee 80 bf 29 e9 19 bf
       -0.08551719 1.4323804 -1.0072905 -0.601214
0002c0 fc 1b 30 bf 15 32 86 be 06 7c b6 be ca f1 69 bf
       -0.687927 -0.26210085 -0.35641497 -0.91384566
0002d0 53 a1 38 bf 51 3f a3 be b6 b1 fe 3e 6e 6f 62 bf
       -0.7212116 -0.31884244 0.49744958 -0.8845128
0002e0 fb 62 90 3f 75 fc de bd 90 03 9c 3e 52 98 12 3f
       1.1280206 -0.10887996 0.30471468 0.5726367
0002f0 2c 96 fd be 7a 71 9d be f7 6a ef 3c d6 77 05 bf
       -0.49528635 -0.30750638 0.02922581 -0.5213598
000300 b8 ca 1a 3d 0c 89 03 bf 36 ed 18 bf bd 5e 96 3f
       0.037790984 -0.5138099 -0.59736955 1.1747662
000310 c3 88 d2 3f d5 7b 2b bd dc e6 d2 be f9 d1 08 bf
       1.6447986 -0.041866142 -0.41191757 -0.5344539
000320 f0 ff ce be 58 b8 f7 be 7e ff 7a bf 12 25 8f bf
       -0.4042964 -0.4838283 -0.980461 -1.1183188
000330 50 ce 62 bf 1a 84 76 be d0 e5 51 bd e5 fd 12 bf
       -0.8859606 -0.2407383 -0.051244557 -0.5741866
000340 c8 15 fb be 5a 5d 88 bf 43 74 eb be 47 6a b3 bf
       -0.49040055 -1.0653489 -0.45987138 -1.4016808
000350 9e 6e f3 be 39 a7 d3 be b0 98 df be c8 55 1b bf
       -0.47545332 -0.41338518 -0.4367118 -0.60677767
000360 bf c8 12 bf 08 47 6e bd b7 f1 0e 3f d0 71 6c 3f
       -0.57337564 -0.05817321 0.5583758 0.92361164
000370 89 25 28 3f a5 42 23 3f ec 64 e7 be e7 02 80 3f
       0.65682274 0.63773566 -0.45194185 1.0000886
000380 80 08 4e 3e bc ea 28 bf 58 21 db 3e 02 f7 77 3e
       0.2012043 -0.65983176 0.42798877 0.2421532
000390 b0 08 af 3e 5d c9 a2 be 84 9f 28 bd b4 36 b4 3d
       0.34186316 -0.31794253 -0.04116775 0.08799496
0003a0 26 1f 76 bf 0d fa da be 76 9d 10 bf d7 de 2a bf
       -0.9614128 -0.427689 -0.56490266 -0.66746277
0003b0 fa af a7 be 75 9f 24 3f f9 57 29 bf e1 f5 03 bf
       -0.32751447 0.6430581 -0.6614986 -0.51547056
0003c0 3f 4b 0b bf d2 c9 b4 be 86 25 06 bf 0a 53 79 bf
       -0.5441169 -0.35310227 -0.52401006 -0.9739233
0003d0 a5 1d 68 bd 63 40 c1 be 29 d4 93 3f e3 f1 48 bf
       -0.056668896 -0.37744436 1.1549121 -0.7849409
0003e0 97 93 4d 3f b3 39 c7 be dd 95 37 3f ca 18 99 3e
       0.8030333 -0.3891121 0.7171305 0.29901725
0003f0 44 0a 6b bd f4 4b 11 bf 40 5c 34 3c 26 ba 10 bf
       -0.057382837 -0.5675652 0.011008322 -0.5653404

fc3.bias f4 [4]
000000 9f fc b1 be 9e 01 ac be 5c e9 df 3e 88 a2 18 be
       -0.34763047 -0.33594984 0.43732727 -0.14905751
