weights/g0.5_lr0.001_decay_0.9999.pth (torch, 12865 bytes, 6 tensors)

fc1.weight f4 [32, 8]
000000 ba 95 ed bd 4c fc 69 c0 22 0c 53 bf 76 50 44 bf
       -0.11600824 -3.656024 -0.8244039 -0.76685274
000010 43 04 10 3f b1 8a 00 3e 3e 57 54 3e 52 fc a6 3f
       0.562565 0.12552907 0.20736405 1.3045752
000020 5e 2a 68 bb 11 c4 ea bd 42 7b dc bb 69 b3 0a 3f
       -0.0035425643 -0.11463178 -0.0067285607 0.5418001
000030 0f 31 2a bf fd bb 8c bf 37 98 78 bf b7 5a c1 bf
       -0.6648111 -1.099487 -0.9710726 -1.5105809
000040 62 24 03 be 16 ef c5 3c d3 53 3c bf 0c be 0f c0
       -0.12806848 0.024161857 -0.73565406 -2.2459745
000050 65 25 57 3e ff 48 90 3f 7c d3 1c 3f 42 92 d2 3e
       0.21010359 1.1272277 0.612602 0.4112721
000060 1d c9 54 3d eb 0a 2f bf 95 a5 b2 3e 6c 4a 47 bf
       0.05194961 -0.68376034 0.34891954 -0.77847934
000070 df 61 d7 bd 7d 5e 82 bf d3 c3 02 be c1 48 cb 3f
       -0.10516714 -1.0185086 -0.12770014 1.5881578
000080 a6 d3 b9 bf b2 71 f2 c0 f7 d8 a3 bd c8 ff 83 bf
       -1.4517715 -7.576379 -0.08000367 -1.0312433
000090 78 b7 14 3f 06 a6 cd 3d e0 83 c0 bf bf c3 3f 3e
       0.5809245 0.10041432 -1.5040245 0.18727015
0000a0 4e 07 1e be 5f ae bb c0 6f b1 dd 3e 5a 0d 71 bf
       -0.15432474 -5.8650355 0.43299434 -0.94161
0000b0 1b 30 2e bf d7 74 c7 3d d4 18 0b be 36 dd 9b 3f
       -0.68042153 0.09739082 -0.1358369 1.2176883
0000c0 7d 36 be 3d 18 2c a1 be fe 50 26 3f 69 81 85 40
       0.092877366 -0.31478953 0.64967334 4.172047
0000d0 91 3e 62 3d 4a 1d be be bd 3a b1 3f 94 9a 95 be
       0.05523545 -0.3713172 1.384605 -0.29219496
0000e0 13 2b 37 bd ec 65 61 c1 95 e1 3e bd 89 7c 77 bf
       -0.044718813 -14.087383 -0.04660185 -0.966744
0000f0 79 92 28 bc 12 00 17 bb 30 b6 c0 bd 79 da 1c bd
       -0.010288828 -0.0023040813 -0.094097495 -0.03829429
000100 0f 9a 04 3e 1f 7e 82 3e 6b f8 bf 3f 55 af 9a be
       0.12949394 0.25486848 1.4997686 -0.30211893
000110 9f d1 4d 3f 1f a2 eb 3e c3 4d eb 3e a1 59 b4 ba
       0.8039798 0.46022126 0.45957765 -0.0013759622
000120 f1 eb 60 be 0b 13 80 bb 62 ad 8d 3e e9 d4 3f 40
       -0.21965005 -0.00390852 0.27671343 2.99737
000130 cb 1e 2e 3e ce c9 2c bf e0 66 27 bf 4c e5 ea 3e
       0.17003934 -0.6749543 -0.6539135 0.45878065
000140 8d 1d 17 3f cc 20 75 bd 60 80 00 40 86 26 ed bf
       0.59029466 -0.05984573 2.0078354 -1.8527381
000150 88 fd b2 be 09 4d ab be 79 21 65 3f d0 3c 38 bc
       -0.34959054 -0.3345721 0.895042 -0.011244968
000160 3d 8e 93 3e 82 ea b4 c0 83 e9 d5 3f 8e 93 83 3f
       0.28819457 -5.6536264 1.6711887 1.0279405
000170 97 85 5d 3f 61 d2 b7 3e a9 ec b2 be 6d 67 10 3f
       0.86531967 0.35902694 -0.34946182 0.56407815
000180 05 ce 18 3d c0 61 c4 bc ea 70 40 bd ef 29 ca bd
       0.03730585 -0.023972392 -0.046982683 -0.098712794
000190 a1 b2 80 40 96 67 bb 3d 94 6c c2 3e ff 8d 92 3d
       4.0218053 0.09150617 0.37973464 0.0715599
0001a0 82 c3 5e be be 53 1d 3d 47 a4 45 c0 db e9 2c bc
       -0.21754268 0.03840994 -3.0881517 -0.010553802
0001b0 8b fc e5 bd 5b d1 f5 be 69 df c7 bf b8 e0 2d be
       -0.112298094 -0.48011288 -1.5615054 -0.16980255
0001c0 d9 bd 16 bc 91 9f af 3a 8a b5 25 3d 78 a7 03 be
       -0.009200537 0.0013398995 0.040456332 -0.12856853
0001d0 ce 0f 67 c0 48 2c 5a bd 5d 7a 6b 3e 08 7e 79 3e
       -3.6103396 -0.053264886 0.22995897 0.24364483
0001e0 b6 fd 1a 3f cb 85 00 be 19 41 28 3f d8 cb b6 be
       0.6054338 -0.12551038 0.6572433 -0.35702395
0001f0 8f 2e 9b bf 09 d1 49 bf b9 58 8f bf f4 84 ba 3e
       -1.2123584 -0.7883459 -1.1198951 0.3642956
000200 eb c7 94 3e f3 57 05 c1 74 a2 b7 be 66 4a 9e be
       0.29058775 -8.333972 -0.3586613 -0.30916137
000210 62 6a 4e bf 73 6d 88 3d cb 30 1a 3f d9 3b c8 bd
       -0.8063108 0.06661501 0.602307 -0.0977704
000220 1b 43 b9 3e 09 70 20 c1 3e 40 8a 3e 4e fa b8 3e
       0.3618401 -10.027352 0.27002138 0.36128467
000230 51 1b 20 3f 5e c5 44 bc ac b0 3d 3f 21 d2 4f 3d
       0.6254168 -0.012009947 0.74097705 0.050737504
000240 56 53 60 3e ab 4a 01 bf b6 4e 3e 3f 68 ea 6b 3e
       0.2190679 -0.5050456 0.74338853 0.23038638
000250 b5 f5 db bf 16 93 c4 3d 07 bf ca 3e 50 68 c9 3d
       -1.7184359 0.09598367 0.39598867 0.09834349
000260 37 6b 2e 3f 45 78 bb c0 60 ea 24 3f 14 dd 17 bf
       0.68132347 -5.8584313 0.6442013 -0.59321713
000270 fb c0 53 bc 62 89 be bf 2f 26 9c bd f2 3a e4 3e
       -0.012924428 -1.4885676 -0.076244704 0.44576222
000280 48 3d e1 3c 85 8e 44 be b4 df 0f c0 6a 52 34 3f
       0.027495041 -0.19194992 -2.2480288 0.70438254
000290 e7 54 f7 3e fa 86 df bf c3 06 1e 3e a7 16 ba be
       0.48306963 -1.7463067 0.15432267 -0.36345407
0002a0 16 fc 9a bf cc c5 18 3f 24 65 3f 3f 77 7b f2 bf
       -1.210818 0.59676814 0.74763703 -1.8943928
0002b0 9f 63 8c 3d da 8e 42 bf 74 51 69 bf 24 20 b1 be
       0.06854939 -0.75999224 -0.9113991 -0.34594834
0002c0 4d bc ee 3e e7 6e b3 c0 1c 6c cb 3f 13 80 53 3f
       0.46628037 -5.607288 1.5892367 0.826173
0002d0 8e aa 46 bf 88 20 b4 be 7b 74 5a 3d 13 16 34 bf
       -0.77603996 -0.3518107 0.05333374 -0.7034618
0002e0 d3 09 4e bd db 30 4a bf 16 24 94 bf 28 6d 5c be
       -0.050302338 -0.789808 -1.1573513 -0.21526015
0002f0 a4 90 51 3e e9 63 7c 3f 09 64 82 3f e4 7f 8a 3e
       0.20465332 0.9858995 1.0186778 0.27050698
000300 39 2a 40 be 2c 4d 38 be c9 d1 da bf af 48 83 bf
       -0.18766107 -0.17998189 -1.7095271 -1.0256556
000310 0a c7 e7 be ca 5b 1b be d4 07 fc be f8 51 50 3f
       -0.45269042 -0.15171733 -0.49224722 0.81375074
000320 68 0f 73 40 83 05 34 3f 86 73 8d be 56 1d 71 bf
       3.7978153 0.7032091 -0.276272 -0.9418539
000330 38 82 33 bf 54 7e 2e 3f 6f ea c9 be 59 c9 73 bc
       -0.70120573 0.6816151 -0.3943667 -0.014879548
000340 f6 fe 06 40 b2 d4 16 c1 53 f1 a1 3d 34 44 a1 bf
       2.1093116 -9.426928 0.07907357 -1.2598939
000350 e6 3d 53 3e 5b 0a 5d 3d 97 5a 1a 3e 71 a2 4d be
       0.20629081 0.053964954 0.1507362 -0.20081498
000360 0e 84 24 bd c4 37 10 c1 b9 0b 85 3b fe a0 79 bf
       -0.040165 -9.013615 0.0040602353 -0.9751128
000370 a2 b0 74 3d e1 9a 23 bd b2 b2 51 be 96 63 41 be
       0.059738763 -0.039942626 -0.20478323 -0.18885645
000380 ac 4b 3d 3f ac 71 0f 3f 54 e1 6d 3b 46 16 ff be
       0.7394359 0.56032825 0.0036297636 -0.4982168
000390 97 fb 97 3d 4f 86 80 bf 9e 2f c6 3e ed 3f b9 3e
       0.07421034 -1.0040988 0.38708204 0.36181584
0003a0 43 be 83 3d c2 72 d2 3d e2 b9 be 3f 66 70 da be
       0.06432774 0.102757946 1.4900477 -0.42663878
0003b0 dd 4f 14 3f d8 2c 93 bf 42 ba 69 bf b6 75 1c be
       0.5793436 -1.149806 -0.9129983 -0.15279278
0003c0 d7 c6 83 c0 f0 36 d0 c0 ba e3 d7 be fa 2a 47 be
       -4.1180224 -6.506706 -0.4216593 -0.19449988
0003d0 28 5b 87 3e 71 75 fe bd 22 9b 07 3f 9c 96 00 be
       0.26436734 -0.12424744 0.5297109 -0.12557453
0003e0 22 43 86 be 3c c6 a5 bb 69 42 52 c0 e8 d0 e6 3e
       -0.26223093 -0.005059032 -3.2853034 0.45081258
0003f0 b3 88 92 3f 9f 17 9f be c2 37 3b c0 8b e5 27 be
       1.1447967 -0.3107271 -2.9252782 -0.16396157

fc1.bias f4 [32]
000000 34 d6 17 bf dc e8 c2 3e db bd 7a bf 0d ab d6 bf
       -0.59311223 0.38068283 -0.97945946 -1.677095
000010 a2 1b 6b bf 1e b8 82 bf 12 32 1a 3f d4 6c b6 3d
       -0.9183904 -1.0212438 0.6023265 0.08907476
000020 06 7f e9 3f 7b 21 95 3f b7 7a d4 3e b5 fd 80 bf
       1.824189 1.1650842 0.41499874 -1.0077425
000030 46 d3 74 3d 73 93 a9 bc a5 1d 54 3a a5 c2 d0 3e
       0.0597718 -0.020700192 0.00080915756 0.40773502
000040 09 cd 56 bf cc 96 3f bf b8 fe df be 37 df 74 bf
       -0.8390661 -0.7483947 -0.43749022 -0.956531
000050 78 be 86 3f 6a 59 56 3e de 85 ac bf 23 82 83 bf
       1.0526876 0.20932546 -1.3478353 -1.027409
000060 12 fc b0 3e e0 6f 08 be a3 15 2d be de c6 2b 3f
       0.34567314 -0.13323927 -0.16902785 0.6710032
000070 fb bd d6 3e e4 b5 89 3e 75 8c 88 bf 4e 45 94 bd
       0.4194182 0.26896584 -1.0667864 -0.07239781

fc2.weight f4 [64, 32]
000000 3d a0 c3 3e 7d 29 28 3e 18 d0 57 3f 4d ba b9 3d
       0.3820819 0.16422077 0.843019 0.09068737
000010 e4 f0 93 c0 17 9a bd be 0e 5e bf bc a2 7c 9a c0
       -4.6231556 -0.37031624 -0.023360278 -4.827714
000020 c3 c8 23 3f 4c 12 50 bf 2a ec 5d 3f 46 6e f8 be
       0.63978213 -0.8127792 0.8668848 -0.48521632
000030 c2 77 70 3d cc 52 1d bc b4 18 2c 3e 27 ca 06 bf
       0.05870796 -0.00960226 0.16806298 -0.5265221
000040 28 f3 0d c0 26 77 76 c0 dd c1 fa be c6 d8 40 be
       -2.217966 -3.8510222 -0.4897603 -0.18832693
000050 69 0c 33 3f 42 0a 81 3e de 1f a2 bb 4e 90 7e be
       0.6994081 0.2520314 -0.0049476465 -0.24859735
000060 df 1e 68 be 22 86 94 3e 07 68 da bf f7 45 2f 3f
       -0.22668026 0.29008585 -1.7062997 0.6846613
000070 e8 b9 8f 3d c8 41 01 3f a5 44 be bf 2d 7c 7a 3e
       0.07017881 0.50491 -1.4864699 0.24461432
000080 c8 a7 31 3e 9c 60 11 3e c5 a4 4d 3f d6 2f 98 3f
       0.1734916 0.1419701 0.80329543 1.1889598
000090 d3 f2 f8 3f 82 d5 06 bf d9 79 86 3f 10 b0 33 3e
       1.9449104 -0.5266954 1.0505935 0.17547631
0000a0 be f2 a2 be c9 df 14 3f 2d 57 06 3e 88 4b 03 c0
       -0.31825823 0.5815397 0.13119192 -2.051485
0000b0 68 34 56 bf 95 d3 42 3f 62 99 41 be 9e cd 9c be
       -0.83673716 0.761041 -0.18906167 -0.30625623
0000c0 29 fb 27 3f e1 8b 5f bf 18 fd f3 3e ab cf 97 bd
       0.65617615 -0.87322813 0.47654033 -0.074126564
0000d0 06 39 84 3e a6 06 0c bf 96 ce 0e 3f 63 f2 92 3f
       0.25824755 -0.54697645 0.55783975 1.148022
0000e0 82 fb 4c be c5 74 5c 3e d8 9c d8 be 70 e4 d2 bf
       -0.20017818 0.21528919 -0.42307162 -1.6475964
0000f0 8d b7 e9 3d a0 20 90 bf c2 cf 97 3f fc 8d b8 3e
       0.11411963 -1.1259956 1.1860278 0.36045825
000100 03 5b 09 be 8f 77 3a 3f c5 52 39 3e f4 4e 87 bf
       -0.13413624 0.7283868 0.1809798 -1.057097
000110 e2 e3 8a 3f b1 39 7f bf ac 05 22 c0 48 f7 6c 3f
       1.0850794 -0.99697405 -2.5315962 0.9256482
000120 42 04 bf bf 65 e6 c2 bf 2d 46 bd bf b4 42 ce 3f
       -1.4923174 -1.5226561 -1.4787041 1.6114106
000130 bd be a6 3e 84 e8 0d bc e5 7a df 3d 9a a4 3e 3f
       0.32567397 -0.008661393 0.10912112 0.7446991
000140 14 21 4f bf fe 9c 10 40 cc ee 83 be e1 15 69 3f
       -0.8090985 2.259582 -0.25768125 0.9104901
000150 e7 d8 3a bf bf 3f 5c bf b9 a2 79 be c0 4e d6 3d
       -0.72987217 -0.8603477 -0.2437848 0.10464239
000160 2f cf db be e1 11 18 c0 be 08 1b 40 f9 4a ac be
       -0.42931506 -2.3760912 2.4224086 -0.3365095
000170 e8 ef b0 3c 94 22 71 bf d2 97 20 c0 5d b6 2f 3f
       0.021598771 -0.9419339 -2.5092664 0.6863764
000180 26 da c7 3f 36 a3 31 c0 ff 9a b9 3e da 34 fa bc
       1.5613449 -2.7755866 0.36251065 -0.03054278
000190 3a 80 ae 3f 8e a7 48 3f 8c 7f 0b c0 47 d3 c9 3f
       1.3632882 0.7838067 -2.1796598 1.5767602
0001a0 21 36 24 bf ee 38 e9 bf 4b 13 fb bd 0d 64 0e bf
       -0.64145094 -1.8220499 -0.12259539 -0.55621415
0001b0 50 a4 64 3f 32 f5 62 bf bf 2b 2f c0 45 d9 88 bf
       0.8931322 -0.8865539 -2.737045 -1.0691305
0001c0 1f fd a1 bd c3 a7 fb 3b d5 b1 c8 bf 36 b5 5c be
       -0.07909607 0.007679911 -1.567927 -0.21553501
0001d0 01 a2 98 bf 07 f6 1e bf 94 b6 ca 3f 40 a0 0d bd
       -1.192444 -0.6209416 1.5836968 -0.034576654
0001e0 c3 4a 49 be 1f d9 2e 3d 58 82 40 40 62 11 8d 3d
       -0.19657426 0.04268753 3.0079556 0.06888081
0001f0 c0 7c bd bd a2 6b 80 be 48 b0 87 c0 fc 24 86 3e
       -0.0925231 -0.25082117 -4.2402687 0.26200092
000200 53 31 61 be 90 cc d3 bf 1e 45 89 be 59 83 16 3f
       -0.21991472 -1.6546803 -0.26810545 0.5879417
000210 46 4d 95 3f e9 1d b8 3e 00 0f e0 bf 2f b9 3c 40
       1.1664207 0.3596032 -1.7504578 2.9488027
000220 2c cd 7c be 63 a0 5f c0 4e 7c 00 3f c8 31 cb 3f
       -0.24687642 -3.4941642 0.50189674 1.5874567
000230 52 3a 20 3e b2 12 a8 bd 35 f2 a9 c0 10 4f 0d c0
       0.15647247 -0.08206691 -5.3108163 -2.2079506
000240 3a 66 91 bf d1 d5 32 40 11 89 74 c0 fe 9b b0 3f
       -1.1359322 2.7943003 -3.8208659 1.3797605
000250 69 d2 e9 bf c8 15 57 c0 2e 46 64 3f 6c 1f 57 3e
       -1.8267337 -3.3607044 0.89169586 0.2100808
000260 ed 06 06 c0 a5 fb d3 bf 96 76 61 3f d1 40 90 3f
       -2.0941727 -1.6561171 0.8807157 1.126978
000270 3c 5f e9 bf 22 45 6c bf 6e 99 56 c0 bf b2 45 3e
       -1.8232188 -0.9229299 -3.3531146 0.19306467
000280 56 58 61 3e 29 bc 96 bf 84 71 57 3f 7f fd 88 be
       0.22006354 -1.1776172 0.84157586 -0.26755902
000290 b5 3d 9a 3f 44 92 ab be 20 cf 91 3f 5d 39 8d 3e
       1.2050081 -0.3351003 1.1391335 0.27582827
0002a0 7f 53 bd 3e d8 94 63 3e 72 29 a4 3c 46 5c 92 be
       0.36977765 0.22224748 0.020039294 -0.28586024
0002b0 93 3b 7a bf 0e 88 70 c0 5a 52 87 3f e3 f7 86 bf
       -0.97747153 -3.758304 1.0572007 -1.0544399
0002c0 bf 1d 7a bf 21 68 91 3e 27 47 5b 3e b8 7b 7f bf
       -0.9770164 0.28399757 0.21413861 -0.99798155
0002d0 1c f7 8e bf a9 71 ac bf 41 8b 8f 3f 4a 24 41 3f
       -1.1169162 -1.3472186 1.1214372 0.75446
0002e0 c3 06 f1 be 1f 33 1e bf 92 12 8f be 5a d7 eb be
       -0.4707547 -0.61796755 -0.27943856 -0.46062738
0002f0 cc b7 8a bf 25 fa b4 bf d3 fb 31 bd eb f1 1f c0
       -1.083734 -1.4138838 -0.04345305 -2.4991405
000300 b8 5c 9f 3e f2 c7 3f c0 d3 c3 7d bf 0b 85 10 3f
       0.31125426 -2.9965787 -0.9912693 0.5645301
000310 08 09 68 3f 7f a2 c8 3f be 47 31 c0 06 24 3b 40
       0.9063878 1.567459 -2.7700038 2.9240737
000320 f0 37 f7 be c9 95 00 bf 5c 4b b7 3e 13 75 c9 3f
       -0.48284864 -0.50228554 0.35799682 1.5738853
000330 a0 5a f1 bd 3d 0e 88 bf 0f 06 18 c0 08 df b6 be
       -0.117848635 -1.0629345 -2.3753698 -0.35717034
000340 38 cc b0 bf 46 a9 bd 3f b6 cd 16 c0 20 bc bf 3f
       -1.3812323 1.4817283 -2.3563056 1.4979286
000350 c0 92 93 bf e9 19 22 c0 01 01 84 3f de 6d b9 be
       -1.152916 -2.5328314 1.0312806 -0.36216635
000360 43 8c a2 3d a2 91 02 c0 5f cc 23 3f 84 05 a6 3f
       0.07936909 -2.0401387 0.6398372 1.2970433
000370 f2 13 1d 3e 19 72 e0 3e 2e 46 43 c0 b1 73 bf 3f
       0.1533964 0.4383705 -3.0511584 1.4957181
000380 3b 8a e7 bd e8 d0 52 3e c9 a7 85 3e 8f f3 3a 3f
       -0.11305662 0.20587504 0.26104572 0.7302789
000390 4f 2e d4 be 31 15 29 3f 99 47 06 c0 84 c7 19 40
       -0.4144158 0.6604796 -2.09812 2.4028025
0003a0 26 b4 1e c0 83 d0 bc be 65 12 fd be a7 51 79 3e
       -2.4797454 -0.36877832 -0.49428096 0.24347554
0003b0 9c 0c 25 bf b5 db c2 bf 79 ad 36 3f a6 a6 ce 3e
       -0.64472365 -1.5223299 0.7135845 0.40361518
0003c0 6a 8a e9 3f ff e9 06 bf b2 df 08 3f 43 c4 25 40
       1.8245366 -0.527008 0.5346633 2.5901039
0003d0 a4 c0 9f bf 15 c1 f5 bf 4b 20 09 40 dd 54 95 bd
       -1.2480664 -1.9199549 2.142596 -0.07291577
0003e0 44 94 0c bf 88 17 3e bf 14 8a 07 40 2d 37 68 3e
       -0.54913735 -0.74254656 2.1178026 0.22677298
0003f0 3b ab 34 bf 8c c3 14 c0 80 29 9f bf 6e ef 59 3f
       -0.70573777 -2.3244352 -1.243454 0.85130966

fc2.bias f4 [64]
000000 1e cf 5e 3f 72 56 dd bd cc 6e a0 bf 2b 7c 6b bf
       0.87034786 -0.10807504 -1.2533813 -0.9198634
000010 93 b2 7c bf 83 4c de be a5 10 29 bf de 29 b4 bf
       -0.9870998 -0.4341775 -0.6604102 -1.4075277
000020 2e 7e 7e bf c8 e6 83 3f 92 23 17 bf 22 49 90 bf
       -0.99411285 1.0304804 -0.5903865 -1.1272318
000030 6f 79 9e 3d 0e 38 61 bf 77 96 80 bf d2 ab d7 3e
       0.07738005 -0.8797616 -1.0045918 0.42123276
000040 32 7d fc be e3 67 ee be f6 ce b9 bf 4e c1 9e bd
       -0.49314266 -0.46563634 -1.4516284 -0.07751714
000050 ec 84 9e be a1 82 4e 3f 4f 22 5f 3f 3d 76 a9 bf
       -0.30960786 0.80668074 0.87161726 -1.3239208
000060 a6 20 00 3e 71 ec 75 3f e6 e1 4c 3f bf ac a2 bf
       0.12512454 0.96063906 0.80032194 -1.2708968
000070 5f c2 e0 3e 73 41 81 bd d1 0a 09 bf ac b1 98 bf
       0.43898293 -0.063113116 -0.5353213 -1.1929221
000080 7f 5f 4c 3e 2a 6d cb be 69 fd 46 c0 14 a9 4f bd
       0.19958304 -0.39731723 -3.109217 -0.050698355
000090 5c ca 1e 3f 50 ec 5a be 38 66 d7 be 42 65 bc 3e
       0.62027526 -0.21379209 -0.42070174 0.36796004
0000a0 42 20 bf 3f 2e e6 73 bf 7f d9 0f be 7d f2 98 3e
       1.4931719 -0.952731 -0.14047812 0.29872504
0000b0 65 2f 89 be 1b 74 fb 3d 28 fa 80 bf 7b 9c c9 be
       -0.26793972 0.12278005 -1.0076342 -0.39377198
0000c0 75 86 d5 be 0e fb 0d bf 4c 23 a2 3e 9a 91 70 bf
       -0.41704145 -0.55461204 0.31667554 -0.9397217
0000d0 2c c3 29 3e bb 05 2d bf 5c fa 2b bf fb e9 a8 be
       0.16578358 -0.6758687 -0.67178893 -0.32991013
0000e0 8d 65 c4 bf 47 d7 b7 3e 2f a9 11 3f 9e 55 73 be
       -1.5343491 0.3590643 0.5689878 -0.23763129
0000f0 73 54 4c bf 66 c8 3a bd 66 df 38 be 59 7b 47 bf
       -0.7981636 -0.04560127 -0.1805397 -0.7792259

fc3.weight f4 [4, 64]
000000 0a b1 a5 3f 15 c2 1b be 22 4c 88 c0 03 b4 9a bd
       1.2944653 -0.15210755 -4.2592936 -0.07553866
000010 6f 18 41 c0 33 c1 b8 bf 3a 2a 4e c0 3c 79 63 c0
       -3.0171163 -1.443396 -3.2213273 -3.5542746
000020 ac 4e 4d c0 00 e6 1b c0 2d a8 a4 bf 4d 67 86 bd
       -3.2079268 -2.435913 -1.2863823 -0.06562672
000030 eb 85 0f bf cb f6 a3 bf 4d 91 e9 bf 35 f8 6c 3e
       -0.5606372 -1.280969 -1.8247467 0.23141558
000040 0c 56 9c be 8b 26 c6 be d5 48 88 c0 b2 1f 39 bd
       -0.305344 -0.3870128 -4.2588906 -0.045196243
000050 90 f8 80 3e f0 2a a3 be c9 e6 9e bf 4a 0b 52 c0
       0.25189638 -0.31868696 -1.241418 -3.281939
000060 79 36 b5 bf 4d 88 ca bf 4d f5 46 bf f6 c4 b9 3f
       -1.4157249 -1.5822846 -0.7771805 1.4513233
000070 f1 97 7d bf a9 d8 2e bd 17 bf f9 bf f6 8f fa be
       -0.9905997 -0.042687092 -1.9511441 -0.48937958
000080 a0 f7 a8 bf 31 3d 29 be 2a 1d 91 3f f6 34 3f bf
       -1.3200569 -0.16527249 1.1337025 -0.74690187
000090 b8 0a 3c 3e eb d9 c8 bf 6a 2b 0f c0 d0 f3 89 bf
       0.18363464 -1.5691503 -2.2370248 -1.0777531
0000a0 fa b3 bd bc 90 81 82 be 31 81 e7 3f b0 f9 14 bf
       -0.023157109 -0.25489473 1.8086301 -0.5819349
0000b0 b7 10 f5 bf b4 e8 17 40 81 70 3b be 90 50 c1 bf
       -1.9145726 2.373578 -0.18304636 -1.5102711
0000c0 90 67 e4 bf 52 8a ef bf b1 ed 06 40 ca 1f 7f bf
       -1.7844105 -1.8714087 2.1082575 -0.9965788
0000d0 5b d2 9f bf ff dd 87 c0 7e ee 08 c0 7b f3 97 3e
       -1.248607 -4.245849 -2.1395564 0.29677948
0000e0 10 2e 60 3f b5 06 d2 bd 71 7f 44 3f c2 65 bc 3c
       0.87570286 -0.102551855 0.7675696 0.02299774
0000f0 06 df 65 3f 49 42 2a c0 6e 4f 33 3c 18 b2 08 bf
       0.8979343 -2.6602957 0.0109442305 -0.5339675
000100 03 87 85 3f 10 2b 89 bf 0a 79 60 3e 2f ac 41 bf
       1.0431827 -1.0716267 0.21921173 -0.75653356
000110 79 91 e2 bf 1a eb 2b 3f 45 a8 d2 bf 8b 7c 86 c0
       -1.7700645 0.6715561 -1.6457602 -4.202703
000120 5e a4 14 c0 61 2b a9 bf 4c d7 b9 bc 3d 89 26 bb
       -2.3225322 -1.3216363 -0.02268567 -0.002541139
000130 ef 9e aa bf ce 07 1c c0 88 3b da bf a8 9c 09 3f
       -1.3329753 -2.4379764 -1.7049417 0.53754663
000140 9f f1 3f bf a6 be 01 bf 7a b0 ba bf e9 f2 4f bf
       -0.7497806 -0.5068153 -1.4585106 -0.81230026
000150 de 72 f4 bb e4 60 80 be b5 2c a9 bf 8e 5f 21 c0
       -0.0074599823 -0.25073922 -1.3216769 -2.5214572
000160 0f 80 f3 be b5 a3 86 bf d2 4f 70 3f 9f b4 90 3f
       -0.47558638 -1.051871 0.93871796 1.1305121
000170 54 35 b5 bf 7a 27 8b 3d 40 31 5a c0 b6 d9 a2 bf
       -1.41569 0.06794639 -3.409256 -1.272269
000180 02 9f 5d bf ac 88 8f 3f 01 ea a0 3f 8d 20 73 bf
       -0.8657075 1.1213584 1.2571412 -0.94971544
000190 34 e9 9d be df 30 da bf 36 8c 8d bf a4 75 5d bf
       -0.30841982 -1.7046164 -1.1058414 -0.8650763
0001a0 f4 64 d7 bf 27 7c 7b be 8e 62 08 40 04 44 28 3f
       -1.6827683 -0.24559079 2.1310153 0.65728784
0001b0 64 c0 cb be 3c 93 ba 3f 7c fe f0 be d8 f0 8a c0
       -0.3979522 1.4576182 -0.47069156 -4.3419
0001c0 ab 90 85 c0 08 60 9c bf 77 2c 38 3e ee 3a c0 3f
       -4.1739097 -1.2216806 0.17985712 1.5017984
0001d0 83 e0 c4 bf 38 86 38 c0 67 4e 1f c0 dd 19 a5 3f
       -1.5381016 -2.883192 -2.4891603 1.2898518
0001e0 e3 05 cb 3f 37 68 56 be 41 17 82 3f ca 6e 71 bd
       1.5861171 -0.20938192 1.0163347 -0.058943547
0001f0 80 6c 42 3f a0 26 bb bf 3b b2 ce 3d 7d af 59 bf
       0.7594681 -1.4621162 0.100925885 -0.850334
000200 68 11 25 40 2c 5f fd 3e 0b fd 26 3f 24 cf 48 c0
       2.5791874 0.49486673 0.6522986 -3.1376429
000210 65 ca bb c0 6d 6c 42 3e 3d 45 9a c0 4e 2a 39 c0
       -5.8684564 0.18986674 -4.820952 -2.893207
000220 b8 79 93 c0 77 52 00 3d 37 12 33 bf 71 5e 81 be
       -4.6086082 0.031328645 -0.6994967 -0.25267366
000230 2e 70 45 c0 70 ce 39 c0 41 6c 2c c0 dc 97 05 40
       -3.084972 -2.903225 -2.6941073 2.0873938
000240 bc b0 64 bf 1a 78 95 bf 64 e5 02 c0 b4 ed ab bd
       -0.89332175 -1.1677277 -2.045251 -0.08394948
000250 8e b6 74 bf bc 85 1f 3f b0 df d9 bf 1b e8 91 bf
       -0.95591056 0.6231344 -1.7021389 -1.1398958
000260 4a 11 ec bf b4 ce bd 3d 94 df 99 3f fe 56 8c 3f
       -1.8442776 0.09267941 1.2021356 1.0964048
000270 e0 64 76 bf 04 10 12 bd 26 e7 87 bf c3 73 43 bf
       -0.96247673 -0.035659805 -1.0617416 -0.76348513
000280 b5 6d 17 c0 96 a3 d8 bf 50 ef aa 3e bd fa a9 bf
       -2.366071 -1.6924922 0.33385706 -1.3279644
000290 60 57 d9 3f fd 52 44 bf 53 f1 19 c0 8d 87 a5 bf
       1.697979 -0.7668913 -2.4053543 -1.2931992
0002a0 9c 8f 4d 3f 19 97 07 bf bc b6 f0 bf 2d b9 1b c0
       0.80297256 -0.5296493 -1.8805766 -2.4331772
0002b0 ab 3b 3a 3f 98 40 1c 3f fc 56 35 c0 70 13 d2 bf
       0.72747296 0.6103606 -2.833434 -1.6412182
0002c0 d8 f1 44 c0 3e e1 83 be d6 f6 a7 40 bb aa 43 bf
       -3.077261 -0.25757784 5.2488813 -0.7643239
0002d0 fb 40 9f bf ab 13 4e c0 ad 15 85 bf 9a c6 bb 3f
       -1.2441705 -3.2199504 -1.039724 1.4669983
0002e0 00 a6 5b c0 2e ba 37 be 1b 83 0f c0 81 45 9d 3d
       -3.4320068 -0.17942116 -2.242377 0.076792724
0002f0 5b 11 35 3f cc 9f 89 bf c4 42 13 3c 6d d6 a9 be
       0.7072961 -1.0751891 0.008988086 -0.33171406
000300 5b d7 37 40 77 a1 8a be 03 ab 07 c0 65 d1 d4 be
       2.8725193 -0.27076313 -2.1198127 -0.41566005
000310 6d ba b0 3e 00 ca a9 3f 33 ca 30 bf 24 8e 1c 3f
       0.34517232 1.326477 -0.6905853 0.6115439
000320 9a 65 12 3f 31 60 fa bf 4f f5 f0 be 04 a4 21 c0
       0.5718628 -1.9560605 -0.47062156 -2.5256357
000330 6a f6 85 bf 2c 25 27 bf 58 4e 6f bf b0 ea be bc
       -1.0465825 -0.65291095 -0.9347892 -0.023305267
000340 58 31 c0 3c 02 e1 84 bf a6 91 2c 3f 19 7a 92 bf
       0.023461029 -1.0381167 0.6740974 -1.1443511
000350 c4 a1 83 be 4d 77 83 bf fb 5f 8c bd 61 f5 eb 3e
       -0.25709355 -1.0270783 -0.06854244 0.46085647
000360 d4 be dc be fe c5 0c c0 87 d3 04 3f dd 59 df 3f
       -0.4311434 -2.1995845 0.51885265 1.7449299
000370 c0 99 7f bf 7d d3 c5 bc ee 38 9d bf 01 8f 33 c0
       -0.9984398 -0.024148697 -1.2282999 -2.8056033
000380 5b 19 a3 bf eb 38 fa bf 59 2f 85 40 2b 80 b7 bf
       -1.2742113 -1.954862 4.1620297 -1.4335989
000390 9d 4f e3 be c6 f0 ec bf fe 77 15 3d c1 41 b2 bf
       -0.44396678 -1.8510978 0.036491387 -1.3926316
0003a0 d8 80 90 be cb 0b f7 be 6b a6 34 40 39 ba 3a c0
       -0.282233 -0.48251185 2.8226573 -2.9176161
0003b0 74 26 2f bf 6d 28 d9 3f 44 b3 31 3f a4 99 1e bf
       -0.6841805 1.6965462 0.6941416 -0.61953187
0003c0 41 05 52 3d e9 2a ee bf 8d 9a e2 3f 68 28 ba bf
       0.05127454 -1.8606845 1.7703415 -1.4543581
0003d0 38 1f 85 bf 4b 1e 66 3e 1a b7 e1 bf 7e c9 5f 3f
       -1.0400152 0.22472493 -1.7634003 0.8741683
0003e0 f1 1a 09 40 f7 be b8 bf 5f db 28 3d 90 f5 10 3d
       2.1422694 -1.4433278 0.041224834 0.035390437
0003f0 e6 5f 42 40 a7 cf 34 bf 10 fd d0 3d d1 22 7b c0
       3.0371032 -0.7062935 0.10204518 -3.924

fc3.bias f4 [4]
000000 a6 d4 03 bf de cd 8e bf 67 ba 83 3f e2 8b b0 bf
       -0.5149635 -1.1156576 1.029126 -1.3792689
