weights/g0.5_lr0.001_decay_0.99999999.pth (torch, 12865 bytes, 6 tensors)

fc1.weight f4 [32, 8]
0	0x3c0f2d57	0.008738837
1	0xbf2e8289	-0.6816793
2	0xbe8be070	-0.2731967
3	0xbf024680	-0.50888824
4	0x3e438636	0.19094166
5	0x3f0905ae	0.5352429
6	0x3e814d4c	0.25254285
7	0x3f6b41b5	0.91897136
8	0x3e592706	0.21206293
9	0xc00c9928	-2.196848
10	0x3d90eef4	0.07076827
11	0xbe53a720	-0.20669222
12	0x3baf36d5	0.0053471127
13	0xbfb951df	-1.447811
14	0xbe09ba9a	-0.13450089
15	0x3efcd61a	0.49382097
16	0x3c54ea0a	0.012995252
17	0xbb08d052	-0.0020876122
18	0xbe268ba6	-0.16264209
19	0xbedf4069	-0.4360383
20	0x3f091f40	0.5356331
21	0x3f27fe72	0.6562263
22	0x3ea7d746	0.32781428
23	0x3f649567	0.8929047
24	0x3eae64d4	0.340613
25	0xbf81cbf3	-1.0140365
26	0x3edf5ab0	0.43623877
27	0xbf0cdddc	-0.5502603
28	0xbeec9f09	-0.46215084
29	0xbf052c83	-0.52021044
30	0x3eea743a	0.457918
31	0x3ee95591	0.45573094
32	0xbeca412d	-0.3950285
33	0xbfa71488	-1.3053141
34	0xbe1d7a77	-0.15378748
35	0xbf07f1e8	-0.53103495
36	0x3dfd4d93	0.12368312
37	0x3ebca493	0.3684431
38	0x3e9f1ac2	0.31075102
39	0x3f130310	0.5742655
40	0x3ec613a8	0.38686872
41	0xbf4857ee	-0.7825917
42	0x3ea58876	0.32330674
43	0xbed598b8	-0.41718078
44	0xbf02b861	-0.5106259
45	0xbf5951e8	-0.84890604
46	0x3f0d916c	0.5530002
47	0x3ee438f6	0.44574708
48	0xbf2dd084	-0.67896295
49	0xbef6759c	-0.48136604
50	0x3f1d9a38	0.61563444
51	0x3ec3e4e3	0.38260564
52	0xbe27b4a1	-0.16377498
53	0xbfc18920	-1.5119972
54	0x3f12735d	0.5720728
55	0xbe29fa7f	-0.16599463
56	0x3f445ca4	0.7670386
57	0xbfcdf278	-1.608962
58	0x3dcc3ab1	0.09972132
59	0xbebc30b2	-0.36755902
60	0x3e36f3af	0.17866395
61	0x3e683f70	0.2268045
62	0xbdfc85ab	-0.12330183
63	0x3efa1849	0.48846653
64	0x3f14fdeb	0.5819995
65	0x3d2b574f	0.04183131
66	0xbf7d4315	-0.98930484
67	0x3f2a9712	0.66636765
68	0x3f54f408	0.8318486
69	0x400a0bad	2.1569626
70	0x3e795b15	0.24351151
71	0x3ee569e9	0.44807366
72	0x3f1acb8a	0.60466826
73	0xbc9c46b1	-0.019076677
74	0x3fb148be	1.3850324
75	0x3f42e204	0.7612612
76	0xbf0bdce1	-0.5463391
77	0xbfdecb3d	-1.7405773
78	0x3e81098f	0.25202605
79	0x3f0a6d08	0.5407262
80	0xbf24ea09	-0.6441961
81	0x3e9ae41d	0.30252162
82	0x3f057a20	0.5213947
83	0xbf70a25f	-0.9399776
84	0x3c6ad4f9	0.014333003
85	0xbe303dae	-0.17211029
86	0xbf3c807d	-0.7363356
87	0x3dc016b3	0.093793295
88	0x3f199817	0.59997696
89	0xbf573331	-0.84062487
90	0xbeb71407	-0.35757467
91	0x3e978f64	0.29601586
92	0x3ed72306	0.42018908
93	0x3f0dc2db	0.5537545
94	0xbeb3d0be	-0.35120195
95	0x3dea2fc8	0.11434895
96	0xbe75ee28	-0.2401663
97	0x3f07e8f5	0.5308984
98	0xbeb24925	-0.3482143
99	0xbf0f38fb	-0.5594632
100	0x3f1ea092	0.6196376
101	0x3f11e7a0	0.56994057
102	0xbd1633f5	-0.036670644
103	0x3e96b247	0.2943289
104	0x3db9d5bc	0.0907397
105	0x3e7df55a	0.24800625
106	0xbe971d40	-0.29514503
107	0xbee06b9d	-0.43832102
108	0x3ed7f347	0.42177793
109	0xbed0eaec	-0.4080423
110	0x3e1f2b11	0.15543772
111	0x3ef16683	0.47148523
112	0xbcbcd93c	-0.023052804
113	0xbe9e4395	-0.30910936
114	0x3ebae418	0.36502147
115	0xbee707fa	-0.45123273
116	0xbece2b50	-0.4026742
117	0xbf1ccd5e	-0.61250865
118	0x3f223e39	0.63376194
119	0x3e960b6c	0.2930559
120	0x3f38ff28	0.7226434
121	0x3f215608	0.630219
122	0x3e46b854	0.19406253
123	0x3e64003c	0.22265714
124	0xbf422dfe	-0.7585143
125	0xbf6632ce	-0.8992127
126	0xbf20a7e1	-0.6275616
127	0xbdbe46af	-0.092908256
128	0x3cce0cf1	0.025152655
129	0xbf85608b	-1.0420088
130	0x3d9a7f40	0.07543802
131	0xbebfdbaa	-0.37472278
132	0x3de672c5	0.11252359
133	0xbebfe033	-0.37475738
134	0x3f1f071d	0.6212023
135	0x3eb68863	0.3565093
136	0xbeb9790d	-0.36225167
137	0x3df250b1	0.11831797
138	0xbdd7e391	-0.10541452
139	0x3dbfebb8	0.09371132
140	0x3ef7d57f	0.48405072
141	0x3f85b9eb	1.0447363
142	0x3f490cc4	0.78535104
143	0xbf219f5a	-0.63133776
144	0xbd044848	-0.032295495
145	0xbf984add	-1.1897846
146	0x3e9f9250	0.31166315
147	0x3d846c58	0.064659774
148	0xbf24d0e8	-0.64381266
149	0xbf1cf78b	-0.6131522
150	0x3e8b169f	0.27165696
151	0x3e964ec5	0.2935697
152	0x3e10bef9	0.1413535
153	0xbe1e0a71	-0.1543367
154	0x3e9af578	0.30265403
155	0xbe9e5847	-0.30926725
156	0x3e8b2115	0.27173677
157	0xbfab6f7a	-1.3393395
158	0xbe11a5a6	-0.14223346
159	0x3f42710a	0.75953734
160	0x3ed30ea7	0.41222116
161	0xc002b046	-2.0420089
162	0xbf15c111	-0.5849772
163	0x3e73e3b1	0.23817326
164	0x3ec23413	0.37930354
165	0xbded4ad2	-0.115865365
166	0x3db990b1	0.09060801
167	0x3f427d35	0.759723
168	0x3e91a684	0.28447354
169	0xbf5742e1	-0.84086424
170	0x3f333bcd	0.70013124
171	0xbedb38d0	-0.42816782
172	0x3eb2ce18	0.34922862
173	0x3e8b70d5	0.27234522
174	0x3e92f6cd	0.2870392
175	0x3e5e4090	0.21704316
176	0x3ea24d4f	0.31699607
177	0xbf9b85fc	-1.2150264
178	0x3ea9501f	0.3306894
179	0xbef87281	-0.4852486
180	0x3e2d5540	0.16927052
181	0xbed29dd8	-0.4113605
182	0x3f2c30c7	0.6726193
183	0x3eed1da8	0.46311688
184	0x3ed6793a	0.41889364
185	0xbf5086c2	-0.81455624
186	0x3e12f6a2	0.14351895
187	0x3e3782e8	0.1792103
188	0xbe4e6b07	-0.20158015
189	0x3ed88cb3	0.42294845
190	0x3f08e89d	0.5347994
191	0x3f45e211	0.77298075
192	0xbf6d685c	-0.92737365
193	0xbf59c446	-0.85065114
194	0xbe6df040	-0.2323618
195	0xbedc1058	-0.4298122
196	0xbe393ef5	-0.18090422
197	0x3d32d27d	0.04365777
198	0x3ed925b0	0.42411566
199	0x3d219018	0.03944406
200	0x3f397d14	0.7245648
201	0xbf22ea71	-0.6363898
202	0x3e053ab9	0.13010682
203	0xbdb7ecc8	-0.08980709
204	0xbe4a0989	-0.197302
205	0xbd0b899f	-0.034066793
206	0x3cb7e847	0.022449626
207	0x3f8327f2	1.0246565
208	0xbe50cd36	-0.20390782
209	0x3dc2e988	0.09517199
210	0xbd398d90	-0.04530102
211	0xbe783eb0	-0.24242663
212	0x3d45d4bc	0.048298582
213	0xbe7ae76e	-0.24502346
214	0x3f2fc82e	0.68664825
215	0x3ea8aee1	0.32945922
216	0xbef57f82	-0.47948843
217	0xbe70b6bd	-0.23507209
218	0x3dff018b	0.12451466
219	0xbdd10862	-0.10206677
220	0x3dafcf44	0.08584455
221	0x3f986a3e	1.1907423
222	0x3f2ecd96	0.6828245
223	0xbe008be8	-0.1255337
224	0xbf1d1a3a	-0.61368144
225	0x3c92477b	0.01785635
226	0xbe94bf27	-0.29052088
227	0xbe14c49e	-0.14528129
228	0x3bd9bdfd	0.006644963
229	0xbf720b70	-0.945487
230	0xbeee33b6	-0.46523827
231	0x3f65601b	0.8959977
232	0xbd1d0859	-0.03833804
233	0x3e81f495	0.25381914
234	0xb894e56c	-7.099923e-05
235	0xbf41397f	-0.7547836
236	0x3e5b5c2f	0.21421884
237	0xbfdcfc1f	-1.7264441
238	0xbec34da1	-0.38145164
239	0x3edccec9	0.43126515
240	0x3cae78bd	0.021297807
241	0xbf226ea7	-0.6345009
242	0xbd36d3d8	-0.044635624
243	0xbe1daa17	-0.15396915
244	0x3f189e08	0.59616137
245	0xbf9faff0	-1.2475567
246	0xbeff1b70	-0.4982562
247	0x3e9b865e	0.30375952
248	0xbf4182a7	-0.75589985
249	0x3eaecf69	0.34142616
250	0xbecf5b61	-0.40499404
251	0x3f15282d	0.5826443
252	0x3f79cc46	0.9757732
253	0xbed0b44e	-0.40762562
254	0xbf41d617	-0.757173
255	0x3e5dbaf2	0.21653345

fc1.bias f4 [32]
0	0xbef72356	-0.48269147
1	0xbbbb9ac5	-0.005725237
2	0xbeade4fd	-0.33963767
3	0xbe88786b	-0.26654372
4	0xbeb82d8e	-0.35972255
5	0xbd2ac639	-0.041692946
6	0x3e96c803	0.29449472
7	0x3befcd9a	0.007318211
8	0x3f343d76	0.7040628
9	0x3ee6da7e	0.4508857
10	0xbeafd76d	-0.34344044
11	0xbe9f66aa	-0.31133014
12	0x3e167f53	0.14697008
13	0xbf0e4be6	-0.5558456
14	0xbeabcb30	-0.33553457
15	0xbea9d06b	-0.33166823
16	0xbe876306	-0.26442736
17	0xbcb2eab7	-0.021840436
18	0xbf6bfef5	-0.9218591
19	0xbf536a68	-0.8258424
20	0x3ecc4541	0.39896587
21	0xbe9edb29	-0.3102658
22	0xbe2812da	-0.16413441
23	0xbe82d0c7	-0.2554991
24	0xbe4ed957	-0.20200096
25	0xbf14a6ff	-0.58067316
26	0xbefb6fdf	-0.49108788
27	0xbec90ca6	-0.39267462
28	0xbea02caf	-0.3128409
29	0x3c14842a	0.0090647135
30	0xbeedd591	-0.46452
31	0xbdb922f3	-0.09039869

fc2.weight f4 [64, 32]
0	0x3eb6e470	0.3572116
1	0xbd1bb2b1	-0.03801221
2	0xbe4099fd	-0.18808742
3	0x3ec0278b	0.3753017
4	0x3f1fa86a	0.62366354
5	0x3c815a91	0.015790256
6	0xbcda0013	-0.026611364
7	0xbdfba5a2	-0.12287451
8	0x3a950ded	0.0011371948
9	0xbe1974d6	-0.14985976
10	0x3f8d0d04	1.1019597
11	0x3d94eb92	0.07271494
12	0xbd5094c6	-0.05092313
13	0x3ef9e81d	0.488099
14	0x3ec30535	0.3808991
15	0xbf777827	-0.9666771
16	0x3e677410	0.22602868
17	0xbfaaf7c4	-1.3356862
18	0xbf7da833	-0.99084777
19	0xbfcc6cd0	-1.5970707
20	0xbdc047e7	-0.09388714
21	0x3f210515	0.6289838
22	0x3dbbd03c	0.09170577
23	0xbf12b747	-0.5731091
24	0x3f15e195	0.58547336
25	0xbdb199ee	-0.08671938
26	0x3eadb948	0.3393042
27	0xbebeccd8	-0.37265658
28	0xbf216b4f	-0.63054365
29	0x3e94831c	0.2900628
30	0xbf96c6be	-1.1779401
31	0xbf7b28be	-0.9810904
32	0x3e9e449b	0.30911717
33	0x3e56fb2c	0.20994252
34	0x3e1d236a	0.1534554
35	0x3e766925	0.24063547
36	0x3ee6fc86	0.45114535
37	0x3ec99208	0.39369226
38	0x3b864a3d	0.0040982054
39	0x3ec48c26	0.38388175
40	0xbed9e9cb	-0.42561182
41	0xbeea8a37	-0.45808575
42	0xbf2d1e9d	-0.6762484
43	0x3ede673b	0.43438134
44	0x3edf39ee	0.43598884
45	0x3d1539db	0.03643213
46	0x3d9e9fb8	0.07745308
47	0x3f132212	0.5747386
48	0x3ed078e7	0.4071724
49	0x3f0f1349	0.558888
50	0x3f723dcc	0.94625545
51	0x3f63624e	0.88821876
52	0x3db54a0f	0.08852016
53	0x3e760d6c	0.24028558
54	0x3ef64297	0.4809768
55	0x3edaf530	0.42765188
56	0x3edf6282	0.43629843
57	0x3f40eadb	0.7535836
58	0x3f014f96	0.50512064
59	0x3ef9f546	0.4881994
60	0x3f0548ae	0.52064025
61	0xbe1f3c3d	-0.15550323
62	0x3e89b476	0.26895493
63	0x3dba317d	0.090914704
64	0x3e8cfe26	0.2753765
65	0x3e86e3fd	0.26345816
66	0x3eb003a3	0.34377775
67	0x3eeaa1dd	0.45826617
68	0x3e5c273d	0.21499343
69	0x3f180a34	0.5939057
70	0xbf80d4dc	-1.006496
71	0x3ea14a7c	0.3150214
72	0xbf713fb6	-0.9423784
73	0xbfc5f4e8	-1.5465364
74	0xbf0e0021	-0.55468947
75	0x3ea291e7	0.3175194
76	0x3e544871	0.20730759
77	0x3e787c10	0.24266076
78	0x3f043b24	0.5165274
79	0x3e05e175	0.13074286
80	0x3e10afdf	0.1412959
81	0x3f4d810f	0.8027505
82	0x3ea1ed68	0.3162644
83	0x3fb34c2e	1.4007623
84	0xbe5f82e0	-0.21827269
85	0x3c8c926e	0.017159667
86	0x3e8fc9fa	0.28083783
87	0x3c8a7cc2	0.016905192
88	0x3e381306	0.17976007
89	0x3e951413	0.29116878
90	0x3e67ae9c	0.22625202
91	0x3f72914f	0.94752973
92	0x3f468562	0.77547276
93	0xbe320022	-0.17382863
94	0x3f114078	0.56738997
95	0x3eaf3b71	0.34225038
96	0x3efda158	0.49537158
97	0x3af23135	0.00184778
98	0x3e93d142	0.2887059
99	0x3ee330b1	0.44373086
100	0x3e419287	0.18903552
101	0x3ea8d42d	0.32974377
102	0x3de5d72c	0.112226814
103	0x3edb558c	0.42838705
104	0xc00f248c	-2.2366056
105	0xbdd92119	-0.10602016
106	0xbdd67fd5	-0.10473601
107	0xbe806626	-0.25077933
108	0xbdc66ef1	-0.09689129
109	0xbe4712f7	-0.19440828
110	0x3e37690f	0.1791117
111	0x3f57b7c4	0.8426478
112	0x3e96b4ac	0.29434717
113	0x3f9e4ad1	1.2366582
114	0x3f2a6920	0.6656666
115	0x3f7e9545	0.9944652
116	0xbe599b38	-0.21250618
117	0x3e5de3ad	0.21668883
118	0x3eaa89b9	0.333082
119	0x3ef765f5	0.48319975
120	0x3cc897db	0.024486473
121	0x3f319adb	0.69376916
122	0x3d0ea29b	0.03482304
123	0x3fbd3e6c	1.4784675
124	0x3ed7ea4b	0.4217094
125	0x3e99d76a	0.3004716
126	0x3c984c34	0.018591024
127	0xbf2cdcda	-0.6752449
128	0xbe2f38e5	-0.17111547
129	0xbf256001	-0.64599615
130	0xbf0f837e	-0.56060016
131	0xbe03bb6e	-0.12864468
132	0x3f4ad131	0.7922545
133	0xbe784a3c	-0.24247068
134	0xbea7e5fe	-0.32792658
135	0x3d461ee8	0.04836932
136	0x3f651640	0.89487076
137	0xbe9a4177	-0.3012807
138	0x3e8682dc	0.26271713
139	0xbef0a837	-0.47003338
140	0x3de142a7	0.10999041
141	0xbf876b33	-1.057959
142	0xbf07b1dc	-0.53005767
143	0x3e933cac	0.28757226
144	0x3e8c4f32	0.2740417
145	0xbebc553a	-0.36783773
146	0xbfebe11b	-1.8428072
147	0xbfad893f	-1.3557509
148	0xbf58be1f	-0.846651
149	0x3eede79e	0.46465772
150	0x3eab4f50	0.33458948
151	0x3d197e93	0.037474226
152	0x3e98f61a	0.2987526
153	0x3dc764de	0.09736036
154	0xb9a3577e	-0.0003115497
155	0xbdf42372	-0.11920823
156	0xbf854417	-1.0411404
157	0x3f660dcf	0.8986482
158	0xbff0918e	-1.879442
159	0xbfc74ba7	-1.5569962
160	0x3ea83235	0.32850805
161	0xbe072c54	-0.13200504
162	0x3f1184a6	0.5684303
163	0x3ebac736	0.3648011
164	0x3f0384c7	0.5137448
165	0x3eb81fad	0.35961667
166	0xbf9cb816	-1.2243679
167	0x3eef36d4	0.46721518
168	0xbe3f559a	-0.18684998
169	0xbfcab396	-1.5836055
170	0xbe79be14	-0.24388915
171	0x3ef5beff	0.4799728
172	0x3e7b6bc2	0.24552825
173	0xbd76cc67	-0.060253527
174	0x3ea40ac3	0.3203946
175	0xbf1c29d7	-0.6100134
176	0x3e95de5c	0.2927121
177	0x3edb176c	0.42791307
178	0x3e224a01	0.15848543
179	0x3fb27cf9	1.3944389
180	0xbe919216	-0.28431767
181	0x3d9cbe56	0.07653491
182	0x3edee170	0.4353137
183	0xbe1890e2	-0.14899018
184	0x3f0386be	0.51377475
185	0x3d5aa342	0.05337835
186	0x3e29c1bd	0.16577812
187	0x3e8b98c2	0.27264982
188	0x3ec6259a	0.38700563
189	0xbe9a17d3	-0.300963
190	0x3ede843b	0.4346026
191	0xbe2ac073	-0.16674976
192	0xbe47dacb	-0.19517057
193	0xbe2fb59f	-0.17159127
194	0xbe37b13a	-0.179387
195	0x3c2cd1b5	0.010548045
196	0xbd99afa9	-0.07504208
197	0x3d598352	0.053103752
198	0x3d0d0cff	0.034436222
199	0x3d5fb9cf	0.05462056
200	0xbd19c405	-0.037540454
201	0xbe059c71	-0.13047959
202	0xbdf8c327	-0.12146597
203	0x3cc075eb	0.023493728
204	0xba409403	-0.0007346274
205	0xbe4026ca	-0.18764797
206	0x3d81bdc8	0.06335026
207	0xbd0419fc	-0.032251343
208	0xbe2dc96f	-0.16971372
209	0xbe28fd28	-0.16502821
210	0x3e104b34	0.14091188
211	0x3e09648e	0.13417265
212	0xbe5ef503	-0.21773152
213	0x3dbbe4e4	0.09174517
214	0x3b404b81	0.0029341879
215	0x3cf989b3	0.030461168
216	0x3dd12951	0.102129586
217	0xbe32a49a	-0.17445603
218	0xba86ec40	-0.0010293797
219	0xbc5cb212	-0.01347019
220	0xbdea708e	-0.11447249
221	0xbcfcb34a	-0.03084721
222	0xbdc8f7f3	-0.098129176
223	0x3dbc311c	0.09189054
224	0x3e9f45a4	0.3110782
225	0xbde2a525	-0.11066655
226	0x3e87a8ff	0.2649612
227	0x3ecb3390	0.39687777
228	0x3e49abdb	0.19694464
229	0x3ea0dda7	0.31419107
230	0x3ded4493	0.11585345
231	0x3e37ab74	0.17936498
232	0xbf1a5f4c	-0.6030166
233	0xbe546d4a	-0.20744815
234	0xbe74b36f	-0.23896573
235	0x3edd8276	0.43263596
236	0x3db96382	0.09052183
237	0xbe0a98e4	-0.13534886
238	0x3efc2f9e	0.4925508
239	0x3f59e2d3	0.8511173
240	0x3e5e6c3e	0.21720979
241	0x3e8eecf6	0.27915162
242	0x3f81e0bb	1.0146707
243	0x3f669974	0.900779
244	0xbee43da5	-0.4457828
245	0x3c1cc543	0.009568515
246	0x3dd6e8ba	0.10493608
247	0xbd4cdd9c	-0.05001603
248	0x3ed2a2ff	0.4113998
249	0x3e479a7f	0.1949253
250	0x3e6a25b9	0.22865953
251	0x3f2676cc	0.6502502
252	0x3eeb1c04	0.45919812
253	0x3e0b4136	0.13599095
254	0x3e487f64	0.19579846
255	0x3f0fda7a	0.56192744

fc2.bias f4 [64]
0	0xbe44a7f3	-0.19204693
1	0x3cccb018	0.024986312
2	0xbee77693	-0.45207652
3	0xbe6df0da	-0.23236409
4	0x3f7ac23d	0.97952634
5	0x3cd8f851	0.026485594
6	0xbe04ef64	-0.12981945
7	0xbe4981f2	-0.19678476
8	0xbd90a0a5	-0.070618905
9	0xbf0323b6	-0.51226366
10	0x3e3e037d	0.18556018
11	0xbf4baf5e	-0.79564464
12	0xbdebc730	-0.115126014
13	0xbea6b08d	-0.32556573
14	0xbf0679f5	-0.5252984
15	0xbe55f4c4	-0.20894152
16	0xbc8f939b	-0.017526438
17	0xbe020a7d	-0.12699313
18	0xbea4610f	-0.321053
19	0xbf5195bc	-0.818691
20	0xbe50e1cd	-0.20398636
21	0xbf2d44a5	-0.6768287
22	0xbe489434	-0.19587785
23	0xbe7ce778	-0.24697673
24	0xbf177b77	-0.5917277
25	0xbd2acbd3	-0.04169829
26	0x3f259330	0.64677715
27	0xbe11e64d	-0.14248009
28	0xbd1a89e5	-0.037729163
29	0x3ee2aa73	0.44270667
30	0xbdcb6ebb	-0.099332295
31	0x3c8aec12	0.01695827
32	0xbd8ed1fc	-0.06973645
33	0xbeb917fd	-0.36151114
34	0x3ef06903	0.46955118
35	0xbe80c210	-0.25148058
36	0x3e41d5ac	0.18929166
37	0xbe25f7ab	-0.16207759
38	0xbf56742f	-0.8377103
39	0x3e25ca10	0.16190362
40	0x3f19251e	0.5982226
41	0xbf530517	-0.8242964
42	0x3ce221d3	0.02760402
43	0x3ebc23e5	0.36746135
44	0xbeb6ae03	-0.35679635
45	0xbee80fcc	-0.45324552
46	0xbc8fa0d7	-0.01753275
47	0xbf56e384	-0.8394091
48	0xbe833935	-0.25629583
49	0xbed8a338	-0.42312026
50	0xbe2b9f41	-0.1675997
51	0xbe6ae1fb	-0.22937767
52	0x3e258362	0.161634
53	0x3eef153b	0.46695885
54	0xbe450661	-0.19240715
55	0xbf3cb41a	-0.73712313
56	0xbcc7fc12	-0.024412189
57	0x3f895a54	1.0730691
58	0x3ea85f8b	0.32885394
59	0xbe8df528	-0.27726102
60	0x3ea46b0b	0.32112917
61	0xbe4c7f04	-0.19970328
62	0xbe293b94	-0.16526634
63	0xbf70cebc	-0.9406545

fc3.weight f4 [4, 64]
0	0x3fa5aeba	1.2943947
1	0xbeaa58c4	-0.33270848
2	0xbf8d13ab	-1.1021627
3	0xbf0fd8ba	-0.56190073
4	0xbf72f5af	-0.94906133
5	0xbf00bbfe	-0.50286853
6	0xbd7765c3	-0.060399782
7	0xbee66ee7	-0.45006487
8	0xbf2d89bf	-0.6778831
9	0xbf16917e	-0.58815753
10	0xbee6cf7b	-0.4508017
11	0xbe96cd6a	-0.29453593
12	0xbecf3a47	-0.4047415
13	0xbf07bd18	-0.5302291
14	0xbe719540	-0.2359209
15	0xbe8a71cd	-0.27039948
16	0xbeca11f3	-0.3946682
17	0xbf0ebc35	-0.5575593
18	0xbefa42cf	-0.48879096
19	0xbf10a8c8	-0.5650754
20	0xbea85315	-0.32875887
21	0xbf02eea3	-0.5114538
22	0xbf869da7	-1.0516862
23	0xbf85c1d0	-1.0449772
24	0xbe908bae	-0.28231567
25	0xbcccb440	-0.024988294
26	0x3ee3b643	0.44474992
27	0xbd938b70	-0.0720433
28	0x3f1810af	0.5940046
29	0x3ef0b96a	0.4701646
30	0xbf04eca7	-0.519236
31	0xbf20daac	-0.62833667
32	0xbea922c5	-0.3303434
33	0xbe99eae5	-0.30062023
34	0x40224185	2.535249
35	0x3dfb5a0b	0.12273034
36	0xbf18094e	-0.593892
37	0xbd935565	-0.07194022
38	0xbf5173dd	-0.8181742
39	0xbfd5f182	-1.6714327
40	0x3f767c48	0.9628339
41	0xbe9c9ee6	-0.3058998
42	0xbf31237b	-0.69194764
43	0xbf347b96	-0.7050108
44	0xbf3e33c7	-0.74297756
45	0x3fa66107	1.299836
46	0xbf2cd72c	-0.67515826
47	0xbf43736a	-0.7634798
48	0xbf3c8c8f	-0.73651975
49	0xbf73f3b9	-0.95293766
50	0xbf42e334	-0.76127934
51	0x3b6bd4f4	0.0035985084
52	0xbeb684a9	-0.35648087
53	0xbf3e58e9	-0.74354416
54	0xbf115353	-0.5676777
55	0xbe943704	-0.28948224
56	0x3d50b0e9	0.050949965
57	0x3f41e831	0.7574492
58	0x3f1c6373	0.6108925
59	0xbf47a9c1	-0.779934
60	0xbec4136e	-0.38296074
61	0xbf6e3911	-0.93055826
62	0xbf1305d1	-0.5743075
63	0xbf2c07b1	-0.67199236
64	0x3fb302e2	1.3985255
65	0xbea82e50	-0.32847834
66	0xbf8dea15	-1.1087061
67	0xbf18e581	-0.59725195
68	0xbf403b12	-0.75090134
69	0xbeb003d6	-0.34377927
70	0x3dbcb6f6	0.092145845
71	0xbea65d79	-0.3249319
72	0xbf26c218	-0.65139914
73	0xbf0e5e03	-0.556122
74	0x3e54176e	0.20712063
75	0xbf26cb33	-0.6515381
76	0xbeb97a44	-0.36226094
77	0xbf0315c6	-0.512051
78	0xbe847f45	-0.2587835
79	0x3ec82b3d	0.39095488
80	0xbec8fea1	-0.39256766
81	0xbf21792f	-0.63075536
82	0xbf0ab33c	-0.5417974
83	0xbf37b327	-0.7175774
84	0xbecf942d	-0.40542737
85	0xbeed949f	-0.4640245
86	0xbf7d76bb	-0.99009293
87	0xbf9614c0	-1.1725082
88	0xbeb144e9	-0.34622887
89	0x3cde529e	0.027139004
90	0xbeb7809d	-0.35840312
91	0x3d07e810	0.033180296
92	0xbe11cd4c	-0.14238471
93	0x3f051fa7	0.5200142
94	0xbf0af313	-0.5427715
95	0xbf313619	-0.6922317
96	0xbe9f34dc	-0.31095016
97	0xbe3a7bc9	-0.18211283
98	0x3fe5fe9c	1.7968326
99	0xbf3145e9	-0.692473
100	0xbf41e890	-0.7574549
101	0x3d40cb7d	0.04706906
102	0xbf6695f2	-0.9007255
103	0xbf981ee4	-1.1884427
104	0x3faaa57b	1.3331751
105	0xbef9d0eb	-0.48792204
106	0xbf3a73bf	-0.72832865
107	0xbf0e6ea0	-0.5563755
108	0xbf50f2fd	-0.8162077
109	0x3fcd2019	1.602542
110	0xbf308393	-0.68950766
111	0xbf7692a4	-0.96317506
112	0xbf1e9786	-0.61949956
113	0xbf7b4c5f	-0.9816341
114	0xbf9aee40	-1.2103958
115	0xbd1a26a0	-0.037634492
116	0xbcf4b58a	-0.02987172
117	0xbf453b1a	-0.77043307
118	0xbf3f2174	-0.7466042
119	0xbe95b7b9	-0.29241732
120	0xbef27ac5	-0.4735929
121	0x3fae4a77	1.3616475
122	0xbdfb1816	-0.122604534
123	0xbf7ba19a	-0.9829346
124	0xbed10295	-0.40822282
125	0xbf9e3a96	-1.2361629
126	0xbee4da7f	-0.4469795
127	0xbf3be693	-0.73398703
128	0x3f8c54ab	1.0963339
129	0xbdd25de2	-0.10271813
130	0xbf910280	-1.1328888
131	0xbf057bca	-0.5214201
132	0x3f65eb06	0.8981174
133	0xbf1f8bd7	-0.62322754
134	0x3d2be9e3	0.0419711
135	0xbebec2d1	-0.37258008
136	0xbf152c58	-0.5827079
137	0xbeff7658	-0.49894977
138	0xbf0132d7	-0.504682
139	0xbef23bae	-0.47311157
140	0xbf196efe	-0.59934986
141	0xbef08af5	-0.46981016
142	0xbeb283a7	-0.34866068
143	0xbeed3c2f	-0.4633498
144	0xbe859b0b	-0.2609485
145	0xbf530a5a	-0.8243767
146	0xbea044f8	-0.3130262
147	0xbf174728	-0.5909295
148	0xbe7fc77d	-0.24978442
149	0xbed625e5	-0.41825786
150	0xbf74c7ac	-0.95617175
151	0xbf819f53	-1.0126747
152	0xbeafe7ac	-0.3435644
153	0x3bc276c0	0.0059345663
154	0xbde46072	-0.11151208
155	0x3db6c35e	0.08923982
156	0xbf0ffc75	-0.56244594
157	0x3f8b0914	1.0862145
158	0xbf0414b6	-0.515941
159	0xbf274972	-0.65346444
160	0xbe8ffda1	-0.2812319
161	0xbee8fa36	-0.45503396
162	0x3ee21f6f	0.44164607
163	0xbf257420	-0.6463032
164	0xbf150678	-0.58212996
165	0x3c782e4a	0.015147755
166	0xbf6af306	-0.91777074
167	0xc000b4c8	-2.011034
168	0x3fbd8ed3	1.4809211
169	0xbef56a26	-0.47932547
170	0xbf05b34a	-0.522267
171	0xbf42485b	-0.75891656
172	0xbf3880f9	-0.72071797
173	0x3f8d6029	1.1044971
174	0xbf0712e7	-0.5276322
175	0xbf79e0b9	-0.97608525
176	0xbf267b16	-0.65031564
177	0xbf74d2a0	-0.9563389
178	0xbf5dd5e9	-0.86654526
179	0xbd39f8ac	-0.045403168
180	0xbf024f23	-0.50902003
181	0xbedce48f	-0.43143126
182	0xbf3bb961	-0.7332974
183	0xbeeaf3eb	-0.4588922
184	0x3c615e8a	0.01375545
185	0x3fb3c499	1.4044372
186	0x3ed0204f	0.4064965
187	0xbf7e789e	-0.994028
188	0xbf8df812	-1.109133
189	0xbf5c7380	-0.8611374
190	0xbf61c40b	-0.8818976
191	0xbf416041	-0.75537497
192	0x3fa93e80	1.3222198
193	0xbebd86b1	-0.37016824
194	0xbf96da71	-1.1785413
195	0xbea8abde	-0.32943624
196	0xbfa74394	-1.3067498
197	0xbf11b916	-0.56923044
198	0x3c9d3c3e	0.019193765
199	0xbea35027	-0.3189709
200	0xbe99cf8b	-0.30041155
201	0xbf29cd5c	-0.6632898
202	0xbeff67f9	-0.49884012
203	0xbf1edf9e	-0.6205996
204	0xbf0d5301	-0.5520478
205	0xbec75c3b	-0.38937554
206	0xbe72e1a4	-0.23718888
207	0xbf067125	-0.52516395
208	0xbea376d3	-0.31926593
209	0xbf2681fe	-0.650421
210	0xbf06071e	-0.5235461
211	0xbf17afec	-0.5925281
212	0xbed0b50a	-0.40763122
213	0xbef8cf5f	-0.48595712
214	0xbf900093	-1.1250175
215	0xbf980a72	-1.1878188
216	0xbecd7b11	-0.40132955
217	0xbdf44bc8	-0.119285166
218	0x3f7b5858	0.98181677
219	0x3dd1c156	0.10241954
220	0x3ec70b12	0.38875633
221	0x3ee55acb	0.44795832
222	0xbeb1397e	-0.34614176
223	0xbf0fa82c	-0.56115985
224	0xbedcaa71	-0.43098786
225	0xbee81791	-0.4533048
226	0x4023674e	2.5531802
227	0xbedc5754	-0.43035376
228	0xbf45599d	-0.77089864
229	0x3ca0684b	0.01958098
230	0xbf716eac	-0.94309497
231	0xbf6313f5	-0.88702327
232	0x3f8290bd	1.0200421
233	0xbeceb003	-0.4036866
234	0xbf3f145a	-0.7464043
235	0xbf34cb19	-0.706224
236	0xbf3c16a4	-0.73472047
237	0x3f9d0680	1.2267609
238	0xbf0d5f71	-0.5522376
239	0xbf6a4fe0	-0.9152813
240	0xbf2beb74	-0.6715615
241	0xbf6a09f7	-0.91421455
242	0xbf4d577b	-0.8021161
243	0xbc55f15f	-0.013058036
244	0xbe9a9dfb	-0.30198655
245	0xbe9eed07	-0.31040213
246	0xbf046af1	-0.5172568
247	0xbe80ea58	-0.2517879
248	0x3dc51b31	0.09624327
249	0x3ebdabc4	0.3704511
250	0x3f071175	0.5276101
251	0xbecc6429	-0.39920166
252	0xbebe618a	-0.3718379
253	0xbf70ece2	-0.94111454
254	0xbf5a5b77	-0.85295814
255	0xbf11c731	-0.56944567

fc3.bias f4 [4]
0	0xbc332e9a	-0.010936404
1	0x3b9507eb	0.004548063
2	0x3e5a705e	0.21331927
3	0x3d320230	0.043459117
