weights/g0.5_lr1e-05_decay_0.9999.pth (torch, 12865 bytes, 6 tensors)

fc1.weight f4 [32, 8]
-0.26816598 -2.4605565 -0.15750891 -0.7856633 -0.038921323 0.17148702 0.20462222 0.49487808
0.031038417 -2.2498035 -0.7567796 0.0013252373 -0.37043196 -0.28239393 0.5695588 -0.21048462
0.23510034 -0.06870504 0.18577671 -0.8821242 0.5552964 0.30785823 -0.21654427 0.15078026
0.2974603 -3.1164129 0.2672524 -0.5544071 -0.30099022 -0.038615923 -0.17611271 0.6310297
-0.24608439 -3.522206 -0.35309538 -0.6196256 0.19855754 0.4799937 0.13097301 0.38658875
0.15348378 -3.3193958 -0.06845563 -0.32723272 -0.31658915 -0.20858458 0.28220183 0.06139707
0.027730836 -2.265378 1.1374621 0.53030086 0.1630666 0.11577355 0.95912975 -0.22969708
0.014315166 -3.602569 -0.35430872 -0.6825606 0.05263821 0.018488912 -0.09766207 0.14163183
-0.089757286 0.19183715 -0.22255276 -0.39611346 0.6072684 -0.09780235 -1.105203 0.07307832
-0.1797983 0.19725904 1.2947639 1.3797083 -0.22331716 -0.33001935 0.07341555 -0.45302936
-0.14462623 0.14423664 0.1407479 -0.99178267 -1.0788932 0.6918394 0.35800198 0.0117923375
0.05022109 0.058340356 0.50364226 -0.17170326 1.2886977 0.6526946 -0.18112649 -0.065985434
-0.10231274 -0.0026251762 -2.1327176 -0.2432195 0.24850217 0.005131806 0.22284965 -0.3681083
-0.51491636 -2.739243 -0.3241045 -0.5765646 0.18414709 0.19212164 0.09684142 0.42035383
-0.17278612 -1.4587944 0.2286561 -0.51661974 0.2011325 -0.041283432 0.3630337 0.4814915
-0.04836932 0.0456277 -0.1690097 0.29111356 -1.0078233 -0.42286998 -0.55031615 1.0341597
0.012363258 -4.1605296 -0.057322133 -0.6682493 -0.10600943 -0.13373661 0.3068152 -0.028620375
-0.13971183 0.08116465 -0.32625446 0.9713956 0.9420759 0.031064777 0.6907624 -0.26729667
1.2822493 -2.6087544 0.55636543 0.039489273 -0.19415195 -0.17717978 -0.102595426 0.43195018
-0.15303496 -3.0858057 -0.043227676 -0.7287196 -0.005266055 -0.5620004 0.3538213 -0.3036266
-0.21479234 0.09624865 -1.1548953 -0.70357573 0.38447776 -0.36443454 0.74956083 0.48070675
-0.4861302 -2.7798622 0.42789152 -0.55863136 0.39762297 0.20970483 -0.43167928 0.31002307
0.060826715 -3.0915804 0.0025706897 -0.4628291 0.2032616 -0.017133318 0.6057303 0.5904675
0.30408865 -2.6390781 -0.25918242 -0.3528933 -0.4933927 0.029300224 0.80818576 0.03574968
0.0047651855 -3.2276769 -0.6161427 -0.65505767 -0.0015291316 0.079044856 0.113618374 0.063827865
0.30964607 -2.6065915 -0.23629732 -0.7063527 0.05080517 0.26705056 0.020596623 0.66618437
0.40520453 -2.8924742 0.020275574 -0.5804307 0.0008500726 -0.08148722 0.38087878 0.11122588
-0.5103116 -2.63124 0.18862924 -0.44994718 0.574875 0.3416481 -0.23139296 0.13279995
-0.18666416 -2.880732 -0.3854958 -0.66294056 0.11464616 -0.05902789 -0.018956708 0.43883643
0.03013883 -0.112756215 2.2010436 -0.45910427 -0.16005416 0.107902646 -0.47026625 -0.05596108
0.0044946834 0.28136048 -0.061779555 -0.53065526 0.12837331 -1.0394815 0.19223735 -0.4255311
0.050396938 -0.0012934976 -0.07609289 0.02722164 1.6754187 -0.16383058 -0.16470902 0.18348074
00000000: 0d4d 89be c279 1dc0 044a 21be 3b21 49bf
00000010: f76b 1fbd 4b9a 2f3e 7d88 513e a960 fd3e
00000020: 4744 fe3c c8fc 0fc0 4fbc 41bf 96b3 ad3a
00000030: 42a9 bdbe f095 90be 9bce 113f 4889 57be
00000040: 25be 703e 3ab5 8cbd 403c 3e3e e4d2 61bf
00000050: e827 0e3f 989f 9d3e c8bd 5dbe 2466 1a3e
00000060: b74c 983e 4f73 47c0 4ed5 883e a0ed 0dbf
00000070: 641b 9abe bb2b 1ebd e456 34be 2a8b 213f
00000080: 8cfd 7bbe d36b 61c0 ebc8 b4be c99f 1ebf
00000090: ab52 4b3e bcc1 f53e ca1d 063e f6ee c53e
000000a0: da2a 1d3e fb70 54c0 7732 8cbd 0c8b a7be
000000b0: f917 a2be 3297 55be c27c 903e 7e7b 7b3d
000000c0: c72b e33c f4fb 10c0 5c98 913f ccc1 073f
000000d0: eefa 263e af1a ed3d 8789 753f b635 6bbe
000000e0: 288a 6a3c 7e90 66c0 f467 b5be 4bbc 2ebf
000000f0: 2a9b 573d 0f76 973c 0d03 c8bd ef07 113e
00000100: abd2 b7bd f570 443e dfe4 63be 62cf cabe
00000110: f175 1b3f 994c c8bd 4b77 8dbf 16aa 953d
00000120: 0c1d 38be 46fe 493e d3ba a53f 489a b03f
00000130: 41ad 64be 4cf8 a8be e45a 963d 77f3 e7be
00000140: e618 14be c5b2 133e 3820 103e 78e5 7dbf
00000150: 2c19 8abf 631c 313f 094c b73e a634 413c
00000160: a1b4 4d3d 4cf6 6e3d b3ee 003f fbd2 2fbe
00000170: 0cf4 a43f fe16 273f 3979 39be 5f23 87bd
00000180: 5889 d1bd 260b 2cbb 727e 08c0 880e 79be
00000190: 5a77 7e3e b528 a83b b332 643e b178 bcbe
000001a0: 8fd1 03bf c24f 2fc0 06f1 a5be bd99 13bf
000001b0: 0e91 3c3e 89bb 443e cb54 c63d 9e38 d73e
000001c0: d8ee 30be c6b9 babf d324 6a3e 3141 04bf
000001d0: aef5 4d3e d118 29bd 8edf b93e 0e86 f63e
000001e0: e81e 46bd 1ce4 3a3d e110 2dbe d60c 953e
000001f0: 5b00 81bf 6a82 d8be 85e1 0cbf 585f 843f
00000200: 438f 4a3c 0f23 85c0 9dca 6abd 6312 2bbf
00000210: 791b d9bd 40f2 08be e216 9d3e 4775 eabc
00000220: 9e10 0fbe a739 a63d d30a a7be 62ad 783f
00000230: e32b 713f 8f7b fe3c ced5 303f 1cdb 88be
00000240: bf20 a43f d5f5 26c0 f76d 0e3f 81bf 213d
00000250: c5cf 46be 9e6e 35be 8d1d d2bd 9328 dd3e
00000260: 32b5 1cbe d77d 45c0 810f 31bd 5e8d 3abf
00000270: df8e acbb 42df 0fbf 1128 b53e f274 9bbe
00000280: 86f2 5bbe 031e c53d 9cd3 93bf 8a1d 34bf
00000290: 45da c43e 2a97 babe 38e3 3f3f 321f f63e
000002a0: 0fe6 f8be 43e9 31c0 9914 db3e 7702 0fbf
000002b0: 3d95 cb3e ddbc 563e 1105 ddbe 58bb 9e3e
000002c0: 6f25 793d 74dc 45c0 0479 283b f0f7 ecbe
000002d0: cf23 503e 2c5b 8cbc 2411 1b3f e128 173f
000002e0: 82b1 9b3e a8e6 28c0 8fb3 84be 6eae b4be
000002f0: f89d fcbe 0607 f03c 43e5 4e3f 426e 123d
00000300: 4625 9c3b 4292 4ec0 87bb 1dbf dcb1 27bf
00000310: 246d c8ba 45e2 a13d c0b0 e83d 2fb8 823d
00000320: ee89 9e3e 65d2 26c0 edf7 71be 88d3 34bf
00000330: 1519 503d daba 883e 40ba a83c 0f8b 2a3f
00000340: f876 cf3e 4c1e 39c0 f618 a63c 1b97 14bf
00000350: 68d7 5e3a c6e2 a6bd 8b02 c33e 65ca e33d
00000360: c8a3 02bf 3c66 28c0 0628 413e 7a5f e6be
00000370: 022b 133f 80ec ae3e 47f2 6cbe b6fc 073e
00000380: e424 3fbe ea5d 38c0 b55f c5be 79b6 29bf
00000390: 9bcb ea3d 3bc7 71bd 194b 9bbc 2baf e03e
000003a0: b5e5 f63c bbec e6bd e6dd 0c40 b70f ebbe
000003b0: 3de5 23be 10fc dc3d bdc6 f0be 7237 65bd
000003c0: 2348 933b 7b0e 903e 8f0c 7dbd 06d9 07bf
000003d0: 4b74 033e bb0d 85bf ded9 443e 36df d9be
000003e0: 056d 4e3d 948a a9ba 97d6 9bbd ebff de3c
000003f0: 1f74 d63f 34c3 27be 7ba9 28be 60e2 3b3e

fc1.bias f4 [32]
-0.7298456 -0.4113214 -0.56977683 -0.8215524 -0.6379572 -0.68791646 -0.00942891 -0.09288482
0.6949201 0.6541732 0.43612832 -0.013515358 0.27595848 -0.47965735 -0.82300943 0.15569617
-0.3375656 0.585626 -0.66412246 -0.49365065 -0.2746534 -0.63310367 -0.66230434 -0.59214294
-0.33172327 -0.43841004 -0.5130254 -0.6527421 -0.4338897 0.30144203 0.20843677 0.0031399233
00000000: 29d7 3abf b898 d2be e5dc 11bf 4251 52bf
00000010: 2a51 23bf 4b1b 30bf b77b 1abc 663a bebd
00000020: 49e6 313f e577 273f 364c df3e 856f 5dbc
00000030: 6e4a 8d3e a695 f5be bfb0 52bf d16e 1f3e
00000040: 66d5 acbe 96eb 153f ee03 2abf c7bf fcbe
00000050: 5f9f 8cbe 1513 22bf c78c 29bf ae96 17bf
00000060: a2d7 a9be 4877 e0be a255 03bf 1b1a 27bf
00000070: ca26 debe 9c56 9a3e 7370 553e 2cc7 4d3b

fc2.weight f4 [64, 32]
-0.4388462 0.0063070995 -0.87533796 -0.72762907 -0.8881346 -0.18784575 0.6104434 -0.34239113
-0.72813684 0.14344694 0.21115798 -0.39438444 0.13171025 -0.7717766 0.3157107 0.026163053
-0.010037631 -0.40374607 -0.5762542 1.1277671 0.54384154 -0.041259564 0.58080065 -0.62479293
-0.41709074 -0.5123823 0.6420465 0.1380867 -0.4780769 0.5607965 0.5453922 0.43380266
0.6895416 0.4714644 -0.00094494014 0.024590092 0.97085303 0.2955028 -0.10206811 0.25610328
-0.021957347 0.15713705 -0.20752436 0.7490907 0.31742045 0.36793327 0.1080435 0.44300085
0.93277866 0.37922314 -0.057740923 0.8412509 -0.3377075 0.71443105 0.78548646 0.44943666
0.541527 0.6286478 0.525049 0.54661554 -0.16434751 0.4652469 0.39257956 -0.7576209
0.7155396 0.5373324 0.27388644 0.03236662 0.7719749 0.20102999 -0.92251825 0.45965275
-0.89995575 -0.42344418 0.039894883 0.7742807 0.21431644 0.6685391 0.5091383 -0.15008378
0.8817019 -0.17250746 -1.1534593 1.204361 -0.07879302 0.7287367 0.5881341 0.41844112
0.95839244 0.7052703 0.55910575 0.7426636 0.5134498 0.10938139 0.38080525 -0.2982297
-0.3900946 0.059599876 -0.32701126 0.4603142 -0.66446567 0.093869805 0.5610918 0.24183206
-1.0154476 -0.9537268 0.43443173 -0.3915645 -1.1343783 -0.23265608 -0.26336074 0.40886292
0.09930506 -0.12447249 0.3492267 -0.37912795 0.30640417 -0.55204934 0.02751101 0.63112605
-0.68274057 0.027630772 0.16202775 -0.54203236 0.58438754 0.3041937 -0.43290776 -1.047921
-0.561754 0.5358495 0.10688296 -0.3465912 -0.8831095 0.070642054 0.06493887 -0.02721442
0.40184665 -0.11067907 0.55786395 -0.9308724 -0.1390333 0.08549256 -1.2123722 -2.206181
0.21400206 -0.2734567 -0.09284709 -0.62714577 0.33779266 -0.7953686 -0.869282 0.6096554
-0.27890474 -0.52445906 -0.8879707 -0.27610835 0.10358276 0.98492765 0.024264185 1.1859684
-0.49338174 -0.74677354 -0.4764183 -0.2522975 -0.19399871 -0.37825277 0.3598942 0.3973085
-0.610909 0.98979086 0.20487791 -1.2974274 -0.3543556 -0.05007927 0.030948278 0.07236754
0.18835922 1.4460806 -0.075635605 -0.47717234 -0.41585472 -0.18201186 0.028014287 0.22920634
-0.24428682 -0.057751242 0.13162395 -0.26320213 -0.20649053 0.13821766 -0.9321929 -0.600991
0.5424375 0.050077487 -0.043205462 0.18839563 0.2698702 0.21589473 -0.47380087 0.12629159
-1.8825507 -0.9635145 -0.09414304 0.004348277 0.3125851 0.05211048 0.9724231 -0.37066233
0.6033541 -0.49569654 -0.82067996 0.8505411 0.13007441 -0.009909926 1.0812562 0.5916431
0.5776547 0.211495 0.61284655 0.03294274 0.25682053 0.1802113 0.06568712 -0.8716535
0.6773374 0.32892835 0.5553711 0.2894431 0.4917468 0.4955199 -0.31065258 -0.053565368
-0.203894 -0.09468888 -0.3429063 -1.1881844 0.42254952 0.38770127 0.73081285 0.3012678
0.81133926 -0.21234289 0.026415315 0.54835516 0.09187997 0.27173004 0.45601663 0.52849275
0.683176 0.04189939 0.51635927 0.57746625 0.3175335 0.12594597 0.8846309 -4.4348836
00000000: 73b0 e0be c9ab ce3b 2616 60bf e645 3abf
00000010: ca5c 63bf a35a 40be 0546 1c3f e44d afbe
00000020: 2d67 3abf c1e3 123e cc39 583e c2ec c9be
00000030: 0ddf 063e 2793 45bf d5a4 a13e e653 d63c
00000040: e074 24bc ceb7 cebe 6585 13bf ac5a 903f
00000050: 3339 0b3f caff 28bd 5aaf 143f 6ef2 1fbf
00000060: eb8c d5be 7d2b 03bf 295d 243f 9a66 0d3e
00000070: 7fc6 f4be 5c90 0f3f d39e 0b3f 621b de3e
00000080: cc85 303f c863 f13e dcb5 77ba 2971 c93c
00000090: d389 783f 254c 973e 1609 d1bd f81f 833e
000000a0: e5df b3bc 89e8 203e 4481 54be 68c4 3f3f
000000b0: ef84 a23e c061 bc3e e945 dd3d 02d1 e23e
000000c0: 95ca 6e3f 8929 c23e bf81 6cbd 385c 573f
000000d0: ffe7 acbe f4e4 363f a415 493f 901c e63e
000000e0: 83a1 0a3f 10ef 203f 9c69 063f ffee 0b3f
000000f0: b74a 28be d734 ee3e 3000 c93e 71f3 41bf
00000100: 9a2d 373f 9e8e 093f d83a 8c3e dc92 043d
00000110: 26a0 453f ceda 4d3e 282a 6cbf 9b57 eb3e
00000120: 8063 66bf adcd d8be d168 233d 4337 463f
00000130: c575 5b3e 6125 2b3f e356 023f 90af 19be
00000140: 37b7 613f cca5 30be 8ea4 93bf 8028 9a3f
00000150: 3c5e a1bd 7d8e 3a3f f58f 163f ea3d d63e
00000160: 3559 753f 988c 343f 8e21 0f3f 341f 3e3f
00000170: 7271 033f 5a03 e03d e8f8 c23e 90b1 98be
00000180: 7bba c7be 001f 743d 056e a7be 4eae eb3e
00000190: 6c1a 2abf d03e c03d b6a3 0f3f d3a2 773e
000001a0: 30fa 81bf 7127 74bf d66d de3e 247b c8be
000001b0: 4f33 91bf 653d 6ebe 38d7 86be 7b56 d13e
000001c0: 7460 cb3d 6feb febd d8cd b23e 0f1d c2be
000001d0: 02e1 9c3e 1b53 0dbf c55e e13c 7a91 213f
000001e0: 16c8 2ebf ee59 e23c 9aea 253e a2c2 0abf
000001f0: 6c9a 153f 47bf 9b3e 16a6 ddbe 4622 86bf
00000200: 1ccf 0fbf 6f2d 093f 74e5 da3d 6774 b1be
00000210: 7713 62bf c8ac 903d acfe 843d c6f0 debc
00000220: d8be cd3e b5ab e2bd 2cd0 0e3f a74d 6ebf
00000230: bf5e 0ebe b916 af3d 032f 9bbf 1232 0dc0
00000240: 5b23 5b3e 8402 8cbe 9d26 bebd a08c 20bf
00000250: 29f3 ac3e 479d 4bbf 4489 5ebf 6012 1c3f
00000260: 9acc 8ebe f342 06bf 0c52 63bf 135e 8dbe
00000270: 3323 d43d 3824 7c3f afc5 c63c d0cd 973f
00000280: 889c fcbe 8d2c 3fbf 19ed f3be 232d 81be
00000290: 99a7 46be 59aa c1be 0d44 b83e 056c cb3e
000002a0: 8864 1cbf ef62 7d3f 84cb 513e 1a12 a6bf
000002b0: 196e b5be ec1f 4dbd 3e87 fd3c 6f35 943d
000002c0: 3de1 403e 2b19 b93f d7e6 9abd ef4f f4be
000002d0: e9ea d4be 5161 3abe 387e e53c 11b5 6a3e
000002e0: 5326 7abe 918c 6cbd 6ec8 063e 6ec2 86be
000002f0: 4172 53be ee88 0d3e 32a4 6ebf 8cda 19bf
00000300: 2fdd 0a3f 0d1e 4d3d 36f8 30bd c9ea 403e
00000310: 6d2c 8a3e 8213 5d3e 0796 f2be 9552 013e
00000320: 6cf7 f0bf e3a8 76bf 11ce c0bd fe7b 8e3b
00000330: 270b a03e cc71 553d b8f0 783f 74c7 bdbe
00000340: 6a75 1a3f f0cb fdbe 1518 52bf 10bd 593f
00000350: 3a32 053e 3e5d 22bc 9a66 8a3f ec75 173f
00000360: 2ee1 133f 2592 583e 83e3 1c3f f7ee 063d
00000370: fb7d 833e 5089 383e f886 863d af24 5fbf
00000380: fc65 2d3f 4c69 a83e cd2c 0e3f e331 943e
00000390: 3dc6 fb3e c9b4 fd3e db0d 9fbe 5c67 5bbd
000003a0: 97c9 50be 3eec c1bd 6a91 afbe 6d16 98bf
000003b0: 6958 d83e c880 c63e 8d16 3b3f c63f 9a3e
000003c0: eeb3 4f3f 6a70 59be ee64 d83c 0161 0c3f
000003d0: 912b bc3d 3320 8b3e 037b e93e 4d4b 073f
000003e0: 9fe4 2e3f b29e 2b3d 1f30 043f d4d4 133f
000003f0: c093 a23e fbf7 003e 2c77 623f 91ea 8dc0

fc2.bias f4 [64]
0.6654642 0.41562894 -0.1811775 -0.47679433 0.53971976 0.89730734 -0.23334458 0.0026721633
-0.3577354 0.2453677 -0.2469524 -0.39810386 -0.025036229 0.02278044 0.5741139 0.071407594
0.32075116 -0.31830215 -0.23552296 -0.3246121 0.24793337 0.36830348 -0.16278493 -0.25485715
-0.28400993 -0.06240373 0.43298757 -0.30530107 -0.5049064 -0.09411184 -0.464582 -0.4264972
-0.01993262 0.087161675 -0.64300853 -0.0043277484 0.87060106 -0.34588733 -0.49788296 0.17769665
0.92788345 -0.55021346 0.30845138 -0.29895228 0.27731243 0.35811973 -0.26199612 -0.15325765
0.03526135 -0.2410392 0.11339652 0.20871603 0.4037488 0.23101506 -0.3936172 0.03152638
0.5411575 -0.094093256 0.39833578 -0.24066845 -0.10729579 0.42649162 -0.0065059983 -0.19548255
00000000: dd5b 2a3f 51cd d43e 9886 39be 631e f4be
00000010: 132b 0a3f efb5 653f e2f1 6ebe 761f 2f3b
00000020: 1829 b7be ac41 7b3e 17e1 7cbe 45d4 cbbe
00000030: c718 cdbc 0c9e ba3c 21f9 123f 253e 923d
00000040: 7f39 a43e 80f8 a2be ee2c 71be 8f33 a6be
00000050: 3fe2 7d3e 4692 bc3e 18b1 26be a37c 82be
00000060: c069 91be 0e9b 7fbd 8cb0 dd3e 6c50 9cbe
00000070: 8c41 01bf b5bd c0bd b1dd edbe d75d dabe
00000080: bc49 a3bc d281 b23d 359c 24bf c9cf 8dbb
00000090: b6df 5e3f 2518 b1be 84ea febe 1cf6 353e
000000a0: c589 6d3f cada 0cbf 57ed 9d3e 4610 99be
000000b0: e5fb 8d3e 785b b73e 5b24 86be 93ef 1cbe
000000c0: 356e 103d fbd2 76be 6f3c e83d a8b9 553e
000000d0: 2ab8 ce3e 368f 6c3e 3288 c9be ce21 013d
000000e0: 4c89 0a3f f7b3 c0bd abf2 cb3e ca71 76be
000000f0: e5bd dbbd 1c5d da3e 4530 d5bb 942c 48be

fc3.weight f4 [4, 64]
0.04647728 -0.4806148 -0.6312656 0.91663766 1.0075177 0.9903262 -1.2651265 -0.7061832
-0.5736278 -0.47999924 -1.3567045 -0.26272514 -0.17659394 -0.49664742 0.16434416 -0.48773536
-0.5047963 -0.14229779 -0.46601817 0.25348148 -0.36367607 -0.52482295 -0.6528123 -0.44368604
-0.58893937 -0.024988294 -0.3648879 0.21448225 -0.1354105 -0.013830629 -0.36807784 0.012676263
-0.03737108 -0.62611604 0.5671757 -0.27427295 1.4733871 -0.53142476 -0.5181812 -0.59461236
-0.12427929 -0.37522244 -0.5725719 -1.4837103 -0.49129772 0.7430316 1.3393294 -0.698997
-0.63123 -0.622651 -0.33323267 0.20307034 -1.3238102 -0.4825217 -0.035992064 -0.59929657
0.5713972 -0.5657446 -0.18164404 0.04067878 -0.41143334 -0.42591122 2.7003732 -0.36036605
0.81602126 -0.38078216 -0.28916988 1.1977288 1.5913384 1.1033914 0.04180456 -0.3313852
-0.92627513 -0.47744688 0.14835043 -0.4181281 -0.38832664 -0.46178785 -0.51359254 -0.4068328
-0.5380418 0.0002862965 -0.57657444 1.4164386 -0.5700879 -0.518309 -0.29765847 -0.6079419
-0.7138306 0.016130254 -0.63404006 0.08497686 -0.7464579 0.08071455 -1.1217686 -0.7676926
-0.20407286 -0.2929288 -0.7087544 -0.20106052 1.3825723 -0.3935132 -0.60748816 0.049133692
0.03999061 -0.6877724 -0.43584496 -0.21111992 -0.47217807 0.9232207 1.8092083 -0.3642436
-0.31222624 -0.41335756 -0.8352706 -0.9124657 -1.2924625 -0.7651595 -0.5604544 -0.47589698
0.5258623 -0.60428864 -0.23152526 -0.058251504 -0.691815 -0.5219513 1.3820959 -0.53333426
0.73994243 -0.16801402 -0.5067304 0.38879693 2.2879694 -0.8333649 -0.73195934 -1.2201474
-0.89541733 -0.18230727 -0.5951767 -0.948621 -1.0939803 -0.49182755 -1.4105453 -0.6819331
-0.41355163 -1.3350389 -0.5899393 1.6151677 -0.35001132 -0.18184344 -0.64412236 -0.47481462
-0.9047166 -0.025822002 0.5148494 0.17278688 -1.5278392 -0.016050609 -0.76093733 -0.7965671
-1.2171985 -1.8378087 -0.5702376 -3.1031938 1.1077069 -0.67510533 -0.80863965 -0.91099626
1.0712922 -0.8500816 -0.18548295 -0.029582806 -0.16918522 1.3033584 2.0103157 -0.6009001
-0.99217 -0.6209426 -0.26596907 -0.6290444 -0.86001754 -0.07010585 -1.800091 -1.247047
1.8469318 -0.6543539 1.328677 0.067316554 -0.29243505 -0.047325052 -0.38788795 -1.1816521
-1.2497923 -0.37386298 -0.94276816 0.7889372 2.0105317 1.21061 -0.5533124 -0.30273777
-0.17943205 -0.47025093 -0.71669537 -0.6344286 -0.98212427 -0.33417067 0.21099205 -0.4445272
-0.3254443 -0.23541418 -0.6111353 1.0204874 -0.41471833 -0.28830603 -0.5571808 -0.4376153
-0.3487589 -0.119285166 0.6792459 0.6552422 -0.43292856 0.017477565 -0.38076404 -0.8503755
-0.9750255 -1.0770975 -0.85734797 -1.2652612 2.2356677 -0.35130763 -0.262214 -0.43639585
-0.97381526 -0.2840715 -0.53149503 0.32908654 -0.49386987 0.5908996 2.0014138 -0.5312144
-0.36793888 -0.36492166 -0.5590342 0.33896583 -1.0629222 -0.28529224 0.29309514 0.065416895
-0.72228897 -0.46742767 0.11335292 0.03387044 0.7404922 -0.5287005 2.0411253 0.060382165
00000000: f65e 3e3d 2513 f6be 9f9a 21bf c4a8 6a3f
00000010: 57f6 803f 0586 7d3f aaef a1bf 6cc8 34bf
00000020: 46d9 12bf 76c2 f5be 7ea8 adbf e983 86be
00000030: 0bd5 34be 9248 febe d649 283e 73b8 f9be
00000040: 553a 01bf 83b6 11be ef99 eebe 53c8 813e
00000050: c033 babe cc5a 06bf b51e 27bf d12a e3be
00000060: bbc4 16bf 40b4 ccbc 96d2 babe 3ca1 5b3e
00000070: 0da9 0abe dd99 62bc b374 bcbe 1ab0 4f3c
00000080: 6b12 19bd 2449 20bf 6d32 113f 816d 8cbe
00000090: f397 bc3f 740b 08bf 86a7 04bf 8438 18bf
000000a0: 2486 febd 281d c0be 1294 12bf 38ea bdbf
000000b0: 608b fbbe 5237 3e3f 256f ab3f 78f1 32bf
000000c0: 4a98 21bf 0e66 1fbf 799d aabe acf1 4f3e
000000d0: 9d72 a9bf 160d f7be 6a6c 13bd 806b 19bf
000000e0: 1647 123f a3d4 10bf e500 3abe cb9e 263d
000000f0: 64a7 d2be 0911 dabe ead2 2c40 e681 b8be
00000100: c5e6 503f e1f5 c2be 130e 94be 2d4f 993f
00000110: fab0 cb3f ee3b 8d3f 423b 2b3d 52ab a9be
00000120: 5e20 6dbf eb73 f4be 2de9 173e e314 d6be
00000130: c0d2 c6be 756f ecbe cd7a 03bf 644c d0be
00000140: 1bbd 09bf 111a 9639 629a 13bf dc4d b53f
00000150: 48f1 11bf e6af 04bf b166 98be 15a2 1bbf
00000160: 9abd 36bf 9823 843c 7350 22bf 5908 ae3d
00000170: dd17 3fbf ac4d a53d 1d96 8fbf 8187 44bf
00000180: 7af8 50be c4fa 95be ee70 35bf cfe2 4dbe
00000190: 21f8 b03f 907a c9be 5884 1bbf 6940 493d
000001a0: 32cd 233d da11 30bf 1227 dfbe d22f 58be
000001b0: 53c1 f1be 3158 6c3f 2394 e73f 237e babe
000001c0: 1edc 9fbe 9aa3 d3be 4bd4 55bf 5a97 69bf
000001d0: 696f a5bf 7ee1 43bf f179 0fbf c5a8 f3be
000001e0: e99e 063f a9b2 1abf f514 6dbe 2199 6ebd
000001f0: ca1a 31bf 9a9e 05bf 85e8 b03f 9888 08bf
00000200: de6c 3d3f de0b 2cbe 15b9 01bf 6410 c73e
00000210: 176e 1240 6757 55bf b061 3bbf ca2d 9cbf
00000220: 123a 65bf c2ae 3abe 805d 18bf d3d8 72bf
00000230: 8c07 8cbf d2d0 fbbe c08c b4bf 2b93 2ebf
00000240: 0abd d3be 8ee2 aabf 4306 17bf d1bd ce3f
00000250: af34 b3be 2b35 3abe 34e5 24bf e71a f3be
00000260: 829b 67bf aa88 d3bc 2ccd 033f 0bef 303e
00000270: 3c90 c3bf 917c 83bc cacc 42bf d2eb 4bbf
00000280: 29cd 9bbf 513d ebbf 17fb 11bf ba9a 46c0
00000290: 57c9 8d3f b4d3 2cbf 0203 4fbf 0d37 69bf
000002a0: 1a20 893f f39e 59bf 3eef 3dbe a457 f2bc
000002b0: e43e 2dbe 73d4 a63f 03a9 0040 97d4 19bf
000002c0: dafe 7dbf 18f6 1ebf 192d 88be 0e09 21bf
000002d0: 1c2a 5cbf a893 8fbd 6269 e6bf 3c9f 9fbf
000002e0: 4368 ec3f bd83 27bf 1712 aa3f 43dd 893d
000002f0: 0cba 95be ead7 41bd 4099 c6be 6040 97bf
00000300: 32f9 9fbf f86a bfbe 4159 71bf caf7 493f
00000310: 8dac 0040 45f5 9a3f e2a5 0dbf 7200 9bbe
00000320: 09bd 37be bbc4 f0be 5979 37bf ea69 22bf
00000330: 7f6c 7bbf 6b18 abbe 4d0e 583e 1299 e3be
00000340: a3a0 a6be 6a10 71be 5d73 1cbf 559f 823f
00000350: f655 d4be d99c 93be 67a3 0ebf 1d0f e0be
00000360: 8790 b2be c84b f4bd 0fe3 2d3f f4bd 273f
00000370: d0a8 ddbe 1c2d 8f3c 81f3 c2be 35b2 59bf
00000380: 459b 79bf 55de 89bf 287b 5bbf 14f4 a1bf
00000390: 2e15 0f40 98de b3be ea40 86be 476f dfbe
000003a0: f54b 79bf d271 91be 0f10 08bf 087e a83e
000003b0: 83dc fcbe 3245 173f 2a17 0040 abfd 07bf
000003c0: 7c62 bcbe 03d7 babe de1c 0fbf ee8c ad3e
000003d0: d60d 88bf d311 92be 9110 963e 4bf9 853d
000003e0: eee7 38bf ae52 efbe 9325 e83d bbbb 0a3d
000003f0: e690 3d3f ea58 07bf cca1 0240 4a53 773d

fc3.bias f4 [4]
-0.6428507 -0.30315387 0.714978 -0.1683493
00000000: dd91 24bf fc36 9bbe cc08 373f c263 2cbe
