weights/g0.5_lr1e-05_decay_0.9999.pth (torch, 12865 bytes, 6 tensors)

fc1.weight f4 [32, 8]
0	0xbe684f34	-0.22686464
1	0xc0fc6262	-7.8870096
2	0x3e33ccf3	0.1755865
3	0xbf903d69	-1.1268741
4	0x3f3fd8ec	0.7494037
5	0x3ea5f357	0.32412216
6	0x3ea1ad11	0.31577352
7	0x3e8eeba2	0.2791415
8	0x3d4af029	0.04954544
9	0x3cc69bad	0.024244154
10	0xc0664b82	-3.5983586
11	0xbf97c8da	-1.185817
12	0xbde608de	-0.1123216
13	0xbe102fd9	-0.14080752
14	0xbbd92e97	-0.0066278684
15	0x3eada2e2	0.33913332
16	0x3e0ab307	0.13544856
17	0x3cc90ce7	0.024542285
18	0xbf658c87	-0.8966755
19	0xbf588c0f	-0.8458871
20	0x3e80e286	0.25172824
21	0x3e56170c	0.20907229
22	0xbdb343a4	-0.08753136
23	0x3f57a182	0.84230816
24	0xbe552bd0	-0.20817494
25	0xc06a6972	-3.6626859
26	0x400323d1	2.049061
27	0xbe2fd15e	-0.17169711
28	0xbdd53d4a	-0.104120806
29	0x3f0a7241	0.5408059
30	0xbced483e	-0.028965112
31	0x3f247b0f	0.6425027
32	0x3f9942d0	1.1973515
33	0xc12d10e8	-10.8166275
34	0xbe900c88	-0.2813456
35	0xbf915be0	-1.1356163
36	0x3e5beb36	0.21476445
37	0x3e2df40e	0.1698763
38	0x3e1544a0	0.1457696
39	0x3d8d482c	0.06898531
40	0xbe76cbd5	-0.24101193
41	0xc0ce28df	-6.442489
42	0x3db63de7	0.08898526
43	0xbf087871	-0.5330878
44	0xbf2f54b1	-0.68488604
45	0xbcab9163	-0.02094335
46	0xbddd6590	-0.10810387
47	0x3f77e4ab	0.96833295
48	0xbf3eaa13	-0.7447826
49	0x3cfd6041	0.030929687
50	0xbf5c66ba	-0.8609425
51	0x3e4dc060	0.20092916
52	0x3e16eb1a	0.14738122
53	0x3f80cd92	1.0062735
54	0xbe96704b	-0.29382548
55	0xbef1ca10	-0.47224474
56	0x3f691f59	0.9106346
57	0x3eb98629	0.3623517
58	0x3fb0e470	1.3819714
59	0xbf747dab	-0.95504254
60	0xbf383d8b	-0.7196891
61	0x3ea76aae	0.32698578
62	0x3e45bd60	0.19310522
63	0x3f0cb1bf	0.5495872
64	0x3e584943	0.21121697
65	0x3de48a9a	0.11159249
66	0xbf65e422	-0.8980123
67	0xbe1c85ae	-0.1528537
68	0x3f9a6d89	1.2064677
69	0x3f90bdd8	1.1307936
70	0x3f41f626	0.7576622
71	0xbf46f61c	-0.77719283
72	0xbecfa6b0	-0.4055686
73	0xbd33dd6f	-0.043912347
74	0x3f14fac0	0.58195114
75	0x3f9b5d5a	1.2137864
76	0xbdedab68	-0.11604959
77	0xbeb1a0fc	-0.34693134
78	0x3eb63fc7	0.35595533
79	0xbe27e7ba	-0.1639699
80	0xbea5bef5	-0.3237225
81	0xbc5d31b4	-0.01350062
82	0xbf10ef6c	-0.5661533
83	0xc04f1f58	-3.236288
84	0xbe6843f5	-0.22682174
85	0x3e8b4e30	0.2720809
86	0xbe66a06e	-0.22522137
87	0xbe84343f	-0.2582111
88	0xbfaf4c2d	-1.3695122
89	0xc0ba7d16	-5.8277693
90	0xbf4dc13b	-0.8037297
91	0x3f9885c1	1.1915818
92	0x3f19ee3f	0.6012916
93	0x3f3c6b3c	0.73601127
94	0xbe795045	-0.24347027
95	0x3c9d7042	0.019218568
96	0x3e035a42	0.128274
97	0xbb115102	-0.0022173529
98	0x3db48772	0.08814897
99	0x3d90bc55	0.070671715
100	0x401d10b7	2.4541452
101	0x3e3a4d34	0.18193513
102	0xba05b99a	-0.0005101204
103	0xbc9a3b8b	-0.01882722
104	0x3cfc8c18	0.03082852
105	0xc0800e22	-4.001725
106	0xbed931d1	-0.4242082
107	0xbf9f86d6	-1.2463024
108	0x3f13c252	0.57718384
109	0x3ee4e910	0.44709063
110	0xbe8fa1ee	-0.2805323
111	0xbf3844a9	-0.7197977
112	0xbf1ceba3	-0.61297053
113	0xbec61a65	-0.38692012
114	0xbe6c14d5	-0.23054822
115	0xbd0c59a0	-0.03426516
116	0xbe212b06	-0.15739068
117	0xbef585e1	-0.47953704
118	0xbef5f68c	-0.48039663
119	0x3fd0fd98	1.6327391
120	0x3e6a3269	0.22870792
121	0x3bfe3d8d	0.0077588023
122	0x3ef4a6ac	0.4778341
123	0xbe85c92a	-0.26130038
124	0xbf8eb206	-1.1148078
125	0xbfaf85e0	-1.371273
126	0xbe93ef0d	-0.2889332
127	0x3e25713e	0.1615648
128	0x3f522b3c	0.8209722
129	0xc0da72bc	-6.8265057
130	0xbf0bf8cf	-0.54676527
131	0xbd484380	-0.048892498
132	0xbf4c3d89	-0.79781395
133	0x3d8ab539	0.06772847
134	0x3f5d32cd	0.8640564
135	0xbd9e67cb	-0.07734641
136	0x3ddd01d8	0.10791367
137	0xbd051a6c	-0.0324959
138	0x400d6d91	2.2098124
139	0xbfa31865	-1.274182
140	0xbdd12a32	-0.10213126
141	0x3e433c7a	0.19066039
142	0x3d1e73cd	0.038684655
143	0x3e902bfc	0.28158557
144	0x3e6c6a5f	0.23087452
145	0x3be4e5a1	0.0069853817
146	0x3e930583	0.28715143
147	0x3e8654d5	0.26236597
148	0xc0211f39	-2.5175307
149	0xbe6b2934	-0.22964936
150	0xbf858789	-1.0431987
151	0x3ef1ea60	0.47249126
152	0x3edf9e1a	0.4367531
153	0xc0f1ab0a	-7.552129
154	0x3e95030b	0.29103884
155	0xbff8b959	-1.9431564
156	0xbd86d887	-0.06584268
157	0xbdd3f2b3	-0.103490256
158	0x3e1aed57	0.151296
159	0x3eff274c	0.4983467
160	0xbf45b684	-0.7723162
161	0xc1057612	-8.341326
162	0x3ed69a88	0.41914773
163	0xbead7bbd	-0.33883467
164	0xbf4d1a0a	-0.8011786
165	0x3e67909a	0.22613755
166	0x3e009483	0.12556653
167	0xbfb61977	-1.4226521
168	0xbec328c4	-0.3811704
169	0xc08a9bef	-4.331535
170	0x3f93992a	1.1531117
171	0x3d2a41fb	0.04156683
172	0x3f93faed	1.1560951
173	0x3e127990	0.14304185
174	0x3f56ff8b	0.8398368
175	0xbd83f426	-0.06443052
176	0x3dec431b	0.11536237
177	0xc0c187b7	-6.0478168
178	0xbe99946f	-0.29996058
179	0xbfdc0fe0	-1.7192345
180	0xbceb3de5	-0.028716037
181	0xbe53da71	-0.20688798
182	0x3f76389a	0.9618012
183	0xbe82d10f	-0.25550124
184	0x40514e02	3.2703862
185	0xc0fb5176	-7.853694
186	0x3cfbad80	0.03072238
187	0x3ea83bde	0.32858175
188	0xbd3b9a46	-0.045801423
189	0xbcf731f5	-0.030175189
190	0xbdbda9a3	-0.09260871
191	0xbd09ea69	-0.033670817
192	0x3fd8ee0a	1.6947644
193	0xc044b0c3	-3.0732887
194	0xbef4cdc5	-0.4781324
195	0xbf91aae9	-1.1380283
196	0x3edcc792	0.4312101
197	0x3ebabe44	0.36473286
198	0xbf064ba2	-0.52459157
199	0xbf745d0e	-0.9545449
200	0xbfefcd40	-1.8734512
201	0xc1055151	-8.332353
202	0x3f4d528b	0.80204076
203	0xbf41a86e	-0.7564763
204	0x3d8731b0	0.06601274
205	0x3e99be7a	0.30028135
206	0xbf99d026	-1.2016647
207	0x3ece0e00	0.40245056
208	0x3f1ea3f7	0.6196894
209	0xc07ca337	-3.9474618
210	0x3fb414ee	1.4068887
211	0xbf1ae68d	-0.6050804
212	0xbf2466fe	-0.64219654
213	0xbd50e275	-0.050997216
214	0xbd2b4666	-0.041815184
215	0x3f0726f8	0.52793837
216	0xbe290e80	-0.16509438
217	0xc0f75b05	-7.729861
218	0xbf0a4fcc	-0.5402801
219	0xbda7501d	-0.08169577
220	0xbda233f0	-0.079200625
221	0xbdea3767	-0.114363484
222	0x3f470c04	0.7775271
223	0xbf823933	-1.0173706
224	0xbec6fd47	-0.3886511
225	0xc11096af	-9.036788
226	0xbeef20b9	-0.46704653
227	0xbf432822	-0.7623311
228	0x3eacf996	0.3378417
229	0xbdd52c49	-0.10408837
230	0x3f1c4c08	0.61053514
231	0x3d8cc398	0.06873244
232	0xbcf9e712	-0.03050569
233	0x3d1261bf	0.03573775
234	0x3e1ffc31	0.15623547
235	0xbc94e7b5	-0.018176893
236	0x403747ee	2.8637652
237	0xbe3756de	-0.17904231
238	0x3e3c9824	0.18417412
239	0xbe6b89f4	-0.23001844
240	0xbfa5b4aa	-1.2945759
241	0xc0c1d317	-6.057018
242	0xbe1dfd74	-0.15428716
243	0xbf444d7f	-0.7668075
244	0x3f7a43c5	0.9775966
245	0xbf894bf7	-1.0726308
246	0xbf854b83	-1.0413669
247	0xbf8f12d6	-1.1177623
248	0xbd9c16c5	-0.076215304
249	0xbb950feb	-0.0045490167
250	0xc053c98c	-3.3091764
251	0xbebd0ab5	-0.3692223
252	0x3f585c40	0.8451576
253	0xbdf373e0	-0.11887336
254	0xbda97ba2	-0.08275534
255	0x3d7edd3e	0.06222271

fc1.bias f4 [32]
0	0xbf5c84c1	-0.86140066
1	0x3cff44a2	0.031160656
2	0xbed4a8ef	-0.41535136
3	0xbfa6a22b	-1.301824
4	0xbec98cb3	-0.39365157
5	0xbf8961c7	-1.0732964
6	0x3fed275a	1.8527634
7	0xbfd64097	-1.6738461
8	0xbbbb3afd	-0.005713819
9	0x3fc7d878	1.5612936
10	0x3f03bdf7	0.5146174
11	0xbf059329	-0.52177674
12	0x39a7541c	0.00031915389
13	0xbf791730	-0.97301006
14	0xbf2d9bbf	-0.67815775
15	0xbe1c3f94	-0.15258628
16	0xbf67c91d	-0.9054125
17	0x3d854458	0.06507176
18	0x3b06dff8	0.0020580273
19	0xbe9da2a3	-0.30788144
20	0xbf356d9a	-0.70870364
21	0xbfd112ba	-1.633384
22	0xbf4b3505	-0.79377776
23	0xbf2e73d5	-0.68145496
24	0xbf899a5c	-1.0750232
25	0xbf7e14f2	-0.9925071
26	0xbf621447	-0.8831219
27	0x3f60af40	0.8776741
28	0xbf1ce16c	-0.61281466
29	0xbd60e5f6	-0.054906808
30	0xbf275e28	-0.65378046
31	0x3d271be9	0.0407981

fc2.weight f4 [64, 32]
0	0xbfac2a91	-1.345049
1	0xbec7f9d1	-0.39057782
2	0x3eb9de52	0.3630243
3	0x3ee3bb77	0.44478962
4	0xbf83c1c4	-1.0293508
5	0xbf08958e	-0.533532
6	0x3d878af5	0.06618301
7	0x3f972f28	1.1811266
8	0x3ee14f5a	0.44005853
9	0xbe52c165	-0.20581587
10	0x3f41f686	0.7576679
11	0xbf38caee	-0.72184646
12	0x3eeceabe	0.46272844
13	0xc005289c	-2.0806036
14	0x3eba4a0c	0.36384618
15	0x3f2862cd	0.6577576
16	0x3fa22300	1.2666931
17	0xbe263af9	-0.16233434
18	0xbf8f1489	-1.1178142
19	0x3fa578cc	1.2927489
20	0x3fcda8d0	1.6067142
21	0xc044e802	-3.0766606
22	0x3fa8991b	1.3171724
23	0x3e8ce2f4	0.27516901
24	0xc030c1fb	-2.7618396
25	0xbf6d2a93	-0.9264309
26	0xbe8db739	-0.2767885
27	0x3e6207a6	0.2207323
28	0xbfe249ae	-1.7678735
29	0x3e3f7f87	0.18700992
30	0x3ea660f4	0.32495844
31	0xbfd47979	-1.659957
32	0x3fc41868	1.5319948
33	0x3f18beb6	0.59666
34	0xbc07e79a	-0.008294964
35	0x3fc36e51	1.5268041
36	0x3ef4a6a0	0.47783375
37	0xbeae9d42	-0.34104353
38	0x3e1ee9d0	0.1551888
39	0x3eeee6da	0.466605
40	0x3dc474d3	0.09592595
41	0x3e8d2e35	0.27574316
42	0xbfa2e541	-1.2726213
43	0xbef83d11	-0.4848409
44	0xbe76253d	-0.24037643
45	0xbf0e8017	-0.556642
46	0xbf59c010	-0.8505869
47	0x3ed16580	0.4089775
48	0x3fb3bdde	1.4042318
49	0xbc0d37ba	-0.008619243
50	0xbd7dc358	-0.061953872
51	0x3faca810	1.3488789
52	0x3fcb1aeb	1.586759
53	0x3e84bce0	0.2592535
54	0x3f80bd37	1.0057744
55	0x3e325481	0.17415048
56	0x3ed08f3f	0.40734288
57	0x3f2b9555	0.6702474
58	0x3f13eda5	0.5778449
59	0x3f250ee9	0.64475876
60	0x3eef9c67	0.46799013
61	0xc016d490	-2.3567238
62	0x3f692c07	0.91082805
63	0xbc0570df	-0.008144586
64	0x3f6dc136	0.9287294
65	0xbee9fca5	-0.45700565
66	0xbe201e50	-0.15636563
67	0x3e83bbc8	0.25729203
68	0x3f74f63a	0.9568821
69	0x3f86a10f	1.0517901
70	0xc022bd3b	-2.5427997
71	0xbf91f680	-1.1403351
72	0xbdcc323e	-0.099705204
73	0xbe54d04b	-0.20782582
74	0xc000caa0	-2.0123672
75	0x3f8ddd8c	1.1083236
76	0x3ef6164d	0.4806389
77	0x3f2cea4f	0.67545027
78	0xbfb43cc8	-1.4081049
79	0x3ee3537d	0.44399634
80	0x3f13c121	0.57716566
81	0xbf8bda95	-1.0926081
82	0x3ef411e5	0.47669902
83	0xbe3710c3	-0.17877488
84	0x3ef08291	0.46974614
85	0x40066f38	2.1005383
86	0xbe53fb1e	-0.20701262
87	0xc0b87293	-5.763986
88	0x3f19fe20	0.6015339
89	0xbf871002	-1.055176
90	0x3fa4a129	1.2861682
91	0x3f298451	0.66217524
92	0xbf0e16eb	-0.5550372
93	0xbd540385	-0.05176117
94	0xbf2872c7	-0.65800136
95	0xbd361766	-0.04445591
96	0x3ff799b6	1.9343784
97	0xbf99bc71	-1.2010633
98	0x3eccf2a4	0.4002887
99	0x3f63e95c	0.89027953
100	0x401b6511	2.4280436
101	0x3ed9ebcf	0.4256272
102	0xbf774950	-0.9659624
103	0xbfb2e45c	-1.397594
104	0xbcad96d6	-0.021190088
105	0xbf8b815b	-1.0898851
106	0xbed27319	-0.41103438
107	0xbf6e5f8b	-0.93114537
108	0x3f4d4a2f	0.8019132
109	0x3f34a12e	0.7055844
110	0xbe50f569	-0.20406117
111	0xbf200afa	-0.6251675
112	0xbf70df1c	-0.9409044
113	0xbbd0d219	-0.006372702
114	0xbfcad33f	-1.5845717
115	0x3fa7aaad	1.3098961
116	0xbf8370d9	-1.0268813
117	0x401146cc	2.269946
118	0x3e9e6461	0.30935958
119	0xc07e3847	-3.972185
120	0x3eee21e3	0.4651023
121	0x3f811dda	1.0087235
122	0xbedc50c5	-0.43030372
123	0xbe346abf	-0.17618845
124	0x3f7dcba2	0.99138844
125	0x3cc65e56	0.024214905
126	0x3f334b81	0.70037085
127	0xbf7a185b	-0.97693413
128	0xc00a9336	-2.165235
129	0x3f4098d4	0.752332
130	0xbf650c86	-0.89472234
131	0x3f82e2c0	1.0225449
132	0xbebf7bfc	-0.3739928
133	0xc016dcec	-2.357234
134	0x3c7e712f	0.015529915
135	0xbfca52af	-1.5806483
136	0x3e5dba0b	0.21653001
137	0xbda64b72	-0.08119859
138	0xbcdb527d	-0.026772732
139	0x3f05ae7f	0.52219385
140	0xbf6707db	-0.9024636
141	0x3f3c1e56	0.7348379
142	0xbf84ac7c	-1.0365138
143	0x3f0dbd89	0.5536733
144	0xbea105af	-0.3144965
145	0x3f3e7110	0.7439127
146	0xbf32fb7c	-0.69914985
147	0x3f4354c4	0.7630122
148	0x3f079257	0.5295767
149	0xc029c5d8	-2.6527004
150	0x3f27ad13	0.65498465
151	0xc026681e	-2.6001048
152	0x3c97bd4c	0.018522881
153	0xbd468c6b	-0.048473757
154	0xbf8829b6	-1.0637729
155	0x3eebe9cb	0.46076807
156	0xbf65a8e8	-0.89710855
157	0x3fa40b2b	1.2815908
158	0x3f49c7e9	0.78820664
159	0xbf4108ec	-0.7540424
160	0xbe7aa506	-0.24477014
161	0xbf5c2bce	-0.8600434
162	0xbf4c54f8	-0.7981715
163	0x3f08ca2d	0.53433496
164	0x3de34571	0.11097229
165	0xbe9b82b9	-0.3037317
166	0xbdb7402d	-0.089477874
167	0xbbd97c13	-0.0066371053
168	0x3e2a4178	0.16626537
169	0x3de05990	0.10954583
170	0xbea0804f	-0.31347892
171	0x3f3a9df5	0.72897273
172	0xbfcf5fa8	-1.6201067
173	0x3e4089f9	0.18802632
174	0xbec1d117	-0.37854835
175	0xbe8b3eee	-0.2719645
176	0x3ea35a8e	0.31905025
177	0x3eaa5e0e	0.33274883
178	0xbd4f5270	-0.050615728
179	0x3cbe4bcf	0.023229508
180	0xbb0b3245	-0.002123968
181	0x3ea58906	0.32331103
182	0x3effff47	0.4999945
183	0x3eaf725c	0.34266937
184	0x3f5f83c6	0.87310445
185	0x3ef3f3f5	0.47647062
186	0x3f850c66	1.0394409
187	0x3dc3db75	0.095633425
188	0xbec0157f	-0.375164
189	0xc01b0fca	-2.4228387
190	0x3e7cb584	0.24678618
191	0x3e06536d	0.13117762
192	0xbf0c9f33	-0.5493042
193	0x3fb6bc11	1.4276143
194	0xbecf54dc	-0.4049443
195	0x3f50c13f	0.8154487
196	0xc018b1dd	-2.385856
197	0xbf9c9c88	-1.223527
198	0x3a78e99e	0.0009495261
199	0x3fc6f075	1.5542132
200	0xbf41b420	-0.75665474
201	0xbef0f7cc	-0.47064054
202	0x3f8c5d1a	1.0965912
203	0xbfc8508a	-1.5649579
204	0xbf9f4821	-1.2443887
205	0xbea06a3a	-0.31331044
206	0x3e1b6951	0.15176894
207	0xbbca96d2	-0.00618253
208	0xbee6b50d	-0.45060006
209	0x3eb4ed03	0.35337076
210	0x3ea74e95	0.3267714
211	0x3f3b16b1	0.730815
212	0xbf924c17	-1.1429471
213	0x3f5e20dd	0.86768895
214	0xbe448691	-0.19191958
215	0x3edff14d	0.43738785
216	0xbfad2ad0	-1.352869
217	0xbf8aa212	-1.083071
218	0x3ee28a88	0.44246316
219	0x3edaffd6	0.42773312
220	0xc03ed484	-2.981721
221	0x3fe3a85b	1.7785753
222	0xbfbb16ac	-1.4616294
223	0xbf00339f	-0.5007877
224	0xc09360aa	-4.60555
225	0x3e9880a5	0.29785648
226	0x3f51df83	0.81981677
227	0xc05134d2	-3.268849
228	0xbe1bba47	-0.15207778
229	0xbdb11510	-0.086465955
230	0xbf63af63	-0.88939494
231	0xbfd8d128	-1.693883
232	0xc08c48e4	-4.383898
233	0x3ed1bef9	0.40966013
234	0x3fba4bc7	1.4554375
235	0x3ed6745c	0.4188565
236	0x3fa39e12	1.2782614
237	0xbec618e1	-0.38690856
238	0x3fd05b02	1.6277773
239	0x3f208971	0.6270972
240	0x3f04d137	0.51881737
241	0xc064ca57	-3.5748498
242	0x3f177079	0.59155995
243	0x3f500feb	0.8127429
244	0x40131f24	2.2987757
245	0xbf98daf9	-1.1941825
246	0x3fa9642c	1.3233695
247	0xbfb9a025	-1.4501997
248	0xbf83b739	-1.029029
249	0xc01dbb97	-2.4645746
250	0xbfe53b98	-1.7908812
251	0xbe4914bb	-0.19636814
252	0x3f06e9c7	0.52700466
253	0xc032c79c	-2.7934332
254	0x3fcdbfaa	1.6074116
255	0xbec064f6	-0.37577027

fc2.bias f4 [64]
0	0x3f665fc9	0.89989907
1	0xbe48d969	-0.19614185
2	0xbf6f58f9	-0.93495136
3	0xbf88e678	-1.0695333
4	0x3f561da3	0.8363897
5	0xbddb1432	-0.10697211
6	0xbd08a2bb	-0.033358317
7	0xbb648032	-0.003486645
8	0xbfb61fd1	-1.422846
9	0xbfb091eb	-1.3794531
10	0xbd8c470a	-0.06849487
11	0xbecda95d	-0.40168276
12	0xbe46e748	-0.19424164
13	0xbfe0672b	-1.7531484
14	0xbc6c97da	-0.014440501
15	0xbe585314	-0.21125442
16	0xbe982547	-0.2971594
17	0xbe594423	-0.21217398
18	0xbe2a26b1	-0.16616322
19	0xbefe708e	-0.49695247
20	0xbefda7b1	-0.49542
21	0xbe954767	-0.29156038
22	0xbe884601	-0.2661591
23	0xbf83fbe0	-1.0311241
24	0xbf586a5f	-0.8453731
25	0x3eb0af13	0.3450857
26	0x3eb3a5e5	0.35087505
27	0xbf300ae5	-0.68766624
28	0xbed17f02	-0.40917212
29	0x3e9c7ab4	0.30562365
30	0xbf86baa9	-1.0525714
31	0x3cc4a88e	0.024006154
32	0xbe95e3ab	-0.2927526
33	0xbdadccb9	-0.084863134
34	0xbfd49fe3	-1.6611294
35	0x3f30d3c1	0.6907311
36	0x3f2f7d79	0.6855083
37	0x3dc28e89	0.09499843
38	0xbf2775ab	-0.6541392
39	0xbcfcb95a	-0.030850101
40	0x3e46f2b6	0.19428524
41	0xbf814ec5	-1.0102164
42	0xbe75207c	-0.23938173
43	0x3fbb7b64	1.4647031
44	0xbea6bd6b	-0.3256639
45	0x3f7a3111	0.9773112
46	0xbfb256c4	-1.3932729
47	0xbf3806a5	-0.7188514
48	0xbe88acf2	-0.26694447
49	0xbeabb432	-0.33535916
50	0xbfcd2db7	-1.6029576
51	0xbf826cf6	-1.0189502
52	0xc0155b1a	-2.3336854
53	0xbf187816	-0.59558237
54	0xbe75ec31	-0.24015881
55	0x3f68e4c8	0.9097409
56	0xbefe4f55	-0.496699
57	0x3f0e6c12	0.5563365
58	0x3efdca6b	0.49568495
59	0xbec8f116	-0.39246434
60	0xbf327c50	-0.69720936
61	0xbf9dbc5c	-1.2323108
62	0x3ea868b6	0.32892388
63	0x3df6b432	0.12046088

fc3.weight f4 [4, 64]
0	0x3f867391	1.0504018
1	0xbe38b4dc	-0.18037742
2	0xc007785e	-2.1167216
3	0xbf9d4146	-1.2285545
4	0x3fe7f121	1.8120462
5	0x3d36d336	0.04463502
6	0x4001454b	2.0198543
7	0xc02837da	-2.628409
8	0xbf7c166f	-0.9847173
9	0xbfb6232c	-1.4229484
10	0xbfd50db3	-1.6644806
11	0xbfeee6b8	-1.866416
12	0xbfc21f97	-1.516589
13	0x3dfd846a	0.123787716
14	0xbf28399e	-0.65712917
15	0xc0693088	-3.643587
16	0xbfd27055	-1.6440531
17	0xbd0849a8	-0.03327337
18	0xbef00680	-0.4687996
19	0x3fbfb182	1.4976046
20	0xbfb1889c	-1.3869815
21	0x3e30e903	0.17276387
22	0xc00c739a	-2.1945558
23	0xbfbff9a8	-1.4998064
24	0xc0379454	-2.8684282
25	0x401a9404	2.4152842
26	0x3ff1f199	1.8901855
27	0x400fe899	2.2485716
28	0xbf47a20d	-0.77981645
29	0xc0299d10	-2.6502113
30	0xbf85d547	-1.0455712
31	0xc05d3137	-3.4561288
32	0xbe9bfdd8	-0.30467105
33	0xbf228f0f	-0.6349954
34	0x3f6ec61c	0.9327104
35	0x3feafe5f	1.8358878
36	0xbf869cf3	-1.0516647
37	0xbf3ecf13	-0.7453472
38	0xc041eda0	-3.0301285
39	0xc0af8c6b	-5.485891
40	0xbdb40b4b	-0.087912165
41	0xbf691210	-0.91043186
42	0xbfecae50	-1.8490696
43	0xbf837c3e	-1.0272291
44	0xbf8c4048	-1.0957117
45	0x3fd8655b	1.6905931
46	0x3c55b0d9	0.013042652
47	0xc044a8c9	-3.0728018
48	0xc00fe993	-2.2486312
49	0xc053d4c7	-3.309862
50	0xbfe0cf5b	-1.756328
51	0xbf5e459d	-0.8682497
52	0x4072287f	3.7837217
53	0xc03c0407	-2.9377458
54	0x405e8ba6	3.4772735
55	0xc06e79ed	-3.7261918
56	0xc033cedd	-2.809501
57	0x3f901328	1.1255846
58	0x400df911	2.2183268
59	0x3f88ab23	1.0677227
60	0x4083b098	4.115307
61	0xbf08e00c	-0.5346687
62	0xc00313c9	-2.0480826
63	0xc05163c7	-3.271715
64	0x3ea4036b	0.32033858
65	0xbf700783	-0.9376146
66	0xbfef770f	-1.8708209
67	0xbfc363d8	-1.5264845
68	0x3fb13957	1.3845624
69	0x3f7a9b92	0.9789363
70	0x3febd301	1.8423768
71	0xbf59c154	-0.8506062
72	0xc0889ca8	-4.269123
73	0xc04419b4	-3.0640688
74	0x3e6ebd96	0.23314509
75	0xbfa5dbf1	-1.2957746
76	0xbe802c20	-0.25033665
77	0xc06c302c	-3.6904402
78	0xbf1c025d	-0.60941106
79	0xbfbb346e	-1.4625375
80	0x3e7e2f6a	0.24822775
81	0x3efd8be0	0.4952078
82	0xbf2f318a	-0.68434966
83	0x3edc8a5a	0.43074304
84	0xbf808151	-1.0039464
85	0x3e813bf6	0.2524106
86	0xbe8663eb	-0.26248106
87	0x400b02ca	2.1720452
88	0x3ef5fa98	0.4804275
89	0xbee6b5d3	-0.45060596
90	0xbdf492ca	-0.1194206
91	0x3ff222df	1.8916892
92	0xbe713488	-0.23555195
93	0xbf8acdfb	-1.084411
94	0xbff1176e	-1.8835275
95	0xc00f5af4	-2.2399263
96	0x3de2c674	0.11073008
97	0xbe15195d	-0.14560457
98	0xc0348375	-2.8205235
99	0x3fe3b92d	1.7790886
100	0xc0087ac6	-2.1324935
101	0xbf520ee0	-0.8205395
102	0x3ef9f6e2	0.4882117
103	0xc016fd09	-2.359194
104	0xc05f3174	-3.4873934
105	0xbf76a0b0	-0.9633894
106	0xbfe6a315	-1.8018519
107	0xbfc90a18	-1.5706205
108	0xbf9baa38	-1.2161322
109	0x3ffed0da	1.9907486
110	0xc057102a	-3.3603616
111	0x3f1133a5	0.5671943
112	0xbeb2ec0c	-0.34945714
113	0xbfe565b0	-1.7921658
114	0xc08d56e4	-4.416857
115	0xc0635fe7	-3.5527284
116	0x3fdf767c	1.7458034
117	0x3f8e2d8d	1.1107651
118	0x4040ec83	3.0144355
119	0xc0104020	-2.2539139
120	0xbe39b78f	-0.18136428
121	0x3f1a0be6	0.60174406
122	0x3e3ca03c	0.184205
123	0xbdf1a8a8	-0.11799747
124	0x3f89a120	1.0752296
125	0xc07d8e2d	-3.9618027
126	0xc034dd0a	-2.8259912
127	0xc04d0296	-3.2032828
128	0x3f9c66d6	1.2218883
129	0x3f5c8300	0.8613739
130	0xbf6cee98	-0.92551565
131	0xc05abaa3	-3.4176414
132	0x3fc0dc56	1.5067241
133	0x3f19967d	0.5999525
134	0x3ffda352	1.9815466
135	0xbe9240f4	-0.2856518
136	0xbdc33caf	-0.09533059
137	0xbefcf606	-0.4940645
138	0xbf2df022	-0.6794454
139	0xbff91d5a	-1.9462082
140	0xbeefbe7e	-0.46825022
141	0xbf2e11f6	-0.67996156
142	0xc054b2d4	-3.3234148
143	0xc045b7a8	-3.0893345
144	0xbdf05f6c	-0.1173695
145	0xbf371989	-0.7152334
146	0x3e80f6dc	0.2518834
147	0xbfcfad75	-1.622481
148	0xbfc021eb	-1.5010351
149	0xbdca94a4	-0.09891632
150	0xc0800930	-4.0011215
151	0x3f856534	1.042151
152	0xc0525bd4	-3.2868547
153	0x3f3c0c75	0.7345651
154	0x4023f455	2.5617878
155	0x4081f2cb	4.060888
156	0xbff0777c	-1.8786464
157	0xbeccfcf8	-0.4003675
158	0xbf6ea463	-0.93219584
159	0xbfaba3fe	-1.3409421
160	0xbfb51acf	-1.4148806
161	0xbf9200d5	-1.1406504
162	0xbfcdedc3	-1.6088184
163	0xbeb8a058	-0.36059833
164	0xbf6bd6cd	-0.92124635
165	0xbe296812	-0.16543606
166	0xc08eaf7f	-4.458923
167	0xbfe580b7	-1.7929906
168	0xbf6864f4	-0.9077904
169	0xbf73d2f6	-0.95243776
170	0xc0625cc3	-3.5369117
171	0x3f23f1cf	0.64040846
172	0xbebeacec	-0.37241304
173	0x3fc05acc	1.5027709
174	0x3cd41e31	0.025893303
175	0xc0a386fc	-5.1102276
176	0xc027eda5	-2.6238797
177	0x3f53d3e8	0.8274522
178	0xc006566c	-2.0990248
179	0xbf6b1cbd	-0.91840726
180	0x4049921a	3.1495423
181	0xbfb62193	-1.4228996
182	0x40481d36	3.126783
183	0x3f70817f	0.93947595
184	0xbfcb2e8d	-1.5873581
185	0x401faa5b	2.4947727
186	0x3f88e505	1.0694891
187	0xbf3153c2	-0.6926843
188	0xbf5ae42b	-0.85504407
189	0x3f83fe9b	1.0312074
190	0xbfc06a97	-1.5032529
191	0xbfbc9a41	-1.4734575
192	0xbfd45bda	-1.6590531
193	0xbfa49b06	-1.2859809
194	0xc08a6b04	-4.3255634
195	0x3e709823	0.23495536
196	0x3fe3ce5a	1.7797348
197	0xbf1b2ec2	-0.6061822
198	0x3fa60e31	1.2973081
199	0xbe760256	-0.24024329
200	0xbe9c80aa	-0.30566913
201	0xc0aad3e4	-5.3383656
202	0xbfb52e5f	-1.4154776
203	0x3e403d25	0.18773325
204	0x3e9a8263	0.30177602
205	0x3e8d410e	0.27588695
206	0xc0131897	-2.2983758
207	0xc0525f42	-3.287064
208	0xbee5c79c	-0.44878852
209	0xbda2b133	-0.07943954
210	0x3c8f9b0f	0.017529992
211	0x3eef97d7	0.46795532
212	0xc05547a0	-3.3324966
213	0xbf7af4fc	-0.98030066
214	0xc00ae41e	-2.1701732
215	0xc00f069d	-2.2347786
216	0xbf560a99	-0.8360992
217	0xbf19965d	-0.5999506
218	0x3f75a513	0.9595501
219	0x40317a3f	2.7730863
220	0xbf2c80a2	-0.6738378
221	0xbfa6a4f4	-1.301909
222	0xbfbd7927	-1.4802598
223	0xbfbb5eed	-1.4638344
224	0xbd4ec528	-0.05048099
225	0xbf87b15a	-1.0600998
226	0x3fc16950	1.5110264
227	0x4010d081	2.262726
228	0xc06e12c8	-3.7198963
229	0xbecbc066	-0.39795226
230	0xbfd2d343	-1.6470722
231	0xbfacbf52	-1.3495886
232	0xc0448556	-3.0706382
233	0xbf22826b	-0.6348025
234	0xc02d454f	-2.7073553
235	0x3d43f7e3	0.047843825
236	0xbfc27dc9	-1.5194637
237	0x3fab56be	1.3385847
238	0xbf9b42bd	-1.2129742
239	0xc067053a	-3.609694
240	0xc02b5257	-2.6769006
241	0xc0017034	-2.0224733
242	0xc0a11555	-5.033854
243	0xbf11e168	-0.5698457
244	0x3fe56ebc	1.7924418
245	0xc0064d16	-2.098455
246	0x40a2e894	5.090891
247	0x3fb3da18	1.4050932
248	0x3c0aea36	0.008478692
249	0x3eab8a68	0.33504033
250	0x3ecb2b6e	0.39681572
251	0x3ec4b18f	0.38416716
252	0x3ff2dc5d	1.89735
253	0xc097d4c8	-4.7447243
254	0xbf140f28	-0.57835627
255	0xbf32f784	-0.6990893

fc3.bias f4 [4]
0	0x3e0e9170	0.13922668
1	0xbf48138b	-0.7815482
2	0x3f4e660f	0.8062448
3	0xbdce1a50	-0.100636125
