weights/g1.0_lr0.001_decay_0.9999.pth (torch, 12865 bytes, 6 tensors)

fc1.weight f4 [32, 8]
-0.30891567 -1.2390479 -0.20935327 -0.58260965 -0.12068346 0.15262777 0.3054668 0.31369805
0.0076649887 -0.030684961 -0.012570484 -0.12875862 -0.97889715 -1.0386003 -0.5761702 0.38332623
0.39297268 -1.045793 0.30857447 -0.60558295 0.5078747 0.50490457 0.24723738 0.2564212
0.31690425 -1.6435285 0.53728616 -0.899937 -0.46695858 -0.09131499 -0.0193868 0.7840182
-0.7077533 -1.0373129 -0.37262216 -0.64751804 0.3529626 0.4878731 0.5797285 0.20390445
0.041242197 -1.5171554 0.4021582 -0.7648743 -0.57214344 -0.4498199 0.19973724 0.44602585
0.106282644 1.7908248 0.068178885 0.28364244 -0.13109201 -0.47401583 0.17372909 0.0083153285
-0.21717016 -1.2629986 -0.013658497 -0.60767126 0.6362221 0.45405287 0.27037516 0.22647703
0.20301929 -0.08772491 0.1510262 0.020965252 0.9189151 1.1389532 0.25942433 -0.2992317
0.56728697 0.6869201 0.6826577 1.0055625 -0.30769587 -0.4184426 -0.07263166 0.023888536
-0.1047298 0.073430754 1.0124227 -0.9804016 -0.18247193 -0.1906947 0.5880916 0.63632065
0.56167024 0.45094562 0.028333105 -0.26645288 0.028650163 -0.49472582 -0.13965936 -0.33554673
0.2540479 0.44186914 -0.3210041 -0.90234035 1.0100877 0.49456868 -0.21236408 0.044466805
-0.7746207 -0.728395 -0.22532184 -0.43829554 0.4534878 0.36410707 0.43370336 0.19388536
-0.30768353 0.15525658 0.531726 -0.8404272 -1.1338428 0.29656443 0.49509543 0.88547546
0.2800199 0.11205936 -0.048819494 -0.12056198 -1.0708472 -1.2936579 -0.7939884 0.19393045
-0.6351659 -1.7040143 -0.33440462 -0.6877441 -0.3244182 -0.28125983 0.3037238 0.1432149
-0.52350575 0.3415221 -0.35669804 0.7661172 0.9233351 0.51444745 0.38740453 -0.8612871
0.015036981 -0.11987876 1.0073658 0.008471375 -0.54846436 0.009274636 -0.6354011 0.22027367
0.0551623 -1.097734 0.29070926 -0.92094755 -0.17144255 -0.34242198 0.072500154 0.10794234
-0.5307301 -1.5699729 -0.32068983 -0.6607183 0.17439035 0.022649292 -0.0034749303 0.25616226
-0.058420952 -2.0812588 0.43366542 -0.6445178 0.6247115 0.14348923 0.19211687 0.21691318
0.12681554 -1.85704 0.48628968 -0.8588358 0.00794614 -0.052760404 0.45373893 0.45887458
-0.38866663 -1.3170207 -0.066694595 -0.34778357 -0.2691076 0.16720888 0.4243202 0.34852606
-0.29164508 0.095347665 -0.44660002 -0.7124495 -0.2564813 -0.067191176 0.07958498 0.7684737
-0.50749207 0.10640723 -0.1295698 -0.2891613 0.30012798 0.50806314 0.62012106 0.11145147
0.15127778 -1.4354057 0.050904736 -0.78230095 -0.29297182 -0.22863495 0.0917357 0.47424868
-0.43817732 -0.44867727 0.89621687 -0.7384551 -0.7586206 0.6060336 0.50265723 0.5730747
-0.72118187 -1.3980283 -0.27849185 -0.7004947 -0.5604027 -0.36415204 0.08342704 0.3977408
0.19287322 0.32972068 0.5031572 -0.5249556 -0.0011451072 -0.8831449 0.43400136 0.5247517
0.037487265 -0.13016324 0.19237074 -0.50132215 -0.41354528 -0.63400763 0.373745 0.05227219
-0.31005168 0.017250529 0.048252802 0.04438002 0.97141397 0.48992178 0.19049099 -0.19740368
00000000: 322a 9ebe 1f99 9ebf b460 56be e825 15bf
00000010: e428 f7bd 744a 1c3e 2566 9c3e 089d a03e
00000020: 962a fb3b 075f fbbc 6ef4 4dbc 4dd9 03be
00000030: 0199 7abf dbf0 84bf e47f 13bf 5643 c43e
00000040: b733 c93e 8cdc 85bf 79fd 9d3e 7c07 1bbf
00000050: 1404 023f 6d41 013f cc2b 7d3e a449 833e
00000060: 4641 a23e 245f d2bf 968b 093f 4562 66bf
00000070: 3215 efbe 5a03 bbbd 11d1 9ebc 6bb5 483f
00000080: 522f 35bf abc6 84bf 55c8 bebe bec3 25bf
00000090: 84b7 b43e 81ca f93e 1669 143f 54cc 503e
000000a0: 94ed 283d 2632 c2bf aee7 cd3e cdce 43bf
000000b0: fe77 12bf cb4e e6be eb87 4c3e 805d e43e
000000c0: b7aa d93d bf39 e53f 5fa1 8b3d 9539 913e
000000d0: fc3c 06be 34b2 f2be 0ae6 313e 043d 083c
000000e0: db61 5ebe f0a9 a1bf e3c7 5fbc 5890 1bbf
000000f0: 74df 223f 9e79 e83e 9d6e 8a3e 98e9 673e
00000100: 4ae4 4f3e 1ea9 b3bd 9da6 1a3e 52bf ab3c
00000110: 053e 6b3f 38c9 913f 44d3 843e e634 99be
00000120: b839 113f ffd9 2f3f a8c2 2e3f 46b6 803f
00000130: 508a 9dbe 1c3e d6be e8bf 94bd e4b1 c33c
00000140: 947c d6bd dd62 963d 1197 813f 99fb 7abf
00000150: ecd9 3abe 7945 43be 2c8d 163f e9e5 223f
00000160: 9fc9 0f3f 58e2 e63e d41a e83c 836c 88be
00000170: bfb3 ea3c b44c fdbe dd02 0fbe c8cc abbe
00000180: 9112 823e ac3c e23e a65a a4be c7ff 66bf
00000190: 8e4a 813f 1b38 fd3e f875 59be d322 363d
000001a0: 8b4d 46bf 1878 3abf c5ba 66be 4668 e0be
000001b0: 8e2f e83e 3e6c ba3e 5e0e de3e e289 463e
000001c0: b288 9dbe 95fb 1e3e 321f 083f 3d26 57bf
000001d0: c321 91bf 4bd7 973e 267d fd3e 85ae 623f
000001e0: c55e 8f3e 617f e53d f3f6 47bd 33e9 f6bd
000001f0: 8511 89bf 9596 a5bf d342 4bbf b495 463e
00000200: 3c9a 22bf 241d dabf 1537 abbe ff0f 30bf
00000210: 241a a6be 4a01 90be b081 9b3e eda6 123e
00000220: 7904 06bf fcdb ae3e 20a1 b6be 4220 443f
00000230: b05f 6c3f d4b2 033f e359 c63e 507d 5cbf
00000240: ab5d 763c ff82 f5bd 5df1 803f 86cb 0a3c
00000250: 2968 0cbf a5f4 173c a6a9 22bf 6c8f 613e
00000260: ddf1 613d 8c82 8cbf d8d7 943e 38c3 6bbf
00000270: a38e 2fbe ef51 afbe f67a 943d e010 dd3d
00000280: eedd 07bf dff4 c8bf 7531 a4be d624 29bf
00000290: 6293 323e 028b b93c a8bb 63bb b327 833e
000002a0: cf4a 6fbd 5833 05c0 6509 de3e 1eff 24bf
000002b0: 18ed 1f3f d7ee 123e 49ba 443e 7d1e 5e3e
000002c0: efdb 013e 7db3 edbf f6fa f83e aadc 5bbf
000002d0: 8730 023c 4b1b 58bd 7850 e83e 9cf1 ea3e
000002e0: 50ff c6be 2294 a8bf 2d97 88bd b010 b2be
000002f0: 79c8 89be ce38 2b3e 7f40 d93e 0272 b23e
00000300: 8152 95be a345 c33d c2a8 e4be 1763 36bf
00000310: 8451 83be 879b 89bd 73fd a23d b1ba 443f
00000320: 00eb 01bf 09ec d93d f2ad 04be f30c 94be
00000330: 60aa 993e 6d10 023f 41c0 1e3f ab40 e43d
00000340: 90e8 1a3e 60bb b7bf 7c81 503d e044 48bf
00000350: 6700 96be 481f 6abe eddf bb3d b9d0 f23e
00000360: c758 e0be 07b9 e5be 786e 653f 650b 3dbf
00000370: f634 42bf 0525 1b3f 25ae 003f 06b5 123f
00000380: 609f 38bf 97f2 b2bf 7c96 8ebe 9f53 33bf
00000390: 8d76 0fbf 2372 babe ccdb aa3d afa4 cb3e
000003a0: 8f80 453e 26d1 a83e e9ce 003f 7d63 06bf
000003b0: 6c17 96ba c915 62bf 6d35 de3e 2156 063f
000003c0: 3f8c 193d 8349 05be d6fc 443e a656 00bf
000003d0: 35bc d3be 534e 22bf 815b bf3e 5d1b 563d
000003e0: 18bf 9ebe fb50 8d3c bba4 453d d3c7 353d
000003f0: 96ae 783f 07d7 fa3e 1210 433e 3124 4abe

fc1.bias f4 [32]
-0.47947702 0.09320977 -0.1661927 -0.20497516 -0.1854913 0.038967237 0.85576916 0.14752747
0.17618474 0.54619426 -0.03867982 0.7131094 0.57412916 -0.081356876 -0.19057074 -0.16982144
-0.0871485 0.337657 0.23569451 -0.2893414 0.11148694 0.064564556 -0.03125228 -0.18178153
0.17019701 -0.43044418 -0.10556227 0.27914956 -0.024242232 0.3081561 -0.23807985 0.15763013
00000000: 037e f5be c4e4 be3d 6b2e 2abe 02e5 51be
00000010: 6ef1 3dbe 1c9c 1f3d b013 5b3f 7111 173e
00000020: c669 343e 63d3 0b3f bb6e 1ebd 568e 363f
00000030: 21fa 123f 6f9e a6bd fa24 43be ace5 2dbe
00000040: ea7a b2bd 61e1 ac3e e759 713e 8e24 94be
00000050: 4453 e43d 6c3a 843d 6402 00bd f024 3abe
00000060: 2048 2e3e 2e63 dcbe 0831 d8bd b1ec 8e3e
00000070: a597 c6bc a3c6 9d3e 34cb 73be cb69 213e

fc2.weight f4 [64, 32]
-0.39342615 -0.82921606 -0.37786365 -0.5317449 -0.39612564 -0.16757123 0.42731577 -0.14138798
-0.34532294 -0.5108349 0.66419417 0.7283341 0.42688692 -0.21388668 0.6276021 -1.5102192
-0.45098323 -0.74175686 -0.024444541 -0.31979945 0.18063346 -0.4417719 -0.5969211 -0.040731855
0.7099032 -0.31958365 -0.3999349 0.7499271 -0.35157543 0.466015 -0.2877935 0.0040878067
0.3542071 0.71141267 0.45851693 0.5787683 0.6741491 0.4242117 0.1547539 0.422451
0.881951 0.38803485 -0.37363204 -0.51739633 0.30398032 0.57865965 -0.41455075 0.772359
0.72246814 0.8692176 0.37675118 0.50701475 0.16606072 0.63936114 0.6003621 0.21572483
-0.1934399 0.54041356 0.5157006 -0.11141952 0.50899816 -0.11782016 0.3642508 0.5972378
0.27651662 0.23890798 0.5210655 0.62865883 0.4495455 0.37915045 -0.69897264 0.4156377
0.21187025 -0.4151556 0.05987503 -0.1766495 0.3941281 0.5135956 0.37368095 -0.21443298
0.3438339 0.043573435 0.12297533 0.42582074 0.14594395 0.5860329 0.2578802 0.019244567
0.14362206 0.3736767 0.4421405 0.38605428 0.6781795 -0.07305277 0.31199303 0.3989685
0.4335976 0.7319473 0.41139147 0.7784943 0.28418276 0.3725569 0.43142042 0.086552724
-0.20356722 0.55161643 0.04472458 -0.18951389 -0.4257141 0.04642414 0.048187368 0.7893391
0.5922732 -0.16575667 0.45055953 0.49602324 0.55696833 0.27372238 0.67527604 0.5199417
-0.30867508 -0.12090338 0.3981257 0.03490756 0.61035436 0.2264143 0.12697972 -0.34738776
0.24134812 0.2801418 0.16601737 0.6077679 0.3231449 0.19799852 -0.7600522 0.09631994
0.025811726 -1.1223359 0.16647355 -0.6215072 -0.19100912 0.15798077 0.26076102 -0.17155495
0.6125496 -1.0229745 -0.38284862 0.11194611 0.073238894 0.12463608 0.40971932 0.086352974
-0.18267597 -0.09333628 0.06644029 0.38421988 0.4388186 0.14931282 0.07703885 -0.04353819
-0.03173984 -0.16787495 0.106708266 0.0867191 0.12796727 0.08084086 -0.11668481 0.09929329
-0.029732345 0.083830416 -0.15021504 -0.087686375 -0.22136602 -0.117090546 0.02966626 -0.1387983
0.056350082 0.05528646 0.024626635 -0.12675314 -0.17946292 -0.09556271 0.06912832 0.13403319
0.06262813 -0.059852548 0.061980817 -0.21167436 -0.19249639 0.0740157 -0.108609274 0.044855982
-0.07232402 0.08252206 0.0221274 0.027756337 0.10895884 0.17396945 0.15219104 0.04341308
0.39381278 -0.16555585 -0.029575156 0.21997789 0.31802604 -0.065812625 0.10944279 0.049921915
-0.20759486 -0.33971387 -0.36532944 0.27201888 -0.4271142 0.14143893 0.19310051 0.009470118
0.29730138 0.34954122 -0.09946515 -0.18880059 0.14199738 0.19200829 0.06397318 0.30707958
0.29470253 0.66788024 0.5964475 0.8726254 0.42644438 0.39723268 0.12352356 0.38295302
0.39308885 0.41008827 0.10794024 -0.3601687 -0.17309898 0.16346237 0.1411392 0.7826391
0.6026447 0.12461544 0.69748205 0.63460255 0.18397687 0.55621475 0.50878906 0.2505184
-0.14523044 -0.17366904 0.51551783 -0.046030633 0.44348973 0.16417289 0.40028137 0.046891835
00000000: 276f c9be 8147 54bf 5877 c1be 6f20 08bf
00000010: fbd0 cabe cb97 2bbe 22c9 da3e 03c8 10be
00000020: 2bce b0be 13c6 02bf a108 2a3f 1b74 3a3f
00000030: ec90 da3e 1c05 5bbe 88aa 203f dd4e c1bf
00000040: 46e7 e6be c7e3 3dbf eb3f c8bc c1bc a3be
00000050: faf7 383e ed2f e2be d2cf 18bf 72d6 26bd
00000060: 37bc 353f 78a0 a3be 44c4 ccbe 39fb 3f3f
00000070: b201 b4be 8599 ee3e ab59 93be 02f3 853b
00000080: a25a b53e 241f 363f bbc2 ea3e 292a 143f
00000090: 0995 2c3f 4732 d93e ce77 1e3e 7f4b d83e
000000a0: 8ac7 613f 81ac c63e b34c bfbe 1674 04bf
000000b0: 4fa3 9b3e 0a23 143f ff3f d4be 52b9 453f
000000c0: acf3 383f 0b85 5e3f 88e5 c03e b8cb 013f
000000d0: d20b 2a3e 2cad 233f 55b1 193f f8e6 5c3e
000000e0: 1c15 46be 8b58 0a3f f404 043f eb2f e4bd
000000f0: b44d 023f b24b f1bd 157f ba3e 94e4 183f
00000100: 9693 8d3e 4ba4 743e 8c64 053f c9ef 203f
00000110: d42a e63e 0220 c23e dfef 32bf 77ce d43e
00000120: 84f4 583e 468f d4be 853f 753d 9be3 34be
00000130: 29cb c93e 007b 033f 1c53 bf3e 5294 5bbe
00000140: ff0a b03e 0f7a 323d 7dda fb3d 2d05 da3e
00000150: 5572 153e 4106 163f e008 843e c8a6 9d3c
00000160: a911 133e 8d52 bf3e 3d60 e23e e8a8 c53e
00000170: 2c9d 2d3f b19c 95bd 8dbd 9f3e 9945 cc3e
00000180: 8100 de3e e660 3b3f e7a1 d23e 674b 473f
00000190: 6780 913e c7bf be3e 23e3 dc3e 8e42 b13d
000001a0: ed73 50be bc36 0d3f 1f31 373d ee0f 42be
000001b0: 33f7 d9be 3d27 3e3d 1e60 453d 2112 4a3f
000001c0: 379f 173f 1ebc 29be bdaf e63e c2f6 fd3e
000001d0: 7a95 0e3f 5725 8c3e e4de 2c3f e61a 053f
000001e0: a90a 9ebe 319c f7bd 22d7 cb3e 3bfb 0e3d
000001f0: 2f40 1c3f 26d9 673e f906 023e cfdc b1be
00000200: f623 773e bf6e 8f3e 7500 2a3e ad96 1b3f
00000210: 4073 a53e 20c0 4a3e c892 42bf 6443 c53d
00000220: 1d73 d33c b4a8 8fbf 0b78 2a3e 191b 1fbf
00000230: e597 43be b6c5 213e 7882 853e 1aac 2fbe
00000240: 0dd0 1c3f d4f0 82bf bc04 c4be 0144 e53d
00000250: 46fe 953d 3341 ff3d bbc6 d13e d4d9 b03d
00000260: 690f 3bbe 1727 bfbd d911 883d 78b8 c43e
00000270: d5ac e03e 76e5 183e 8bc6 9d3d 1a55 32bd
00000280: a201 02bd 69e7 2bbe dd89 da3d c999 b13d
00000290: da09 033e e58f a53d 72f8 eebd 485a cb3d
000002a0: 3f91 f3bc 48af ab3d f9d1 19be ea94 b3bd
000002b0: c6ad 62be 2bcd efbd a806 f33c 2421 0ebe
000002c0: 58cf 663d 0e74 623d ccbd c93c 93cb 01be
000002d0: 21c5 37be 62b6 c3bd 2693 8d3d ff3f 093e
000002e0: 2d43 803d f227 75bd 99df 7d3d 2ac1 58be
000002f0: c61d 45be 8b95 973d 8a6e debd e8ba 373d
00000300: 9e1e 94bd 5301 a93d 8544 b53c 4261 e33c
00000310: d025 df3d 0c25 323e f8d7 1b3e ead1 313d
00000320: d4a1 c93e 7987 29be 9947 f2bc e241 613e
00000330: 4fd4 a23e c5c8 86bd 8b23 e03d ec7a 4c3d
00000340: bf93 54be faee adbe 760c bbbe 0f46 8b3e
00000350: b6ae dabe 5ed5 103e 24bc 453e 8e28 1b3c
00000360: e337 983e 11f7 b23e 62b4 cbbd f154 41be
00000370: c367 113e d29d 443e 5f04 833d 8939 9d3e
00000380: 40e3 963e 33fa 2a3f c9b0 183f 6164 5f3f
00000390: eb56 da3e 1562 cb3e ecf9 fc3d 6b12 c43e
000003a0: f142 c93e 17f7 d13e c60f dd3d 0868 b8be
000003b0: dc40 31be ae62 273e cb86 103e 095b 483f
000003c0: ec46 1a3f 6136 ff3d 2f8e 323f 5075 223f
000003d0: 6f64 3c3e 1764 0e3f 0040 023f f343 803e
000003e0: 4ab7 14be 4cd6 31be faf8 033f 9e8a 3cbd
000003f0: 1611 e33e f01c 283e aef1 cc3e a711 403d

fc2.bias f4 [64]
0.62964034 0.3757727 0.15042004 0.16350771 -0.11607819 -0.08007053 0.096430324 0.38411072
0.09895671 0.34578007 0.587895 0.16791858 -0.045305338 0.041675393 0.18180497 -0.34616104
0.26322162 0.31308573 0.207548 0.025117263 0.3508498 0.25650868 0.3640786 0.36889705
0.18239747 -0.011325996 0.4953811 -0.170828 0.13009971 0.17905402 0.013185129 -0.18622413
0.32189858 0.22426407 0.26363078 -0.24039207 0.7869111 0.2196099 0.04797375 0.32355428
0.31544268 0.38979813 0.4586578 0.5946832 0.32482338 0.42854732 0.051638618 -0.20042866
0.45831862 0.039195336 -0.02733533 -0.08561263 0.03511733 0.04863953 0.28514457 0.0742818
-0.12221849 0.29166424 0.43601838 0.27524358 0.670102 0.042574715 -0.002607218 -0.34137353
00000000: 1c30 213f 4865 c03e b607 1a3e 916e 273e
00000010: 67ba edbd 05fc a3bd 437d c53d 29aa c43e
00000020: d1a9 ca3d 160a b13e 4980 163f d9f2 2b3e
00000030: 1792 39bd d1b3 2a3d 152b 3a3e 053c b1be
00000040: fcc4 863e c64c a03e 7787 543e b8c2 cd3c
00000050: 96a2 b33e 1b55 833e 8368 ba3e 13e0 bc3e
00000060: 67c6 3a3e ac90 39bc 97a2 fd3e 89ed 2ebe
00000070: dc38 053e f059 373e 7006 583c 8ab1 3ebe
00000080: e4cf a43e 7ba5 653e 9dfa 863e 5729 76be
00000090: 0173 493f 6be1 603e 1f80 443d e8a8 a53e
000000a0: b481 a13e 9f93 c73e 32d5 ea3e 283d 183f
000000b0: 404f a63e 8e6a db3e 0483 533d 2c3d 4dbe
000000c0: bda8 ea3e 4a8b 203d 58ee dfbc ad55 afbd
000000d0: 30d7 0f3d 3e3a 473d 78fe 913e 0e21 983d
000000e0: b04d fabd 0455 953e cd3d df3e baec 8c3e
000000f0: ce8b 2b3f d362 2e3d dcdd 2abb 83c8 aebe

fc3.weight f4 [4, 64]
1.116528 -0.43546316 -0.3715794 -0.29832736 -0.36783627 0.008562878 -0.20819558 -0.4889064
-0.4460982 -0.3857781 0.8576958 -0.29477352 -0.41052067 -0.38994417 -0.001212518 -0.2957944
-0.5082954 -0.30859908 -0.47043666 -0.2909988 -0.42324972 -0.5148759 -0.13830288 -0.41853744
-0.3326773 -0.024988294 -0.9430927 -0.0720433 -0.57605577 -0.16333373 -0.31986406 -0.2635224
-0.60400885 -0.49220985 -0.4961143 -0.063776344 1.0868979 0.03116951 -0.2141616 -0.057235144
-0.28978443 -0.2674432 -0.17598975 1.081767 -0.3699672 1.3918227 -0.32453272 -0.124982044
-0.3618562 -0.43346027 -0.28615972 0.076369 -0.239425 -0.2882179 -0.009344362 -0.096694835
-0.43779036 0.023438575 1.1804281 1.2524836 1.1763296 -0.31499156 0.023095164 -0.26819372
1.689683 -0.39914948 -0.30195406 -0.44088778 -0.37522927 0.08498629 -0.1529925 -0.4225226
-0.46289036 -0.3731651 1.1659036 -0.47610033 0.09943074 -0.43896335 -0.21220398 0.6835367
-0.4801801 -0.13054201 -0.43886605 -0.34156588 -0.53603154 -0.5439954 -0.25601867 -0.47000492
-0.48366982 -0.0031843334 -0.092053175 0.033180296 -0.38411957 0.19302993 -0.4086803 -0.49530014
-0.24238832 -0.1798337 -1.7148863 0.33043084 1.3642538 -0.10991078 -0.40084743 0.34724796
-0.3880125 -0.25313097 -0.32102713 1.5107708 -0.36543572 0.6956391 -0.27442053 -0.66398895
0.07086091 -0.2637239 -0.4203274 -0.11065831 0.18174146 -0.4137303 0.10655521 -0.40497056
-0.14047986 -0.14351626 0.545065 0.63347864 1.1009797 -0.38605434 0.01758668 0.24765486
1.1891091 -0.25664538 -0.22313416 -0.5688591 -0.29224157 0.05382341 0.35849473 -0.42642388
-0.33618832 -0.30124995 1.216991 -0.3893058 -0.7658432 -0.442088 -1.0432618 -0.54537463
-0.40101063 -0.516434 -0.19946653 -0.35101077 -0.35476843 -0.19136357 0.35184783 -0.23528163
-0.38308898 0.0059345663 0.3653923 0.076694645 -0.6067791 -0.5077414 -0.40067604 -0.67240906
-0.61677 -0.51254445 -1.157374 -0.5221661 1.3554778 0.41777852 -0.44770357 -0.31525138
-0.2583236 -0.028301047 0.3667639 0.8403664 -0.20686036 0.90566254 -0.36216906 -0.48550856
-0.52420074 -0.29545933 -0.27272695 0.14364535 -0.9738549 0.135738 -0.50201076 -1.1779301
-0.28713942 0.45057365 1.316018 1.2129786 1.083518 -0.2928178 -0.8396809 -0.4639397
1.1399881 -0.48039544 -0.42899632 -0.27436697 -0.05950389 0.04149721 -0.032855265 -0.23541774
-0.13831934 -0.3240623 1.1645555 -0.47168484 -0.47883642 -0.21026911 -0.33974284 -0.16662732
-0.42207795 -0.51291347 -0.45571533 -0.33493957 -0.5512338 -0.36068308 -0.21467367 -0.50746894
-0.37020093 -0.119285166 -0.06119799 0.10241954 -0.62879926 -0.1599367 -0.21636666 -0.005028594
-0.5474439 -0.5981913 0.055336136 -0.22817473 1.0728997 -0.09942204 -0.28765383 -0.17994629
-0.4348038 -1.0561802 -0.22942168 1.4794022 -0.32725874 0.9173459 -0.28530505 -0.35233465
-0.40407035 -0.35414544 -0.2141279 -0.10376358 0.11712765 -0.029860055 -0.26842368 0.042460337
-0.048268173 0.012892956 1.0008755 0.8626994 1.3300508 -0.34921828 0.0033461724 -0.14369112
00000000: 64ea 8e3f 07f5 debe a83f bebe 5dbe 98be
00000010: 0955 bcbe 504b 0c3c 3931 55be f151 fabe
00000020: fc66 e4be b584 c5be f491 5b3f 8eec 96be
00000030: c42f d2be c3a6 c7be 5aed 9eba 5d72 97be
00000040: a61f 02bf b300 9ebe 13dd f0be cbfd 94be
00000050: 30b4 d8be e8ce 03bf 459f 0dbe 8a4a d6be
00000060: ae54 aabe 40b4 ccbc 866e 71bf 708b 93bd
00000070: 6478 13bf f540 27be 39c5 a3be 68ec 86be
00000080: 53a0 1abf ee02 fcbe b202 febe 2c9d 82bd
00000090: 781f 8b3f 3357 ff3c 2e4d 5bbe 666f 6abd
000000a0: a05e 94be 51ee 88be a836 34be 5777 8a3f
000000b0: 576c bdbe 3f27 b23f 2729 a6be 96f6 ffbd
000000c0: 3745 b9be 81ee ddbe 8783 92be 5a67 9c3d
000000d0: d42b 75be 4c91 93be 1819 19bc f107 c6bd
000000e0: 0f26 e0be 4102 c03c 4518 973f 6251 a03f
000000f0: f891 963f 9346 a1be 1232 bd3c b050 89be
00000100: 8847 d83f 525d ccbe b999 9abe 0bbc e1be
00000110: 0d1e c0be 4b0d ae3d 11aa 1cbe e254 d8be
00000120: f7ff ecbe 7f0f bfbe 543c 953f 6cc3 f3be
00000130: 58a2 cb3d cebf e0be 004c 59be 43fc 2e3f
00000140: 2bda f5be ceac 05be 0db3 e0be b9e1 aebe
00000150: 5d39 09bf 4843 0bbf e114 83be 7ca4 f0be
00000160: 92a3 f7be 40b0 50bb 6086 bcbd 10e8 073d
00000170: 52ab c4be a3a9 453e 8b3e d1be fb97 fdbe
00000180: a534 78be 5326 38be 6581 dbbf 3b2e a93e
00000190: de9f ae3f e718 e1bd e03b cdbe 7cca b13e
000001a0: 93a9 c6be 629a 81be ab5d a4be f060 c13f
000001b0: 641a bbbe 6715 323f d980 8cbe 2efb 29bf
000001c0: 861f 913d d206 87be 2735 d7be d3a0 e2bd
000001d0: 6f1a 3a3e 75d4 d3be 9e39 da3d 4d58 cfbe
000001e0: f4d9 0fbe edf5 12be 6189 0b3f a82b 223f
000001f0: e7ec 8c3f eaa8 c5be f111 903c 3c99 7d3e
00000200: ba34 983f 0667 83be 487d 64be c0a0 11bf
00000210: b0a0 95be f075 5c3d 9f8c b73e 3b54 dabe
00000220: e020 acbe 6f3d 9abe 5cc6 9b3f 1753 c7be
00000230: 4d0e 44bf 5c59 e2be 9a89 85bf ac9d 0bbf
00000240: 4451 cdbe 0535 04bf f440 4cbe afb7 b3be
00000250: 35a4 b5be d0f4 43be 6625 b43e abed 70be
00000260: 3d24 c4be c076 c23b b314 bb3e 1512 9d3d
00000270: e055 1bbf 57fb 01bf 6925 cdbe 0023 2cbf
00000280: a4e4 1dbf 1d36 03bf d524 94bf adac 05bf
00000290: 4c80 ad3f 11e7 d53e 6739 e5be a168 a1be
000002a0: fe42 84be 99d7 e7bc 7ac8 bb3e 4122 573f
000002b0: 34d3 53be 80d9 673f 396e b9be 9494 f8be
000002c0: 0532 06bf 7246 97be dea2 8bbe c417 133e
000002d0: 8e4e 79bf e7fe 0a3e c783 00bf 6ac6 96bf
000002e0: f003 93be 97b1 e63e 4773 a83f e242 9b3f
000002f0: b8b0 8a3f 37ec 95be 54f5 56bf 8189 edbe
00000300: 21eb 913f 64f6 f5be 68a5 dbbe d479 8cbe
00000310: 5aba 73bd faf8 293d 3e93 06bd 5911 71be
00000320: 96a3 0dbe 7eeb a5be 2810 953f ad80 f1be
00000330: 0c2a f5be c950 57be c6f2 adbe 5aa0 2abe
00000340: 9a1a d8be 4c4e 03bf 8553 e9be 337d abbe
00000350: a91d 0dbf 74ab b8be 6ad3 5bbe 7ce9 01bf
00000360: fa8a bdbe c84b f4bd beaa 7abd 56c1 d13d
00000370: fdf8 20bf 72c6 23be 398f 5dbe e7c6 a4bb
00000380: 4925 0cbf 1123 19bf 25a8 623d a3a6 69be
00000390: c754 893f c89d cbbd 5d47 93be d743 38be
000003a0: 9b9e debe ea30 87bf 84ed 6abe 0d5d bd3f
000003b0: 758e a7be 2ed7 6a3f 8113 92be 3565 b4be
000003c0: 4fe2 cebe 8d52 b5be 5844 5bbe 0082 d4bd
000003d0: 9fe0 ef3d 139d f4bc d46e 89be e4ea 2d3d
000003e0: d9b4 45bd fa3c 533c b01c 803f ded9 5c3f
000003f0: 1b3f aa3f bdcc b2be 754b 5b3b c423 13be

fc3.bias f4 [4]
-0.07712239 -0.17257032 0.19041313 -0.34006545
00000000: 58f2 9dbd 46b6 30be a9fb 423e 0f1d aebe
