weights/g1.0_lr0.001_decay_0.9999.pth (torch, 12865 bytes, 6 tensors)

fc1.weight f4 [32, 8]
-1.6227008 -0.8349109 0.5762816 -0.33866775 0.5256581 0.20372392 0.44897088 0.39398122
-0.18461356 -0.16078225 -0.9598962 -0.81610394 1.1682816 -1.1390969 -1.231333 0.26712626
0.9783588 -0.35559845 1.1142269 -0.9340233 0.1389194 -0.31016475 0.03434626 -0.33412012
-0.10238153 -0.49844328 0.51288414 -0.80051935 -1.1922699 -0.25530705 -0.04981569 1.1117288
-0.006435416 -0.65606934 -0.28224808 -1.7710841 0.49408054 0.73625636 0.5408572 0.09220559
-0.050345015 -0.2831271 0.9200824 -0.4885132 -0.45650253 -0.7088767 -0.13395761 1.2424145
-0.3152871 1.9891696 -0.195602 1.3809266 -0.25164425 -0.3998376 0.013453443 0.14170837
0.21064425 -0.41990414 0.0019276821 0.22398388 -0.20775132 0.85496294 0.6000148 0.28855005
0.21007599 -0.38784415 1.2753944 0.028947605 -2.1397913 0.63742226 0.20591828 0.16388181
0.6498611 0.43970546 1.1641989 0.31953892 -1.139349 -0.34976047 0.06622023 0.41864207
-0.42880136 0.42120782 2.5955462 -1.5723459 -0.7747804 -0.054472532 0.22659534 0.18771297
0.61097014 0.5128021 -0.20258321 0.87036616 0.8637342 -0.33166656 0.06603529 -1.3171333
0.13257879 0.8250637 -0.19433165 -0.8397159 1.364176 -0.12555623 -0.57973754 0.13409758
-1.6567663 -0.36302075 -0.26821002 -0.7728315 0.38646087 0.37480745 -0.07805867 0.22471358
-0.21098779 0.7224028 -1.864407 1.7445294 -1.2862281 -0.64042014 0.17849366 0.9278961
-1.0245605 0.2397657 0.5964842 -0.34728885 -0.043539938 -1.2260218 -0.5841948 -0.4999735
-1.6594827 -0.58939475 -0.63165355 -1.0410808 0.5774591 0.24248542 0.14778267 -0.009851414
-0.5716131 0.14782508 0.06907564 0.5330611 1.5735216 0.6194559 0.57195187 -0.43500295
0.19219741 -0.09006351 0.3489031 0.57787293 -1.6817766 -0.60501474 0.04196282 0.082546994
0.111606784 -0.59965825 0.026123326 -1.7388136 -1.2031455 -0.31844896 -0.018710589 0.20717429
-0.69663775 -6.038519 -0.1874702 -1.3656462 -0.9834262 0.24356444 0.015533034 0.52274114
0.7365999 -0.8396765 1.2191622 -1.5564559 -0.003686338 -0.20807774 0.30920306 0.19625673
0.29424572 -0.1155649 1.2844765 -0.5560826 -0.35017943 -0.1694421 0.70387375 0.3723202
0.7992174 -4.137982 -1.2952604 -0.25312403 0.42026398 -0.3446007 0.4920247 0.54776454
0.076344825 0.08553736 -1.9486377 -2.1782444 -0.71229327 0.1417257 -0.013463621 0.0291508
0.017725788 -1.1469185 -1.0304211 -0.64480096 0.68962544 -0.7164524 0.92830247 -0.07945298
0.29500148 -0.26059473 0.11771746 -0.5172494 0.07964648 1.0752969 -0.039475888 1.1685287
-1.5064743 -0.3410682 -0.7596413 -0.8151575 -2.4188235 -0.63996786 -0.07201099 0.24350637
-0.7564676 0.02144533 -1.37905 -0.20386797 0.8344098 -0.213013 -0.38966942 0.08879976
-0.7503561 0.25613314 0.7200694 -0.115561865 2.8736348 -0.27693564 0.26297888 0.6391817
0.10157891 0.37699834 -0.3627778 -0.34687996 -0.4820174 -0.99091816 0.8205794 0.18948643
-0.0013834978 0.21395592 0.014793734 -2.1974797 0.8614047 0.92059034 0.30812672 -0.5219843
00000000: a9b4 cfbf b9bc 55bf 3187 133f dc65 adbe
00000010: 8791 063f 019d 503e 83df e53e e8b7 c93e
00000020: 560b 3dbe 1aa4 24be c2bb 75bf 30ec 50bf
00000030: 408a 953f edcd 91bf 529c 9dbf c6c4 883e
00000040: b975 7a3f 0011 b6be fd9e 8e3f 271c 6fbf
00000050: e340 0e3e eacd 9ebe aaae 0c3d cb11 abbe
00000060: 68ad d1bd f533 ffbe 604c 033f d6ee 4cbf
00000070: 4d9c 98bf 9bb7 82be 890b 4cbd 214d 8e3f
00000080: 2fe0 d2bb 29f4 27bf d282 90be e2b2 e2bf
00000090: 20f8 fc3e 4c7b 3c3f 9e75 0a3f 49d6 bc3d
000000a0: 9336 4ebd 09f6 90be 858a 6b3f 671e fabe
000000b0: b3ba e9be f278 35bf 2f2c 09be 7007 9f3f
000000c0: 506d a1be 1c9d fe3f e44b 48be 34c2 b03f
000000d0: 84d7 80be 84b7 ccbe d46b 5c3c 001c 113e
000000e0: 20b3 573e adfd d6be 47aa fc3a 085c 653e
000000f0: c3bc 54be dade 5a3f 929a 193f d5bc 933e
00000100: 291e 573e 8293 c6be 2040 a33f 8723 ed3c
00000110: 57f2 08c0 1b2e 233f 3edc 523e a2d0 273e
00000120: 4c5d 263f 1321 e13e 7804 953f 9b9a a33e
00000130: 30d6 91bf ce13 b3be 799e 873d 4158 d63e
00000140: da8b dbbe 8da8 d73e 6e1d 2640 a142 c9bf
00000150: 0258 46bf 971e 5fbd 9c08 683e d437 403e
00000160: 8a68 1c3f 0047 033f f971 4fbe 51d0 5e3f
00000170: af1d 5d3f 33d0 a9be 833d 873d d397 a8bf
00000180: bcc2 073e 6037 533f e0fe 46be 9ff7 56bf
00000190: 529d ae3f d091 00be ae69 14bf e050 093e
000001a0: eb10 d4bf dbdd b9be d352 89be 49d8 45bf
000001b0: 33de c53e c3e6 bf3e 39dd 9fbd 511b 663e
000001c0: 2f0d 58be 64ef 383f e3a4 eebf bd4c df3f
000001d0: 1fa3 a4bf 93f2 23bf 0bc7 363e 998a 6d3f
000001e0: cc24 83bf 2485 753e 30b3 183f d8cf b1be
000001f0: ef56 32bd 48ee 9cbf ca8d 15bf 87fc ffbe
00000200: ee69 d4bf 93e2 16bf 0cb4 21bf 2342 85bf
00000210: 5cd4 133f 194e 783e 5754 173e d367 21bc
00000220: 3c55 12bf 755f 173e 8777 8d3d b176 083f
00000230: 2869 c93f a994 1e3f 706b 123f b5b8 debe
00000240: 66cf 443e 3873 b8bd 6da3 b23e 7bef 133f
00000250: 7544 d7bf 3fe2 1abf 35e1 2b3d 660e a93d
00000260: 1992 e43d 3483 19bf 9600 d63c 7291 debf
00000270: ac00 9abf be0b a3be f346 99bc 7f25 543e
00000280: da56 32bf 8c3b c1c0 30f8 3fbe 7fcd aebf
00000290: d2c1 7bbf f568 793e 447e 7e3c 5dd2 053f
000002a0: d091 3c3f 0af5 56bf 820d 9c3f f239 c7bf
000002b0: 7d96 71bb 5512 55be dd4f 9e3e 86f7 483e
000002c0: 60a7 963e 4aad ecbd ba69 a43f 6e5b 0ebf
000002d0: b84a b3be 3b82 2dbe 1231 343f c1a0 be3e
000002e0: 8399 4c3f 596a 84c0 18cb a5bf 7999 81be
000002f0: d72c d73e 816f b0be a9ea fb3e 4c3a 0c3f
00000300: ad5a 9c3d 362e af3d f66c f9bf 5b68 0bc0
00000310: da58 36bf 8b20 113e 8596 5cbc a9cd ee3c
00000320: ac35 913c 3ace 92bf d7e4 83bf ad11 25bf
00000330: 4b8b 303f 6d69 37bf 3ba5 6d3f 3eb8 a2bd
00000340: 6f0a 973e ac6c 85be da15 f13d 756a 04bf
00000350: b21d a33d 54a3 893f 78b1 21bd 5992 953f
00000360: 26d4 c0bf 7ea0 aebe da77 42bf 29ae 50bf
00000370: 01ce 1ac0 efd4 23bf 7f7a 93bd bc59 793e
00000380: dca7 41bf 1eae af3c b684 b0bf c4c2 50be
00000390: e19b 553f 1420 5abe c082 c7be a6dc b53d
000003a0: 5617 40bf e223 833e 7856 383f b3ab ecbd
000003b0: a2e9 3740 82ca 8dbe 2ba5 863e 69a1 233f
000003c0: 9b08 d03d ed05 c13e 03be b9be 409a b1be
000003d0: fcca f6be d0ac 7dbf 7e11 523f bb08 423e
000003e0: 7c56 b5ba 4317 5b3e 6b61 723c 82a3 0cc0
000003f0: 0585 5c3f cfab 6b3f c9c2 9d3e c3a0 05bf

fc1.bias f4 [32]
-0.5428405 0.32602617 0.29968795 -0.40164116 -0.6926048 0.41763484 1.212991 0.63666415
0.021701183 0.5843242 0.16037387 0.8900673 0.879164 -0.26315105 -0.55035 -0.93283045
-0.15954907 0.4805712 0.6946883 -0.41175428 0.917468 -0.33434743 0.46372902 1.0076989
0.061720543 -0.55907315 -0.48149875 0.7512888 -0.41903663 0.117613725 -0.34739995 0.69402784
00000000: 98f7 0abf e7ec a63e b370 993e e9a3 cdbe
00000010: 8c4e 31bf 3cd4 d53e 4a43 9b3f 6cfc 223f
00000020: aec6 b13c 4596 153f 0c39 243e 73db 633f
00000030: e410 613f bcbb 86be bde3 0cbf facd 6ebf
00000040: d560 23be 6e0d f63e 18d7 313f 75d1 d2be
00000050: 2fdf 6a3f 962f abbe e46d ed3e 47fc 803f
00000060: aece 7c3d 6b1f 0fbf 0187 f6be 7654 403f
00000070: f88b d6be 77df f03d 68de b1be cfab 313f

fc2.weight f4 [64, 32]
0.069282636 -0.718925 -0.080478 -0.15765615 -1.186094 0.17857274 0.7308403 0.31527835
0.44751343 -0.2994148 1.1368116 0.9033233 0.5074871 -0.7608135 0.9159 -1.4776604
-1.292548 -0.41525865 0.29787496 -1.3479007 1.6164415 -0.5730762 -0.25355023 0.93042564
1.5380794 0.3335581 -0.1933179 1.3188683 -0.3751005 1.0693816 -0.7035852 -0.13408898
-0.30538514 0.7502988 0.17437099 0.31020215 0.9579046 0.22924308 0.24734466 0.16906758
-0.6738859 0.3233376 -1.2308323 -0.81099206 0.5602943 0.6317008 -0.28107083 0.7430475
1.0776099 0.8263489 0.7221083 0.6939272 -1.272755 0.6760805 0.4338908 -0.9227986
-0.8180366 -0.079013735 0.19651209 -0.28359735 0.54324 -0.13228765 0.45660183 0.86100906
-0.43683946 0.4400274 0.8201085 0.34546113 0.57982534 0.25869635 -1.1853406 -0.08935987
-1.1764987 -1.3087724 0.2050176 -1.3830776 0.24227853 0.3198091 -0.03589131 0.81720144
0.20390628 -0.037212845 -1.1309712 1.3583407 -0.6721981 1.0019631 -0.25806 -1.4202546
0.35522956 -0.27041087 -0.023157015 -1.0206819 -0.20621826 0.07121614 -0.20021798 0.46662816
0.4993338 0.52486736 -0.372291 0.30650428 0.46942425 0.0037037241 0.33588663 0.044606544
-2.4869468 0.37879652 -2.5414636 -0.49283835 -0.32546514 0.9216002 -1.1864517 -0.45918354
2.0627158 0.42574567 0.15875326 1.0963925 -0.047285978 -0.72902024 0.42348632 0.43565717
-1.354824 0.21755224 -0.07315026 0.10754533 1.2728877 0.06504747 -0.2719121 -0.24592605
-0.8323527 0.38870713 0.58453244 1.1464511 0.11929216 0.43965742 -1.0932691 0.19798347
0.6124462 -0.7703559 1.2207266 -2.4342015 -2.3415902 -2.1662376 0.87608624 -0.4374576
-1.9275832 -2.0562944 0.28520074 0.95812565 -0.20912161 0.7672562 0.6935224 -0.12624326
0.119284086 -0.69132066 0.20733137 0.855673 0.30185792 -0.5453912 0.5490444 0.024952972
-0.10325101 -0.27422217 0.039869882 0.045123443 0.13201542 0.01190303 -0.18955478 0.053244747
-0.10249058 -0.12692516 -0.28617203 -0.08647227 -0.32451507 -0.11915949 -0.028694045 -0.1387983
0.023650026 0.024268985 -0.20917857 -0.15628201 -0.17469078 -0.11403086 0.081417024 0.06686104
0.06608491 -0.0040044854 0.011011792 -0.3041823 -0.27904114 0.00144207 -0.17670758 -0.0041526966
-0.9429502 0.24606298 -0.72606033 -0.054819193 0.2970684 0.97481155 -0.12743628 0.6275126
0.7367943 -0.67173994 -2.831899 -0.5191518 0.07044038 0.13280645 -0.12853307 -0.123682685
-0.27758506 -0.27406624 -0.8546709 0.33477655 0.16158548 -1.0798969 0.5413854 -0.56660837
0.20471992 -0.22461838 -0.049003202 0.46851876 0.11125326 0.06793983 -0.92354065 0.9013778
-0.5544155 0.76792353 0.52709216 0.51948136 0.97822577 0.18554069 -0.31186014 -0.082910046
-0.08434667 0.28937975 0.31886005 -0.7628292 -0.3456482 0.1279985 -0.10723851 0.7613747
0.8933396 0.016238173 1.1996104 1.2653276 -1.1610004 0.6832931 0.39460963 -0.85108113
-0.4400148 -0.5236718 -0.014495085 -0.31538445 0.01887373 -0.35165 0.41050777 0.28939793
00000000: 0ee4 8d3d 780b 38bf a6d1 a4bd 9d70 21be
00000010: eed1 97bf c6db 363e 5a18 3b3f 2a6c a13e
00000020: 7b20 e53e e64c 99be 0b83 913f 3240 673f
00000030: adea 013f acc4 42bf 6c78 6a3f fa23 bdbf
00000040: 3672 a5bf c89c d4be 1183 983e 0388 acbf
00000050: 8ee7 ce3f 1fb5 12bf 56d1 81be 6030 6e3f
00000060: c9df c43f 21c8 aa3e 21f5 45be add0 a83f
00000070: 2c0d c0be 7fe1 883f 291e 34bf 9f4e 09be
00000080: 715b 9cbe 9513 403f 4f8e 323e d1d2 9e3e
00000090: 3c39 753f b3be 6a3e eb47 7d3e 0d20 2d3e
000000a0: c983 2cbf 828c a53e ea8b 9dbf 2d9d 4fbf
000000b0: 726f 0f3f 25b7 213f 84e8 8fbe 5c38 3e3f
000000c0: 1fef 893f 9a8b 533f 17dc 383f 37a5 313f
000000d0: a3e9 a2bf 9d13 2d3f ef26 de3e 873c 6cbf
000000e0: d96a 51bf f4d1 a1bd 773a 493e ac33 91be
000000f0: c711 0b3f 6a76 07be b7c7 e93e 176b 5c3f
00000100: 6ca9 dfbe 454b e13e a1f2 513f 48e0 b03e
00000110: 6f6f 143f d973 843e 3eb9 97bf 4f02 b7bd
00000120: 8297 96bf db85 a7bf 22f0 513e b008 b1bf
00000130: dd17 783e 05be a33e c402 13bd 1d34 513f
00000140: cfcc 503e 7f6c 18bd aac3 90bf 1cde ad3f
00000150: 2d15 2cbf 5440 803f 7120 84be e7ca b5bf
00000160: a6e0 b53e 4b73 8abe c8b3 bdbc b4a5 82bf
00000170: e12a 53be c5d9 913d f105 4dbe e3e9 ee3e
00000180: aea8 ff3e b55d 063f ed9c bebe 21ee 9c3e
00000190: 6058 f03e 2eba 723b 55f9 ab3e 5ab5 363d
000001a0: 232a 1fc0 9ef1 c13e 57a7 22c0 4f55 fcbe
000001b0: 5ea3 a6be feed 6b3f a6dd 97bf 1b1a ebbe
000001c0: 8903 0440 56fb d93e 3790 223e 9756 8c3f
000001d0: f1ae 41bd 12a1 3abf 33d3 d83e 750e df3e
000001e0: df6a adbf 04c6 5e3e cecf 95bd ba40 dc3d
000001f0: fced a23f 9c37 853d 1038 8bbe 0ad4 7bbe
00000200: 1115 55bf 9f04 c73e eba3 153f e9be 923f
00000210: 734f f43d c71a e13e 3ef0 8bbf 2ebc 4a3e
00000220: 46c9 1c3f 0b36 45bf c540 9c3f f5c9 1bc0
00000230: 9ddc 15c0 a3a3 0ac0 3047 603f 71fa dfbe
00000240: 0cbb f6bf 549a 03c0 d505 923e b947 753f
00000250: fa23 56be e76a 443f af8a 313f ea45 01be
00000260: 374b f43d 64fa 30bf ad4e 543e 630d 5b3f
00000270: 1f8d 9a3e c29e 0bbf 2c8e 0c3f 2d6a cc3c
00000280: 4475 d3bd d966 8cbe 9a4e 233d 5cd3 383d
00000290: 0d2f 073e ed04 433c a61a 42be 2a17 5a3d
000002a0: 95e6 d1bd abf8 01be 2485 92be 6018 b1bd
000002b0: d726 a6be e409 f4bd c60f ebbc 2421 0ebe
000002c0: b3bd c13c c0cf c63c e832 56be 6408 20be
000002d0: 24e2 32be 0389 e9bd f8bd a63d 71ee 883d
000002e0: 8657 873d 0f38 83bb ce6a 343c c8bd 9bbe
000002f0: 7bde 8ebe d703 bd3a d5f2 34be 5813 88bb
00000300: 2f65 71bf eff7 7b3e 17df 39bf 178a 60bd
00000310: 5919 983e 408d 793f a87e 02be aaa4 203f
00000320: 8d9e 3c3f 26f7 2bbf d53d 35c0 22e7 04bf
00000330: 0c43 903d 6afe 073e 2c9e 03be 594d fdbd
00000340: a11f 8ebe 6952 8cbe b6cb 5abf d567 ab3e
00000350: aa76 253e 103a 8abf 3c98 0a3f 3f0d 11bf
00000360: 19a2 513e 5c02 66be 95b7 48bd b1e1 ef3e
00000370: c0d8 e33d 0a24 8b3d 296d 6cbf b2c0 663f
00000380: 2dee 0dbf a396 443f 83ef 063f bbfc 043f
00000390: 016d 7a3f 61fe 3d3e 22ac 9fbe becc a9bd
000003a0: f2bd acbd 9529 943e a041 a33e c648 43bf
000003b0: cdf8 b0be 0a12 033e dd9f dbbd 74e9 423f
000003c0: e7b1 643f eb05 853c d58c 993f 41f6 a13f
000003d0: a99b 94bf 4cec 2e3f 460a ca3e 74e0 59bf
000003e0: 9f49 e1be 5b0f 06bf cb7c 6dbc 127a a1be
000003f0: 159d 9a3c 780b b4be 132e d23e f72b 943e

fc2.bias f4 [64]
1.0112206 0.49714583 -0.15706624 0.40082353 -0.34668025 -0.2113263 0.24779674 0.3187538
-0.31877464 0.38310328 0.9663153 0.54306227 -0.09951533 0.101830274 0.60237837 -0.6433482
0.40967244 0.42928678 0.38625583 -0.35982332 0.5474841 0.39229685 0.40886664 0.56255096
0.5056996 -0.011325996 0.22065906 0.059362195 0.26858783 0.19134273 0.016168425 -0.22233874
0.44407818 0.3531241 0.8232553 -0.45594895 1.1340436 0.07323445 -0.46251488 0.6445733
-0.011904995 0.9821913 0.50955594 0.7909836 0.6610814 0.4643566 -0.5901161 -0.39215168
0.56055474 -0.0006032633 0.30283388 -0.14166711 1.0107062 0.18940562 0.59612364 -0.58998334
-0.30038357 0.34150586 0.34686875 0.6558302 0.72356856 0.24941476 0.26122555 -0.2385627
00000000: ad6f 813f e689 fe3e f9d5 20be be38 cd3e
00000010: 1380 b1be ec65 58be 6ebe 7d3e b333 a33e
00000020: 6e36 a3be 1d26 c43e 7160 773f 2106 0b3f
00000030: b1ce cbbd 648c d03d 7835 1a3f 78b2 24bf
00000040: 96c0 d13e 7acb db3e 53c3 c53e c33a b8be
00000050: eb27 0c3f 22db c83e f856 d13e 5703 103f
00000060: 8775 013f ac90 39bc 73f4 613e c625 733d
00000070: 5884 893e 59ef 433e a573 843c c4ac 63be
00000080: 375e e33e afcc b43e dcc0 523f 2472 e9be
00000090: 5728 913f f1fb 953d c0ce ecbe c102 253f
000000a0: 2b0d 43bc e470 7b3f 4272 023f e77d 4a3f
000000b0: a13c 293f 26c0 ed3e d911 17bf 1bc8 c8be
000000c0: 8480 0f3f 5124 1eba 0b0d 9b3e 2f11 11be
000000d0: d25e 813f 8cf3 413e 8f9b 183f 2609 17bf
000000e0: e0cb 99be dbd9 ae3e c898 b13e 7de4 273f
000000f0: ca3b 393f 9566 7f3e 5bbf 853e c849 74be

fc3.weight f4 [4, 64]
1.9663373 -0.79761744 -1.0276247 -1.9421533 -1.4895122 -0.0029466227 1.0756966 -1.1468022
0.12654874 -0.8417058 1.8755755 -1.6925242 -0.80904555 1.298659 -1.1588882 -0.91137165
-0.6933627 -0.10144265 -0.8488386 -0.5590321 -0.53709966 -0.92165244 0.33011952 -0.80427355
-0.6301504 -0.024988294 -1.0596863 -0.25819057 -1.1342127 0.6331209 -0.17171814 -0.9298206
-1.5318313 -0.88633996 -1.4610918 -0.03611519 1.9017843 1.2719532 -0.039322276 0.43218157
-0.4384445 -0.92797077 -0.8695117 2.3931344 -1.021436 2.4147975 -0.43290442 -0.104680136
-1.1919616 -0.8319083 -1.4400744 -0.6345739 3.4612548 1.3831211 0.4678389 1.2789373
-0.4833819 0.7654263 2.460171 2.3426716 1.6675378 0.06416 -1.8397298 -0.21855643
2.3695614 -0.713932 -0.2174251 -1.6272784 -0.5619802 -0.0032571862 -1.4178557 -0.8679218
0.062170055 -0.6645967 1.7952079 -1.3990833 -0.8135146 0.83865905 -1.2344966 0.47307757
-0.6158801 -0.06061236 -0.7606818 -0.55588645 -0.74319273 -1.5975505 0.8404414 -0.8498498
-0.876158 -0.0031843334 0.83299434 -1.3800198 -0.9167042 1.3679373 -0.39786506 -0.4865402
-0.5897759 -0.36494553 -2.061991 0.58542204 1.9268758 1.5621961 -0.7818528 0.5927701
0.03189997 -1.4525068 0.4915497 2.6359131 -0.7636051 2.0585673 -0.36974585 -0.44654047
-0.81446904 -0.37369737 -0.6347178 -1.1424348 3.1642904 -0.5563814 0.44330525 1.1228147
0.10700226 0.3501127 2.7556946 1.3856999 2.1468701 -0.88895625 -1.2719003 0.44171676
1.8839678 -0.67672324 -0.12497715 -1.9241952 -0.79767185 0.01771396 0.9662656 -0.40574634
-0.9730519 0.108063474 1.9569343 -2.0101717 -1.3562248 -0.21431635 -1.4894269 0.27435923
-0.73116195 -0.33564696 -0.5077994 -0.8944682 -0.70211726 -0.8097966 0.13122843 -0.60717344
-0.82236004 0.0059345663 0.33065596 -1.2248243 -0.968194 -1.1649665 -0.6391653 -0.8699889
-0.8241749 -0.7365549 -1.3874508 -1.1969715 2.0055141 2.4897077 -0.8938883 -0.6851635
-0.72259766 -0.6661859 -0.07018858 2.0378964 -0.5087941 1.8368882 -0.8088506 -0.7045265
-0.98371136 -0.8174889 -0.5558627 0.7985094 3.2685142 1.1962146 -0.48089594 -1.1996515
-0.83330613 0.94404453 2.5412445 2.0754943 1.9616022 0.42460287 -1.5936012 -1.186513
1.7826643 -0.7605401 -1.1505778 -0.595581 -0.7527487 0.17013778 1.6067696 -0.7444626
-0.2649274 -0.59071934 1.9316874 -1.5858694 -0.92805415 1.5286512 -1.1400421 -0.6643306
-0.5630449 -0.7372881 -0.7321841 -0.32986856 -0.91865975 -1.2588087 -0.9228939 -0.7315505
-0.8127996 -0.119285166 -0.6804611 -0.07162389 -0.48437563 1.9190571 -0.6010854 0.3391525
-0.592587 -0.71916133 -0.85238796 -0.29011536 1.6745778 2.0632517 -0.37952885 0.635374
-0.5481576 -2.1140304 -1.2267542 2.3522494 -0.291741 2.6671164 -0.24487492 -0.15783864
-0.8699024 -0.26808795 -0.2651488 -0.5059129 2.8726828 0.98496854 -0.41827488 0.8761808
-0.71621335 1.7938348 2.221762 1.6646656 2.571805 -0.935269 -1.513802 -0.7370523
00000000: f1b0 fb3f a830 4cbf 3589 83bf 7b98 f8bf
00000010: 56a8 bebf 201c 41bb 6db0 893f 6aca 92bf
00000020: fe95 013e 087a 57bf dc12 f03f a2a4 d8bf
00000030: 9c1d 4fbf 753a a63f 7356 94bf a74f 69bf
00000040: 3880 31bf 2ac1 cfbd 7d4d 59bf ba1c 0fbf
00000050: 5d7f 09bf 6af1 6bbf 6d05 a93e dfe4 4dbf
00000060: 8951 21bf 40b4 ccbc cda3 87bf 8e31 84be
00000070: e22d 91bf 3614 223f e1d6 2fbe b908 6ebf
00000080: 0c13 c4bf 2de7 62bf 0e05 bbbf 85ed 13bd
00000090: ab6d f33f 5dcf a23f 6510 21bd e746 dd3e
000000a0: cc7b e0be 7e8f 6dbf 5298 5ebf 1d29 1940
000000b0: 6abe 82bf 0b8c 1a40 a6a5 ddbe 8a62 d6bd
000000c0: 3392 98bf f1f7 54bf 5c54 b8bf 6f73 22bf
000000d0: 3385 5d40 1d0a b13f 9588 ef3e 38b4 a33f
000000e0: d57d f7be faf2 433f 7173 1d40 55ee 1540
000000f0: e171 d53f 5166 833d 447c ebbf 42cd 5fbe
00000100: e5a6 1740 3fc4 36bf afa4 5ebe a94a d0bf
00000110: efdd 0fbf 8476 55bb 4c7c b5bf 2030 5ebf
00000120: 07a6 7e3d 0223 2abf 5fc9 e53f 2915 b3bf
00000130: 7e42 50bf 5cb2 563f fc03 9ebf 3937 f23e
00000140: 51aa 1dbf aa44 78bd 0bbc 42bf 934e 0ebf
00000150: e141 3ebf 897c ccbf 2b27 573f c28f 59bf
00000160: e44b 60bf 40b0 50bb 1e3f 553f 7da4 b0bf
00000170: 20ad 6abf 9218 af3f f8b4 cbbe cc1b f9be
00000180: 8efb 16bf 24da babe a9f7 03c0 38de 153f
00000190: dea3 f63f 0bf6 c73f 8127 48bf c8bf 173f
000001a0: 8ba9 023d beeb b9bf 67ac fb3e cdb2 2840
000001b0: a07b 43bf 91bf 0340 544f bdbe f4a0 e4be
000001c0: 0b81 50bf 4355 bfbe de7c 22bf 4e3b 92bf
000001d0: bc83 4a40 036f 0ebf e8f8 e23e 64b8 8f3f
000001e0: 0024 db3d f941 b33e 4d5d 3040 9d5e b13f
000001f0: 5266 0940 a392 63bf a1cd a2bf b328 e23e
00000200: db25 f13f bc3d 2dbf 05f4 ffbd 074c f6bf
00000210: 3934 4cbf de1c 913c 2f5d 773f fcbd cfbe
00000220: ee19 79bf 6250 dd3d d37c fa3f a7a6 00c0
00000230: c698 adbf bf75 5bbe 8aa5 bebf d078 8c3e
00000240: 6e2d 3bbf ebd9 abbe 24ff 01bf defb 64bf
00000250: f5bd 33bf d44e 4fbf bf60 063e b86f 1bbf
00000260: 3086 52bf c076 c23b bd4b a93e 0bc7 9cbf
00000270: 90db 77bf 9f1d 95bf 56a0 23bf 98b7 5ebf
00000280: 20fd 52bf dd8e 3cbf fd97 b1bf 5d36 99bf
00000290: 585a 0040 5f57 1f40 ddd5 64bf e066 2fbf
000002a0: 29fc 38bf 298b 2abf 08bf 8fbd e56c 0240
000002b0: 5540 02bf 271f eb3f d510 4fbf d95b 34bf
000002c0: 82d4 7bbf f446 51bf 054d 0ebf 1d6b 4c3f
000002d0: 562f 5140 8f1d 993f fe37 f6be 2e8e 99bf
000002e0: 8d53 55bf e7ac 713f c0a3 2240 e6d4 0440
000002f0: c815 fb3f 8c65 d93e 20fb cbbf a8df 97bf
00000300: 582e e43f c2b2 42bf 2246 93bf ff77 18bf
00000310: 24b4 40bf 9938 2e3e a0aa cd3f 1a95 3ebf
00000320: 90a4 87be 6239 17bf 8841 f73f c5fd cabf
00000330: f594 6dbf d8aa c33f e6ec 91bf 9211 2abf
00000340: b623 10bf eabe 3cbf 6b70 3bbf 88e4 a8be
00000350: 492d 6bbf a520 a1bf c642 6cbf e546 3bbf
00000360: a213 50bf c84b f4bd b332 2ebf 8caf 92bd
00000370: 1500 f8be aaa3 f53f bce0 19bf 65a5 ad3e
00000380: c8b3 17bf f51a 38bf 1936 5abf 008a 94be
00000390: 9158 d63f 510c 0440 9b51 c2be dfa7 223f
000003a0: 0e54 0cbf 464c 07c0 4806 9dbf 418b 1640
000003b0: 145f 95be 09b2 2a40 7ec0 7abe 74a0 21be
000003c0: ecb1 5ebf d342 89be 95c1 87be 8283 01bf
000003d0: 09da 3740 e626 7c3f 2028 d6be 634d 603f
000003e0: c259 37bf 619c e53f 5931 0e40 c313 d53f
000003f0: 7498 2440 ca6d 6fbf 44c4 c1bf 76af 3cbf

fc3.bias f4 [4]
0.44904456 -0.19537616 -0.007101455 -0.110548705
00000000: 2be9 e53e b010 48be 52b3 e8bb 5c67 e2bd
