weights/g1.0_lr0.001_decay_0.9999.pth (torch, 12865 bytes, 6 tensors)

fc1.weight f4 [32, 8]
0	0xbf8c50a1	-1.0962106
1	0xbf80970f	-1.00461
2	0xbe69cb75	-0.22831519
3	0xbf269311	-0.65068156
4	0x3f94738e	1.1597764
5	0x3f60e712	0.87852585
6	0x3ed5f98b	0.4179195
7	0x3e883801	0.26605228
8	0x3ee6241d	0.44949427
9	0x3f015c7e	0.50531757
10	0x3f48f15e	0.784933
11	0x3f541f8d	0.8286064
12	0xbfbb7fb8	-1.4648352
13	0xbf33b73f	-0.70201486
14	0x3e0e6606	0.13906106
15	0x3eb332ff	0.34999844
16	0xbf8cc8c4	-1.0998769
17	0xbcc0530b	-0.023477098
18	0x3f7c9069	0.9865785
19	0xbd16ed94	-0.036847666
20	0xbe3ee31e	-0.18641326
21	0x3dd979c0	0.10618925
22	0x3e437f1d	0.19091459
23	0x3f1b0c93	0.6056606
24	0x3f848fd6	1.0356395
25	0xbe802e8b	-0.2503551
26	0x3bc0dc2a	0.0058856206
27	0xbf872d3d	-1.0560681
28	0xbfb3031c	-1.3985324
29	0xbf4ca778	-0.7994304
30	0xbddf66f6	-0.1090831
31	0x3f129bb8	0.5726886
32	0xbe8e4736	-0.27788705
33	0xbeda3042	-0.42614943
34	0x3e104d59	0.14092006
35	0xbfa37a4f	-1.2771701
36	0xbc99cfbf	-0.018775819
37	0xbeddacd8	-0.43295932
38	0xbf133238	-0.574985
39	0xbf00f99d	-0.5038088
40	0x3ee2ba48	0.44282746
41	0xbf05410e	-0.5205239
42	0x3f908fc0	1.1293869
43	0xbfbee297	-1.49129
44	0xbf1d3911	-0.614152
45	0xbfbd5b99	-1.4793578
46	0x3e5e47fe	0.2170715
47	0x3f24ca54	0.6437123
48	0xbdb7e1d3	-0.089786194
49	0x3f57e9ec	0.8434131
50	0x3f95643c	1.1671214
51	0x3e8c5e23	0.2741557
52	0xbe913268	-0.2835877
53	0x3fa23c9d	1.2674748
54	0x3e4cebaf	0.20011781
55	0x3c32fb82	0.010924222
56	0x3e7e0697	0.24807201
57	0xbff21977	-1.8914021
58	0x3e150e1e	0.14556167
59	0xbf1c0beb	-0.60955685
60	0x3f2a50f1	0.66529757
61	0x3f7fd44b	0.9993331
62	0xbe8986d8	-0.2686069
63	0xbf8d34ae	-1.1031702
64	0x40079ba2	2.118874
65	0xbf49489a	-0.78626406
66	0x3ec19956	0.378123
67	0x3b862a53	0.004094401
68	0xbcc8cbcc	-0.02451124
69	0xbae62787	-0.0017559387
70	0x3ce5f318	0.028070018
71	0x3cc93341	0.024560573
72	0x3e734127	0.23755322
73	0x3fb02774	1.376204
74	0xbdf693e4	-0.12039927
75	0x3fc2055f	1.5157889
76	0xc00573d0	-2.0851936
77	0xbedea2f1	-0.4348369
78	0xbf23a5b2	-0.63924706
79	0x3ecf0dee	0.40440315
80	0x3e08de89	0.1336614
81	0x3e37aba0	0.17936563
82	0xbedb98e4	-0.42890084
83	0xbf2d27ca	-0.6763884
84	0xc077fd45	-3.8748333
85	0x3e47d805	0.19515999
86	0x3e225e75	0.15856345
87	0x3ef8ecb4	0.4861809
88	0x3e31e8d1	0.17373969
89	0xbd413f77	-0.047179665
90	0xbe989753	-0.2980295
91	0xbfadebd6	-1.3587596
92	0x3e9d721f	0.3075113
93	0x3eb125eb	0.34599242
94	0xbf8cec5a	-1.1009629
95	0xbf9a9bc3	-1.2078785
96	0x3daba411	0.083809026
97	0x3edee2ca	0.435324
98	0x3dd4145b	0.10355445
99	0x3e8356f2	0.25652272
100	0x3e1d6b95	0.1537307
101	0x3f819472	1.0123427
102	0x3f7654ed	0.96223336
103	0xbf991947	-1.1960839
104	0xbf7b693c	-0.9820745
105	0xbe53161f	-0.20613907
106	0xbf5f4891	-0.872201
107	0xbe71e6d8	-0.23623216
108	0x3f065de6	0.5248703
109	0xbc849c14	-0.016187705
110	0x3d8fc67c	0.0702028
111	0x3f217330	0.6306639
112	0x3ce9c11e	0.028534468
113	0x3d40aead	0.047041584
114	0x403b4f36	2.9267097
115	0x40093f5b	2.144492
116	0x3e68f070	0.2274797
117	0xbe36c894	-0.17849952
118	0x3e2591a5	0.1616884
119	0x3ea5640d	0.32302895
120	0x3faa09aa	1.3284199
121	0xbeb58899	-0.35455778
122	0x3f64ff36	0.8945192
123	0x3f162a6a	0.5865847
124	0xbe0f3341	-0.13984396
125	0xbedeec23	-0.43539533
126	0xbdad0f36	-0.08450167
127	0x3d7f522b	0.06233422
128	0x3e118e5c	0.14214462
129	0xbed05b82	-0.40694815
130	0xbf7eec9a	-0.99579775
131	0xbf36e776	-0.7144693
132	0xbd664d4c	-0.05622606
133	0xbf7160ee	-0.9428853
134	0x3f5a5490	0.8528528
135	0xbfb0fd82	-1.3827364
136	0xbeffa21c	-0.49928367
137	0x3e493ba5	0.19651659
138	0xbf265ce4	-0.6498549
139	0x3f264157	0.6494345
140	0x3ee3cda7	0.44492838
141	0x3f61fd96	0.88277566
142	0x3f50fb8f	0.8163385
143	0xbce0e706	-0.02745391
144	0xbe28d48c	-0.1648733
145	0xbdb452d0	-0.08804858
146	0xbf14d2d5	-0.58134204
147	0x3e8f9bac	0.28048456
148	0xbf085bf0	-0.53265285
149	0xbf2e350a	-0.6804968
150	0xbf217ebf	-0.63084024
151	0x3efc6e70	0.49303007
152	0x3fc5a4bf	1.5440902
153	0xc002b0e0	-2.0420456
154	0x3f6d20fa	0.92628443
155	0x3f1bd1e4	0.6086714
156	0xbe6a5ede	-0.22887751
157	0xbe9f553a	-0.3111971
158	0x3ea58394	0.3232695
159	0xbd426240	-0.04745698
160	0x3de63a43	0.11241581
161	0xc07bc01c	-3.9336004
162	0xbee44ca8	-0.44589734
163	0xbfbf723f	-1.495674
164	0x3f1079cb	0.5643584
165	0x3def1126	0.11673193
166	0xbd1fb99b	-0.038995367
167	0x3e9e1436	0.30874795
168	0xbf4cd6e7	-0.80015415
169	0x3f63f108	0.8903966
170	0x3e8444db	0.25833783
171	0xbed0c034	-0.4077164
172	0xbc2da5c7	-0.010598606
173	0xbd7242be	-0.05914568
174	0xbfa84e0e	-1.314882
175	0xbefd8dd8	-0.4952228
176	0x3fd4bce8	1.662015
177	0xbf3bfda5	-0.73433906
178	0x3f1a5949	0.6029249
179	0xbf57562d	-0.8411587
180	0xbf16da96	-0.58927286
181	0xbee04f98	-0.43810725
182	0x3cca6878	0.024708018
183	0x3e979a2d	0.29609814
184	0xbc87d48b	-0.01658084
185	0xbf41cabb	-0.7569997
186	0xbf8e2911	-1.1106282
187	0xbe763b61	-0.24046089
188	0x3f856719	1.0422088
189	0x3e598140	0.21240711
190	0x3f6fe9ce	0.9371613
191	0x3eeb32cc	0.45937192
192	0xbf6534e8	-0.89533854
193	0xbe924c5e	-0.2857389
194	0xbfc46072	-1.5341933
195	0xbf096c08	-0.5368047
196	0xbb9a1c2e	-0.0047030663
197	0xbea447cc	-0.32086027
198	0x3de0f77e	0.109847054
199	0x3eaaf29b	0.33388218
200	0x3e9c3b89	0.30514172
201	0x3ea8a0fb	0.32935318
202	0xc06b46d0	-3.676197
203	0x3f153c46	0.58295095
204	0x3f3ba14f	0.7329301
205	0xbeae1420	-0.3399973
206	0xbe24d753	-0.16097765
207	0x3f71b52e	0.94417083
208	0x3da33918	0.07969874
209	0xbd117047	-0.035507467
210	0xbf29f4b4	-0.6638901
211	0x3f83889f	1.0276068
212	0x3e9397a8	0.28826642
213	0xbe7466f3	-0.23867397
214	0xbf36c839	-0.71399266
215	0x3f5552e7	0.83329624
216	0xbe418f65	-0.18902357
217	0xbf87a78b	-1.0598005
218	0x3f5d2dba	0.863979
219	0xbfdd5141	-1.7290422
220	0xbf7d4d62	-0.989462
221	0x3f55ccc2	0.8351556
222	0x3f29c285	0.6631244
223	0xbea45bc8	-0.32101274
224	0xbe4f943a	-0.20271388
225	0xbe94733d	-0.2899417
226	0xbfcf113c	-1.6177135
227	0x40911e40	4.5349426
228	0xbdfa8ec1	-0.122342594
229	0x3d5b5c9b	0.053555112
230	0xbcdfa14c	-0.027298592
231	0x3f71f7ce	0.94518745
232	0x3eaa1e11	0.33226064
233	0x3eb3576f	0.35027644
234	0x3ecfdd9a	0.40598756
235	0xc00f1c7b	-2.2361133
236	0x3f4499d9	0.7679725
237	0xbf31404f	-0.6923875
238	0xbe1d7661	-0.15377189
239	0x3f10ef6f	0.56615347
240	0x3f4d05f2	0.80087197
241	0x3f9be207	1.2178353
242	0x3eaa94d7	0.3331668
243	0xbe263391	-0.16230609
244	0x3ffd28de	1.9778097
245	0x3fb5fe9d	1.4218327
246	0x3eb883a2	0.36037928
247	0xbf9dbfbc	-1.2324138
248	0xbeeec815	-0.46637025
249	0x3e182046	0.14856061
250	0x3de8fe5c	0.1137664
251	0xbf01522d	-0.50516015
252	0x3fc2e60a	1.5226452
253	0x3fafdc36	1.3739078
254	0xbe377af7	-0.17918001
255	0xbfdf476b	-1.744367

fc1.bias f4 [32]
0	0xbf1f3fda	-0.62206805
1	0x3cab8d09	0.020941274
2	0xbf492a46	-0.7858013
3	0xbf289649	-0.65854317
4	0xbf13f8b4	-0.57801366
5	0xbeabcb1c	-0.33553398
6	0x3f4386fb	0.7637784
7	0x3f05fb9f	0.5233707
8	0xbdb3df1b	-0.08782788
9	0x3e6c4700	0.2307396
10	0x3bf30eb6	0.007417525
11	0x3eca98f3	0.39569816
12	0xbeb6cc33	-0.35702667
13	0xbf0db9c3	-0.55361575
14	0x3c0f2b74	0.008738387
15	0xbe1220b6	-0.1427029
16	0xbdf44025	-0.11926297
17	0x3e7d92b6	0.24762997
18	0x3ed1dfc9	0.40991047
19	0xbe9fd01b	-0.3121346
20	0x3eb88b97	0.36044
21	0xbde721cb	-0.11285742
22	0xbf108d5b	-0.5646569
23	0x3f0d63b7	0.5523028
24	0xbeae5236	-0.34047097
25	0xbcde0ace	-0.027104761
26	0xbf3e2441	-0.7427407
27	0x3da176ce	0.07883988
28	0x3cc5130b	0.024056932
29	0x3f7ef310	0.99589634
30	0xbe94e293	-0.29079112
31	0xbe956490	-0.29178286

fc2.weight f4 [64, 32]
0	0xbd25944a	-0.040424623
1	0xbd595530	-0.053059757
2	0xbddc7f5f	-0.107664816
3	0x3c9b91b2	0.018990371
4	0x3cc70180	0.024292707
5	0xbd8353ec	-0.06412491
6	0xbd945ab1	-0.072438605
7	0xbe0a2ece	-0.13494417
8	0x3db856da	0.090009406
9	0xbe40308d	-0.1876852
10	0x3c57b914	0.013166685
11	0xbdbdb44b	-0.09262904
12	0xbe003c27	-0.12522946
13	0xbbaa97ff	-0.0052061076
14	0xbe186802	-0.14883426
15	0x3c12f4fd	0.008969543
16	0x3d0e31e7	0.03471556
17	0xbe26c2e4	-0.16285282
18	0xbc85c067	-0.016327096
19	0x3cf0f7d0	0.029415041
20	0x3ce3cbd4	0.027807154
21	0xbd5c928c	-0.053850695
22	0xbe458110	-0.19287515
23	0xbd93d6f9	-0.07218737
24	0x3ce1ee73	0.027579522
25	0xbdc5b1c4	-0.09653047
26	0x3d10c36d	0.035342623
27	0x3d946651	0.07246078
28	0xbdcb617f	-0.09930705
29	0xbd901e64	-0.070370466
30	0x3d10b7a0	0.03533137
31	0x3c6301a9	0.013855376
32	0x3f3a9149	0.7287794
33	0x3e99a637	0.30009624
34	0x3ee87cb9	0.45407656
35	0x3f3644df	0.7119884
36	0x3f5ab591	0.854333
37	0x3e1c3fff	0.15258788
38	0xbc1458cb	-0.009054373
39	0xbe006f51	-0.12542464
40	0x3f472e4e	0.7780503
41	0x3f68432b	0.9072749
42	0xbf48f57c	-0.7849958
43	0x3ee6e298	0.45094752
44	0x3f07859a	0.52938235
45	0x3f7ad27c	0.97977424
46	0xbf88206c	-1.0634894
47	0xbc6b3639	-0.014356189
48	0x3eb50c7a	0.3536108
49	0x3ecbee14	0.39830077
50	0x3e44024f	0.19141506
51	0x3f9456fa	1.1589043
52	0xbf8116e1	-1.0085107
53	0xbe3220a2	-0.17395261
54	0x3f8942d3	1.0723518
55	0x3eb0b858	0.34515643
56	0x3f0ff0a6	0.56226575
57	0xbf535ee9	-0.82566696
58	0x3f987ce7	1.1913117
59	0xbe246656	-0.16054663
60	0xbe9322b3	-0.2873741
61	0x3da3fb64	0.08006933
62	0xbf77e66c	-0.9683597
63	0x3f929b96	1.1453731
64	0x3f016ca6	0.5055641
65	0xbcbda25d	-0.02314871
66	0x3e34164d	0.17586632
67	0x3f418394	0.755914
68	0x3f0e7884	0.5565264
69	0x3cc551e0	0.024086893
70	0xbfc9f6ca	-1.5778439
71	0xbe9ec2af	-0.31007907
72	0x3fa77c37	1.3084782
73	0x3e699d71	0.22813965
74	0x3d845ff5	0.06463615
75	0xbed29279	-0.41127375
76	0x4008cd9d	2.1375496
77	0x3f7c0e06	0.984589
78	0x3eadedd4	0.3397051
79	0xbee48796	-0.44634694
80	0x3f4aeb59	0.7926536
81	0xbd8ecec6	-0.06973033
82	0xbdcadd00	-0.09905434
83	0x3fe9fb0f	1.8279742
84	0xbead24f4	-0.33817255
85	0xbd2cb032	-0.04216022
86	0x3f811f00	1.0087585
87	0x3c850674	0.016238429
88	0x3fa852f7	1.3150319
89	0x3fcbf998	1.5935545
90	0x3fa53e03	1.290955
91	0x3e9f1a21	0.31074622
92	0x3f9381a3	1.1523937
93	0xbe24925b	-0.16071455
94	0xc00a40e1	-2.16021
95	0x3f70f686	0.94126165
96	0x3e9cba6c	0.3061098
97	0x3f4f16a1	0.80893904
98	0x3f03d484	0.5149615
99	0x3f872dcb	1.056085
100	0x3f13c7ce	0.5772675
101	0x3f207612	0.6268016
102	0xbfa283af	-1.2696437
103	0x3f36e5cd	0.714444
104	0x3f24cf55	0.64378864
105	0xbf4cd4a5	-0.8001197
106	0x3e9fe07d	0.31225958
107	0xbdcd310a	-0.10019119
108	0x3ef2aca1	0.4739733
109	0xbebbfdd0	-0.3671708
110	0x3f163b77	0.58684486
111	0x3f3274b7	0.6970934
112	0xbe67a8de	-0.22623011
113	0x3e9572bc	0.29189098
114	0xbe8d0a50	-0.2754693
115	0x3f45c776	0.7725748
116	0xbee0aae6	-0.43880385
117	0x3f82337d	1.0171963
118	0x3f8d9219	1.106021
119	0x3f206504	0.6265414
120	0xbf26c8de	-0.6515025
121	0xbf5a4f78	-0.8527751
122	0xbf206787	-0.6265797
123	0x3e2fc02e	0.17163154
124	0x3e8a8f17	0.27062294
125	0x3b971dca	0.0046117054
126	0xbfab7001	-1.3393556
127	0x401c0d79	2.4383223
128	0x3e9e41e3	0.30909643
129	0x3f1513f0	0.5823355
130	0x3f16a54f	0.5884599
131	0x3fb2ce0a	1.3969128
132	0x3f5279da	0.8221718
133	0x3ef30e1d	0.47471705
134	0xbf8d63ad	-1.1046044
135	0x3cf06855	0.029346624
136	0x3f890179	1.0703574
137	0xbe8e55c0	-0.27799797
138	0x3f207ff1	0.62695223
139	0xbfb21d2f	-1.3915156
140	0x3f36d01b	0.71411294
141	0x3f180ccc	0.59394526
142	0x3f45c7c5	0.7725795
143	0x3f5e21dc	0.86770415
144	0x3e23d3c1	0.15998746
145	0x3e2ef009	0.17083754
146	0xbf1ddd87	-0.6166615
147	0x3fa2e8ab	1.2727255
148	0xbe93b230	-0.28846884
149	0x3e9529a0	0.2913332
150	0x3fad23ee	1.352659
151	0x3e2d147a	0.16902342
152	0xbe8facca	-0.28061515
153	0xbfd057ea	-1.6276829
154	0xbf7266a1	-0.9468785
155	0x3eed1f73	0.46313056
156	0x3e389e92	0.1802924
157	0x3deb7485	0.11496834
158	0xbfd8d298	-1.6939268
159	0x40122a99	2.28385
160	0xbe9d230b	-0.30690798
161	0x3dc98f4f	0.09841787
162	0xbee1228a	-0.43971664
163	0x3ebbdc8c	0.366917
164	0x3efafcc0	0.49020958
165	0x3fb26d70	1.3939648
166	0xbf2fc3c7	-0.6865811
167	0x3f7d3051	0.9890185
168	0xbeffa246	-0.49928492
169	0xbf80b7e3	-1.0056118
170	0xbf8af9be	-1.0857465
171	0x3b262693	0.0025352582
172	0xbe330ab4	-0.17484552
173	0xbf8bcaac	-1.0921226
174	0xbcd0e9b1	-0.025502058
175	0xbfc4efda	-1.5385697
176	0x3f508ecb	0.81467885
177	0xbe03b6ab	-0.12862651
178	0x3cbbae49	0.022910254
179	0xbf37da32	-0.71817315
180	0x3f844d6d	1.0336128
181	0xbffac668	-1.9591799
182	0x3df014d7	0.11722725
183	0x3f2de4e0	0.6792736
184	0xbe797cdd	-0.24364038
185	0xbe8d38fd	-0.2758254
186	0xbf6fa601	-0.93612677
187	0x3e3e8c91	0.1860831
188	0xbf1a5074	-0.6027901
189	0x3f1bc479	0.6084667
190	0x3eb4fc3f	0.35348698
191	0xbf02329b	-0.5085847
192	0xbf758fc1	-0.95922476
193	0xbf660aa1	-0.8985997
194	0xc0010dfe	-2.016479
195	0xbfa43d28	-1.2831163
196	0xbf48f4ec	-0.7849872
197	0xbe9903a3	-0.29885587
198	0x3f2f0508	0.6836705
199	0x3e9f7764	0.31145775
200	0x3e001e06	0.12511453
201	0xbe81dbd9	-0.25363043
202	0x3fc81a39	1.5633003
203	0x3ec246a4	0.3794452
204	0xbe910a2c	-0.28328073
205	0xbf2b4cc9	-0.6691404
206	0x3f41b541	0.75667197
207	0xbed54464	-0.4165374
208	0x3f1527a0	0.5826359
209	0xbe605e93	-0.21911077
210	0xbf14682f	-0.5797147
211	0xbfa9549c	-1.3228946
212	0x3f59123a	0.84793437
213	0x3f82e01f	1.0224646
214	0xbf86d1ee	-1.0532815
215	0xbc0da3c8	-0.0086450055
216	0xbdb5f9a9	-0.088855095
217	0x3fe4c9c6	1.7874076
218	0xc01de34e	-2.4669986
219	0x3f01542e	0.50519073
220	0x3f5da982	0.86586773
221	0x3f8eb238	1.1148138
222	0x3fa76d1a	1.308017
223	0xbf5eec6d	-0.8707951
224	0x3e01d93f	0.12680529
225	0xbc8715cf	-0.016489891
226	0x3d13419d	0.035951246
227	0x3f38f20a	0.7224432
228	0x3f146eee	0.57981765
229	0xbe9fa9f2	-0.31184345
230	0xbf7f777b	-0.9979169
231	0x3eba8d94	0.3643614
232	0x3f43c85e	0.7647761
233	0xbe18a606	-0.14907083
234	0x3e15aa6a	0.14615789
235	0x3e6901e2	0.22754624
236	0x3e487732	0.1957672
237	0x3f096c43	0.5368082
238	0xbebeda86	-0.37276095
239	0x3e8624db	0.26199993
240	0x3eae945d	0.34097567
241	0x3da3dffc	0.08001706
242	0x3e96480b	0.2935184
243	0x3f82e7c9	1.0226985
244	0xbf7319f8	-0.949615
245	0xbecf2471	-0.4045749
246	0x3f3b390e	0.73133934
247	0x3e5b78c7	0.21432792
248	0x3f02037f	0.50786585
249	0x3f564ef1	0.83714205
250	0x3f277e94	0.6542752
251	0xbe130148	-0.14355958
252	0x3ef45602	0.4772187
253	0x3e8ed95c	0.27900207
254	0xbf6b4584	-0.9190295
255	0x3f8d2fe7	1.1030244

fc2.bias f4 [64]
0	0xbd9f0beb	-0.07765945
1	0x3eacf93a	0.33783895
2	0x3e18c4cb	0.1491882
3	0xbe7c1427	-0.24617063
4	0xbc23e960	-0.010004371
5	0xbd23d61f	-0.039999124
6	0x3f85ee3d	1.046333
7	0x3f3358be	0.70057285
8	0xbe9e4892	-0.30914742
9	0x3f1d644c	0.61481166
10	0x3e73d3fe	0.23811337
11	0x3e28e683	0.16494183
12	0x3e8ee216	0.27906865
13	0xbd8b70e1	-0.06808639
14	0x3f833039	1.0249091
15	0x3f8a784e	1.0817964
16	0x3e8b2514	0.27176726
17	0xbd60c70a	-0.05487732
18	0x3eb9b383	0.3626977
19	0x3e948f71	0.29015687
20	0xbdd13b77	-0.1021642
21	0x3e0d8143	0.1381884
22	0x3be0054f	0.0068365703
23	0x3f19d32b	0.6008784
24	0x3e90a44d	0.28250352
25	0xbc3990ac	-0.011325996
26	0xbf63644e	-0.8882493
27	0xbe326cc3	-0.17424302
28	0xbd8ead1c	-0.06966612
29	0x3ebe14ba	0.37125188
30	0x3da57bcd	0.08080254
31	0xbf04579e	-0.51696193
32	0x3e4639f6	0.19358048
33	0xbbf2e84e	-0.007412947
34	0xbe338809	-0.17532362
35	0xbdfeb3b2	-0.12436618
36	0x3f8eed78	1.116622
37	0x3f3729fb	0.7154843
38	0xbdf83967	-0.12120324
39	0x3ee4430d	0.44582406
40	0x3f29ab0d	0.6627663
41	0xbec210f5	-0.37903562
42	0x3f7eb9ef	0.9950246
43	0x3f77e80b	0.96838444
44	0x3f14e7ec	0.58166385
45	0x3fb23afd	1.3924252
46	0xbd3d1c16	-0.046169363
47	0x3e08da3f	0.13364504
48	0x3e951942	0.29120833
49	0x3e879ad4	0.26485312
50	0x3f470c7f	0.7775344
51	0xbe4aa21b	-0.19788401
52	0x3efc984d	0.49334946
53	0x3f555dd9	0.83346325
54	0x3e503ceb	0.20335738
55	0x3f45ee11	0.77316386
56	0x3f2cb98d	0.6747063
57	0x3f6584cb	0.8965575
58	0x3fafd093	1.3735527
59	0xbe771751	-0.24129988
60	0x3ee2d84c	0.44305646
61	0x3ea42457	0.32058975
62	0x3f0270f4	0.509536
63	0x3f0a2c9e	0.5397433

fc3.weight f4 [4, 64]
0	0x3ddc31b0	0.10751665
1	0xbf1f5689	-0.6224142
2	0xbf7158e4	-0.9427626
3	0x3e70466c	0.23464364
4	0xbf5ad994	-0.8548825
5	0x3f7c0877	0.98450416
6	0x3f6aaf98	0.91674185
7	0xbef4af9d	-0.47790232
8	0xbe302e71	-0.17205216
9	0xbf0f13f5	-0.55889827
10	0xbfd8cfd4	-1.6938424
11	0xbeed1d38	-0.46311355
12	0xbf5aebd3	-0.8551609
13	0xbecb0cf1	-0.3965831
14	0x405562d7	3.3341577
15	0x3f99d82c	1.2019095
16	0xbf2cd438	-0.6751132
17	0xbf2462e0	-0.6421337
18	0xbf4275c7	-0.75960964
19	0xbf24a3f3	-0.64312667
20	0xbebf24b4	-0.3733269
21	0xbefc3276	-0.4925725
22	0xbe10fe72	-0.14159563
23	0xbecf2b95	-0.40462938
24	0xbdfe5ae0	-0.12419677
25	0xbcccb440	-0.024988294
26	0xbf8007c8	-1.0002375
27	0xbd938b70	-0.0720433
28	0xbddbb3bd	-0.10727642
29	0x3fd46bad	1.659536
30	0xbf9800e8	-1.1875277
31	0x3f6f3e51	0.9345446
32	0xbedd503c	-0.43225276
33	0xbe9b8257	-0.3037288
34	0x3dd637db	0.10459872
35	0x3daba17b	0.08380409
36	0x4063ae88	3.5575275
37	0x3efd1b50	0.494349
38	0xbca62742	-0.020282391
39	0x3e9d330f	0.30703017
40	0xbea5d374	-0.32387888
41	0xbfc537c8	-1.5407648
42	0xbeca7a19	-0.39546278
43	0x3fdacf11	1.7094442
44	0xbf97f0b2	-1.1870329
45	0x402b85ed	2.6800492
46	0x3f626d08	0.8844762
47	0xbf916d4a	-1.1361477
48	0xbf9bd70f	-1.2175006
49	0xbeed9021	-0.46399024
50	0xbf0407b8	-0.5157428
51	0xbd54eb5f	-0.05198228
52	0xbf19a261	-0.60013396
53	0xbf493ea3	-0.786112
54	0xbf2ea9d9	-0.68227917
55	0xbfda6026	-1.7060592
56	0xbfe70a4b	-1.8050016
57	0x40395390	2.8957253
58	0x4032cf44	2.7939005
59	0x3b574bbe	0.0032851542
60	0x3fe18799	1.7619506
61	0xbf3477f9	-0.70495564
62	0xbeb8d4fe	-0.361
63	0xbeae8c35	-0.34091344
64	0x3d9205ad	0.07129989
65	0xbedcada0	-0.43101215
66	0xbf64ffc3	-0.8945276
67	0xbe95c144	-0.29249012
68	0xbf51397a	-0.8172833
69	0x3ff99eaf	1.9501551
70	0x3fbd385f	1.4782828
71	0xbec667a3	-0.38750944
72	0xbf254cba	-0.645702
73	0xbfb8f065	-1.4448363
74	0xbf5a68da	-0.8531624
75	0xbf8638f4	-1.0486131
76	0xbed8535d	-0.422511
77	0xbe3b8239	-0.18311395
78	0x405e770b	3.4760158
79	0x4003b3fb	2.0578601
80	0xbe74fba8	-0.23924124
81	0xbea74a07	-0.32673666
82	0xbf044027	-0.5166039
83	0xbf8d8d4f	-1.1058749
84	0xbfaef99b	-1.3669924
85	0xbf748fb7	-0.9553179
86	0x3c2b8063	0.0104676215
87	0xbfb7ec78	-1.436904
88	0xbf3de676	-0.7417978
89	0xbb50b040	-0.0031843334
90	0xbfd212e1	-1.6412011
91	0x3d07e810	0.033180296
92	0xbfecf662	-1.851269
93	0x4012c1e7	2.2930849
94	0x3f6e7e9a	0.9316193
95	0xbfb87452	-1.4410498
96	0xbe840c67	-0.25790712
97	0xbe39344b	-0.18086354
98	0xbdd31bd0	-0.10308039
99	0x3b99fccf	0.0046993266
100	0x405df3bf	3.468002
101	0x3ef08bbf	0.46981618
102	0xbdb07d94	-0.08617702
103	0x3f48528c	0.78250957
104	0xbeebcae3	-0.46053228
105	0xbfbb05a0	-1.4611092
106	0xbe929da5	-0.28635898
107	0x401195e4	2.2747736
108	0xbf859cb7	-1.043845
109	0x403b8f73	2.9306304
110	0xbf21bad4	-0.631757
111	0xbf52fcc5	-0.82416946
112	0xbf3040ce	-0.68848884
113	0xbf3b3475	-0.7312692
114	0xbf277c15	-0.6542371
115	0xbf74793d	-0.95497495
116	0xbf84fc01	-1.0389405
117	0xbf058616	-0.52157724
118	0xbf116bac	-0.5680492
119	0xc00645dc	-2.0980139
120	0xbf543cfd	-0.8290556
121	0x40237e37	2.5545785
122	0x3fe1776c	1.761457
123	0xbd161fd5	-0.03665145
124	0x3fd45bff	1.6590575
125	0xbf15f5bc	-0.58578086
126	0xbf8ddcc3	-1.1082996
127	0xbf88f3cf	-1.0699404
128	0x3c6b9610	0.014379039
129	0xbf0c85e1	-0.54891783
130	0xbf646d3d	-0.89229184
131	0xbf74c522	-0.956133
132	0xbf2fbed2	-0.68650544
133	0x3ff9ea25	1.952458
134	0x4002743c	2.0383444
135	0xbf641366	-0.890921
136	0xbfcc8130	-1.5976925
137	0xbf44f4c3	-0.76935977
138	0x3ede9fce	0.43481296
139	0xbf431710	-0.76207066
140	0xbf5c6b52	-0.8610126
141	0xbf0bc142	-0.54591763
142	0x40251722	2.579537
143	0xbfac46dd	-1.3459126
144	0xbf0e7088	-0.5564046
145	0xbf23ae7e	-0.6393813
146	0xbec54fe0	-0.38537502
147	0xbf739903	-0.9515535
148	0xbe97b8a3	-0.29633054
149	0x3f0667cf	0.5250215
150	0xbd4cf03e	-0.0500338
151	0xbf3bb5dd	-0.73324376
152	0xbf8260b3	-1.018576
153	0x3bc276c0	0.0059345663
154	0x3f94f855	1.1638285
155	0x3d717fb3	0.058959674
156	0x3f8485da	1.0353348
157	0x3efe2731	0.49639276
158	0xbf8a8904	-1.0823064
159	0x3e745d21	0.23863651
160	0xbf073852	-0.5282031
161	0xbf17bd0c	-0.5927284
162	0x3d1cda4f	0.038294133
163	0xbd939d79	-0.0720777
164	0x403c1dc4	2.9393167
165	0x3fd5f48f	1.6715258
166	0xbd1db808	-0.038505584
167	0xbe614e79	-0.22002591
168	0xbf1e6f3c	-0.6188848
169	0xbf5f6eb4	-0.87278295
170	0xbf49ac48	-0.78778505
171	0x3fdf5bf0	1.7449932
172	0xbf04e0c6	-0.5190548
173	0x3fc7039f	1.554798
174	0x403a13ae	2.9074512
175	0xbf1e351b	-0.6179978
176	0xbf797bbd	-0.97454435
177	0xbf77ed8b	-0.96846837
178	0xbf077da2	-0.52926075
179	0xbf169cb7	-0.5883288
180	0xbef09a43	-0.46992692
181	0xbebefacd	-0.3730072
182	0xbf32aa79	-0.6979137
183	0xbfd4bfd1	-1.6621038
184	0xbf344f72	-0.70433724
185	0x404b4e29	3.1766455
186	0x4004ac41	2.0730135
187	0x3da07880	0.078354836
188	0x40131377	2.298063
189	0xbf30b864	-0.6903136
190	0xbfd5e4be	-1.6710432
191	0xbf376f00	-0.7165375
192	0xbdb4598c	-0.08806142
193	0xbeffdbf8	-0.4997251
194	0xbf5e1f65	-0.86766654
195	0xbf1cea2e	-0.6129483
196	0xbf5c06c4	-0.85947824
197	0x3f9b8b8d	1.2151963
198	0x3fd11288	1.633378
199	0xbea32a5d	-0.31868258
200	0xbe2b6f6a	-0.1674172
201	0xbf06bde0	-0.52633476
202	0xbfdd8022	-1.7304728
203	0xbf6aeec0	-0.91770554
204	0xbf51bb98	-0.8192687
205	0xbf90e73e	-1.132057
206	0x4040343c	3.0031881
207	0x3fcfb5be	1.6227338
208	0xbf090e0b	-0.5353705
209	0xbf2597f3	-0.6468498
210	0xbef66dcb	-0.4813064
211	0xbd77640c	-0.060398147
212	0xbf3e62e9	-0.74369675
213	0xbf3de35e	-0.7417506
214	0xbd546759	-0.051856373
215	0xbef41073	-0.476688
216	0x3db8fe90	0.09032929
217	0xbdf44bc8	-0.119285166
218	0x3e413b24	0.18870217
219	0x3dd1c156	0.10241954
220	0xbe032e8d	-0.12810726
221	0x3f366b65	0.7125762
222	0xbf3c02e1	-0.7344189
223	0x3eb155f7	0.34635898
224	0xbf4294fa	-0.7600857
225	0xbf69f462	-0.91388524
226	0x3d487105	0.04893591
227	0xbde0896a	-0.1096371
228	0x40582c26	3.3776946
229	0xbea18e84	-0.31554043
230	0xbd81dfec	-0.06341538
231	0xbf3e81dc	-0.744169
232	0xbf2ce77e	-0.6754073
233	0xbf06f5f9	-0.52719074
234	0xbebf3c8c	-0.3735088
235	0x3fee2c28	1.8607225
236	0xbf107c9e	-0.5644015
237	0x4041bc23	3.027108
238	0x3f5b0055	0.8554738
239	0xbf4b1a18	-0.7933669
240	0xbefb031b	-0.49025807
241	0x3e350aa3	0.17679839
242	0xbf161c62	-0.5863706
243	0xbf0dd733	-0.5540649
244	0xbf3c7edb	-0.73631066
245	0xbee68d51	-0.4502969
246	0xbf4158a7	-0.755259
247	0xbfd5e57b	-1.6710657
248	0xbf167143	-0.58766574
249	0x402df5a0	2.7181168
250	0x402fb552	2.745442
251	0x3d8648f4	0.065568835
252	0x3fd7b9f0	1.6853619
253	0xbf1774cd	-0.591626
254	0xbf52a45a	-0.8228203
255	0xbeccf65e	-0.40031713

fc3.bias f4 [4]
0	0xbee89287	-0.45424291
1	0xbd64f83e	-0.055900805
2	0x3edf6718	0.43633342
3	0xbed83519	-0.4222801
