weights/g1.0_lr0.001_decay_0.99999999.pth (torch, 12865 bytes, 6 tensors)

fc1.weight f4 [32, 8]
00000000: 9339 2dbf 1337 3ebf 4457 60bf b277 0abf
00000010: ee60 023e 28bf 023f cfd9 103f 928b f5bc
00000020: 3bda 353d c211 03bd 5bac a0be 2a56 fa3d
00000030: e595 16bf b7a3 c7bf 48a5 33bf 1387 003f
00000040: 6237 babd 0471 513d 920e a53e 76b4 06be
00000050: 9637 653f 8504 b93f 279e 0a3f 6f31 8a3e
00000060: b52f 523e e964 94bf 98e3 483f a391 06bf
00000070: fd78 81bf ea5c 97be 2654 a2be 9133 fe3e
00000080: 7660 b2be 9854 86bf a828 8dbe 91bb 97bf
00000090: 8b09 ad3d 038d d83e f661 74bf 4159 c8be
000000a0: 249c c83e 6a2f 97bf 5e1e 383f 51fc c8be
000000b0: c6bf 5cbf 077b 01be 398d 103e 67e6 a63e
000000c0: a34b 003e 7507 45bf ce8d 0d3f ca10 3fbe
000000d0: ea16 bc3e 5ae1 063e 60dd 9b3d 5ca4 febe
000000e0: 7b6e cebe 8dad 7ebf 7943 b7be 33f5 c7be
000000f0: 9b2e 473f 6480 bb3e 9c64 9abe 100f 8b3d
00000100: 6b9c d63e b29b 1bc0 26ec 07bf 6f57 50bf
00000110: 8945 f2be 4ee8 853f 098b 65bf 007d ce3d
00000120: e36c b13b 12c8 3b3f 960d ee3e bd9e 2940
00000130: 02f5 453d 971f febe 9746 ba3e b97f 6ebf
00000140: 2197 a1be 35e6 253f 1f37 823f 8ac0 6fbf
00000150: 83bd e9be e9c1 343f b6b4 fc3e 34b8 333f
00000160: 7808 f0be cf81 19bf 1832 d03e b61f 3340
00000170: de6b e73e bf2b e63d 92df e6bf 54a3 1f3f
00000180: 44ac 88be 0a99 893f ff1e 22bf c955 cdbe
00000190: f4a9 bd3f 7479 c83e df88 61bf f117 6f3e
000001a0: 38a8 e8be 1d83 2ebf 5d95 21be 0ee1 babe
000001b0: e51a 453f e3b2 b43e 180b 8ebe 2b1d bb3e
000001c0: cf5f 14bf 9346 aabe d43e e93f 0404 65bf
000001d0: caa6 ddbf d19b 983c 8fb6 3bbc d34e 903f
000001e0: 8c68 8a3e d8ef 7d3e a0fa 673e 267c 9f3e
000001f0: 2fa5 4bbf 6762 3cbf d2ed 23bf 3661 9e3f
00000200: e3fd 833e 4fdb 7dbf e1a7 1c3d 6945 91bf
00000210: c989 73be c516 56be ac26 1b3e 420d a0be
00000220: 63b5 9e3e f8cc 11bf 3bf2 003f 8972 85be
00000230: b627 153f 3c1f 3c3e a3c3 da3e bf6e 38be
00000240: 5d7a 343d 2c8c 10bf 0a07 8c3e b70c 523c
00000250: 0452 fabe 7d24 51bf 23b2 61bf 166e b3bf
00000260: bb86 bcbe 60d2 223f 4ff5 263f 4fda 693e
00000270: 5916 f7be de71 5dbf 3ced 01bf 1178 973f
00000280: 41a0 3ebf 2814 3cbf 3d61 d3bf ed30 9cbe
00000290: 3c16 963f 9931 58be eb4a 6cbf 273b 753f
000002a0: f008 24bf a10a 4fbf 5f62 253b 3df4 aabe
000002b0: a5d0 2b3f cfea dc3e 3c29 a9bd 21ad 5e3e
000002c0: c21b f53e 00ad 9cbf a9f4 553f 7aff 3cbf
000002d0: a637 29bf 9b90 73be 3415 993d 26de d53d
000002e0: 289a 293f af1d 7fbf 03e5 333d d460 95bf
000002f0: d500 6c3d 2185 033e b300 12bd 668d 74be
00000300: c27a 67bf eb51 38bf d6ec 62bf 0fb0 0f3c
00000310: a871 cdbd e1d9 73be 1d02 053f 5a3f b0be
00000320: 942b 88be 6a73 5dbf ac03 39bf fe11 67bf
00000330: 97ee df3e e3a7 8e3f cc93 bb3d fe0e 563e
00000340: 4198 3d3e aa46 a63e 759a 56be 985b 27bc
00000350: 53b4 6a3f 7c35 32bf 609f 24be 5f4d 0dbf
00000360: 3573 00bf 45ed 7bbf ade6 323d da92 c5be
00000370: ed87 3c3f ea90 3b3f 673b bcbd 6615 b23d
00000380: 2d81 75bf d7ae 0abf 3155 49bf 26cc a73e
00000390: 0cc9 50bd dab1 abbe abcd 84bd 5d19 973e
000003a0: 3c21 d43e 7bd4 8c3f 77ba 173f dd41 7cbe
000003b0: 5771 02bf 5742 27bf 6ac7 92be 3572 8f3f
000003c0: 05dc cf3d 5afd 333f de86 873e 6bf2 78bd
000003d0: e1ee 773f 8ca4 3ebf 59e4 0bbe a127 2ebf
000003e0: 30ab 3cbe f1b4 10bf d35a a0bd 5db8 c8bd
000003f0: 77a1 713f f3cb 273f 371e 053f 2926 79bf
-0.67665976 -0.74302787 -0.87633157 -0.5408889 0.12732288 0.5107293 0.5658235 -0.029973779
0.044397574 -0.031999357 -0.31381497 0.12223466 -0.5882247 -1.5596837 -0.70174074 0.50206107
-0.09092595 0.05113317 0.3223768 -0.13154778 0.8953794 1.4454504 0.5414757 0.2699084
0.20526011 -1.1593295 0.7847228 -0.52565974 -1.0115048 -0.29563075 -0.31704825 0.49648717
-0.3483922 -1.0494566 -0.2757008 -1.1854116 0.08449086 0.42295083 -0.95461977 -0.39130595
0.39181626 -1.1811345 0.71921337 -0.39255002 -0.86230123 -0.12644587 0.14116372 0.32597658
0.12528853 -0.76964504 0.552945 -0.18658748 0.36736232 0.13171902 0.07610583 -0.4973477
-0.40318665 -0.9948357 -0.35793665 -0.3905426 0.7780549 0.36621392 -0.30154884 0.06789982
0.41916212 -2.431378 -0.5309471 -0.81383413 -0.47318676 1.0461519 -0.89665276 0.100824356
0.0054145916 0.7335216 0.4649474 2.6503136 0.04832936 -0.49633476 0.3638198 -0.9316364
-0.31560615 0.64804393 1.0173072 -0.93653166 -0.45652398 0.70608383 0.49356622 0.70202947
-0.4688146 -0.599637 0.40663218 2.7988105 0.45199484 0.11238813 -1.8036978 0.62358594
-0.26693928 1.0749829 -0.63328546 -0.4010451 1.481749 0.3915516 -0.88099474 0.23348977
-0.4544084 -0.68168813 -0.15779634 -0.36499828 0.7699416 0.3529273 -0.2774284 0.3654569
-0.5795869 -0.3325697 1.8222299 -0.8945925 -1.7316525 0.018628987 -0.0114571 1.1274055
0.27032888 0.24798524 0.226542 0.31149405 -0.79548925 -0.7358765 -0.6403476 1.2373416
0.25779638 -0.99162763 0.03824604 -1.1349307 -0.2378303 -0.20907123 0.15151471 -0.31260115
0.30997762 -0.5695338 0.50369614 -0.26063946 0.5826372 0.1837129 0.42727384 -0.18010996
0.044062007 -0.56463885 0.2734912 0.012820414 -0.48890698 -0.816963 -0.8816244 -1.401797
-0.3682154 0.63602257 0.6521806 0.22837184 -0.48259237 -0.8650187 -0.50752616 1.1833516
-0.7446328 -0.73468256 -1.651405 -0.30506077 1.1725535 -0.2111267 -0.92301816 0.95793384
-0.6407614 -0.80875593 0.0025235636 -0.33389464 0.6711524 0.43147895 -0.08259818 0.21745731
0.4787274 -1.2240295 0.83576447 -0.73827326 -0.6610054 -0.23785631 0.07474747 0.10442762
0.6625085 -0.9965467 0.043919574 -1.1670175 0.05761798 0.12843753 -0.035645198 -0.23882064
-0.9042169 -0.71999997 -0.8864263 0.008770003 -0.10031444 -0.23813583 0.5195635 -0.34423333
-0.26595747 -0.8650423 -0.7227123 -0.9026183 0.43736717 1.1144985 0.091590494 0.20904157
0.18515112 0.32475787 -0.20957358 -0.010214709 0.916814 -0.6961286 -0.16076422 -0.55196184
-0.5017579 -0.9840892 0.04367702 -0.385886 0.73644906 0.73267996 -0.091910176 0.08695488
-0.9590023 -0.54173034 -0.78645617 0.3277294 -0.050972983 -0.33534127 -0.064845406 0.29511538
0.41431606 1.1002344 0.592689 -0.246345 -0.5095419 -0.653356 -0.28667766 1.1206728
0.10149387 0.7030846 0.26470083 -0.060778063 0.96848875 -0.7446983 -0.13661326 -0.6802922
-0.18424678 -0.56526095 -0.07829823 -0.098007895 0.94387 0.65545577 0.5199923 -0.9732385

fc1.bias f4 [32]
00000000: fdc5 72be aa39 4a3e cf24 123b 6949 a73e
00000010: 9f80 be3c 2aa8 113f 4b50 6d3f 7806 023f
00000020: 2af5 bb3e 9e7b a63e 1061 bf3e 325d 983f
00000030: 9b19 873f c3f5 c73e 18de e03e 3ded 403e
00000040: 393d 113f f316 1b3f a544 c23e e36c 55be
00000050: 92f4 8a3f 9000 a63e 5061 c13e 7dca 9d3e
00000060: 3fea 843e 2cd4 17be 8890 e5be c742 b13e
00000070: 5ad2 d43e b3ee 8f3f 5ce5 2fbf c18f a83e
-0.23708339 0.1974856 0.0022299772 0.32673195 0.02325469 0.56897223 0.9270064 0.5079112
0.36710483 0.32516187 0.3737874 1.1903441 1.0554689 0.3905469 0.43919444 0.18840499
0.56734043 0.6058189 0.37942997 -0.20842318 1.0855887 0.32422304 0.37769556 0.3081855
0.25959966 -0.14827031 -0.4483683 0.3462126 0.41566736 1.124472 -0.6870935 0.32922176

fc2.weight f4 [64, 32]
00000000: 9b50 08bd 635a 073e a83b 21bf 1e9f 1a3e
00000010: 67d1 43bd 03d3 9e3d 7c4c 3abd f3db 853d
00000020: 6290 023f 805a b93f adcc 483f 9d77 1abf
00000030: 01c2 9bbd 0f9c dabd 4fcf d93e c1af ce3e
00000040: c801 2abe c934 00bf adb9 03be 450a 903e
00000050: 4632 a1be 35e5 2cbe c2a0 acbe dacf 5ebd
00000060: b6e0 b0be 8c92 c03e 8021 a7bf f5e6 2f3f
00000070: f2cd 02bf cafd c13e 3b43 86bf 642e a5bf
00000080: cc7e ea3d d1e3 c93e 1e34 d23e 257d 603e
00000090: 3214 70bd 8541 c33e 75fe 313f e248 f73e
000000a0: 85ba 45bf 6d75 f23f 3b42 8c3d fa5f b33f
000000b0: 5783 303f 5bd9 f83e 7564 ccbc 6ecc 003f
000000c0: 1daf c53e 0d78 de3e 3aac 033f 89f9 ba3e
000000d0: 9a2b 813d cdbc b33e 050c 8d3e 4615 28be
000000e0: e5d1 ba3e a605 873e a5d4 d4bf 7fc6 083f
000000f0: 5f38 123f 41c3 b1bd 6a3c b7bf 1fe6 313f
00000100: ddab 003e 843f ec3e fd96 033f f551 853e
00000110: d775 1abe 3e2f 913e 6dca ee3e 67b8 083f
00000120: e366 7fbf bbb9 d93f 2b63 0b3e a8b7 d63f
00000130: f28a 1c3f ad7d 113f 6e16 863e 6fab 313e
00000140: c54a 333e 1240 693e b933 893e 6f66 ab3e
00000150: fe85 afbc f4c2 be3e d3d7 51bc c41f b3be
00000160: 2b87 363f d027 963e f818 cbbf 2b19 1a3f
00000170: 3063 643f 3112 4fbd 7655 98bf 4b6f 333f
00000180: c049 f73c 99ac d63e ef3e 213f 5faa dc3e
00000190: 017d 03bf 6b1f b33e 6783 d33e f594 9d3e
000001a0: db95 74bf 62cb fc3f 330d e53c 50d8 ce3f
000001b0: 3662 183f 1abf 703e 9cb6 583b 1a08 323f
000001c0: 7f0a 123e bc3c 2f3e 834c 303e fe6d dc3e
000001d0: ee7d 553e cd23 303e de8c 7d3e fb93 8dbe
000001e0: 3df8 373e 67e1 a13c 1659 eebf 2932 8b3e
000001f0: 7858 2e3f d5c7 3cbe e4cf c3bf 0644 0b3f
00000200: 5a9f adbd 1139 20c0 12f7 b63e 4384 583f
00000210: 2293 8a3d eb4f a03d c06a a43e c788 f53e
00000220: c123 1dbf 4fbc 03bf 9cef 503e c109 a83f
00000230: 025b 0e3f df91 df3e 3935 ebbe 83a0 1bbf
00000240: 58b2 093f b62a 143e 19c5 a6bf a7ea f13f
00000250: 90b7 973e 359e 033e d5e8 403f bb07 c4bd
00000260: d94b c63e df77 49be ef78 aabf 8d62 b03e
00000270: 101d 883e 0a5b fdbe d45c afbf abfe 123f
00000280: 2c9d 8fbe ead2 f9bf 0de5 88be 42f5 6b3f
00000290: c0cf 043d 4627 653f 0970 4c3f 325e f83e
000002a0: a45f e6be d158 3040 8f5b 8ec0 dec1 543f
000002b0: 50b1 60be 3efc c93d 6b35 72c0 2c34 4fbc
000002c0: 8461 d7be 1786 483f a294 2f3f 17cf fdbf
000002d0: 1c28 8abe 7028 ac3e 4bc6 a03f ad2e e43e
000002e0: 9b31 bbbe 2fc8 c8be bcf5 3d3e 33c3 c53c
000002f0: 04be b1be 0d1e e83e 5590 413f 0d0e 853f
00000300: c72b 97bf ee6b b7bf 7388 9cc0 5fd2 9dbf
00000310: 7ffc 0cbf 7936 aebe 1c9f d93e 50d4 833e
00000320: b222 333f f204 77bf 63d6 5f3f de40 0f40
00000330: b7d2 ddbe 6407 993e 037b e83f 2ebb d5be
00000340: f3d0 00c0 ba1e 263b 3f89 42c0 6690 8dbd
00000350: f9f3 ae3f 2de2 1a3e c452 d2bf 28d0 88bf
00000360: e6da 10bf 7bb3 c9bf ec38 1840 f997 823c
00000370: a4ab f53d b946 223f cd48 dabf 1aad 2ebf
00000380: 6b28 b4bb 5c88 903e 21cd 143f 9b84 d43e
00000390: 14c8 c3be 55a5 b73e a453 153f dd8f eb3e
000003a0: a2d5 6dbf cdc6 ee3f 837a 193e 1eaf a53f
000003b0: c54c da3e 6f72 ac3e 4cc0 5d3e 9ad7 f63e
000003c0: caf4 a43e 8c71 173e 645e 1c3f 883a db3e
000003d0: 0c47 7b3d cdf4 763e 3faf 0c3e dcef 8cbe
000003e0: 2533 f43e 44d8 e6bd 710f f3bf 2330 d13e
000003f0: defe 133f 047c 2ebe 0c89 b4bf 273b 173f
-0.033279996 0.13218074 -0.62981653 0.15099761 -0.047807124 0.07755091 -0.045483097 0.065360926
0.5100156 1.4480743 0.7843731 -0.60338765 -0.07605363 -0.10674297 0.42540976 0.40368465
-0.16602242 -0.50080544 -0.12863798 0.28132835 -0.31483668 -0.1688431 -0.33716398 -0.05439744
-0.3454644 0.37611806 -1.3057098 0.6871179 -0.510955 0.37888938 -1.0489267 -1.2904782
0.11449966 0.39431623 0.41055387 0.21922739 -0.05861301 0.38135925 0.69528896 0.48297793
-0.7723773 1.8942086 0.0684857 1.4013665 0.6895041 0.4860333 -0.024950245 0.50311935
0.38610163 0.43450966 0.5143467 0.36518505 0.063071445 0.3510498 0.27548233 -0.16414365
0.36488262 0.26371497 -1.6627394 0.5342788 0.57117265 -0.0867982 -1.4315312 0.6949176
0.1256556 0.4614221 0.51402265 0.2603909 -0.15084015 0.28356355 0.46638814 0.53406376
-0.9976637 1.7009805 0.13612048 1.6774797 0.61149514 0.5683239 0.26188987 0.17350553
0.17508991 0.22778347 0.26797274 0.33476588 -0.021426197 0.37258112 -0.012807804 -0.34985173
0.713 0.2932725 -1.5866995 0.60194653 0.8921385 -0.050554458 -1.1901081 0.70091695
0.030186534 0.41928557 0.62986654 0.43098733 -0.51362616 0.34984908 0.4131119 0.30777708
-0.9554116 1.9749568 0.027960395 1.6159763 0.5952486 0.235104 0.0033067828 0.6954361
0.14261816 0.17113012 0.17216687 0.43052667 0.2084882 0.17201157 0.24760768 -0.27651963
0.17965789 0.0197608 -1.8620937 0.27186707 0.6810374 -0.18435605 -1.5297818 0.5440067
-0.084776595 -2.503483 0.35735375 0.84576815 0.067663446 0.07827743 0.32112694 0.47955915
-0.6138268 -0.5145921 0.20403904 1.3127977 0.55607617 0.43665978 -0.45939043 -0.60791796
0.53787756 0.14469418 -1.30289 1.8899735 0.29632235 0.1285332 0.75355273 -0.09571787
0.38729742 -0.19674633 -1.3318156 0.34450188 0.26584673 -0.4948352 -1.3700204 0.5741984
-0.280496 -1.9517491 -0.26737252 0.9217111 0.03242469 0.8951305 0.7985845 0.48509365
-0.44994843 2.755421 -4.4486766 0.8310832 -0.2194264 0.098625645 -3.7845104 -0.012646716
-0.42066586 0.78329605 0.6858617 -1.9828824 -0.26983726 0.336246 1.2560514 0.4456686
-0.36561283 -0.39215228 0.18550771 0.02414093 -0.34715283 0.45335427 0.7561086 1.0394913
-1.1810235 -1.4329813 -4.8916564 -1.2329825 -0.5507278 -0.34025934 0.42504203 0.2574792
0.69974816 -0.9649192 0.87436503 2.2383342 -0.43324825 0.2988845 1.816254 -0.4174437
-2.0127532 0.0025347904 -3.0396268 -0.069123074 1.3668205 0.15125342 -1.6431508 -1.0688524
-0.5658401 -1.5757898 2.3784742 0.015941607 0.119956285 0.63389164 -1.7053467 -0.6823288
-0.0054979823 0.28229034 0.581255 0.4150742 -0.38238585 0.35868326 0.5833075 0.46008196
-0.929041 1.8654419 0.14988141 1.2944067 0.42636696 0.33681056 0.21655387 0.48211366
0.3221801 0.14789408 0.6108153 0.42818093 0.061347052 0.24116822 0.13738726 -0.27526748
0.4769527 -0.11271718 -1.8989087 0.40857038 0.5781077 -0.17039496 -1.4104323 0.59074634

fc2.bias f4 [64]
00000000: 8887 773f d977 8c3f a07e 703f 0c3d 4c3f
00000010: cefa ef3e e81c 933f 5fdb 203f 8bb9 873f
00000020: ccfc cd3e 8b8d 8a3f 3f64 06bd d471 123f
00000030: 4922 dbbb ac97 fe3e 3ea9 813f 24a5 843f
00000040: 4e8e 743f d8ce 393f be1a 6d3f bbde 833f
00000050: 308f 833f 0e5e 683f 8646 8d3f 3fad 5e3f
00000060: 3d36 5c3f 9807 f9bc 8701 903f ba03 22be
00000070: 269c aabf 2c24 183f 44e6 473f fc00 6b3f
00000080: dd25 a73f b360 763f aa5c 543f 6685 28bf
00000090: 8251 d63f c649 8d3f 6c8e 03be 6109 6b3f
000000a0: a9fd 713f 7e1e 4d3f 454b 4d3f 916d 373f
000000b0: ffe5 753f c6fe afbf ef64 c03e 8dae 793f
000000c0: 18ae 813f 45d3 543f b6cc 4b3f f0d6 6c3f
000000d0: e74a 09be 6e8a 523f 3e47 27be 10bb 0c3f
000000e0: f7ce 4bbe 241b b13f 7c0c 293f 8b3f 293f
000000f0: ac10 7e3f 8e70 563f cd3c 8f3d f651 2a3f
0.9669118 1.0974075 0.93943214 0.7978065 0.46871036 1.1493196 0.62834734 1.0603498
0.4023193 1.0824445 -0.032810446 0.5720494 -0.0066874367 0.4972509 1.0129774 1.0362897
0.9552964 0.72581244 0.9261893 1.0302347 1.0278072 0.90768516 1.1037147 0.869831
0.8602026 -0.030399129 1.1250466 -0.15821734 -1.3328903 0.59430194 0.7808573 0.9179838
1.305843 0.962413 0.82953894 -0.6582855 1.6743624 1.1038139 -0.12847298 0.91811186
0.9452768 0.8012465 0.8019298 0.7165156 0.9605407 -1.3749626 0.37577006 0.9753197
1.0131254 0.8313487 0.7960924 0.9251547 -0.13407479 0.82242477 -0.1633577 0.54972935
-0.1990317 1.3836408 0.66034675 0.66112584 0.9924419 0.83765495 0.06994019 0.6653131

fc3.weight f4 [4, 64]
00000000: 2245 38be 4eba e3be 39b8 0cbf 8a9f d9be
00000010: a4e2 04bf 04ac ab40 19a8 7840 b8d0 19bf
00000020: cf51 d6be 8a0e f1be fd55 cdbd c925 dcbe
00000030: 90dd 9abe 8338 bebe aecc 01bf 85b4 15bf
00000040: 8780 02bf bb36 ccbe 9511 0cbf 6b5f 08bf
00000050: 44fb dabe 1700 15bf 6b88 21bf b200 cbbe
00000060: 64b2 dfbe 3b3c c2bb 5a70 2240 af97 abbd
00000070: d290 ae3f f039 ebbe c618 e6be ca8a f7be
00000080: cb79 1a40 2760 ccbe 85c1 dabe bcbb 803f
00000090: 4293 2840 1e21 2d40 1682 41bd 4bf9 0cbf
000000a0: 2627 cfbe 4301 00bf 676d 03bf c062 3c3e
000000b0: 9291 03bf 6d3f 333f 88a3 8d3e c7ea 0ebf
000000c0: 5dfe 29bf 7222 23bf 26bf eabe 9266 fabe
000000d0: 602c 6cbd 2a63 d4be 6387 b73f 83d8 1cbf
000000e0: 6aff bebd 98e0 0640 7bdf 93be fd82 2640
000000f0: f6e9 4d40 a39f ecbe 2347 96bb b693 1fbf
00000100: 360f dcbd 1f10 bfbe 130b c3be 70c6 0ebf
00000110: bed9 4dbf 1aa6 a940 2141 9740 dc74 17bf
00000120: 6f02 31bf ddbb d5be f998 0f3d 38c8 0fbf
00000130: b4a9 983d e5ee 0dbf 0f0a 15bf e40b 04bf
00000140: 802e 0dbf 29ed 8cbe ec48 ddbe ebda f7be
00000150: 02fa 0dbf f283 1abf ceae d4be 300c dcbe
00000160: 8f2b 11bf 40b0 50bb 6d75 bd3f 10e8 073d
00000170: 82cf c13f d9e8 ccbe 665a 04bf 2400 fbbe
00000180: a7d0 2440 bf3c cbbe 4f80 08bf 615f df3e
00000190: 1cfb 4440 eb5e 2240 947d b0bd 0c30 afbd
000001a0: 62fb e1be edc2 15bf 4d62 d1be af83 df3b
000001b0: 1773 ebbe 0bc4 9b3f eac9 0cbf 0e6f fcbe
000001c0: 00a0 d5be d30a 11bf 2937 01bf 114d ecbe
000001d0: c500 ef3b d3e6 e8be 623d 5b3f d7c5 08bf
000001e0: ca95 e13b 0d23 3040 ef97 e4be 5261 eb3f
000001f0: e306 6140 3263 05bf 4651 2bbe d114 19bf
00000200: a0de 20bf 2497 b2be ae27 b7be a379 28bf
00000210: a0a3 c2be c3af ad40 cfd8 8140 f51b 02bf
00000220: 2555 17bf 821a b4be 3e40 45bd 1057 23bf
00000230: 7eb8 89bf b423 25bf 60e7 19bf bb70 10bf
00000240: f53d 0ebf e0fc 38bf 1175 bcbe a8e5 debe
00000250: b358 04bf 0386 d3be 09b1 dfbe 2030 c0be
00000260: 8169 0dbf c076 c23b 5331 2440 c390 9e3d
00000270: 66bd 993f 3a0a 1ebf 3d8d dabe 6d04 0bbf
00000280: 3b42 2340 2e64 44bf e6fb d4be 62dd 813f
00000290: 68a8 2940 bd1a 3840 a4eb 30bd 24dd 03bf
000002a0: cedd 80be 5530 19bf a499 c7be 251c 89bf
000002b0: c4cb 26be 0c1a 6b3f bdfc 513f 64cd 05bf
000002c0: 9b9c 2dbf 0c05 11bf 31df 8ebe cc89 05bf
000002d0: 3d13 c8bd 5f42 83be 259c 1b3f c0fe d9be
000002e0: a31a 053c 674d 3440 3a52 85bd 4873 913f
000002f0: f843 6840 a662 68be f9da 01be debb e1be
00000300: 9094 42bf 22a6 f4be 13ce 14bf d7a2 d1be
00000310: ce81 a0be 2385 aa40 5bbd 3240 0377 dbbe
00000320: b6a0 5ebd 7fe3 03bf 9cc9 dfbc 0343 1ebf
00000330: 0221 febe e751 b0be beb4 f5be 46ad 0bbf
00000340: a287 e1be c12a 1bbf 49a8 0dbf 88a8 09bf
00000350: 12a1 0cbf 0a61 e0be d9d5 14bf c5b7 0abf
00000360: dd31 f0be c84b f4bd 58af 5d40 e841 b03d
00000370: 39f0 4e3f 361c cbbe 1c65 c2be 9ab3 d6be
00000380: e036 3840 0945 17bf 85c9 f3be aa50 353f
00000390: f574 ed3f b739 3040 a015 1abc 0f44 37bf
000003a0: 6713 17bf 46df efbe 10c4 ffbe f2e2 df3e
000003b0: ccf6 02bf 44e2 e83e 8f5c 9f3f 8e6b 0dbf
000003c0: 2db4 f2be bdcd ccbe 0920 0ebf dd71 fbbe
000003d0: 72f6 a53c ac55 d8be f463 d73f 73f1 07bf
000003e0: f913 3a3d 8ad3 fc3f 933b e1be 388c 3240
000003f0: bc33 4a40 4c45 17bf 6a77 963e 2da7 1cbf
-0.17995122 -0.44478077 -0.549686 -0.4250453 -0.51908326 5.364748 3.8852599 -0.60084105
-0.4185929 -0.47081405 -0.100261666 -0.42997578 -0.30247164 -0.3715249 -0.5070294 -0.58478576
-0.5097737 -0.39885506 -0.5471433 -0.53270596 -0.42769825 -0.5820326 -0.6309878 -0.39648968
-0.4369079 -0.00592759 2.5381074 -0.08378541 1.3637946 -0.4594264 -0.44940776 -0.48348075
2.4136837 -0.39917108 -0.4272577 1.0057292 2.633988 2.7051463 -0.0472432 -0.5506789
-0.40459555 -0.50001925 -0.5133881 0.18397045 -0.51394 0.70018655 0.27663827 -0.5582699
-0.6640375 -0.63724434 -0.4584896 -0.4890638 -0.057659507 -0.41481906 1.4338192 -0.6126787
-0.0932606 2.107458 -0.2888144 2.601745 3.2174048 -0.46215543 -0.004586117 -0.62334764
-0.10745089 -0.37316987 -0.38094386 -0.5577154 -0.80410373 5.301526 4.7267003 -0.5916269
-0.6914434 -0.4174489 0.035057995 -0.56164885 0.07454243 -0.5544265 -0.58218473 -0.51580644
-0.5514908 -0.2752469 -0.43219697 -0.4840921 -0.55459607 -0.6035758 -0.41539615 -0.42978048
-0.5670709 -0.0031843334 1.480146 0.033180296 1.5141451 -0.400214 -0.5170044 -0.49023545
2.5752351 -0.39694783 -0.53320783 0.43627456 3.0778265 2.5370433 -0.08617702 -0.08554086
-0.44137102 -0.5850056 -0.4089531 0.006821118 -0.45986244 1.2169203 -0.54995596 -0.49303478
-0.41723633 -0.5665714 -0.5047479 -0.46152547 0.007293793 -0.45488605 0.8564054 -0.5342688
0.0068843113 2.7521393 -0.44647166 1.8389075 3.5160453 -0.52104485 -0.16730222 -0.5979739
-0.628397 -0.34880936 -0.3577246 -0.658106 -0.3801546 5.4277053 4.057716 -0.5082391
-0.59114295 -0.35176474 -0.04815697 -0.6380472 -1.0759428 -0.64507604 -0.60118675 -0.56422013
-0.5556329 -0.72260857 -0.36808065 -0.4353459 -0.51697844 -0.4131318 -0.43689755 -0.37536716
-0.5523911 0.0059345663 2.5655105 0.07742455 1.2010925 -0.61734354 -0.4268588 -0.5430363
2.5509174 -0.7671536 -0.41598433 1.0145686 2.6509037 2.876632 -0.043193474 -0.5150931
-0.25169224 -0.59839374 -0.38984406 -1.0711714 -0.16288668 0.9183662 0.82026273 -0.52266526
-0.67817086 -0.56648326 -0.27904657 -0.52163386 -0.097692944 -0.25636575 0.6078513 -0.4257717
0.0081240265 2.8172243 -0.06509824 1.1363306 3.6291485 -0.22693881 -0.12681188 -0.44088644
-0.7600794 -0.47783 -0.58126944 -0.4094455 -0.31349033 5.328752 2.7928073 -0.42864236
-0.054352485 -0.51519006 -0.027317815 -0.61821 -0.49634558 -0.34437487 -0.47989458 -0.5456127
-0.44048792 -0.6061211 -0.5533491 -0.53772783 -0.54933274 -0.43824035 -0.58138806 -0.5418666
-0.46913043 -0.119285166 3.4638271 0.086063206 0.808353 -0.3966996 -0.37967765 -0.419339
2.8783493 -0.59089714 -0.47614685 0.7082621 1.8551317 2.7535226 -0.00940457 -0.71588224
-0.5901398 -0.46850032 -0.4995427 0.43727833 -0.5115783 0.45485127 1.2450122 -0.5524224
-0.47403088 -0.40000716 -0.5551763 -0.49110308 0.020259116 -0.42252862 1.6827378 -0.531028
0.045429204 1.9752057 -0.43990764 2.7898083 3.1594076 -0.59090114 0.2938798 -0.6119259

fc3.bias f4 [4]
00000000: a58a 04bf 7230 e0be 3474 9dbe 0553 36bf
-0.51774055 -0.4378696 -0.30752718 -0.7122043
