weights/g1.0_lr1e-05_decay_0.9999.pth (torch, 12865 bytes, 6 tensors)

fc1.weight f4 [32, 8]
000000 5f c2 97 3e 57 fe 76 bf 3f 5c a1 bc 5a c8 f9 be
       0.2964048 -0.9648184 -0.019697307 -0.4878567
000010 ec 63 4b bc 34 9b 55 3e 03 f7 d1 3e 3d 96 74 3e
       -0.01241396 0.20859987 0.41008767 0.23885436
000020 f8 91 1b be 53 8f b2 bd 03 13 cf 3d 7e b5 8a bd
       -0.15192401 -0.08718743 0.10111048 -0.06772898
000030 0b 08 51 bf ea 4f 99 bf ff 91 e1 be a8 70 35 3e
       -0.816529 -1.1977513 -0.440567 0.17718756
000040 95 20 33 be 72 ba 81 bd cd c9 43 be cf 1e 83 be
       -0.17492898 -0.0633439 -0.1911995 -0.25609443
000050 17 78 f9 3e 8e 43 6b 3f 54 25 a1 3e 1b af 55 3e
       0.48724434 0.91899955 0.31473792 0.20867579
000060 bc 74 73 bc a0 7c a0 bf 9f 40 99 3e cb 2e 4e bf
       -0.014859375 -1.2538033 0.29932114 -0.8054015
000070 ad 99 19 be 33 7b 89 be 65 a5 d1 bc ff 04 05 3f
       -0.15000029 -0.26851806 -0.025591562 0.5196075
000080 c7 90 dd be 0a 78 9b bf db 69 87 be 09 30 46 bf
       -0.4327452 -1.2146008 -0.2644795 -0.77417046
000090 53 54 3a 3e 1c fa f7 3e 1f b2 0d 3f d2 fb 37 3d
       0.1819623 0.48433006 0.55349916 0.04491789
0000a0 58 5a 80 bd d4 8d 54 bf b4 b1 28 3e b3 fc 1b bf
       -0.06267232 -0.8302891 0.16474038 -0.60932463
0000b0 76 68 01 bf 69 15 1d bf 91 db f5 3e 6e 42 6b 3e
       -0.5055002 -0.61360794 0.48019078 0.2297456
0000c0 01 4a 0a 3d 56 38 dc bd 9d ee 37 3f 6f 44 03 3e
       0.033761982 -0.10752933 0.7184847 0.12819074
0000d0 3c 15 90 be 4a 64 99 be b3 19 37 3f fe 29 92 3e
       -0.281412 -0.29959327 0.7152359 0.28547662
0000e0 18 34 99 3e d5 f0 c4 bf d9 b2 03 3e 0c 0f 35 bf
       0.29922557 -1.5385996 0.12861194 -0.70726085
0000f0 0a b9 81 3e 44 11 72 3e 4d e9 19 bd 9f 16 99 3e
       0.25336486 0.23639399 -0.03757601 0.2990007
000100 f0 94 5a bd f9 aa bb 3c 7d 54 98 3d 15 e3 81 3d
       -0.053364694 0.022908675 0.0743799 0.063421406
000110 d2 d0 58 3f c9 eb 65 3f a0 c8 d4 be 0d 9f de be
       0.84693635 0.89812905 -0.41559315 -0.4348072
000120 b5 70 ec 3e 03 04 34 3f 46 c2 38 3f 8d d9 03 40
       0.4617974 0.7031862 0.7217144 2.0601532
000130 c9 24 8a 3e ab 0e 97 be 23 09 f2 be c3 c7 f6 3e
       0.2698119 -0.29503378 -0.47272596 0.4819928
000140 b9 ba b6 be 88 f6 f6 bc 59 de 3e 3f 27 5b c6 bf
       -0.35689333 -0.030146852 0.74558026 -1.5496567
000150 be d5 cb be 8c 8c 0a be 0b 79 43 3f 3b 51 22 be
       -0.3981151 -0.13530177 0.7635657 -0.158513
000160 c5 d1 8a 3c 8d 19 29 bf e5 b7 74 3e 52 81 23 be
       0.016945729 -0.6605461 0.23898275 -0.159673
000170 a4 54 28 3f 40 dc e2 3e ec d8 57 be 88 38 87 be
       0.6575415 0.44308662 -0.21078843 -0.26410317
000180 27 0f 9b bd 3d f4 00 be c3 b5 1e 3d 30 7c 59 bf
       -0.075712495 -0.1259317 0.03874756 -0.8495512
000190 ee 29 86 3f 61 d2 82 3e f8 62 10 3f c1 36 40 3e
       1.0481546 0.2555113 0.56401014 0.18770887
0001a0 79 93 7a bf 5a b9 41 bf c5 42 9f be 2a b6 d1 be
       -0.97881275 -0.7567345 -0.3110563 -0.40959293
0001b0 20 d4 22 3e c7 57 e5 3e bd 13 e6 3e 38 df 88 3d
       0.15901232 0.4479353 0.44936934 0.066832006
0001c0 8b 4a 24 bf 0a 47 c6 be f5 26 61 bc f0 79 2c bf
       -0.64176244 -0.38726074 -0.013742198 -0.6737356
0001d0 80 b2 5d be 8e db bb be 0a b2 5e 3e 92 6f c7 3e
       -0.21650124 -0.36690944 0.21747604 0.3895231
0001e0 6a 15 a6 3d f7 63 76 bd d5 d4 64 3c bc 64 fc 3d
       0.08109553 -0.060153928 0.013966759 0.12323901
0001f0 b3 b6 49 bf 63 79 82 bf bc 6c ab be 2e 4d 34 bf
       -0.787944 -1.0193294 -0.33481395 -0.70430267
000200 47 ee e5 3d 48 f3 bd be 6e 22 e5 3d 84 de c6 be
       0.112270884 -0.3709967 0.111882076 -0.3884164
000210 23 d3 c7 be 1c 9c e3 be 87 f9 a0 3e a0 ab 7f 3d
       -0.39028272 -0.4445504 0.31440374 0.062419534
000220 b5 c5 9c bd 87 54 5b bf ba 9e 81 3e 76 72 62 be
       -0.07654897 -0.85675853 0.2531641 -0.22113976
000230 c5 8f 29 3f 3c 46 c2 3e 29 a0 3a 3f c4 be 25 3e
       0.66235 0.3794421 0.72900635 0.16186053
000240 f7 63 47 3c d6 c6 77 bd d8 5b 64 3e b4 9f 94 be
       0.01216983 -0.06049236 0.2230066 -0.29028094
000250 54 df ff be 9b cb 82 bf 1f d1 4a bf f7 aa 17 3e
       -0.49975073 -1.0218385 -0.79225343 0.14811312
000260 6e 63 88 3e a1 2f 84 bf 9a 94 e3 3e 28 31 35 bf
       0.2663836 -1.0327035 0.44449311 -0.7077813
000270 46 db f0 3d 01 59 00 bf 02 b3 8d 3c 14 56 af bd
       0.11760573 -0.5013581 0.017297272 -0.0856134
000280 ed 43 1d bf af 9d 8b bf 84 b1 b3 be 1c 37 20 bf
       -0.6143177 -1.0907496 -0.3509637 -0.6258409
000290 4f d0 9f 3d 06 23 5a 3e 43 fc 48 3d c1 fd 4d 3e
       0.078034036 0.21302423 0.0490687 0.2011633
0002a0 89 be 3e be b8 f9 9d bf c2 d6 e2 3e 49 1c 10 bf
       -0.18627371 -1.2341833 0.44304472 -0.5629316
0002b0 a8 55 2c 3f 5d 95 83 3e b6 a2 d1 be e7 97 10 3f
       0.673182 0.25699893 -0.4094445 0.56481785
0002c0 69 45 c8 3e f8 c2 9c bf 94 05 10 3f 9e 70 31 bf
       0.39115456 -1.2247 0.5625851 -0.69312465
0002d0 e0 f5 64 3d c7 71 60 be 0c c2 1e 3f 70 ee f3 3d
       0.055898547 -0.21918403 0.6201484 0.11910713
0002e0 09 8c 34 3f 37 56 80 bf d3 b6 08 3f 00 78 c3 be
       0.70526177 -1.0026311 0.5340397 -0.3817749
0002f0 3b 0a c3 bd 39 f4 83 3e fb 06 02 3f 26 57 9c 3e
       -0.09523436 0.25772265 0.507919 0.3053524
000300 58 4a ad 3d d9 26 78 bf 88 02 8f 3d b9 5c 0a bf
       0.084614456 -0.96934277 0.06982905 -0.54047734
000310 ff f8 a6 bd bd 69 57 3d b1 ec ee 3d 5b c0 02 3d
       -0.08152961 0.052591074 0.11666239 0.031921726
000320 43 f4 3c 3f c6 6f 32 bf dd 68 a0 3e 2f 33 0c bf
       0.73810214 -0.697018 0.31330004 -0.547656
000330 89 d5 19 bd 11 fc b6 3e 7f 36 63 3e cb c7 d0 3e
       -0.03755716 0.35739186 0.22188757 0.4077743
000340 65 4c c8 3d df eb 76 3c 4d bb 05 bd 3a 04 23 bd
       0.09780196 0.0150708845 -0.032649327 -0.039798953
000350 e0 f7 98 3d 05 29 50 bd d6 2f c7 bc 43 c6 38 3d
       0.074691534 -0.05082037 -0.024314802 0.045110952
000360 10 2e ea bd 55 31 b0 bf 07 d4 69 3e 08 f7 2c bf
       -0.11434567 -1.3765055 0.22834788 -0.6756444
000370 bc 91 66 3e 62 9c a8 3e f9 15 ee 3e 28 6b 68 3e
       0.22516531 0.3293181 0.4650114 0.22697127
000380 7e ae 4a bf 99 1d 12 bf 30 14 28 be 3b 84 03 bf
       -0.79172504 -0.5707641 -0.16413951 -0.5137364
000390 b7 c4 84 be 20 92 c7 be 03 01 ab 3c d4 88 da 3e
       -0.25931332 -0.38978672 0.020874506 0.42682517
0003a0 38 18 08 3f 8c cc 41 3f 6b 4a 61 3e a6 ab 70 bf
       0.53161955 0.7570274 0.22001044 -0.94011915
0003b0 ef a3 95 3e 0e c4 86 bf 95 0e 10 be 78 04 e8 3e
       0.29226634 -1.0528581 -0.14068063 0.4531591
0003c0 fb c8 ba 3e 04 a4 17 bf 2c 9f 73 3e 52 5c b0 be
       0.3648146 -0.59234643 0.23791188 -0.34445435
0003d0 77 1c b2 bd 9a e2 37 bf b2 71 cd 3e d8 f5 cf bd
       -0.086968355 -0.7183014 0.40125805 -0.10154313
0003e0 0d 31 3c be ca 70 80 3b 20 35 90 be ea 03 97 3e
       -0.18378086 0.0039196955 -0.2816553 0.29495174
0003f0 2c 03 4c 3f 89 a6 da 3e 4a fd ef 3e fd d5 1b bf
       0.7969234 0.4270518 0.46872932 -0.60873395

fc1.bias f4 [32]
000000 5d f6 0d bf 7f 24 f0 3d 21 bb 91 be bf d8 01 be
       -0.55454046 0.11725711 -0.2846308 -0.12680338
000010 01 07 3f bd 88 38 aa 3d e7 4c ad 3e b7 46 28 3e
       -0.04663754 0.08311564 0.33847734 0.16433226
000020 8a 15 94 bc e7 b9 05 3f 08 b8 25 3c 0e 23 8d 3d
       -0.018076677 0.5223679 0.010114677 0.06891452
000030 b5 d3 68 3e 24 1d d8 bd 0f 5e 1f be f1 44 2b 3e
       0.2273701 -0.10552433 -0.15563224 0.16725518
000040 62 a6 e4 3b b7 c6 8a 3d fa 03 12 be 46 2e 5c be
       0.006977842 0.06776183 -0.1425933 -0.21502027
000050 2e 04 db 3d 6d fb aa bc d4 1c 20 3b 82 c1 98 be
       0.106941566 -0.020871842 0.0024431245 -0.29835135
000060 9c ff fc bd 97 88 e6 be 07 a7 a1 be af a7 e7 3d
       -0.12353441 -0.45026085 -0.31572744 0.1131128
000070 b6 5b 8f bd 42 a4 4f 3f 41 6f 8b bd 96 1d d6 3e
       -0.06999914 0.8111001 -0.068083294 0.41819447

fc2.weight f4 [64, 32]
000000 d0 06 cd bc a0 df 30 3f 73 6a 77 be 11 4b f1 3e
       -0.025027663 0.69091225 -0.24161701 0.47127584
000010 60 c8 cf 3e 58 f2 16 3e 67 0f be bc 07 6a 35 3d
       0.40582561 0.14740884 -0.023200704 0.04429057
000020 b9 16 6a be 87 fc be be cd 5b 8d 3e 45 52 eb be
       -0.2286023 -0.37302038 0.276091 -0.45961204
000030 6f 8d 9d be 70 25 19 3f d0 19 9a 3e ca 5c c2 3e
       -0.30771968 0.5982275 0.30097818 0.37961417
000040 93 76 73 3e e1 8d ef bd 9c cf 7c 3e f6 d2 d5 3e
       0.23775701 -0.11696983 0.24688572 0.41762513
000050 93 6a 04 3f 7c de 81 3c f9 67 16 3e d0 a3 29 3e
       0.5172512 0.01585316 0.146881 0.16566396
000060 c4 fa db 3e bc 9d 31 3e 05 df 45 3d 02 fe b4 3e
       0.42964756 0.17345327 0.04830839 0.35350043
000070 58 5a ce 3e 8c 2a b0 3d d1 24 5d 3e f9 e3 47 be
       0.40303302 0.08601865 0.21596076 -0.19520558
000080 02 f1 c1 3d 69 7a 24 3f b7 da 8f 3e e9 11 a0 3e
       0.09469797 0.64249283 0.28096554 0.31263664
000090 34 e0 13 3f e7 70 f1 3e b6 57 ac 3e f6 81 c6 3e
       0.5776398 0.4715645 0.33660668 0.38771027
0000a0 f2 c6 5d 3f 3c 4d c9 3e 40 58 54 be 50 88 c3 3e
       0.8663169 0.39316738 -0.2073679 0.38189936
0000b0 88 b2 bd 3e 18 8a 2a 3f 38 42 51 3e 9b 26 32 3f
       0.3705027 0.66616964 0.20435417 0.6959016
0000c0 dc 25 00 3f 50 90 0e 3f 98 30 25 3f c2 b5 04 3f
       0.5005777 0.55688953 0.64527273 0.5183984
0000d0 ad 4a 30 3e 22 dc ed 3e dd bf 0f 3f 29 3d e9 3e
       0.17215987 0.4645701 0.56152135 0.45554474
0000e0 45 c4 bd bd 76 9d d1 3e 1b 2d 92 3d fc 7d cc 3e
       -0.09265951 0.40940446 0.071375094 0.39939868
0000f0 85 b6 91 3e 79 6b 6b 3a ca 1a b0 3e 61 88 f4 3e
       0.28459564 0.0008980553 0.34395438 0.477603
000100 3c 33 a7 bc 0e b2 fb 3e c5 f7 a9 3e db 99 a3 3e
       -0.020410173 0.49159282 0.33196846 0.3195332
000110 a8 6e b1 3e b3 07 bf 3e da 3f d0 3d 7f 37 a9 3e
       0.34654737 0.37310562 0.10168429 0.33050153
000120 68 da dc 3e a3 2e 3a 3c 45 68 05 3e c8 23 1d 3f
       0.4313538 0.011363658 0.13028057 0.6138272
000130 2b c5 88 3e d2 91 2d 3f fb 92 e7 3e bc 19 17 3e
       0.26712927 0.6780063 0.45229325 0.1475591
000140 a0 e8 64 3e 62 4c aa 3e e8 dd 3f 3e 37 6f e1 3e
       0.22354364 0.332614 0.18736994 0.44030163
000150 c9 26 50 3d 90 eb b3 3e d2 a6 77 3e 47 ee 66 3e
       0.05081824 0.35140657 0.2418473 0.22551833
000160 fd f2 cb 3d 5f 52 aa 3e e0 4b fa 3d e2 20 e6 3e
       0.09958456 0.3326597 0.12221503 0.44946963
000170 87 8a 0a 3f 9a 3f 12 be 0b 8e da 3e 4b 9b 9e 3e
       0.54117626 -0.14282075 0.42686495 0.30977854
000180 6e 10 13 bd ee fd 36 3f 90 f0 cc 3e 9f db 05 3f
       -0.03590434 0.71481216 0.40027285 0.5228824
000190 17 60 28 be 20 82 03 3e fa b8 83 be d2 ca f0 bd
       -0.16442905 0.12842607 -0.25727063 -0.11757435
0001a0 68 72 02 3e 04 2b c0 3e f1 21 35 be dc 44 c4 be
       0.12738955 0.37532818 -0.17688729 -0.38333786
0001b0 01 12 95 be 3c 67 ed 3e 35 b3 48 3e 95 8e 15 3f
       -0.29115298 0.46367824 0.19599612 0.5842069
0001c0 ed b7 85 3e fa 23 75 bf a8 54 e5 3e d5 80 27 3f
       0.26116887 -0.9575802 0.4479115 0.6543096
0001d0 df 13 0f 3f 69 d1 a9 3e 29 fd 46 3e cf 78 88 be
       0.55889696 0.3316758 0.1943251 -0.2665467
0001e0 3f b7 1b 3e 99 52 c0 3e 80 22 f7 bd a2 37 de be
       0.15206622 0.37563017 -0.12067127 -0.4340182
0001f0 d9 65 20 3f 35 64 88 3e f0 e4 17 bc 17 bc 64 3e
       0.6265541 0.26638952 -0.009270892 0.22337376
000200 6c b3 0a bf 91 ca ce be 57 77 87 bf 66 e1 b7 be
       -0.54180026 -0.4038892 -1.0583295 -0.35914153
000210 b5 7c b3 be 2d ab b0 be 0f b3 d8 bf 51 ec 51 be
       -0.3505608 -0.34505597 -1.6929644 -0.20500304
000220 9a 42 3d bf 0d ba 9f be 9a 98 7e 3f 0c 13 12 bd
       -0.7392975 -0.31196633 0.994516 -0.035662696
000230 91 d0 32 3f 4e 80 9b be 96 67 82 bf 6d 74 08 3f
       0.698495 -0.30371326 -1.0187862 0.5330265
000240 39 61 c3 bd aa 04 c7 be 4f 74 5c bf 4e 29 e6 3e
       -0.09540028 -0.38870746 -0.8611497 0.44953388
000250 00 9d be 3c c2 56 d6 be b6 40 ab be 60 4f 94 bf
       0.023268223 -0.41863066 -0.33447808 -1.1586723
000260 eb e4 ae be 6e 98 a8 bf 85 e3 12 bd b5 57 d9 be
       -0.34159026 -1.3171518 -0.03586151 -0.42449728
000270 51 6c 10 be 48 d4 a1 3f 22 b4 0b 3f 37 d4 99 bd
       -0.1410382 1.2642908 0.54571736 -0.0751118
000280 d4 cc de 3d 96 c4 29 3d b8 41 60 3e 13 73 a7 3e
       0.108789116 0.041447245 0.2190007 0.32704982
000290 fa c2 51 3e f8 02 9f 3e 8e e0 2c 3f 73 bb 0e be
       0.20484534 0.31056952 0.67530143 -0.13938694
0002a0 08 b9 a3 be 20 f9 46 3f da ad d0 be e4 18 ad bd
       -0.31977105 0.77723885 -0.40757638 -0.08452013
0002b0 25 c8 be bf 9c 00 11 be 7b d6 a1 3e c3 82 32 be
       -1.4904829 -0.14160389 0.31608948 -0.17432694
0002c0 5e d5 a4 3d 16 0e 00 bf ed 76 b2 3e 2c 27 ba 3d
       0.08048509 -0.50021493 0.34856358 0.09089503
0002d0 88 85 9e be 8b ee 1a bf d4 9c 96 3e b6 64 ed 3d
       -0.3096125 -0.6052024 0.29416525 0.11591475
0002e0 ae a0 3e 3d 48 94 c0 3e 99 df 7d 3d f7 6e 8f bd
       0.046539955 0.3761313 0.061980817 -0.07003587
0002f0 6f 52 a7 be f3 06 96 3e 85 42 67 be 04 42 43 3f
       -0.3268008 0.29302177 -0.22583969 0.76272607
000300 90 e2 83 bd 68 1a a4 3c 43 f7 c7 bd 5b 51 a5 bd
       -0.06439698 0.020032123 -0.09763958 -0.08072158
000310 f0 9b 45 3e 3a 7e 6f 3e 61 f8 74 3e 99 00 e6 3d
       0.19297767 0.23387995 0.23922874 0.11230583
000320 de a8 3f 3e b9 ed a0 bd 9b f9 d8 3a 76 82 2e 3e
       0.18716761 -0.07857842 0.001655388 0.17041954
000330 9b cd fd 3d 54 ca a8 bc e3 3e 22 3e 93 f9 8e 3d
       0.12392732 -0.02060429 0.15844302 0.06981196
000340 aa 8d 32 bd cc 20 ef bc d6 c6 8c 3e ea 8f cd 3d
       -0.043592133 -0.029190443 0.2749545 0.10037215
000350 85 1e 75 be 36 31 28 3e f5 19 5f ba 6c 53 9b 3e
       -0.23937424 0.16425022 -0.0008510643 0.30337083
000360 70 42 07 3c 15 62 4c bd 64 a5 64 3d 8d 6f 52 3e
       0.008255586 -0.049898226 0.05582179 0.20550366
000370 83 94 48 bd 42 43 91 bd 46 07 1d 3d 43 31 97 3e
       -0.048969757 -0.070929065 0.038337015 0.2952977
000380 c6 00 ba 3d 70 62 00 3f 5f 80 02 3f 19 68 97 3e
       0.09082179 0.50150204 0.5097713 0.29571608
000390 0a fe b0 3e 3b a4 8f 3e 60 43 7a 3e 51 9a b4 3e
       0.34568816 0.28054985 0.24439764 0.35273984
0003a0 42 85 6a 3f 20 ad b1 3e e9 60 9b bd cd 78 e9 3e
       0.91609585 0.34702396 -0.075868435 0.45599976
0003b0 ab 89 9d 3d 4c 0d e5 3e 72 a4 df 3e 18 09 16 3f
       0.07692274 0.44736707 0.4368015 0.58607626
0003c0 1f 66 be 3e a0 89 63 3e 86 3f 39 3f 13 3b 0e 3f
       0.37187287 0.22220469 0.72362554 0.5555889
0003d0 4e a6 a2 3d c7 c2 de 3e 6e f7 66 3e 82 a1 cf 3e
       0.07941876 0.43507978 0.22555324 0.40552908
0003e0 b9 07 70 bd 62 24 69 3e 07 f6 a5 bd 44 6b 98 3e
       -0.058601115 0.22767785 -0.081035666 0.29769337
0003f0 d4 59 95 3e 4e 49 f6 bc ec 72 a6 3e c7 9a b8 3e
       0.29170096 -0.030064251 0.32509553 0.36055586

fc2.bias f4 [64]
000000 28 0d 16 3d 15 4c cb 3e 5c cc 93 bd d5 e0 26 be
       0.03663364 0.39706483 -0.07216713 -0.16296704
000010 2d 2a 52 3f f3 1b 21 bd 1c a4 8a 3e 77 ff 92 3e
       0.82095605 -0.039333295 0.2707833 0.2871053
000020 20 e9 21 bf b0 a6 e3 3e e5 7d 6a 3d 92 c9 b6 bd
       -0.63246346 0.4446311 0.05724897 -0.08925165
000030 d5 eb e0 3d a7 eb a3 3b d1 8a e4 3d 3e 27 c5 3c
       0.109824814 0.005002457 0.1115929 0.024066564
000040 84 73 85 3e cd f1 8e bd f4 9c 54 3e ec cd 03 3d
       0.26064694 -0.069797136 0.20762998 0.032178804
000050 8a ca 95 3e 6b 0f 59 3e e1 30 64 3e a0 7e c5 3e
       0.29256088 0.21197288 0.22284271 0.3857317
000060 68 55 c2 3d b6 40 df 3e 41 9b 1d 3f 4e 72 24 be
       0.09488946 0.43604058 0.61565024 -0.16059229
000070 13 78 2d be 1b 15 43 bb a2 7a 0a be 87 79 ab 3e
       -0.16940336 -0.0029767219 -0.13523343 0.33491156
000080 fa e2 00 3e a6 f1 1b 3e eb 20 0f be 50 8a 55 3e
       0.12586585 0.152289 -0.13977401 0.20853543
000090 09 7f 09 3d d3 56 43 3e 0a d1 56 be d7 07 b2 3e
       0.033568416 0.1907609 -0.2097818 0.34771606
0000a0 00 68 86 3c c6 d7 60 3d 16 aa c9 3e 57 b9 7e bd
       0.016407013 0.054893278 0.39387578 -0.062188473
0000b0 0d 17 eb 3e 63 67 08 3f 09 16 47 3e c2 af 98 bd
       0.45916024 0.53282756 0.19442 -0.07455398
0000c0 34 d4 11 3e f2 26 7a bd b5 36 8f bd 24 62 18 be
       0.14241105 -0.061072297 -0.069928564 -0.14881188
0000d0 7b b6 93 bd dd b8 81 be a6 62 12 bf 28 81 c1 bd
       -0.0721254 -0.25336352 -0.57181776 -0.09448463
0000e0 84 92 b9 be 87 db 60 3f 83 d8 24 3f e1 3e 17 3e
       -0.36244595 0.8783497 0.6439287 0.1477008
0000f0 a0 fc 97 3e 5e 30 84 3d b8 05 0c be 1e fc c4 bd
       0.29684925 0.06454538 -0.13674057 -0.096184

fc3.weight f4 [4, 64]
000000 89 13 f5 bc 07 b9 af be 67 51 9c be 4c 77 cc bd
       -0.029916542 -0.34320852 -0.30530855 -0.099836916
000010 50 c4 03 3f 4a f5 db be 55 bd 7d be 5a a4 dd be
       0.51471424 -0.42960578 -0.24779256 -0.43289453
000020 a1 6e 79 be 01 eb b1 be 2e 1d f3 be 73 25 37 be
       -0.24358608 -0.34749606 -0.474832 -0.1788538
000030 f7 b0 a0 be 19 ad ab be 1d 95 7c be e4 17 cf be
       -0.31385013 -0.335305 -0.24666257 -0.40447915
000040 2e b4 cc be 6c 9f a5 be 17 34 cd be ab 64 29 be
       -0.39981216 -0.32348192 -0.40078804 -0.16542308
000050 26 0c a7 be 26 8a d2 be 60 b5 c3 be 72 17 98 be
       -0.32626456 -0.41121024 -0.38224316 -0.29705387
000060 2b fb 8c be c5 30 6a be f0 e1 48 3e 70 8b 93 bd
       -0.27535376 -0.22870167 0.19617438 -0.0720433
000070 20 ab 59 3c b4 8f 60 bc 47 8a 58 be 50 d2 84 40
       0.013285428 -0.0137061365 -0.21146499 4.150673
000080 9a d3 9e be fc d2 9e be d8 04 43 bd 5b b4 f0 3e
       -0.31020814 -0.31020343 -0.04761204 0.470126
000090 30 a7 e8 bd fc 6c cb be 1a 99 96 3e a2 8b 8c be
       -0.113600135 -0.39731586 0.29413682 -0.2745028
0000a0 6e 55 2e be 11 b5 5e be ea 94 a8 be 79 de c9 be
       -0.17024776 -0.21748759 -0.32926112 -0.39427546
0000b0 ba 4b c1 be 58 ce b5 3f 42 c8 ad be bb 37 ae be
       -0.37753087 1.4203596 -0.33941847 -0.34026894
0000c0 99 a4 c3 be 35 54 aa be b4 6b 2b be 27 8e 6b be
       -0.38211516 -0.3326737 -0.16740304 -0.23003446
0000d0 b5 ed a2 be 17 1a ea be c7 79 c7 3d 59 2c f9 be
       -0.3182198 -0.4572303 0.09740024 -0.48666647
0000e0 76 2b cc 3e 8d e7 c7 3f 1f 5e 95 3f 90 fd 9b bd
       0.39876908 1.5617539 1.1669348 -0.076167226
0000f0 de de 81 3d 29 ea 4b be c4 ee 5d 3d f5 01 e9 be
       0.06341337 -0.19913544 0.054182783 -0.45509306
000100 6c 00 51 be 6a b4 a3 be 9b d9 a7 be 27 3d cd be
       -0.20410317 -0.31973583 -0.32783207 -0.40085718
000110 10 e5 cf bc 4b fc 27 3e 26 d3 02 3d 6d 32 99 be
       -0.02537778 0.16404836 0.031939648 -0.29921284
000120 8e c9 1f be 94 8b c6 be 69 f9 81 be ff 11 d0 be
       -0.15604231 -0.38778365 -0.25385597 -0.4063873
000130 c9 10 3f be b3 b4 da be 9e b0 a3 be 4a c0 65 be
       -0.18658747 -0.42715988 -0.31970686 -0.22436634
000140 71 26 bb be 10 65 81 be 57 65 bd be 6e e4 da be
       -0.36552766 -0.25272417 -0.3699138 -0.42752403
000150 22 db bb be fa 86 b9 be e3 1e 92 be e9 b9 af be
       -0.36690623 -0.3623579 -0.2853919 -0.34321526
000160 49 23 d4 be c0 43 e0 bd df bc 24 be 77 bb 4b 3d
       -0.4143317 -0.10950422 -0.16087674 0.049739327
000170 7b 10 33 3d 3f 5a 2d be 4e ba 05 bf 13 04 82 40
       0.04371689 -0.16928957 -0.52237403 4.0629973
000180 24 3d 09 be f9 0e 6b be ec ac bf be 8a 3f ca bd
       -0.1340223 -0.2295493 -0.37436616 -0.098754
000190 8e f5 64 be 4a 76 ba bd a5 a6 2d bf 45 88 56 3c
       -0.22359297 -0.09104593 -0.67832404 0.013094013
0001a0 10 92 c4 be 94 e6 08 bf 57 80 ac be 79 e1 53 be
       -0.38392687 -0.53476834 -0.33691666 -0.2069148
0001b0 9f 57 ba be 80 52 02 40 bb 51 eb be da 7b 8d be
       -0.36394975 2.0362854 -0.45960793 -0.27633554
0001c0 b6 dc 6a be 4e e9 9f be b3 01 f0 be d2 4e 83 be
       -0.22935757 -0.31232685 -0.46876296 -0.25646073
0001d0 f6 05 87 be a2 54 fa be 5f 06 ea 3e 9c a3 ad be
       -0.26371735 -0.48892695 0.45707986 -0.33913887
0001e0 2e fb 1a bf fb 44 ec 3f 93 07 96 3e a9 9f b4 3f
       -0.6053952 1.8458551 0.29302654 1.4111224
0001f0 e9 75 da 3d 5d c8 ef be 1c 2d b0 3d 28 46 ac be
       0.10667021 -0.46832553 0.08602354 -0.33647275
000200 5e 61 97 be 05 68 6b be c1 de 73 be 17 8b 36 bf
       -0.29566473 -0.22988899 -0.23815443 -0.71305984
000210 6a f5 1d 40 15 c7 01 c0 40 d0 42 3d 15 4f b0 be
       2.468104 -2.027776 0.047561884 -0.34435335
000220 5f 57 27 bf bc 7c 69 be 69 81 c5 be 8a a2 b1 be
       -0.6536769 -0.22801489 -0.38575295 -0.3469432
000230 b3 ed de be dd a9 d0 be 42 1f 02 bf 03 89 a9 be
       -0.43540725 -0.40754595 -0.50828946 -0.33112344
000240 ea a1 b9 be 2b 28 df be 34 d8 83 be ed fb 9f bd
       -0.36256343 -0.43585333 -0.25750887 -0.07811723
000250 80 92 b6 be 45 ef 88 be 40 09 98 be 67 2d 24 be
       -0.35658646 -0.26745048 -0.29694557 -0.16032945
000260 03 47 d6 be df b7 55 3d 20 12 87 3f 17 77 90 3d
       -0.41851053 0.052177306 1.0552406 0.070539646
000270 08 9c c0 bd 43 f1 95 bf 31 c0 d2 be 6e d4 21 40
       -0.094047606 -1.1714252 -0.41162255 2.5285907
000280 47 62 dc be f2 f2 c9 be 35 e1 ae be 78 b6 1b bf
       -0.4304373 -0.39443165 -0.34156194 -0.608253
000290 44 69 46 be cf 87 50 be 94 26 78 be c0 6e 3f be
       -0.19376093 -0.20364307 -0.24233466 -0.18694592
0002a0 e9 1f 21 be ba 6a 04 bf 0a 15 70 be 50 8b cd be
       -0.15734829 -0.5172535 -0.23445526 -0.4014535
0002b0 57 8b 0b be 49 65 64 3e a8 b1 b3 be 4f c6 a2 be
       -0.13627373 0.22304262 -0.35096478 -0.31791922
0002c0 e4 4c c6 be c3 f1 75 be 53 c1 76 be 12 d1 bb be
       -0.38730538 -0.24018006 -0.24097185 -0.36682945
0002d0 b4 36 21 bf 6b ad 29 3e 89 76 64 bf 39 0d 22 be
       -0.62974095 0.1657006 -0.8924337 -0.15825357
0002e0 26 ce 19 bf e4 a2 ad 3f 16 23 a3 3f 39 44 d0 3f
       -0.6008018 1.3565335 1.2745082 1.627082
0002f0 e3 5e 24 bf 2f 76 11 be 38 16 48 3d 1f f7 42 be
       -0.64207286 -0.1420524 0.048849314 -0.19039582
000300 24 9f 1d bf 28 8f a4 be ab ef cf be df ca c4 be
       -0.61570954 -0.3214047 -0.4061254 -0.38436028
000310 08 ac b5 3f 0f d6 1c 3e 02 66 b9 3c d6 60 8d be
       1.4193125 0.15316032 0.022631649 -0.27612942
000320 31 d6 2a 3f 82 4c a5 be 0f f6 b7 be c1 dc c5 be
       0.6673308 -0.32284933 -0.35929915 -0.38644984
000330 3b 89 ab be 08 f1 95 be c4 86 a4 be 4a e8 e3 be
       -0.33503136 -0.29285455 -0.32134068 -0.4451316
000340 f7 08 99 be ac 95 de be fd 06 a8 be 46 1d c0 be
       -0.29889652 -0.43473566 -0.32817832 -0.37522334
000350 16 ea db be 02 ca 63 be 70 91 d4 be 3d 77 b3 be
       -0.4295203 -0.22245029 -0.4151721 -0.3505191
000360 78 a7 a1 be 8f 29 b4 be 04 dc dc bd 56 c1 d1 3d
       -0.3157308 -0.35187957 -0.10784152 0.10241954
000370 5a b7 85 bd d9 01 79 3e df 14 b8 bc 6f 44 91 40
       -0.06529112 0.24317111 -0.02247089 4.5396037
000380 03 90 a9 be d4 91 e6 be 3f 2d fc be d1 04 40 bf
       -0.33117685 -0.45033133 -0.4925327 -0.7500735
000390 59 02 db be a8 e1 b8 be ac 55 bd be 57 6e 06 bf
       -0.4277523 -0.36109662 -0.36979425 -0.52512115
0003a0 3a af bb be be 34 8e 3e 3c 0b 9a be fb 86 0a be
       -0.36657125 0.27774614 -0.30086696 -0.13528053
0003b0 74 d2 9d be 35 8a 54 3f ba 50 8a 3d 67 95 87 be
       -0.30824625 0.8302339 0.067536786 -0.26481172
0003c0 89 ab af be 15 3e 9c be c8 03 6b be 2b bf ae be
       -0.34310558 -0.30516115 -0.22950661 -0.34130225
0003d0 0d 86 5b be 2c f0 8f bd 96 7a 6b 3e 62 25 85 be
       -0.21437855 -0.07028231 0.22995982 -0.26005083
0003e0 64 f2 ab 3e d6 52 5d 3f 89 a3 9e 3f c9 37 91 be
       0.33583367 0.8645452 1.2393657 -0.28362873
0003f0 97 b4 38 3f ea 6c b5 be 17 1c fc 3c 90 c9 81 be
       0.7215056 -0.35434657 0.030775113 -0.25349092

fc3.bias f4 [4]
000000 ff d7 ce be db 4d ac be 85 9f f6 3e 8d a2 70 bd
       -0.40399167 -0.3365315 0.4816858 -0.05874877
