weights/g1.0_lr0.001_decay_0.9999.pth (torch, 12865 bytes, 6 tensors)

fc1.weight f4 [32, 8]
-1.1972724 -1.171376 -0.27782762 -1.1327193 1.0009912 0.95608497 0.43455 0.2351106
0.24690977 0.42086923 0.9381566 0.7260199 -1.2146896 -0.9470731 0.12128799 0.39138436
-1.2311196 -0.17282204 1.0104722 -0.3494662 -0.41122246 0.26805776 0.21703579 0.48024777
0.743802 -0.25897548 -0.040371533 -1.1731364 -1.3258747 -0.9996135 -0.04855471 0.64663064
-0.5531912 -0.43867862 0.18646885 -1.1433809 -0.08553985 -0.5102947 -0.584842 -0.65922374
0.52982813 -0.5254919 1.3679891 -1.494171 -0.41568193 -1.7647157 0.1561578 0.64406604
-0.12319347 1.1046647 1.0858889 0.23024379 -0.319193 1.5039705 0.18681784 -0.031461883
0.4214626 -2.4912176 0.1462305 -0.8521796 0.66199905 0.98430336 -0.43647918 -1.0010922
2.335618 -0.73370415 0.56285423 0.07356662 0.18708625 -0.003683165 -0.23790784 -0.09055591
0.37615997 1.3411206 -0.16713205 1.3268832 -2.236292 -0.41676283 -0.65410656 0.57998633
0.3231196 0.1565481 -0.63800776 -0.6515695 -3.937804 0.2543945 0.049802024 0.42270914
0.14835478 -0.04800847 -0.40209568 -1.7575784 0.16294003 0.5891062 -1.0476546 -1.6679653
-0.027022209 0.49146044 0.29268837 0.24224305 0.3692366 0.8327096 0.8579643 -1.163947
-0.92430097 -0.2568353 -1.1564553 -0.49364018 0.4116778 0.12514937 0.08838368 0.68564534
-0.08148533 0.012714217 3.0999794 1.8325816 0.37681955 -0.03360958 0.2948482 0.48731273
1.6336609 -0.5750422 1.1016307 0.42887136 -0.08113674 -0.022219913 -0.26685873 -0.040056124
0.1619821 -0.14651006 -1.2859868 -0.8182734 0.08842556 -0.97040445 0.7297013 -1.5669556
-0.32908097 0.29340893 -0.47314534 0.6467074 0.35336497 0.9534343 0.91407245 -0.06796074
-0.10697358 -0.07779672 -0.49490452 0.41776147 -0.6644436 -0.6828942 -0.59834695 0.44940048
1.6006082 -2.0648837 0.9648036 0.47443727 -0.46887973 -0.34407616 0.21997495 -0.25677365
0.3957827 -4.1990027 -0.32066974 -1.5618694 0.5155565 -0.0017149459 -0.20682748 0.29035047
-1.1331048 1.0228937 0.24798557 -0.64392054 -0.06024928 -0.12699327 -1.3150922 -0.24392031
1.7020645 -0.6738629 0.8472021 -0.67262137 -0.7491768 -0.2749338 -0.06326084 0.13435194
-0.07519767 -0.74125373 -0.8651419 -0.24532813 1.0889857 0.3498061 0.9196854 0.53361964
-0.8530134 -0.2958824 -1.8264302 -0.62734824 0.21627116 -0.27118158 0.15429655 0.34320676
0.5409931 0.5544266 -3.2776392 0.81821865 1.0926387 -0.36750045 -0.22581455 0.8534047
-0.032590497 0.029035963 -0.24074598 1.158436 0.44348747 0.1262804 -0.71399266 0.8457943
-0.16829166 -0.996835 0.70924723 -1.5652565 -1.0905435 1.1379089 0.6576961 -0.2825838
-0.38311884 -0.79596937 -1.2817701 4.693264 -0.33329523 0.23252496 0.012319091 1.1064297
0.6201451 0.3796401 0.41790083 -2.1241586 1.0207148 -0.60693544 -0.2611649 0.5486865
0.86078626 1.2301524 0.4630726 0.040861126 1.6483532 1.4727118 0.47280526 -1.4035417
-0.36222425 0.17334247 0.1948083 -0.36954594 1.4854991 1.5005932 -0.24723943 -1.7861004
00000000: 3940 99bf a6ef 95bf 6c3f 8ebe f2fc 90bf
00000010: 7b20 803f fcc1 743f 567d de3e d5c0 703e
00000020: ead5 7c3e 2c7c d73e 082b 703f 71dc 393f
00000030: f37a 9bbf 6273 72bf d665 f83d 8863 c83e
00000040: 5495 9dbf 43f8 30be 2757 813f 3ced b2be
00000050: c08b d2be de3e 893e a13e 5e3e 09e3 f53e
00000060: cf69 3e3f 6f98 84be 9f5c 25bd 5529 96bf
00000070: 43b6 a9bf ace6 7fbf 4ee1 46bd 9689 253f
00000080: f09d 0dbf 7c9a e0be b1f1 3e3e 4e5a 92bf
00000090: 842f afbd aca2 02bf 35b8 15bf e3c2 28bf
000000a0: d1a2 073f a386 06bf 441a af3f ff40 bfbf
000000b0: 43d4 d4be 34e2 e1bf d5e7 1f3e 83e1 243f
000000c0: dc4c fcbd a765 8d3f 68fe 8a3f 07c5 6b3e
000000d0: 446d a3be 1b82 c03f 2d4d 3f3e 2dde 00bd
000000e0: f2c9 d73e 1c70 1fc0 73bd 153e 7128 5abf
000000f0: c578 293f 4efb 7b3f 337a dfbe ca23 80bf
00000100: c47a 1540 09d4 3bbf 3717 103f 19aa 963d
00000110: 8a93 3f3e 4161 71bb 1d9e 73be 6075 b9bd
00000120: 0a98 c03e d7a9 ab3f aa24 2bbe 4fd7 a93f
00000130: 681f 0fc0 f061 d5be 8773 27bf fc79 143f
00000140: ef6f a53e 254e 203e 7a54 23bf 42cd 26bf
00000150: fb04 7cc0 ff3f 823e 35fd 4b3d 556d d83e
00000160: 51ea 173e 88a4 44bd 7cdf cdbe 54f8 e0bf
00000170: c0d9 263e aacf 163f 8c19 86bf e37f d5bf
00000180: ae5d ddbc b4a0 fb3e 40db 953e 900e 783e
00000190: 940c bd3e 752c 553f 8ca3 5b3f 37fc 94bf
000001a0: fd9e 6cbf eb7f 83be ba06 94bf 68be fcbe
000001b0: 6fc7 d23e 2827 003e 8102 b53d 7486 2f3f
000001c0: c8e1 a6bd 4b4f 503c 1066 4640 0992 ea3f
000001d0: 7eee c03e 33aa 09bd 58f6 963e 0e81 f93e
000001e0: cd1b d13f f735 13bf 3c02 8d3f 0795 db3e
000001f0: 052b a6bd 8906 b6bc b5a1 88be e411 24bd
00000200: a3de 253e bc06 16be 379b a4bf 5e7a 51bf
00000210: 7618 b53d 6d6c 78bf b4cd 3a3f 0092 c8bf
00000220: 4d7d a8be b239 963e 1b40 f2be 9e8e 253f
00000230: 41ec b43e 4514 743f a700 6a3f 002f 8bbd
00000240: f714 dbbd e353 9fbd 2064 fdbe d5e4 d53e
00000250: fa18 2abf 27d2 2ebf 442d 19bf d217 e63e
00000260: bbe0 cc3f 0e27 04c0 5efd 763f 71e9 f23e
00000270: 0111 f0be c02a b0be 1d41 613e d677 83be
00000280: 08a4 ca3e 3b5e 86c0 d32e a4be 56eb c7bf
00000290: 83fb 033f 09c8 e0ba 95ca 53be d1a8 943e
000002a0: 9409 91bf 2eee 823f eeef 7d3e fad7 24bf
000002b0: f3c7 76bd 860a 02be f154 a8bf 3fc6 79be
000002c0: 40dd d93f 4782 2cbf 3de2 583f ea30 2cbf
000002d0: 0dca 3fbf 1fc4 8cbe e68e 81bd 8e93 093e
000002e0: 3c01 9abd cec2 3dbf f179 5dbf 4c37 7bbe
000002f0: e263 8b3f c919 b33e 8170 6b3f 4c9b 083f
00000300: 165f 5abf e67d 97be 77c8 e9bf e599 20bf
00000310: 3076 5d3e 50d8 8abe eaff 1d3e ccb8 af3e
00000320: 867e 0a3f e7ee 0d3f d7c4 51c0 c776 513f
00000330: 96db 8b3f 0529 bcbe ee3b 67be bb78 5a3f
00000340: 9d7d 05bd d4dc ed3c 1d86 76be a147 943f
00000350: ca10 e33e a64f 013e 39c8 36bf fa85 583f
00000360: a654 2cbe 9430 7fbf 3a91 353f 535a c8bf
00000370: ee96 8bbf 00a7 913f c65e 283f d3ae 90be
00000380: 2728 c4be a6c4 4bbf 0b11 a4bf 382f 9640
00000390: aca5 aabe 061b 6e3e 03d6 493c 7d9f 8d3f
000003a0: d4c1 1e3f 3060 c23e 19f7 d53e 37f2 07c0
000003b0: c8a6 823f 1f60 1bbf 68b7 85be b876 0c3f
000003c0: 7d5c 5c3f a275 9d3f da17 ed3e ff5d 273d
000003d0: 3dfd d23f d281 bc3f 8813 f23e 41a7 b3bf
000003e0: 7575 b9be b080 313e d47b 473e 2035 bdbe
000003f0: d624 be3f 7013 c03f 552c 7dbe f09e e4bf

fc1.bias f4 [32]
-0.64087385 0.042645887 -0.78645533 -0.73295456 -0.6377965 -0.44667685 0.81868684 0.64659196
-0.0056439512 0.12507458 0.13237448 0.5285685 -0.4656954 -0.5739759 0.043317944 -0.14422669
-0.04157652 0.21811615 0.41415396 -0.26263073 0.47105226 -0.1482094 -0.5761453 0.6962878
-0.38001937 -0.13476983 -0.75795954 0.13087542 0.048012473 1.0813969 -0.39574218 -0.22084741
00000000: 4f10 24bf 74ad 2e3d 2355 49bf e9a2 3bbf
00000010: a246 23bf d4b2 e4be 7695 513f 0d87 253f
00000020: e5f0 b8bb 8d13 003e 2d8d 073e 4450 073f
00000030: a16f eebe 16f0 12bf 286e 313d 29b0 13be
00000040: 244c 2abd d759 5f3e fd0b d43e 8977 86be
00000050: c32d f13e 34c4 17be 427e 13bf eb3f 323f
00000060: e691 c2be 1a01 0abe a309 42bf 3504 063e
00000070: baa8 443d 376b 8a3f b89e cabe d325 62be

fc2.weight f4 [64, 32]
-0.040424623 -0.053059757 -0.107664816 0.018990371 0.024292707 -0.06412491 -0.072438605 -0.13494417
0.090009406 -0.1876852 0.013166685 -0.09262904 -0.12522946 -0.0052061076 -0.14883426 0.008969543
0.03471556 -0.16285282 -0.016327096 0.029415041 0.027807154 -0.053850695 -0.19287515 -0.07218737
0.027579522 -0.09653047 0.035342623 0.07246078 -0.09930705 -0.070370466 0.03533137 0.013855376
0.73512995 0.29264623 0.19076811 0.6546205 0.9912547 0.12009265 0.118011855 -0.20673384
1.001889 1.0771 -0.8827423 0.19294363 0.29615736 0.9806986 -1.0293245 0.04775726
0.022007726 0.22460225 -0.03586515 1.1806526 -1.2812644 0.03595719 1.2225462 0.17781223
0.3965883 -1.0206091 1.0976418 -0.18452014 -0.5553186 0.029339246 -1.0048419 1.197129
0.6637365 -0.10988576 -0.14254671 0.7629248 0.65949786 0.017292783 -1.6746266 -0.13174362
1.4150654 0.3229259 0.09430488 -1.1771935 2.0979526 1.0742075 0.19641374 -0.4273587
0.96134925 -0.042802896 -0.371737 1.8632656 -0.24292414 -0.028932 1.0771545 0.08983593
1.3698162 1.7701874 1.215316 0.47283462 0.9761742 -0.21387525 -1.8931137 0.9151817
0.2610857 0.8852203 0.6988792 1.021816 0.84563625 0.7095161 -1.4247351 0.6701577
0.7509756 -0.72249746 0.2683513 -0.36831784 0.56738377 -0.22345348 0.7338225 0.85534114
0.03767252 0.20506139 -0.16002163 0.87255555 -0.4285379 1.2963295 1.2427167 0.56451726
-0.30038652 -0.7181611 -0.6282029 0.2680979 -0.016724167 -0.07785036 -1.6652758 2.2186024
-0.09440348 0.64133364 0.7120257 1.4558357 0.8582168 0.61258364 -1.0827832 -0.13999479
1.1982452 -0.2323275 0.65665704 -2.44232 0.88999146 0.48103127 0.82209486 0.9947012
0.0847395 -0.035964314 -0.53071034 1.2605922 -0.4731498 0.6960949 1.4749418 0.057709254
-0.39051172 -1.4681343 -0.95046455 0.61592364 -0.100681916 0.16840668 -1.7130979 2.171761
-0.29164276 0.15669857 -0.4437663 0.75870174 0.67704237 1.4422444 -0.5934852 1.2201188
-1.2264595 -0.9008024 -1.1011487 0.28630847 -0.075852685 -1.5064765 0.05715775 -1.8159912
0.9349233 -0.1354001 0.044031348 -0.5514009 1.1955625 -3.2335024 0.32258174 0.6711303
-0.80707866 -0.6499114 -1.1718313 0.12907188 -0.87175846 0.66327846 0.4489661 -0.4874336
-1.0136477 -0.90465343 -2.009224 -1.3068068 -1.0764675 -0.47924918 0.8397119 0.47547477
-0.13265687 -0.305142 1.5581553 0.67013323 -0.117313825 -0.73654103 0.855259 -0.67022103
0.7206995 -0.07057681 -0.4821331 -1.4493363 1.0176657 0.93322206 -1.2918872 0.08128206
-0.1891204 1.55905 -2.5244973 0.46658754 1.1333603 1.1655476 1.29188 -0.78231066
0.4356905 -0.29227695 -0.28383195 0.5550595 0.47112244 -0.36950824 -1.015378 0.44986168
1.2313366 -0.3063823 -0.04346275 0.13483827 -0.276978 0.6837274 -0.4863209 0.43065435
0.2720556 0.06341366 0.08202476 1.036047 -0.91453326 -0.3703869 0.72018486 0.29572955
0.61783487 1.0016414 0.79272026 -0.026413893 0.27658415 0.36736503 -0.62032986 1.0739336
00000000: 4a94 25bd 3055 59bd 5f7f dcbd b291 9b3c
00000010: 8001 c73c ec53 83bd b15a 94bd ce2e 0abe
00000020: da56 b83d 8d30 40be 14b9 573c 4bb4 bdbd
00000030: 273c 00be ff97 aabb 0268 18be fdf4 123c
00000040: e731 0e3d e4c2 26be 67c0 85bc d0f7 f03c
00000050: d4cb e33c 8c92 5cbd 1081 45be f9d6 93bd
00000060: 73ee e13c c4b1 c5bd 6dc3 103d 5166 943d
00000070: 7f61 cbbd 641e 90bd a0b7 103d a901 633c
00000080: 7a31 3c3f bad5 953e b758 433e 3695 273f
00000090: dec2 7d3f 23f3 f53d 33b0 f13d 09b2 53be
000000a0: e63d 803f 6ade 893f 66fb 61bf 0493 453e
000000b0: f0a1 973e 100f 7b3f e8c0 83bf 1e9d 433d
000000c0: 8c49 b43c 22fe 653e 56e7 12bd a01f 973f
000000d0: 7900 a4bf d947 133d 657c 9c3f 6914 363e
000000e0: 9f0d cb3e 52a3 82bf 877f 8c3f d9f2 3cbe
000000f0: 5c29 0ebf dc58 f03c a99e 80bf 863b 993f
00000100: a3ea 293f c90b e1bd c4f7 11be 0a4f 433f
00000110: dad4 283f 98a9 8d3c 2a5a d6bf cde7 06be
00000120: dd20 b53f 8b56 a53e eb22 c13d 47ae 96bf
00000130: db44 0640 a27f 893f af20 493e c2ce dabe
00000140: fc1a 763f 1752 2fbd 5054 bebe 7d7f ee3f
00000150: 1bc1 78be cd02 edbc 33e0 893f e6fb b73d
00000160: 2356 af3f 8095 e23f 7a8f 9b3f 6117 f23e
00000170: 8de6 793f 1d02 5bbe 8d51 f2bf 5949 6a3f
00000180: 06ad 853e cc9d 623f bfe9 323f deca 823f
00000190: 9e7b 583f d9a2 353f b85d b6bf 748f 2b3f
000001a0: f03f 403f 98f5 38bf 5765 893e 2894 bcbe
000001b0: 1040 113f fdd0 64be cbdb 3b3f a3f7 5a3f
000001c0: 804e 1a3d 9dfb 513e b6dc 23be cd5f 5f3f
000001d0: 5269 dbbe 20ee a53f 5711 9f3f 3484 103f
000001e0: 43cc 99be 68d9 37bf e8d1 20bf 2144 893e
000001f0: 1f01 89bc 0270 9fbd c227 d5bf 95fd 0d40
00000200: 9d56 c1bd 712e 243f 5147 363f d358 ba3f
00000210: 19b4 5b3f 48d2 1c3f a498 8abf cb5a 0fbe
00000220: 1960 993f 43e7 6dbe ad1a 283f f94e 1cc0
00000230: 7bd6 633f bb49 f63e cf74 523f bda4 7e3f
00000240: e78b ad3d 514f 13bd a2dc 07bf 165b a13f
00000250: b140 f2be 4633 323f e5ca bc3f 8a60 6c3d
00000260: 27f1 c7be d3eb bbbf a551 73bf 2cad 1d3f
00000270: 5232 cebd cd72 2c3e cb46 dbbf 22fe 0a40
00000280: 3352 95be 9775 203e 5635 e3be 473a 423f
00000290: a652 2d3f 779b b83f a5ee 17bf da2c 9c3f
000002a0: a0fc 9cbf fc9a 66bf 71f2 8cbf 0697 923e
000002b0: a758 9bbd 39d4 c0bf 3f1e 6a3d 6672 e8bf
000002c0: 2257 6f3f 53a6 0abe 375a 343d 9c28 0dbf
000002d0: 3108 993f b4f1 4ec0 6f29 a53e 32cf 2b3f
000002e0: b59c 4ebf 9860 26bf 91fe 95bf 6b2b 043e
000002f0: 902b 5fbf 9ecc 293f e2de e53e e690 f9be
00000300: 35bf 81bf 5e97 67bf 2097 00c0 7245 a7bf
00000310: b0c9 89bf 2660 f5be 5cf7 563f 6e71 f33e
00000320: 34d7 07be 923b 9cbe a271 c73f da8d 2b3f
00000330: 3b42 f0bd f48d 3cbf 41f2 5a3f 9b93 2bbf
00000340: c37f 383f 938a 90bd 26da f6be da83 b9bf
00000350: df42 823f a4e7 6e3f 8f5c a5bf 3577 a63d
00000360: c7a8 41be f38e c73f 5d91 21c0 90e4 ee3e
00000370: f311 913f aa30 953f 535c a53f 8345 48bf
00000380: d312 df3e 53a5 95be 6c52 91be 6118 0e3f
00000390: f636 f13e 2f30 bdbe e8f7 81bf 4554 e63e
000003a0: 709c 9d3f 24de 9cbe ff05 32bd 0b13 0a3e
000003b0: 0fd0 8dbe c208 2f3f 0eff f8be ba7e dc3e
000003c0: df4a 8b3e 05df 813d 99fc a73d 309d 843f
000003d0: da1e 6abf 5aa3 bdbe 095e 383f dd69 973e
000003e0: 6d2a 1e3f c935 803f b7ef 4a3f f361 d8bc
000003f0: 709c 8d3e 4517 bc3e f0cd 1ebf a876 893f

fc2.bias f4 [64]
-0.07765945 0.30929545 0.08012575 -0.25115153 -0.02111069 -0.024091775 1.1535636 0.74501044
-0.24779601 0.5397343 0.2257121 0.18810117 0.3008385 -0.003804384 1.14396 1.0491524
0.267725 -0.06228327 0.36049667 0.3534194 -0.14534499 0.18646467 0.0068365703 0.4890209
0.27992836 -0.019225108 -0.8982405 -0.17424302 -0.28984302 0.4846447 -0.07203712 -0.5615032
0.13491996 -0.027316172 -0.17532362 -0.12436618 1.0975308 0.7339458 -0.12120324 0.47927278
0.65406364 -0.30812705 1.0807848 0.81513584 0.63530904 1.5086911 -0.02759932 0.12745006
0.29839897 0.3398043 0.74994195 -0.29778522 0.39577726 0.82069284 0.2496205 0.84396124
0.67205006 0.7836106 1.4892647 -0.24129988 0.48092335 0.21276152 0.5113433 0.5000355
00000000: eb0b 9fbd f95b 9e3e f818 a43d ef96 80be
00000010: 53f0 acbc 1d5c c5bc f9a7 933f 01b9 3e3f
00000020: 3dbe 7dbe 072c 0a3f 1321 673e 989d 403e
00000030: 8107 9a3e f952 79bb 486d 923f a04a 863f
00000040: 4013 893e be1c 7fbd 0593 b83e 63f3 b43e
00000050: 51d5 14be 98f0 3e3e 4f05 e03b f360 fa3e
00000060: c552 8f3e f97d 9dbc 17f3 65bf c36c 32be
00000070: 4e66 94be 5a23 f83e 3388 93bd acbe 0fbf
00000080: 7528 0a3e 2ac6 dfbc 0988 33be b2b3 febd
00000090: e47b 8c3f dfe3 3b3f 6739 f8bd 3e63 f53e
000000a0: b770 273f d4c2 9dbe 2857 8a3f beac 503f
000000b0: 9da3 223f ca1c c13f f817 e2bc 4582 023e
000000c0: c0c7 983e d4fa ad3e 32fc 3f3f 4e77 98be
000000d0: 51a3 ca3e ed18 523f 849c 7f3e d80d 583f
000000e0: 790b 2c3f b49a 483f 3aa0 be3f 5117 77be
000000f0: 963b f63e 28de 593e 65e7 023f 5402 003f

fc3.weight f4 [4, 64]
0.10751665 -0.6504562 -1.0452826 0.13274063 -0.8768351 1.1873916 0.981256 -0.46386865
-0.36638302 -0.4790188 -1.8857132 -0.6152672 -1.2019025 -0.4607898 3.3659685 1.2969868
-0.620049 -0.5334337 -0.7286605 -0.731591 -0.40781984 -0.5574253 -0.14159563 -0.30071133
-0.23011908 -0.024988294 -0.66590506 -0.0720433 -0.691112 2.3009675 -1.3188201 0.80898994
-0.37436932 -0.19491692 0.10459872 0.08380409 3.6925704 0.53570867 -0.020282391 0.31773052
-0.3898841 -1.6188102 -0.38431165 1.6427755 -1.3030521 2.7231255 0.6896667 -1.5427985
-1.2706462 -0.5578563 -0.50990933 -0.149393 -0.64187634 -0.75107753 -0.8488048 -1.7189696
-1.9798388 3.0084193 2.8784974 0.0032851542 1.8383882 -0.8166778 -0.19808844 -0.41657433
0.07129989 -0.53814805 -0.9083317 -0.2750906 -0.86065596 2.2475126 1.4752088 -0.47023234
-0.51785547 -1.3143166 -0.78256804 -1.3534737 -0.50069785 -0.24747762 3.4487746 2.1574836
-0.20989588 -0.35826993 -0.5767888 -1.2724792 -1.4254305 -0.9074684 0.0104676215 -1.2851954
-0.862444 -0.0041306186 -1.3755194 0.033180296 -2.050469 2.6339667 0.72002375 -1.7415856
-0.3247124 -0.1669567 -0.10308039 0.0046993266 4.069478 0.43171346 -0.08617702 0.8042002
-0.44407058 -1.5727172 -0.47936097 2.5393715 -1.2668581 2.950596 0.6059778 -0.7589209
-0.6454269 -0.71669364 -0.64820963 -1.0209575 -0.97701716 -0.4241042 -0.7126073 -2.124453
-0.7960691 2.3898864 1.7434945 -0.03665145 1.8597965 -0.63606644 -1.0866232 -1.2424346
0.014379039 -0.6492197 -0.9823599 -0.97299516 -0.86667645 2.554158 2.0995266 -1.0449024
-2.050518 -1.014371 0.46970373 -1.0429101 -1.0989739 -0.7013363 2.6631396 -0.6108618
-0.48744836 -0.6268945 -0.45915687 -1.1216978 -0.48317775 0.5925143 -0.0500338 -0.88386154
-1.042754 -0.02582888 1.2242764 0.058959674 1.1609367 1.3028896 -1.3545403 0.09164511
-0.556872 -0.50838804 0.038294133 -0.0720777 3.0573034 1.6736624 -0.038505584 -0.10174858
-0.7121364 -1.1014698 -1.0055777 1.9503433 -0.76936525 1.6808372 2.827142 -0.71010065
-0.98814166 -1.148211 -0.55440587 -0.7854511 -0.39025038 -0.40889946 -0.9107888 -1.7513628
-0.7538787 3.189764 2.1821792 0.078354836 2.3183973 -0.7821624 -1.571537 -0.80661094
-0.08806142 -0.6316307 -0.9411069 -0.8390271 -0.8220157 1.4476784 1.7324266 -0.28803724
-0.7867187 -0.49620292 -1.6665564 -1.0788195 -1.0333278 -1.2726307 3.0621622 1.5456519
-0.6475507 -0.77308714 -0.5485012 -0.15600942 -0.8070316 -0.7105868 -0.051856373 -0.4106365
0.14586464 -0.119285166 0.26021734 0.10241954 -0.16623491 1.5005798 -0.7979414 0.34635898
-0.98624355 -1.0611794 0.04893591 -0.1096371 3.4345257 -0.23541711 -0.06341538 -0.9512286
-0.72569174 -0.51714104 -0.33739057 1.5917647 -0.58006084 3.1088774 1.2258198 -0.9088583
-0.57423174 0.057989694 -0.5742671 -0.74263525 -0.7974585 -0.41601902 -0.88868666 -1.7321788
-0.5557146 2.62779 2.8392265 0.065568835 1.8088976 -0.66155493 -0.7588538 -0.41968715
00000000: b031 dc3d 4c84 26bf d2cb 85bf 29ed 073e
00000010: 4478 60bf 73fc 973f 9833 7b3f 3180 edbe
00000020: 8e96 bbbe f441 f5be 0d5f f1bf 2782 1dbf
00000030: f1d7 99bf a4ec ebbe 076c 5740 aa03 a63f
00000040: 88bb 1ebf 1c8f 08bf 7f89 3abf 8c49 3bbf
00000050: c3cd d0be 6db3 0ebf 72fe 10be d6f6 99be
00000060: 56a4 6bbe 40b4 ccbc c178 2abf 708b 93bd
00000070: b7ec 30bf 0d43 1340 19cf a8bf f719 4f3f
00000080: 56ad bfbe 4d98 47be db37 d63d 7ba1 ab3d
00000090: 1353 6c40 3424 093f 4227 a6bc 93ad a23e
000000a0: e49e c7be 2c35 cfbf 7fc4 c4be 7846 d23f
000000b0: 69ca a6bf b047 2e40 ff8d 303f 6c7a c5bf
000000c0: 89a4 a2bf accf 0ebf 6b89 02bf 7bfa 18be
000000d0: 0252 24bf 9e46 40bf 454b 59bf 3207 dcbf
000000e0: 5c6b fdbf f189 4040 4d39 3840 be4b 573b
000000f0: 4e50 eb3f cc11 51bf b2d7 4abe 3b49 d5be
00000100: ad05 923d 12c4 09bf 6d88 68bf add8 8cbe
00000110: f353 5cbf 3fd7 0f40 a4d3 bc3f 4bc2 f0be
00000120: 2d92 04bf 873b a8bf 6156 48bf a03e adbf
00000130: bc2d 00bf c66a 7dbe b9b8 5c40 3614 0a40
00000140: f2ee 56be 286f b7be 6ea8 13bf 99e0 a2bf
00000150: 8274 b6bf d94f 68bf 6380 2b3c 4881 a4bf
00000160: 21c9 5cbf 245a 87bb 0511 b0bf 10e8 073d
00000170: e23a 03c0 e992 2840 7a53 383f 47ec debf
00000180: b440 a6be b2f6 2abe d01b d3bd cffc 993b
00000190: 2a39 8240 8c09 dd3e 947d b0bd 10e0 4d3f
000001a0: 385d e3be cc4e c9bf cd6e f5be 1085 2240
000001b0: 6828 a2bf 91d6 3c40 5c21 1b3f a448 42bf
000001c0: b33a 25bf 3c79 37bf 11f1 25bf bcae 82bf
000001d0: cc1d 7abf 3024 d9be 6f6d 36bf 0af7 07c0
000001e0: 2fcb 4bbf e6f3 1840 d42a df3f d51f 16bd
000001f0: d00d ee3f 40d5 22bf 7816 8bbf 1908 9fbf
00000200: 1096 6b3c 4333 26bf f07b 7bbf 3616 79bf
00000210: 82de 5dbf 5377 2340 a55e 0640 5dbf 85bf
00000220: b03b 03c0 e9d6 81bf 027d f03e 147e 85bf
00000230: 2dab 8cbf c78a 33bf e170 2a40 7061 1cbf
00000240: d592 f9be 287c 20bf 9c16 ebbe cb93 8fbf
00000250: 1363 f7be 04af 173f 3ef0 4cbd c044 62bf
00000260: f778 85bf 1697 d3bc 17b5 9c3f b37f 713d
00000270: 9399 943f 16c5 a63f 9461 adbf 6eb0 bb3d
00000280: 2a8f 0ebf b825 02bf 4fda 1c3d 799d 93bd
00000290: dcaa 4340 923a d63f 08b8 1dbd 8f61 d0bd
000002a0: 924e 36bf f6fc 8cbf c5b6 80bf d9a4 f93f
000002b0: 1ff5 44bf ac25 d73f e5ef 3440 28c9 35bf
000002c0: daf6 7cbf 94f8 92bf 8bed 0dbf 5313 49bf
000002d0: e6ce c7be 455b d1be 7429 69bf a82c e0bf
000002e0: 32fe 40bf 1825 4c40 d3a8 0b40 8078 a03d
000002f0: 9f60 1440 cc3b 48bf 2028 c9bf 0e7e 4ebf
00000300: 8c59 b4bd 8db2 21bf 62ec 70bf 7bca 56bf
00000310: 9f6f 52bf 874d b93f 28c0 dd3f 9e79 93be
00000320: 6666 49bf 4f0e febe b851 d5bf c216 8abf
00000330: 1644 84bf 90e5 a2bf 77fa 4340 ecd7 c53f
00000340: e2c5 25bf 0ae9 45bf 936a 0cbf efc0 1fbe
00000350: 9f99 4ebf 04e9 35bf 5967 54bd f33e d2be
00000360: 8a5d 153e c84b f4bd 353b 853e 56c1 d13d
00000370: 7c39 2abe 0013 c03f e345 4cbf f755 b13e
00000380: 757a 7cbf bad4 87bf 0571 483d 6a89 e0bd
00000390: 45cf 5b40 2f11 71be ecdf 81bd b883 73bf
000003a0: efc6 39bf 5b63 04bf 75be acbe f2be cb3f
000003b0: de7e 14bf d9f7 4640 aae7 9c3f f0aa 68bf
000003c0: da00 13bf 9a86 6d3d 2b03 13bf 581d 3ebf
000003d0: 3e26 4cbf 7200 d5be f880 63bf 09b8 ddbf
000003e0: 5043 0ebf b62d 2840 e3b5 3540 f448 863d
000003f0: f589 e73f aa5b 29bf 3e44 42bf 3ce1 d6be

fc3.bias f4 [4]
-0.37225068 -0.031048028 0.46356153 -0.29867133
00000000: a497 bebe 6f58 febc f057 ed3e 73eb 98be
