weights/g1.0_lr0.001_decay_0.99999999.pth (torch, 12865 bytes, 6 tensors)

fc1.weight f4 [32, 8]
000000 17 d7 74 3e 3e 68 d2 3e 04 43 03 3e e7 56 0b c0
       0.23910175 0.41095155 0.12818533 -2.177179
000010 2c 83 65 3e 0b 57 3a 3f fe a7 9c bf 54 fb 34 bf
       0.2241332 0.7278907 -1.2238767 -0.70695996
000020 f9 7e e9 bd b2 7c 5f 3d 87 45 f4 bd 06 f7 18 3f
       -0.11401171 0.054562278 -0.11927324 0.5975193
000030 5c 42 b9 be 04 42 c3 bf f3 a9 72 be 04 63 9d 3f
       -0.3618344 -1.5254521 -0.23697643 1.2295842
000040 cc 31 57 bf cf d4 c3 3e a1 e2 9c 3d 1e 6e c2 3e
       -0.8406036 0.38248298 0.076604135 0.37974638
000050 45 76 a0 3f 1c e1 e0 3f 21 ca c0 3f 8a d3 7c 3f
       1.2536093 1.7568698 1.5061685 0.98760283
000060 fd d1 d0 3f 86 2d 85 bf b6 94 a4 3f 73 fe 52 bf
       1.6314083 -1.0404518 1.2857883 -0.8241951
000070 53 97 a7 bf ac 2f 2d bf 9d 14 f1 3d 10 a6 df 3e
       -1.3093055 -0.67650867 0.1177151 0.43681383
000080 9c 3d 23 bd 93 58 d0 be 3e 9c 36 bd 0f bd 0d c0
       -0.039853677 -0.40692577 -0.044582598 -2.2146642
000090 1b b4 71 bd 7b 99 88 3e 94 fc 7b bf e1 4e 6a be
       -0.059009653 0.26679596 -0.9843228 -0.22881652
0000a0 45 8f 29 3f d5 6e 28 bf a8 99 12 3f 43 76 fb be
       0.66234237 -0.65794116 0.5726571 -0.49113664
0000b0 c2 ad a8 bf d6 81 95 bf 0e 5f 93 3e 07 36 2b be
       -1.3178027 -1.1680248 0.28783458 -0.16719829
0000c0 6d 28 0f bf 28 07 29 c0 e9 9e 79 bd c1 9e a0 bf
       -0.5592106 -2.6410618 -0.060942564 -1.2548448
0000d0 ab 3d 86 be fe b0 bb bf ae 35 89 bc 1c 33 fd 3e
       -0.26218924 -1.4663389 -0.01674923 0.49453056
0000e0 08 56 fb 3e 81 b9 34 bf f4 92 32 3b 7d 42 26 bf
       0.49089074 -0.70595556 0.0027248235 -0.64945203
0000f0 6b 43 dc bd c5 d0 63 3d 21 24 b6 3d 1c 9e b3 be
       -0.107550465 0.05561902 0.0889361 -0.35081565
000100 13 0a 90 3f 60 29 e2 be 6f d8 2e 3e 27 6c e5 bd
       1.1253074 -0.44172192 0.1707475 -0.11202269
000110 ab 2c 0c 3f d2 f2 b1 3f 4a 62 4f bf 7a ab ad be
       0.5475566 1.3902228 -0.8100935 -0.3391989
000120 55 be 08 bf 81 0a 0e 3f 44 24 79 3f 86 f2 89 3f
       -0.53415424 0.5548478 0.9732096 1.0777137
000130 d7 46 b1 bf 7b 04 d9 bf bb 66 ff bc 37 13 a9 be
       -1.3849744 -1.6954492 -0.031176915 -0.33022472
000140 e8 a0 0c 3f 67 61 fd 3f 50 5a 09 3f ef 1c 5e bd
       0.54933023 1.979535 0.5365343 -0.054226812
000150 71 50 ce be 4d 3d 9e bf 3f 71 d7 3e a4 c0 8f bf
       -0.40295747 -1.2362458 0.42078587 -1.1230664
000160 fe 8d 5a bf c2 ef ce 3d a2 f7 94 3e 38 d1 02 3f
       -0.8537291 0.10104324 0.2909518 0.5110049
000170 4d af 4a 3f bb 18 88 3f 74 03 6e bf 75 09 c8 be
       0.7917374 1.0632547 -0.9297402 -0.39069715
000180 36 7a 3b 3f 7d 41 ff be fc 03 1a bf b7 15 18 bf
       0.73233354 -0.4985465 -0.6016233 -0.59408134
000190 ff cd 18 3f e8 87 6c 3f 0a 1e f4 bc f0 26 11 3f
       0.59689325 0.92394876 -0.02979948 0.5670004
0001a0 04 2e bf 3e 15 bd 98 bf 33 db 72 bf 36 d4 ec be
       0.37339795 -1.1932703 -0.9486572 -0.46255654
0001b0 0a a2 8d 3f 60 23 86 be 97 22 ce 3d 39 ae 9d 3f
       1.1065075 -0.26198864 0.10065191 1.2318794
0001c0 e3 5b 5f 3d 9f 43 e8 be 77 cd f8 bb 4f 71 60 bf
       0.05453099 -0.4536409 -0.0075928527 -0.87672895
0001d0 2c 04 7a bf f1 7c d4 bf ae 79 6a 3e bb 41 d2 be
       -0.97662616 -1.6600629 0.2289798 -0.41065773
0001e0 35 fe 1a 3f 09 04 0f bf 94 34 de 3e 1f e0 95 3f
       0.6054414 -0.5586553 0.4339949 1.1709021
0001f0 ba 0e 14 c0 44 91 31 bc 42 89 c4 bd 30 97 dc bf
       -2.3133988 -0.010837857 -0.09596492 -1.7233639
000200 31 0c 9a 3d 22 c9 88 bd ca e6 11 bf 7f c7 cb bf
       0.075218566 -0.06678988 -0.5699278 -1.5920256
000210 b9 a2 cc be d5 b0 31 be fe 88 01 3f 20 e0 0e bf
       -0.39967898 -0.17352612 0.5059966 -0.5581074
000220 f3 cf 54 be 12 2b 86 be 24 d8 9b 3d df da db be
       -0.20782451 -0.26204735 0.07609585 -0.42940423
000230 a1 91 32 3f a7 a9 a7 3f 70 97 16 3e 03 61 cc bf
       0.6975346 1.3098649 0.14706206 -1.5967106
000240 ee 0a 4f 3c 75 8a d4 be 85 98 3d 3f 74 e1 02 3f
       0.012636883 -0.41511884 0.7406085 0.51125264
000250 a3 74 cc bf 70 cb 46 be 6e af ab bf 0e 00 86 bf
       -1.5973095 -0.19413543 -1.3412912 -1.0468767
000260 68 cf 73 bf e3 48 4e bf 32 1d 0b bf cc a6 03 c0
       -0.9523835 -0.80579966 -0.54341424 -2.0570555
000270 83 d0 8e 3f e5 d0 4c bf 89 01 e4 be 60 b5 42 bf
       1.1157383 -0.8000625 -0.4453242 -0.76058006
000280 da b8 5d 3e 04 6d e7 3e 45 0f e5 bf 25 18 62 40
       0.21652547 0.4520036 -1.7895285 3.5327237
000290 7b b6 c5 3d ce 6f 41 bf 3a e6 01 3f c5 b5 04 40
       0.09653946 -0.75561225 0.5074192 2.0735943
0002a0 67 eb fb 3e a0 d8 24 c0 e4 f1 47 3f 9a 0a 0a c0
       0.49203035 -2.5757217 0.7810347 -2.156897
0002b0 ab 10 9a be 56 8d 90 3e 7e a7 3b 3f 24 14 22 3d
       -0.30090842 0.2823283 0.7330245 0.03956999
0002c0 b4 7b c2 be be 62 19 be 3d aa d9 be 36 8a c1 bf
       -0.37985003 -0.14979073 -0.42512694 -1.5120304
0002d0 3b 8c 93 3c e5 dc eb be af e5 83 be 26 0d 27 bf
       0.018011203 -0.46066967 -0.25761172 -0.6525444
0002e0 e9 99 80 bb bc ad 16 3e 07 03 1d bf 13 9d 12 c0
       -0.0039245975 0.14714712 -0.61332744 -2.290837
0002f0 e2 1d 94 bd b6 8c a2 3e e7 42 1b 3f 43 05 15 bf
       -0.07232262 0.3174798 0.6064896 -0.58211154
000300 d2 f6 88 bf f9 a1 86 bf 52 e2 51 bf 0c 92 24 3f
       -1.0700324 -1.051818 -0.8198596 0.6428535
000310 88 e0 ad bc 21 e7 35 be 00 8f 51 3f 80 c9 fa 3e
       -0.021225229 -0.1776395 0.81858826 0.48981857
000320 47 44 06 be 95 cd 85 be a4 81 b7 bd e5 82 07 c0
       -0.13111983 -0.2613341 -0.08960274 -2.1173642
000330 1b 11 e0 bd 8c 36 2b 3e 43 7c f0 bf 15 5e e3 3d
       -0.109407626 0.16720027 -1.8787922 0.11101929
000340 9f 7e 3c 3e 44 96 eb be 2f 09 7e be 95 b8 c3 bf
       0.18407677 -0.4601308 -0.24808191 -1.5290705
000350 2c 36 55 bd 27 5f 73 be d0 26 b1 be c1 34 08 bf
       -0.052053615 -0.23766766 -0.34599924 -0.53205496
000360 bf 66 84 be 09 cd 66 bf 0b f4 1f 3f e3 ca 1e be
       -0.2585964 -0.9015661 0.62481755 -0.15507083
000370 38 b5 00 be ce b9 1a 3e f3 33 0f 3f f8 9b 54 3e
       -0.1256913 0.15109941 0.55938643 0.20762622
000380 10 05 90 3e 03 c1 08 40 0a 69 01 3e 01 40 d8 be
       0.28128862 2.1367805 0.12637725 -0.4223633
000390 23 7f 3e 3e fd b6 c8 be 4a bc 78 bf 96 74 0b 40
       0.18603186 -0.3920211 -0.97162306 2.1789908
0003a0 8b d9 77 3f 09 72 87 be 01 47 8e 3f e9 97 49 c0
       0.9681632 -0.2645419 1.1115419 -3.1498969
0003b0 e9 78 8f 3e 10 9c d7 be bf e5 2d bf e6 5b b5 3f
       0.28021935 -0.42111254 -0.6792869 1.416867
0003c0 4b 1a 1a 3f f1 50 c3 be 6a ff 0f bf b1 de 41 bf
       0.6019637 -0.3814769 -0.56249106 -0.75730425
0003d0 f0 cd 05 3e 6c d7 43 c0 31 12 a9 3f c9 fd 65 bf
       0.1306684 -3.0600233 1.3208677 -0.8984037
0003e0 05 ac ca be 24 9a 94 bf 43 e8 52 be 02 31 02 3f
       -0.39584365 -1.160954 -0.20596413 0.5085603
0003f0 bb b4 6f 3e 5a 6b 95 38 20 8e 12 3f 06 09 46 bf
       0.23408787 7.1248694e-05 0.57248116 -0.7735752

fc1.bias f4 [32]
000000 cf 86 e5 bf 14 19 f6 3e f3 98 bb bd 76 71 58 3f
       -1.7931765 0.48066008 -0.09160032 0.8454813
000010 d5 30 7a 3d 41 f8 8d 3f 57 76 62 3f 7e ae b6 3f
       0.061081726 1.1091386 0.8846182 1.4272001
000020 d8 5b d9 3e 85 72 aa be 25 b6 49 3f ae 53 b6 3e
       0.42452884 -0.33290496 0.78793555 0.35610718
000030 85 c8 3b 3f 7d 27 00 3f c2 29 05 bd 9a e0 31 3f
       0.73352844 0.50060254 -0.032510526 0.6948334
000040 ad e3 58 3f 01 19 93 3d ce 2d 7f 3f 00 05 5f bd
       0.84722406 0.071825035 0.9967927 -0.054448128
000050 7e a1 a6 3f a5 08 2f 3f 78 6f 89 3e c6 18 93 3f
       1.3018034 0.68372566 0.26842856 1.1491935
000060 a7 ef a7 3f 95 9c 3c be 94 3a 81 3d ee 28 ed 3f
       1.3120011 -0.18419106 0.06310001 1.8528116
000070 68 5e b1 3f 5c 78 76 3f 67 89 73 3c 12 e7 c9 3f
       1.3856936 0.96277404 0.014864302 1.5773642

fc2.weight f4 [64, 32]
000000 1e f5 ed 3e 4c fb 29 3d 48 d2 22 c1 21 d4 72 be
       0.46476072 0.04149942 -10.176338 -0.23713733
000010 26 77 b9 bf 94 6a 86 bd 22 5a cf 3f 94 9c 94 bf
       -1.4489486 -0.06563297 1.6199381 -1.1610284
000020 4a 3b b9 bf e4 f0 40 bf 86 ef 95 3f 5e 13 28 c1
       -1.4471219 -0.7536757 1.1713722 -10.504728
000030 bf 96 49 40 16 97 8a bf 0a f6 39 3b 76 d5 66 bf
       3.1498258 -1.0827358 0.002837541 -0.90169466
000040 a6 d3 2f 3e c9 c5 f5 be 5c 84 ab bf f8 fc 0f 40
       0.17170581 -0.4800246 -1.3399768 2.249815
000050 27 50 71 bf 27 cf 9c bf 95 72 aa 3e 24 04 59 bf
       -0.9426293 -1.2250718 0.33290544 -0.84771943
000060 9a 8b 09 c0 af c4 33 c0 ff e7 97 3e c5 1e 8b bf
       -2.1491456 -2.8088796 0.29669186 -1.0868765
000070 80 7e 9c 3f f0 2f 2e 3f ea a6 1d 3f 0f 0a ff bf
       1.2226105 0.68041897 0.61582816 -1.9924945
000080 c1 99 ab bf 1b 10 19 3f 50 87 26 3e 59 f9 02 3f
       -1.3406297 0.597902 0.16262555 0.51161724
000090 e8 50 a2 3e b0 d2 06 3f ef 60 0c bf 43 37 26 3e
       0.31702352 0.52665234 -0.5483541 0.16232018
0000a0 f8 74 10 3f 7c 59 14 3f 0d c6 02 bf fc f8 9e 3e
       0.5642848 0.5794904 -0.5108345 0.31049335
0000b0 08 d1 29 3e 1b 54 7c 3e c1 01 95 3e bb 66 2e 3d
       0.16583645 0.24641459 0.291029 0.04257844
0000c0 ef cb b8 3e a5 7c 5b 3f 7b e7 10 3f e9 aa 02 bf
       0.3609309 0.8573707 0.5660321 -0.5104204
0000d0 3e 99 6e be ea c5 eb be 5b c9 a0 3e ee ea 9b 3d
       -0.23300645 -0.46049434 0.31403622 0.07613169
0000e0 54 b8 2a 3f ac 4d 02 3f 47 f2 d3 3e c3 33 d2 3e
       0.6668751 0.5089977 0.4139578 0.41055116
0000f0 73 d6 ac be 02 ef 7c 3e ac 6b 21 3e f4 07 2e 3f
       -0.33757362 0.24700549 0.1576373 0.67980886
000100 7d 31 ad bf f1 a4 25 3f 84 fa 95 3e af d4 07 3f
       -1.3530728 0.64704806 0.2929269 0.53058904
000110 7f b1 06 3e 1c 58 e3 3e f9 8c 41 bf 7a a9 30 3e
       0.13153647 0.4440316 -0.7560573 0.1725215
000120 aa 7f 9e 3e ec 9a e1 3e 61 8c 0b bf 93 46 f3 3e
       0.30956775 0.4406351 -0.54511076 0.4751478
000130 5c cd c8 3d 27 32 67 3e bf 30 06 3f d5 87 99 be
       0.09804794 0.22577725 0.5241813 -0.29986444
000140 ef 2a 13 3d 0c 01 0c 3f b1 a5 49 3e 1b 0d 09 bf
       0.035929617 0.546891 0.19692113 -0.5353562
000150 af 9b c5 be 8f 6c 01 bf b3 2a 23 bb e6 e7 e8 bd
       -0.3859534 -0.5055627 -0.0024897277 -0.11372356
000160 f7 3c 54 3f 14 1c 05 3f 30 d2 e9 3e ff ca ca 3e
       0.82905525 0.5199597 0.45668173 0.39608
000170 62 ae 2e bd c6 55 2c 3e d5 67 b5 3e 9e 6a 0d 3f
       -0.042646773 0.16829595 0.3543078 0.5524081
000180 52 2b 97 3f 30 db 2e 3f 70 58 8d 3e 54 13 24 3f
       1.1810095 0.68303204 0.27606535 0.6409199
000190 22 6e 94 3f ec cd d7 3e 3f 88 2e bf 37 2b ab bd
       1.159611 0.42149293 -0.68176645 -0.08357852
0001a0 cd 35 91 bf 36 3f 49 3f 21 ab 62 be dd 2b 30 bf
       -1.1344544 0.7861208 -0.22135593 -0.6881693
0001b0 38 f7 47 be d8 98 18 3f f5 f3 9c 3e 45 b7 80 3e
       -0.195279 0.5960822 0.30654874 0.25139824
0001c0 ca 31 9c 3e a3 8b 1c 3e 1e fe cd 3e 33 7d 02 3f
       0.30506736 0.15287642 0.4023294 0.5097229
0001d0 0f 1a 93 3d f9 04 e9 be fe 1c 8e 3e 6a 1d b3 3e
       0.07182705 -0.45511606 0.27756494 0.3498338
0001e0 99 2a 07 3f f6 99 cd 3f f9 c4 65 3e dc 21 0d bf
       0.52799374 1.606261 0.2243842 -0.5512979
0001f0 78 6d 9b 3c ec ab fe 3c cb 96 a2 3c d9 15 4c bf
       0.018973097 0.031087838 0.019847294 -0.79720837
000200 17 25 f2 bd 7b 2e 11 bf 82 96 8f bc d3 13 74 3e
       -0.118234806 -0.5671155 -0.017527822 0.23835687
000210 46 ca af 3d 9f 1e 23 bd 8c 09 17 be a0 2d d5 3d
       0.085835025 -0.039824124 -0.14749736 0.10409093
000220 46 d9 f4 3d 3b af db be f2 a8 11 bd ad e7 94 bd
       0.11955504 -0.42907128 -0.03556151 -0.07270751
000230 3b 57 0c be 8a 55 9a be 9e 04 15 be b2 ef 34 3e
       -0.13705151 -0.30143386 -0.14552543 0.17669562
000240 c0 73 4b 3e 95 94 0a 3d 7b 3b a3 bd c4 7e 97 be
       0.19868374 0.033833105 -0.079703294 -0.29588902
000250 1f ea 6b be 00 c7 cc bc 45 ad 83 3d 09 7f 1d be
       -0.23038529 -0.024997234 0.06429533 -0.15380491
000260 24 63 8b be 8b 4f 85 be bf 1f e5 3c 54 ce 17 3e
       -0.27224076 -0.2603725 0.02796924 0.14824802
000270 17 3d 80 be 4a e7 27 3e f9 f4 f2 bd e8 ae f6 3c
       -0.25046608 0.16396824 -0.11863131 0.030112699
000280 9f 43 ae 3f 31 52 08 3f ee 4d 6b bf 49 ea 8f 3d
       1.3614386 0.53250414 -0.91915786 0.07027108
000290 eb 73 37 3f e7 a6 89 3e 25 6f 11 bf d2 db 94 be
       0.7166125 0.2688515 -0.5681022 -0.2907396
0002a0 3c ae 87 c0 71 00 7f 3f e6 9d 64 3e bf 02 63 bf
       -4.240019 0.9961005 0.22325858 -0.88676065
0002b0 84 89 ea bf 5b 7c d9 3e 88 f6 f0 3e df e5 a4 be
       -1.8323216 0.42477688 0.47063088 -0.32206628
0002c0 36 51 3f be cd e9 b7 3f 91 63 7b 3e 46 1e 55 bd
       -0.18683323 1.4368225 0.245497 -0.052030824
0002d0 d9 d1 21 3f da 22 40 be 9d f7 bb 3d 4e 99 2b bd
       0.6321083 -0.18763295 0.09178088 -0.04189425
0002e0 89 f4 59 3f 5e e5 90 3f fb bd 76 bd 3c 17 6e bf
       0.85138756 1.1319997 -0.060239773 -0.930042
0002f0 f7 84 01 be 8e 40 3a be 0f bc 85 3d 97 9d 6a 3f
       -0.12648378 -0.18188688 0.0653001 0.91646713
000300 d6 b2 9f bf 7e a9 de 3e 71 0a d3 bc 5a 3e 93 3e
       -1.2476451 0.43488687 -0.025761815 0.28758508
000310 1b 66 29 3e 03 2a 05 3f 07 c6 27 bf 5a 40 5e 3e
       0.16542856 0.5201723 -0.6553654 0.21704236
000320 41 b7 b3 3e 04 af 93 3e b5 dc 31 bf 1a da 76 3e
       0.3510075 0.28844464 -0.694774 0.24106637
000330 a8 28 8a bd 9b 1f 47 be ef ee 9f 3e 3c 73 4c bd
       -0.06746036 -0.1944565 0.3123698 -0.049914584
000340 20 76 bc 3d 1c 9a 95 3e 74 02 24 3f 2e 60 02 bf
       0.09202218 0.2921914 0.64066243 -0.5092801
000350 2e 71 36 3d be dc af be 15 44 b4 3e 67 77 e6 3d
       0.04454153 -0.343481 0.35208192 0.11253243
000360 04 38 f0 3e cc ee 69 3e c5 7e aa 3e e2 2a 00 3e
       0.46917737 0.22845 0.33299842 0.12516358
000370 70 64 7c bd 15 60 a4 3d bd 48 12 be a2 2d e0 3e
       -0.061619222 0.08026139 -0.1428556 0.43784815
000380 30 1f a6 bf 49 bd e6 3e 25 b0 d1 3e ba f1 23 3f
       -1.2978268 0.45066288 0.409547 0.6404072
000390 46 a8 03 3e f4 f0 cd 3e 0d d2 13 bf 61 fc 21 3e
       0.1285716 0.40222895 -0.5774239 0.15818931
0003a0 c7 88 fb 3e aa 8f 25 3f b7 df af be ef 5b a9 3e
       0.4912779 0.6467234 -0.34350368 0.33077952
0003b0 f2 61 65 3d fa 7e da 3d 73 ef 15 3f 44 85 b6 3c
       0.05600161 0.1066875 0.58568496 0.022280343
0003c0 5b 08 87 3e 2f ac 15 3f 6f 3c 1d 3f a5 d3 dc be
       0.26373562 0.58465856 0.6142034 -0.43130222
0003d0 80 a3 12 be e4 da 28 bf 1d 0b 3a 3d 88 af cc 3b
       -0.14320183 -0.65959 0.045420755 0.006246511
0003e0 11 fb 4c 3f 36 54 9e 3e 44 fa 92 3e 84 d6 9d 3e
       0.80070597 0.30923623 0.28706563 0.30827725
0003f0 9a 08 7a be 09 f6 5e 3e 6e 5e 59 3e 14 23 18 3f
       -0.24417344 0.21773542 0.21227428 0.59428525

fc2.bias f4 [64]
000000 fd 66 40 3e b3 7d 18 3f 05 c7 c9 3e 60 07 0a bf
       0.18789287 0.595668 0.39409652 -0.53917503
000010 51 2e b7 bc 2f c4 60 3e a5 f5 46 3f 89 de 1f 3f
       -0.022360953 0.21949838 0.77718574 0.62448937
000020 4f 78 fb 3e d6 64 14 3f 99 fe 6c 3e d3 22 fb 3e
       0.49115226 0.57966363 0.23143996 0.49050006
000030 e4 57 32 3f d2 5b c4 3e 2b 8d 18 40 f5 98 a6 3e
       0.6966536 0.38351303 2.3836162 0.32538572
000040 bd d1 f1 3e 1d 3d aa 3e e8 37 b8 3e e5 0b 29 be
       0.4723033 0.3324975 0.35980153 -0.16508444
000050 93 0c 02 3f 9b 99 f0 3e 7e cb cc 3e b6 9b 0b 3f
       0.50800437 0.46992192 0.39999002 0.5453447
000060 42 2c c1 be 5c c7 55 3f 3c 39 b8 3f f8 d7 30 be
       -0.3772908 0.83507323 1.4392467 -0.17269886
000070 b0 7b 5d 3f 03 40 9a 3f 2e 69 a8 bc cd 2c 29 bd
       0.8651686 1.2050785 -0.020557966 -0.04130249
000080 24 d6 32 3f 75 92 35 3f a3 35 a2 3e ac bf 04 be
       0.69858 0.709266 0.31681547 -0.12963742
000090 d0 f9 b5 3f 22 53 1d 3f 46 4b 9c 3e 07 ce 16 40
       1.4216862 0.61454976 0.3052618 2.356325
0000a0 7d b3 80 3f 77 d0 a8 3e 73 f9 f6 3e 23 2f 81 3f
       1.0054775 0.32971546 0.4823719 1.009251
0000b0 3f af dd 3e 0c 94 23 3f 07 89 c6 3e bb 19 a2 3e
       0.43297765 0.63897777 0.3877642 0.31660256
0000c0 5e b0 0b 3f bb 9a c1 3e 88 c9 d8 3e 98 b1 13 3f
       0.5456599 0.37813362 0.42341256 0.5769286
0000d0 52 e8 c9 bd e6 8e fa 3e d4 a6 71 be 1c 79 2e 3f
       -0.09858765 0.48937148 -0.23598796 0.6815355
0000e0 d0 eb 91 be 19 79 a8 3e 84 c0 d6 3f 6f 65 4d be
       -0.28500223 0.3290489 1.6777501 -0.20058225
0000f0 05 74 eb 3f c8 44 0c 3f 4c bc 9a bf a6 c1 28 3f
       1.8394781 0.5479245 -1.2088714 0.65920484

fc3.weight f4 [4, 64]
000000 46 6c 1f 40 c6 2c d7 be 0f 0a 06 bf a9 91 03 bf
       2.4909835 -0.42026347 -0.523591 -0.51394135
000010 af e7 24 be 50 54 53 bf de 94 9b be 41 9b 0b bf
       -0.16104005 -0.82550526 -0.30387014 -0.54533774
000020 24 af 05 bf e7 3f e0 be f3 9c 63 bf 02 53 ac be
       -0.5222037 -0.43798754 -0.8891136 -0.3365708
000030 c7 f8 ea be ba 0c ee be 6f 2e 36 c0 24 a8 38 bf
       -0.45892927 -0.46494085 -2.846584 -0.7213156
000040 ea 03 fa be 8d 07 cc be 84 a0 e9 be 21 db d0 3d
       -0.4883111 -0.3984951 -0.45630276 0.101980455
000050 68 82 ea be ea 19 04 bf e7 e5 f8 be 91 a2 cc be
       -0.45802617 -0.5160204 -0.48612902 -0.39967778
000060 d3 cc f8 be d4 b4 ae 3f 7b e9 ad 40 93 a7 db bd
       -0.48593768 1.3648934 5.434751 -0.107253216
000070 61 10 96 bf 68 3f c2 be c1 8d 0e bf ea a7 4d 3c
       -1.1723748 -0.37939 -0.5568505 0.012552241
000080 c9 74 e8 be ab b9 e3 be 9e 81 15 bf f3 e3 ba 3d
       -0.454016 -0.4447759 -0.58400905 0.09125509
000090 2d 70 b3 40 ba e9 84 bf ef 0a f3 be 15 32 8a 40
       5.6074433 -1.0383828 -0.4746928 4.3186135
0000a0 22 53 24 c0 f9 4e b1 bf 6f b7 41 bf 50 9a f5 bf
       -2.567574 -1.3852226 -0.7567052 -1.9187717
0000b0 5d b8 f7 be 64 e6 07 40 c7 84 c6 be 83 9e e0 be
       -0.48382846 2.123437 -0.38773176 -0.43870935
0000c0 64 71 02 bf ac 37 fd be 8d 99 d1 be 17 71 d1 be
       -0.5095427 -0.49456537 -0.40937462 -0.40906593
0000d0 fc 90 29 bf 60 ec 4e bf ba f4 ba be bd 4d f7 be
       -0.66236854 -0.8082943 -0.36514837 -0.48301497
0000e0 14 d0 40 bf 46 b2 e7 3f 3e de 3f 40 d9 c8 b2 3c
       -0.753175 1.810128 2.9979396 0.021824287
0000f0 b1 b8 8e bf a4 b7 c0 be 16 43 3d 40 c3 4b f1 be
       -1.1150113 -0.37640107 2.9572196 -0.47128114
000100 47 67 2a 40 9b 31 e9 be f7 b3 f3 be 32 37 27 bf
       2.6625535 -0.45545658 -0.4759824 -0.65318596
000110 af 4a 15 be 32 f4 65 bf 77 c4 1e be d7 0d 04 bf
       -0.14579271 -0.8982574 -0.15504633 -0.5158362
000120 09 25 09 bf 47 2c 02 bf 47 34 f2 be 84 10 fd be
       -0.53572136 -0.5084881 -0.4730551 -0.49426663
000130 6a 14 9d be bf 94 eb be 40 eb 3b c0 cf 44 e5 be
       -0.30679637 -0.46011922 -2.9362335 -0.4477906
000140 6f 79 05 bf c7 58 e9 be 97 9c d9 be 1b be 65 bd
       -0.5213842 -0.45575544 -0.4250228 -0.0560895
000150 11 74 02 bf b2 71 0c bf 61 e1 91 be 75 ef d3 be
       -0.50958353 -0.54860985 -0.28492263 -0.4139363
000160 b4 75 22 bf fc 9c eb 3f 0d 61 99 40 86 ef 05 3d
       -0.6346085 1.8407283 4.793097 0.03269913
000170 ff 2e 11 bf cd d5 72 be b0 39 4d bf 21 95 6d bc
       -0.56712335 -0.23714371 -0.8016615 -0.014500887
000180 fd aa b1 be be e7 9f be 33 e9 13 bf 6b 84 d8 3c
       -0.34700766 -0.31231493 -0.5777771 0.02643033
000190 de a3 b4 40 e6 2b 9f bf f6 75 09 bf d4 41 8b 40
       5.6450033 -1.2435272 -0.5369562 4.3517857
0001a0 41 b8 0b c0 7f bf a5 bf ca ad eb be 49 a9 17 c0
       -2.183121 -1.2949065 -0.46031028 -2.3697073
0001b0 8a 57 08 bf c5 98 2d 40 50 d5 cd be dc 10 cc be
       -0.53258574 2.7124493 -0.40201807 -0.39856613
0001c0 f6 3b aa be 51 3d fd be 77 68 03 bf 57 9a 09 bf
       -0.33248872 -0.49460843 -0.51331276 -0.5375113
0001d0 c9 6b f8 be 30 d8 3e bf 7d 68 db be 64 e3 09 bf
       -0.48519734 -0.74548626 -0.42853156 -0.53862596
0001e0 f3 f8 4c bf 93 5d b2 3f 50 36 47 40 48 44 ac bd
       -0.80067366 1.3934807 3.11269 -0.08411461
0001f0 53 32 08 c0 f8 d8 19 bf bb c6 3c 40 33 1d 19 bf
       -2.1280715 -0.60096693 2.9496295 -0.5981018
000200 20 c8 42 40 c4 6b 89 be 9b 05 95 be 0d 0a 20 bf
       3.0434647 -0.2684003 -0.2910584 -0.62515336
000210 ce 60 a5 bd 2e b8 8e be 25 1b 98 be 4a dd eb be
       -0.08075105 -0.27874893 -0.2970821 -0.46067268
000220 a1 2e ee be 93 69 94 be 90 7e 21 bf 49 26 09 bf
       -0.4651995 -0.28986797 -0.63083744 -0.53574044
000230 fd d2 01 bf 85 23 01 bf 21 aa 47 c0 a7 d3 fb be
       -0.5071257 -0.50444824 -3.1197588 -0.49184915
000240 3d 09 eb be b5 61 16 bf a2 0f a8 be 18 a0 01 bd
       -0.45905486 -0.5874284 -0.32824427 -0.031646818
000250 8a 58 cc be 1e 0c d3 be 74 bd cc be 04 76 9c be
       -0.399113 -0.41220182 -0.3998829 -0.3055879
000260 70 bc 0d bf 6d f4 9c 3f 87 5b b6 40 17 ed 13 3d
       -0.5536566 1.2262093 5.698673 0.03611478
000270 13 bc 19 bf fc a4 8a bf 4f f3 56 bf 99 aa b9 bc
       -0.60052603 -1.0831599 -0.8396501 -0.022664355
000280 2f 97 0c bf f7 82 0f bf 9c e2 2a bf cc 5e a6 bd
       -0.5491819 -0.5605921 -0.6675203 -0.0812355
000290 df 08 b4 40 33 58 04 bf 2b 3f ee be 9c 14 94 40
       5.626083 -0.5169708 -0.46532568 4.627516
0002a0 f5 58 02 c0 ad f8 e1 bf 0a 06 4a bf eb d2 1d c0
       -2.0366795 -1.7654015 -0.78915465 -2.4659984
0002b0 5b 37 95 be 2d 55 a6 3f fc 5f 09 bf 47 2f d5 be
       -0.29143795 1.2994744 -0.53662086 -0.41637632
0002c0 81 4f 10 bf a7 99 c5 be e8 96 e7 be 87 4f 80 be
       -0.56371313 -0.3859379 -0.4523232 -0.25060675
0002d0 de f4 8c bf 95 41 4e bf 00 a1 2c bf 75 ed ab be
       -1.1012228 -0.8056882 -0.67433167 -0.33579603
0002e0 6a 36 af be de 25 ff 3f 8f 52 4f 40 4a a5 83 3d
       -0.34221202 1.9933431 3.239414 0.06428011
0002f0 96 e3 b0 bf fa f2 87 be 66 ce 43 40 5b 59 9d be
       -1.3819454 -0.26552564 3.0594726 -0.30732235
000300 26 49 f4 3f 7d dc d5 be ad df c7 be 11 48 fb be
       1.9084823 -0.41769782 -0.3903784 -0.4907842
000310 74 62 40 3e 9e 67 c8 be 85 c0 34 bf 9a ea c4 be
       0.18787557 -0.39141554 -0.7060626 -0.38460237
000320 1d 66 9c be 1a af c9 be 74 eb 77 bf 82 ed 36 bf
       -0.30546656 -0.39391404 -0.9684365 -0.7145616
000330 07 e3 d6 be 80 28 ca be 8c fb 38 c0 86 00 5e bf
       -0.41970083 -0.39484024 -2.8903532 -0.8671955
000340 da be 98 be c3 1a 16 bf a9 92 ab be b3 d9 c3 bb
       -0.29833108 -0.58634585 -0.3351033 -0.0059768795
000350 3d f5 ff be f8 40 9f be 3a 17 d0 be 01 b0 28 bf
       -0.4999179 -0.31104255 -0.4064272 -0.6589356
000360 0c bd 0f bf 57 3a 5b 3f e5 55 b8 40 a8 49 87 3d
       -0.5614784 0.85635895 5.760485 0.06605846
000370 42 14 bd bf 6f 38 42 bf 69 9e 2a bf f6 92 f8 3c
       -1.4771807 -0.7586736 -0.66647965 0.030343514
000380 d1 35 c3 be 74 6e 2c bf 68 32 65 bf d3 b8 b1 bd
       -0.38126996 -0.6735604 -0.8953004 -0.086778305
000390 42 8d ab 40 bc a3 4c bf 3b c7 98 be a0 6c 8a 40
       5.3609934 -0.7993734 -0.298395 4.32576
0003a0 7f 56 17 c0 07 4d c9 bf 64 cb 85 bf 7d f2 10 c0
       -2.3646543 -1.5726632 -1.0452695 -2.2648003
0003b0 68 5a a1 be cb 83 f3 3f 5e 93 96 be a6 50 90 be
       -0.31514287 1.9024595 -0.29409307 -0.2818653
0003c0 dd 71 b7 be 8d 05 7d be 6e ac d5 be 21 08 2b bf
       -0.35829058 -0.24709149 -0.41733116 -0.6680928
0003d0 b1 54 29 bf e1 43 00 bf 2f 80 33 bf d7 5b f5 be
       -0.66144854 -0.50103575 -0.7011747 -0.4792163
0003e0 03 66 63 be d6 ed 16 40 84 0f 31 40 a3 0c 40 3d
       -0.22206883 2.3582664 2.766572 0.04688705
0003f0 68 3c a2 3b 0b ec bb be 9b 68 46 40 c2 39 fa be
       0.0049510486 -0.36703524 3.1001346 -0.4887219

fc3.bias f4 [4]
000000 a1 84 95 be c9 d1 13 be c8 a5 1f bf fb 21 da 3d
       -0.2920275 -0.14435495 -0.6236234 0.106510125
