weights/g1.0_lr1e-05_decay_0.99999999.pth (torch, 12865 bytes, 6 tensors)

fc1.weight f4 [32, 8]
0	0xbec05a35	-0.37568823
1	0xbf1dfee5	-0.61717063
2	0xbe268a3b	-0.16263668
3	0xbfad8c92	-1.3558524
4	0xbeac20c5	-0.3361875
5	0x3e8e6e1f	0.2781839
6	0x3d96a617	0.07355898
7	0x3d44bda8	0.048032433
8	0xbc505f26	-0.012717998
9	0xbeed02c7	-0.4629118
10	0xbe2aaa84	-0.16666609
11	0xbe43f46b	-0.19136207
12	0xbf79960d	-0.97494584
13	0xbf5be0e9	-0.8589006
14	0xbea2178f	-0.316586
15	0x3e2b4ff8	0.16729724
16	0xbe0e133d	-0.13874526
17	0xbeee515e	-0.46546453
18	0xbe201f32	-0.156369
19	0xbf21311c	-0.6296556
20	0x3e95f669	0.2928956
21	0x3fcb16ea	1.5866368
22	0x3e1f6082	0.15564159
23	0x3ef21a48	0.47285676
24	0x3cae8133	0.021301841
25	0xbf325549	-0.69661385
26	0x3f1c208b	0.60987157
27	0xbf06cc3a	-0.52655375
28	0xbf7b1922	-0.98085225
29	0xbf10d1db	-0.56570214
30	0xbe4e4ab9	-0.20145692
31	0x3e68ac4a	0.22721973
32	0xbec276e0	-0.3798132
33	0xbefa0b31	-0.48836663
34	0xbdb1be35	-0.08678857
35	0xbfab708c	-1.3393722
36	0xbe9343b3	-0.28762588
37	0x3e3431a4	0.17597061
38	0x3d1e8a51	0.038706128
39	0x3c8ebf04	0.017425068
40	0x3e3fe4a3	0.18739562
41	0xbf5cab2f	-0.86198705
42	0x3ee7837b	0.452175
43	0xbe9b3492	-0.30313545
44	0xbf7d803f	-0.99023813
45	0xbf06764f	-0.52524275
46	0x3e25ffb7	0.16210829
47	0x3e19e7f9	0.15029897
48	0xbf41a8dc	-0.75648284
49	0xbeae56e4	-0.34050667
50	0x3ea04160	0.31299877
51	0x3deeb5f3	0.11655798
52	0x3f606d22	0.87666523
53	0x3f40c538	0.7530093
54	0x3f0ce83f	0.5504188
55	0xbf635b95	-0.8881162
56	0xbdf18148	-0.117922366
57	0xbf503b83	-0.8134081
58	0xbe8656e1	-0.26238158
59	0xbf0a7843	-0.54089755
60	0x3f6d5ed3	0.92722815
61	0x3ed1f78c	0.41009176
62	0xbe8b590a	-0.2721637
63	0x3ed1d262	0.40980822
64	0x3c2c6d53	0.010524112
65	0x3e59e772	0.21279696
66	0x3e936543	0.28788194
67	0x3c769f34	0.015052605
68	0x3f269e83	0.6508562
69	0x3faf898c	1.3713851
70	0x3ea99423	0.33120832
71	0xbeb7b102	-0.35877234
72	0x3e8ec0e8	0.2788155
73	0x3f6d85db	0.9278237
74	0x3f4af659	0.79282147
75	0x3f71d97d	0.94472486
76	0xbf36e9f7	-0.7145075
77	0xbf428211	-0.75979716
78	0x3e063e99	0.13109817
79	0xbf5a9106	-0.8537754
80	0xbf04a1d7	-0.5180945
81	0x3f9fccc0	1.248436
82	0x3da94dab	0.08266767
83	0xbe4d5d4a	-0.20055118
84	0x3f1fea2b	0.62466687
85	0x3fce5642	1.6120074
86	0x3f3c573c	0.7357061
87	0xbf3159ea	-0.6927782
88	0x3f0d8ba6	0.5529121
89	0xc00d6dbb	-2.2098224
90	0xbebfb003	-0.37438974
91	0xbe8e9ed9	-0.27855566
92	0xbf5a862a	-0.8536097
93	0x3f7b1480	0.98078156
94	0xbf3fa48a	-0.7486044
95	0x3ec33362	0.3812514
96	0x3cc17949	0.023617404
97	0xbf4a232e	-0.7895993
98	0xbe4ea114	-0.20178634
99	0xbee1eeb3	-0.44127426
100	0x3f4a6eb1	0.7907515
101	0x3f810333	1.0079101
102	0xbe38a6a8	-0.18032324
103	0x3cf96703	0.030444628
104	0xbee8c049	-0.45459202
105	0xbefefffd	-0.4980468
106	0xbd8b54a1	-0.06803251
107	0xbf80b2d0	-1.0054569
108	0xbc99a4a3	-0.018755263
109	0x3e6227af	0.2208545
110	0xbd67ffc8	-0.056640416
111	0xbc5d2c95	-0.013499399
112	0xbf3dd9af	-0.74160284
113	0x400f139b	2.2355716
114	0xbebc91a1	-0.36829856
115	0x3e3c9a12	0.18418148
116	0x3ed13edf	0.4086828
117	0x3fc070ec	1.5034461
118	0x3d94c696	0.0726444
119	0x3e3f22ca	0.18665615
120	0x3e6bc86c	0.23025674
121	0x3ef4252d	0.47684613
122	0x3db05a9e	0.08611034
123	0x3e421fd5	0.18957455
124	0xbf419497	-0.75617355
125	0xbf89321e	-1.071842
126	0xbf28e6ef	-0.65977377
127	0xbf4d8f83	-0.80297107
128	0x3ea684b7	0.32523128
129	0x3e7dc7fd	0.2478332
130	0x3edc078c	0.42974508
131	0x3ef840a8	0.4848683
132	0xbf5c91d8	-0.8616004
133	0xbe55161f	-0.2080922
134	0x3f34aae8	0.7057328
135	0xbeb43bac	-0.35201776
136	0xbe90e8c9	-0.283026
137	0xbf530735	-0.8243287
138	0x3d99c782	0.07508756
139	0xbe4f6f15	-0.20257218
140	0x3f501cf1	0.8129416
141	0x3f3cb16b	0.7370822
142	0x3d0a6d0b	0.033795398
143	0x3b1ba56f	0.002374973
144	0xbd09c05b	-0.03363071
145	0xbf08e462	-0.53473485
146	0x3f163a73	0.58682936
147	0x3f55e32a	0.8354975
148	0xbf0f5b5d	-0.55998784
149	0xbe91d5fc	-0.2848357
150	0x3ed590a3	0.41711912
151	0xbf8d00dd	-1.1015888
152	0xbef4d7ad	-0.47820798
153	0x3a9c1b92	0.0011910072
154	0xbedd9255	-0.43275705
155	0xbf9eaf8c	-1.2397323
156	0x3f6a93f7	0.91632026
157	0xbf399da5	-0.7250617
158	0xbdce4d8b	-0.10073384
159	0xbec218d3	-0.37909564
160	0xbdcf7f26	-0.101316735
161	0xbf6b371f	-0.91880983
162	0xbe20c20b	-0.15699022
163	0xbf695b9b	-0.91155404
164	0xbf12e1f6	-0.5737604
165	0xbe209a47	-0.15683852
166	0xbf0e269b	-0.5552766
167	0x3e82cb4b	0.25545725
168	0xbebb1a27	-0.3654339
169	0xbf21cfb5	-0.6320756
170	0x3f1fbf11	0.6240092
171	0xbf5a298d	-0.8521965
172	0x3e1125a2	0.14174512
173	0x3e89cddf	0.2691488
174	0xbdb96fe0	-0.090545416
175	0x3eb138f0	0.34613752
176	0xbc98d564	-0.01865644
177	0xbf35743a	-0.7088047
178	0x3f312ace	0.6920594
179	0xbebf36c8	-0.37346482
180	0xbf2bb1f4	-0.6706841
181	0xbebe0372	-0.37112004
182	0x3d0e7055	0.034775097
183	0x3e58e5c8	0.21181405
184	0x3efcb91c	0.49359977
185	0xbf3044c4	-0.6885493
186	0x3ed27f63	0.41112813
187	0xbe3bc92a	-0.18338457
188	0xbf55aeff	-0.8347015
189	0x3db2e15c	0.0873439
190	0x3e6d57d9	0.23178042
191	0x3e98c193	0.29835185
192	0x3cb79a2d	0.022412384
193	0xbf26852d	-0.6504696
194	0x3edc076e	0.42974418
195	0xbeb8a936	-0.36066598
196	0xbf663e69	-0.8993898
197	0xbd82a722	-0.06379534
198	0xbeb24029	-0.34814575
199	0x3da95f12	0.08270086
200	0xbf165862	-0.5872861
201	0xbf89da83	-1.076981
202	0xbf80d642	-1.0065386
203	0xbf4d00c9	-0.80079323
204	0x3eb98d70	0.3624072
205	0x3f0de441	0.5542641
206	0x3ec5b493	0.3861433
207	0x3c89c423	0.016817158
208	0x3e99bf76	0.30028886
209	0xbeb701cb	-0.35743555
210	0x3ee37d30	0.44431448
211	0x3f11c77b	0.5694501
212	0xbed8ee4d	-0.4236931
213	0x3e2369d4	0.15958339
214	0x3ec92e46	0.39293116
215	0xbf0eaa80	-0.5572891
216	0xbe33dd90	-0.17564988
217	0x3e1e8ea2	0.15484098
218	0x3f20ba08	0.6278386
219	0xbf3c9454	-0.7366383
220	0x3dd4d221	0.103916414
221	0x3e89bc93	0.26901683
222	0xbe1d4445	-0.15358074
223	0x3ea1d413	0.31607112
224	0xbfb0f92d	-1.3826042
225	0x3f5ad9ef	0.8548879
226	0xbfbb0691	-1.4611379
227	0x3ef96cc3	0.4871579
228	0xbdc8eb90	-0.09810555
229	0xbec68c48	-0.387789
230	0x3c09bc5d	0.008406726
231	0x3f1d3742	0.6141244
232	0x3f75476a	0.95812094
233	0x3f825b7a	1.0184166
234	0x3e2a7242	0.16645148
235	0xbee04139	-0.4379976
236	0x3f47b1ec	0.7800586
237	0xbf7b1780	-0.98082733
238	0x3f4e5f0f	0.806138
239	0x3f51ccf7	0.81953377
240	0xbf1bdd32	-0.6088439
241	0x3fa22eb1	1.2670499
242	0xbf036dee	-0.51339614
243	0x3f800f64	1.0004697
244	0x3ff74d63	1.9320492
245	0x3fa3a738	1.2785406
246	0xbe51edbf	-0.20500849
247	0x3f46cb56	0.77654016
248	0xbecf87ae	-0.40533203
249	0xbf38be73	-0.721656
250	0xbeab8dad	-0.33506528
251	0xbed95d3e	-0.4245395
252	0x3f615a45	0.88028365
253	0xbe4a2a79	-0.19742765
254	0xbe700641	-0.23439886
255	0xbe0476e3	-0.12935977

fc1.bias f4 [32]
0	0x3d895131	0.06704939
1	0x3ef515e0	0.47868252
2	0xbde901ce	-0.11377297
3	0x3e8076ec	0.2509073
4	0x3e02de4c	0.12780112
5	0x3f14859b	0.58016366
6	0x3ececd0e	0.4039082
7	0x3ece80dc	0.40332687
8	0xbe72041b	-0.23634379
9	0xbb53ccef	-0.0032318195
10	0x3ef3233d	0.47487822
11	0x3f88c7d7	1.0685986
12	0x3eef3ce8	0.46726155
13	0x3e5d00e3	0.2158237
14	0xbdd7dffc	-0.105407685
15	0xbd73a105	-0.059479732
16	0xbe86bb7a	-0.26314908
17	0x3f03284c	0.51233363
18	0x3da155cd	0.07877693
19	0xbe43a8e0	-0.1910739
20	0x3e846462	0.25857836
21	0x3e1fdff3	0.15612774
22	0x3e89d456	0.26919812
23	0x3ed76c00	0.42074585
24	0x3e9f9e64	0.3117553
25	0xbe761d31	-0.24034573
26	0xbd3026d4	-0.04300578
27	0x3f2aa79b	0.66661996
28	0x3edf3f3a	0.43602926
29	0x3fd7f51f	1.687168
30	0xbeab36be	-0.33440202
31	0x3eedf83c	0.4647845

fc2.weight f4 [64, 32]
0	0xbe15b54e	-0.14619943
1	0x3e41fb2b	0.18943469
2	0x3d3d850d	0.046269465
3	0x3dd5eb80	0.10445309
4	0x3b33d010	0.0027437247
5	0xbc77caad	-0.015124005
6	0xbe702aa0	-0.2345376
7	0xbdb7e548	-0.08979279
8	0xbfe9eae1	-1.8274804
9	0x3eb5fe70	0.35545683
10	0x3d95df13	0.07317939
11	0xbf32b1e1	-0.6980267
12	0xbe2aebaf	-0.16691469
13	0x3d575034	0.052566722
14	0xbe0a060a	-0.13478866
15	0x3eb15416	0.34634465
16	0xbf437d19	-0.7636276
17	0xbe5d20b2	-0.21594504
18	0xbe380fc2	-0.17974761
19	0xbf5ba262	-0.8579465
20	0xbe7703d5	-0.24122556
21	0x3e54095e	0.20706698
22	0xbe7e355c	-0.24825042
23	0x3d89f705	0.06736568
24	0x3e0045c4	0.12526613
25	0x3d6e28d1	0.058144394
26	0xbc6d6e1c	-0.014491584
27	0x3f01c632	0.5069305
28	0x3fabec32	1.3431456
29	0x3f05e117	0.52296585
30	0xc01960db	-2.3965366
31	0xbe982474	-0.29715312
32	0xbe775bef	-0.24156164
33	0x3e8632dc	0.26210678
34	0xbd01f1ab	-0.031724613
35	0x3e9e94ac	0.30972803
36	0x3de61d99	0.11236114
37	0x3ee36f81	0.44421008
38	0x3f73f0b5	0.95289165
39	0x3eb5cd30	0.35508108
40	0x3ea00311	0.3125234
41	0x3e5224e7	0.2052189
42	0xbe88073f	-0.26568028
43	0xbf30815f	-0.68947405
44	0x3ee5e125	0.44898334
45	0x3debd609	0.11515433
46	0xbf4aae0d	-0.7917183
47	0x3e8c0f56	0.2735545
48	0xbf2452ea	-0.64189017
49	0x3ef048a1	0.4693041
50	0x3ebfecff	0.374855
51	0xbddd55ea	-0.108074024
52	0xbddaddb3	-0.10686817
53	0x3da2ad5f	0.07943224
54	0x3ec3924b	0.3819755
55	0x3eb62871	0.3557773
56	0x3da650c7	0.08120876
57	0x3d29c91e	0.041451566
58	0x3efa4a8f	0.4888501
59	0x3eb60ca9	0.35556534
60	0x3f742a7a	0.95377314
61	0x3dc8faf6	0.09813492
62	0xbe82c1fd	-0.25538626
63	0x3efced7b	0.49399933
64	0xbe736f93	-0.23773031
65	0x3eb95075	0.36194196
66	0x3dfdc0c9	0.123902865
67	0x3f08315a	0.53200305
68	0x3c8a99d7	0.01691906
69	0x3f0ac78b	0.5421073
70	0x3f29f360	0.66386986
71	0x3eb0fb4a	0.34566718
72	0x3e260565	0.16212995
73	0x3e9b9b33	0.30391845
74	0x3daa91bc	0.08328578
75	0xbf10abc7	-0.5651211
76	0x3ebb42be	0.36574358
77	0x3e46f353	0.19428758
78	0xbeac104d	-0.33606187
79	0x3ccdd9d7	0.025128288
80	0xbf9e3cd9	-1.2362319
81	0x3e7e88a2	0.24856809
82	0x3e2acd44	0.16679865
83	0xbe77b924	-0.2419172
84	0xbd143727	-0.03618541
85	0x3cc06253	0.023484385
86	0x3e8821ca	0.2658828
87	0x3e7ba564	0.2457481
88	0x3ee43520	0.4457178
89	0xbbe09719	-0.0068539497
90	0x3f3212da	0.69560015
91	0x3f0a3a98	0.53995657
92	0x3f71a42f	0.9439115
93	0x3ea793ad	0.32729855
94	0xbe455d76	-0.19273934
95	0x3f07afb4	0.53002477
96	0xbd087846	-0.033317827
97	0x3ee2f823	0.44329938
98	0x3e810c58	0.2520473
99	0x3f05fe30	0.52340984
100	0x3df0bb40	0.11754465
101	0x3ee73472	0.451572
102	0x3f5ed7b7	0.87047905
103	0x3eb004a2	0.34378535
104	0x3dc22079	0.0947885
105	0x3e6fadde	0.23406169
106	0xbea010ec	-0.3126291
107	0xbf70ec3a	-0.94110453
108	0x3eb7c91e	0.35895628
109	0x3de605c7	0.11231571
110	0xbf5864ff	-0.8452911
111	0x3e5694a3	0.20955138
112	0xbf066df9	-0.52511555
113	0x3ebc8629	0.36821106
114	0x3db39822	0.087692514
115	0xbe9538a0	-0.29144764
116	0x3e63499b	0.22196047
117	0x3e223d5f	0.15843724
118	0x3f029d4d	0.5102127
119	0x3f05955e	0.5218104
120	0x3ead3153	0.33826694
121	0x3d962e55	0.07333056
122	0x3ed54505	0.4165422
123	0x3e9d9c15	0.30783144
124	0x3f97ce4e	1.1859834
125	0x3e12d938	0.14340675
126	0xbeb3fb3e	-0.3515262
127	0x3ec91a22	0.3927775
128	0xbf1f5f81	-0.622551
129	0xbe2c654d	-0.16835518
130	0xc029cebd	-2.6532433
131	0x3d8a03d3	0.06739011
132	0xbef86bb0	-0.4851966
133	0xbd9b399d	-0.07579348
134	0xbf0539bd	-0.52041227
135	0xbf3bf1e8	-0.73415995
136	0xc00e38b9	-2.222212
137	0xbf4bfae1	-0.79679686
138	0x3f9803a3	1.187611
139	0x3fb296d2	1.3952277
140	0xbf198007	-0.5996098
141	0xbe77f8ef	-0.24216054
142	0x3f84e003	1.0380863
143	0xbe86a37c	-0.26296604
144	0x3ef22504	0.47293866
145	0xbf8467c3	-1.0344166
146	0x3de8488f	0.113419645
147	0x4029f428	2.655527
148	0x3eba4189	0.36378124
149	0xbec3ea57	-0.38264725
150	0x3e347213	0.17621641
151	0xbf04fa02	-0.5194398
152	0xbea9ce54	-0.33165228
153	0xbff8ede8	-1.9447603
154	0xbf090d4e	-0.53535926
155	0xbc0a2f8e	-0.0084341895
156	0x3c72baaf	0.014815017
157	0x3f6d92b6	0.9280199
158	0x3da797aa	0.081832245
159	0x3e5789b1	0.21048619
160	0xbebd6570	-0.36991453
161	0xbdbc9335	-0.09207765
162	0xc084aabc	-4.1458416
163	0x3ed820bb	0.4221247
164	0x3ea0a93d	0.3137912
165	0x3e961d3a	0.29319173
166	0xbffb4fef	-1.9633769
167	0xbfd82024	-1.6884809
168	0xc0a3623a	-5.1057405
169	0xbed9e662	-0.4255858
170	0x3fae77fb	1.3630365
171	0x402fbaf4	2.7457857
172	0xc061f121	-3.5303423
173	0xbf0675d0	-0.5252352
174	0x3ff00c1b	1.8753694
175	0xbf0a22a9	-0.5395914
176	0x3fd81c89	1.6883708
177	0xc0143ced	-2.3162186
178	0xbeccee54	-0.4002558
179	0x40506c79	3.2566206
180	0x3ebc783a	0.36810476
181	0xbf15d880	-0.5853348
182	0x3eb8a325	0.3606197
183	0x3e816940	0.25275612
184	0x3e907d59	0.28220633
185	0xbf29c77f	-0.6632003
186	0xbf48cf0d	-0.78440934
187	0xbe93c089	-0.2885783
188	0xbf12f6b2	-0.5740768
189	0x3ee88052	0.454104
190	0xbdd7918d	-0.105258085
191	0xbfc20453	-1.515757
192	0xbf33c850	-0.7022753
193	0xbfd5d79c	-1.6706424
194	0xbf304665	-0.68857414
195	0xbfb33aee	-1.4002359
196	0xbf394b72	-0.72380745
197	0xbf624434	-0.8838532
198	0xc012b104	-2.2920542
199	0xbb5cf416	-0.0033714822
200	0xc02fc825	-2.7465909
201	0xbc9f9e26	-0.01948459
202	0x3f615239	0.88016087
203	0x3ff7a82c	1.9348197
204	0x3bf0aa61	0.0073445295
205	0xbf06ad94	-0.5260861
206	0x3faf60d6	1.3701427
207	0xbfeac79a	-1.8342164
208	0x401e4b09	2.4733298
209	0xbe932f4b	-0.2874702
210	0x3f2022cb	0.6255309
211	0x3f5c3f2e	0.86033905
212	0xbf33a51b	-0.70173806
213	0x3d09dd33	0.033658218
214	0xbf84ab99	-1.0364867
215	0xbe775d67	-0.24156724
216	0xbf9ca94e	-1.2239168
217	0xbf448c9b	-0.76777047
218	0x3fa803d4	1.3126168
219	0x3e76da17	0.24106632
220	0x3ba07a7c	0.004897414
221	0x3fa005f7	1.250182
222	0xbf044608	-0.5166936
223	0xbd862c77	-0.0655145
224	0xbda17481	-0.078835495
225	0x3f112163	0.5669157
226	0x3eb39da1	0.350812
227	0x3ef8cbdb	0.4859303
228	0xbd0419ba	-0.032251097
229	0x3ee80d8e	0.4532284
230	0x3f96cfd9	1.178218
231	0x3ecc0c8a	0.39853317
232	0x3eedaf58	0.4642284
233	0x3f4df907	0.8045811
234	0xbdc1b8c0	-0.094590664
235	0xbf9ee153	-1.2412513
236	0x3e868afe	0.26277918
237	0x3da1bddf	0.07897543
238	0xbe8bdc87	-0.27316687
239	0x3f01cfbc	0.507076
240	0xbf8a0265	-1.0781981
241	0x3ec50108	0.3847735
242	0x3f2c4631	0.67294604
243	0xbf88b3d4	-1.0679879
244	0x3ddbeec2	0.10738899
245	0x3e100bee	0.14067051
246	0x3e4c32a5	0.19941194
247	0x3ecc80d0	0.39942026
248	0x3eff0585	0.498089
249	0xbdfc02ad	-0.12305198
250	0x3f2418f3	0.6410057
251	0x3e9c118d	0.3048214
252	0x3f6a360f	0.91488737
253	0x3e930717	0.28716347
254	0x3e8ea12b	0.27857336
255	0x3ede7003	0.43444833

fc2.bias f4 [64]
0	0x3f5f8845	0.87317306
1	0x3f93ff60	1.1562309
2	0x3f9c444f	1.2208346
3	0x3f76cf41	0.96409994
4	0x3f21b7bc	0.6317098
5	0x3e293598	0.1652435
6	0x3fb9f6a9	1.45284
7	0x3f9c9c29	1.2235156
8	0x3ef89205	0.48548904
9	0x3f547f27	0.8300652
10	0x3f85bbcb	1.0447935
11	0x3f5e0a96	0.867349
12	0x3faf5cf4	1.3700242
13	0x3e80d310	0.25161028
14	0x3f91fac8	1.1404657
15	0x3fa7c95f	1.3108329
16	0x3f9774df	1.1832541
17	0x3f610a26	0.8790611
18	0x3f87e8c5	1.0617911
19	0x3f8536f3	1.0407394
20	0x3f9d8733	1.2306885
21	0x3f8d9301	1.1060487
22	0x3f44f03f	0.76929086
23	0x3f1e1533	0.617511
24	0x3f82d9c5	1.0222708
25	0xbe17a79e	-0.14810035
26	0x3f3f968e	0.74839103
27	0xbe441501	-0.19148637
28	0x3f7b6cd2	0.9821292
29	0x3ecb0f30	0.39660025
30	0x3f074662	0.5284177
31	0x3f52231e	0.82084835
32	0x3fa88d8e	1.3168199
33	0x3f8044e7	1.0021027
34	0xbe867007	-0.26257345
35	0xbdc03df2	-0.09386815
36	0x400d0c83	2.2038887
37	0xbdb83ade	-0.08995603
38	0x3f7f4757	0.9971823
39	0x3fab6a93	1.3391899
40	0xbcc99bc7	-0.024610413
41	0x3f13cc66	0.5773376
42	0x3fa97362	1.3238337
43	0x3f3911cb	0.72292775
44	0x3f9056df	1.1276511
45	0x3ed26617	0.41093513
46	0x3f111772	0.566764
47	0x3f8289b7	1.0198277
48	0x3f93fa20	1.1560707
49	0x3f9546c8	1.1662226
50	0x3f9a0773	1.2033523
51	0x3f6fd015	0.93676883
52	0xbe07af29	-0.13250412
53	0x3f322a6b	0.69595975
54	0x3e6e41d0	0.23267293
55	0xbdf2b730	-0.118513465
56	0xbe738c79	-0.23784055
57	0x3f2f2b9a	0.68425906
58	0x3f55e1f1	0.83547884
59	0xbe81a75b	-0.25322995
60	0x3fa090c6	1.2544181
61	0x3f9efbb1	1.242056
62	0xbe11bdf3	-0.14232616
63	0xbe3acd1f	-0.1824231

fc3.weight f4 [4, 64]
0	0xbea07154	-0.31336462
1	0xbede6752	-0.43438202
2	0xbf02af1d	-0.5104845
3	0xbec8fecc	-0.39256895
4	0x3fcf1c14	1.6180444
5	0x3fcb7db0	1.5897732
6	0x40156e3f	2.334854
7	0xbf1ba477	-0.6079783
8	0xbf4adff8	-0.79248
9	0xbef141e1	-0.47120574
10	0xbef6e98b	-0.48225054
11	0xbeae9b9a	-0.3410309
12	0xbedf9a90	-0.4367261
13	0xbf2d9342	-0.6780282
14	0xbedd2467	-0.43191835
15	0xbef1fd8c	-0.47263753
16	0xbf03def4	-0.51512074
17	0xbec6dd2a	-0.3884061
18	0xbef4fa3d	-0.47847167
19	0xbe933c0c	-0.2875675
20	0xbee51252	-0.4474054
21	0xbf345c2a	-0.7045313
22	0xbeff1c0a	-0.4982608
23	0xbf109a1e	-0.56485164
24	0xbeccdaf8	-0.4001081
25	0x3faac2a6	1.3340652
26	0x3fbf857f	1.4962615
27	0xbe07fbd6	-0.13279662
28	0xbe93ac23	-0.28842267
29	0xbf135b1b	-0.5756089
30	0xbec31d9e	-0.38108534
31	0xbebdadd6	-0.3704669
32	0xbeefe2a7	-0.4685261
33	0xbe8f0e35	-0.27940527
34	0xbd5fb303	-0.05461408
35	0x3dd53348	0.10410172
36	0x40591cb9	3.392378
37	0xbd9a5e21	-0.07537485
38	0xbefc3b0d	-0.49263802
39	0xbef6a65a	-0.4817379
40	0x3d335769	0.043784533
41	0xbeda7559	-0.42667654
42	0xbf0dac81	-0.55341345
43	0xbf8955b2	-1.0729277
44	0xbf14472d	-0.57921106
45	0x401b9bc8	2.4313831
46	0xbf1720e5	-0.5903457
47	0xbed6666f	-0.41875026
48	0xbf030599	-0.51180416
49	0xc010f787	-2.2651079
50	0xbee21f1a	-0.44164354
51	0xbe3895dd	-0.18025918
52	0xbd4a67d8	-0.04941544
53	0xbf263f55	-0.64940387
54	0x3ffe47ec	1.9865699
55	0xbd57e631	-0.052709762
56	0xbdbeff6a	-0.0932606
57	0xbf424d09	-0.75898796
58	0xbebd1342	-0.36928755
59	0x3d27033a	0.04077456
60	0xbf055080	-0.5207596
61	0xbeb0b983	-0.34516534
62	0x3d9ff8b6	0.0781111
63	0xbd502cf0	-0.050824106
64	0x3db62d54	0.088953644
65	0xbea3ae75	-0.31969038
66	0xbee8ac82	-0.45444113
67	0xbee7bd2b	-0.4526151
68	0x3f8cd9aa	1.1003926
69	0x4000fe3e	2.0155177
70	0x3ffb2245	1.9619833
71	0xbf0f992e	-0.5609311
72	0xbf525bd1	-0.8217135
73	0xbee2bf3c	-0.44286525
74	0xbe4d7162	-0.20062783
75	0xbebbcb49	-0.36678532
76	0xbe99b74c	-0.30022657
77	0xbf180f8a	-0.5939871
78	0xbf16176a	-0.5862948
79	0xbea8d0dc	-0.32971847
80	0xbf0b410d	-0.54396135
81	0xbf044a18	-0.5167556
82	0xbed48640	-0.41508675
83	0xbea81b78	-0.32833457
84	0xbf136cd1	-0.57587916
85	0xbf229f39	-0.63524204
86	0xbf0ee747	-0.5582165
87	0xbec949ca	-0.3931411
88	0xbf0d9820	-0.5531025
89	0x3fa87702	1.3161318
90	0x3f834e07	1.0258187
91	0xbd18073b	-0.03711627
92	0x3e94c030	0.29052877
93	0xbf0aedfa	-0.54269373
94	0xbf13327f	-0.57498926
95	0xbf18e4ff	-0.5972442
96	0xbee6ca60	-0.45076275
97	0xbe12ab94	-0.14323264
98	0xbe5955f6	-0.21224198
99	0x3d5994a8	0.053120285
100	0x405a4dfe	3.4110103
101	0x3d410a2f	0.047128852
102	0xbf0e3b8d	-0.5555962
103	0xbf12263e	-0.570896
104	0xbd18e9bb	-0.037332278
105	0xbf30cfb7	-0.6906695
106	0xbec79f34	-0.3898865
107	0xbf352713	-0.7076275
108	0xbf14acd8	-0.5807624
109	0x401fe562	2.4983754
110	0xbe18b967	-0.14914475
111	0xbed12960	-0.4085188
112	0xbecbdcb5	-0.39816824
113	0xc01c5ddd	-2.443229
114	0xbedfed3c	-0.43735683
115	0xbeb5e089	-0.3552287
116	0xbbe11b9e	-0.0068697473
117	0xbf44180c	-0.7659919
118	0x4008438c	2.1291227
119	0xbd2154b5	-0.039387424
120	0x3ba19e2d	0.004932186
121	0xbf24feb0	-0.6445112
122	0xbf3fea42	-0.74966824
123	0xbd6e2272	-0.05813832
124	0xbf0286c8	-0.5098691
125	0xbf037cc3	-0.51362246
126	0x3d9e993e	0.077440724
127	0xbd8722cb	-0.06598433
128	0xbec44ae0	-0.38338375
129	0xbea4ea83	-0.32210168
130	0xbe9242ed	-0.28566685
131	0xbf106498	-0.56403494
132	0x402a3ca6	2.6599517
133	0x3faee226	1.3662765
134	0x4029f583	2.6556098
135	0xbf0bf9f4	-0.54678273
136	0xbe7bb73c	-0.24581617
137	0xbe3a1a65	-0.18174131
138	0xbe73f268	-0.2382294
139	0xbedaee82	-0.42760092
140	0xbedb3067	-0.42810366
141	0xbf46a839	-0.7760044
142	0xbeff94d6	-0.4991824
143	0xbeb888e3	-0.36041936
144	0xbf080a96	-0.5314115
145	0xbef60599	-0.48051146
146	0xbe975d69	-0.29563454
147	0xbe1d23c3	-0.15345673
148	0xbee4f2db	-0.44716534
149	0xbec5c9db	-0.38630566
150	0xbefcb55f	-0.49357125
151	0xbf3b0b0b	-0.73063725
152	0xbf054644	-0.5206034
153	0x400a3063	2.1592033
154	0x3fa4645b	1.2843126
155	0x3d0b9000	0.034072876
156	0xbf32bcd9	-0.6981941
157	0xbf499792	-0.787469
158	0xbec622c5	-0.38698402
159	0xbf252708	-0.6451268
160	0xbf05e313	-0.5229961
161	0xbebd9c0b	-0.37033114
162	0x3cb83824	0.022487707
163	0xbcebf1b9	-0.028801786
164	0x404a1d51	3.1580393
165	0x3bf2ed99	0.0074135778
166	0xbf0cabc6	-0.54949605
167	0xbfe2c749	-1.7717067
168	0x3d84d7cb	0.06486472
169	0xbf0c3855	-0.54773456
170	0xbed3c7b7	-0.41363308
171	0xbfab2090	-1.3369312
172	0xbe8d5aaf	-0.2760825
173	0x3fbbfe46	1.4686973
174	0xbe650ba2	-0.22367719
175	0xbed5a277	-0.41725513
176	0xbf1360bc	-0.5756948
177	0xc00e20f4	-2.2207613
178	0xbe8e6d04	-0.27817547
179	0xbf37c744	-0.7178843
180	0xbdfe317c	-0.12411782
181	0xbf0a2552	-0.53963196
182	0x3fb98a46	1.4495323
183	0x3d16399f	0.036676046
184	0x3c78ca67	0.015184975
185	0xbf12523f	-0.5715675
186	0xbf0924ad	-0.5357159
187	0x3d717223	0.05894674
188	0xbf4373d1	-0.76348597
189	0xbd8e38bf	-0.06944417
190	0x3d79d234	0.06099148
191	0xbb6ce68e	-0.0036148163
192	0xbf847dbb	-1.035087
193	0xbef91898	-0.48651576
194	0xbeef8c6b	-0.46786818
195	0xbebc322e	-0.36757034
196	0x3ff5c19f	1.9199713
197	0x3f907e9c	1.1288638
198	0x40411291	3.0167582
199	0xbee3c560	-0.44486523
200	0xbe85fa85	-0.26167694
201	0xbf0b6d89	-0.5446401
202	0xbf30ff3d	-0.6913946
203	0xbf0b5d38	-0.54439116
204	0xbefe8670	-0.49711943
205	0xbf0637fa	-0.52429163
206	0xbecd86f9	-0.40142038
207	0xbf178c08	-0.59198046
208	0xbed8e882	-0.4236489
209	0xbf07e99c	-0.53090835
210	0xbefb4b28	-0.49080777
211	0xbf135a91	-0.5756007
212	0xbf15ec15	-0.5856336
213	0xbed580f5	-0.4169995
214	0xbef109d7	-0.4707782
215	0xbf2fec5b	-0.68720025
216	0xbedebab0	-0.43501806
217	0x3f7c25de	0.9849528
218	0x3fd52103	1.6650699
219	0x3d40c035	0.047058303
220	0xbf11b682	-0.5691911
221	0xbef669cf	-0.481276
222	0xbeb27b1a	-0.34859544
223	0xbea8b9b1	-0.3295417
224	0xbef40cc8	-0.47666
225	0xbf1e506d	-0.6184147
226	0x3d0e2087	0.03469899
227	0xbdc8cbe0	-0.09804511
228	0x4064050a	3.5628076
229	0x3b49731e	0.0030738781
230	0xbeea0144	-0.4570409
231	0xbf377b2a	-0.7167231
232	0xbd8b7cbb	-0.068109
233	0xbebe0065	-0.37109676
234	0xbf078c0e	-0.5294808
235	0xbf0dd49b	-0.55402535
236	0xbee9c991	-0.45661595
237	0x401dbddc	2.464713
238	0xbeecd148	-0.4625342
239	0xbee96161	-0.45582107
240	0xbeee9d93	-0.46604595
241	0xc0165619	-2.349005
242	0xbed09ca4	-0.40744507
243	0xbec3d5c1	-0.3824902
244	0x3cc15a63	0.02360267
245	0xbd8f3961	-0.06993366
246	0x3fb97974	1.449019
247	0x3d3973f4	0.045276597
248	0x3d9e15d0	0.07719004
249	0xbf105dfb	-0.563934
250	0xbe939c7c	-0.28830326
251	0x3c1e87e7	0.009675956
252	0xbeb87f44	-0.36034596
253	0xbef24d42	-0.47324568
254	0x3bb61625	0.005556839
255	0x3cdedd92	0.027205262

fc3.bias f4 [4]
0	0xbf1c6655	-0.61093646
1	0xbeb28237	-0.3486497
2	0xbefe8969	-0.4971421
3	0xbf067c78	-0.52533674
