weights/g1.0_lr0.001_decay_0.9999.pth (torch, 12865 bytes, 6 tensors)

fc1.weight f4 [32, 8]
0	0xbf370078	-0.7148509
1	0xbf4ca12a	-0.79933417
2	0xbf1f38d2	-0.62196076
3	0xbefce65c	-0.493945
4	0x3f515651	0.81772333
5	0x3e96feb6	0.29491204
6	0x3ec30f92	0.38097817
7	0x3e578cc3	0.2104979
8	0x3ed109f2	0.408279
9	0xbf0268b4	-0.50941014
10	0x3e87f811	0.26556447
11	0xbdc169d4	-0.09444013
12	0xbf45e6a6	-0.77305067
13	0xbefdfd1d	-0.49607173
14	0xbdd55a7d	-0.1041765
15	0x3f069e71	0.5258551
16	0xbed28577	-0.4111745
17	0x3e9ae201	0.30250552
18	0x3d92c053	0.07165589
19	0xbe38a9de	-0.18033549
20	0x3f10d13d	0.5656927
21	0x3f9df45e	1.23402
22	0x3e946b29	0.28988007
23	0x3f1b5e83	0.6069109
24	0x3ec850ff	0.39124295
25	0xbf992c74	-1.1966691
26	0x3e9be512	0.30448204
27	0xbf2d77db	-0.6776101
28	0xbf4a8b4e	-0.7911881
29	0xbea2685c	-0.31720245
30	0x3d6ed1c5	0.05830552
31	0x3eb7b100	0.35877228
32	0xbf2567bd	-0.6461142
33	0xbf8218da	-1.0163834
34	0xbd821a37	-0.06352656
35	0xbf9fe5e1	-1.2492028
36	0x3e061819	0.1309513
37	0x3e08717c	0.13324541
38	0x3e9289c4	0.28620732
39	0xbe449ec2	-0.19201186
40	0x3eb78da8	0.35850263
41	0xbfb32b84	-1.3997655
42	0x3e7c794f	0.2465565
43	0xbf1e6cb4	-0.6188462
44	0xbf3b861e	-0.7325152
45	0xbea08fd8	-0.31359744
46	0x3eac975b	0.33709225
47	0x3e91fc24	0.2851268
48	0xbef160b1	-0.47144082
49	0x3f8243cb	1.0176939
50	0x3e55711d	0.2084393
51	0x3f70d99c	0.94082046
52	0x3e00fa55	0.12595494
53	0x3f675a91	0.9037257
54	0xbcfb2295	-0.030656138
55	0x3d1e9218	0.038713545
56	0x3e062e5e	0.13103625
57	0xbf931139	-1.1489631
58	0x3e5be98b	0.21475808
59	0xbf8641ab	-1.048879
60	0x3e5879e5	0.21140249
61	0x3eaef2f5	0.34169737
62	0xbe4fa051	-0.20276
63	0xbedc35f8	-0.43009925
64	0x3f73d0f5	0.9524072
65	0xbfab1f10	-1.3368855
66	0x3f1edcb2	0.62055504
67	0xbef3b608	-0.47599816
68	0x3e30137d	0.17194934
69	0x3e90d9ea	0.28291255
70	0x3b881487	0.0041528377
71	0xbefc49bb	-0.49275002
72	0x3c5e0673	0.013551342
73	0x3fb52e05	1.4154669
74	0x3e632047	0.22180282
75	0x3f52c5de	0.8233317
76	0xbf983efd	-1.1894222
77	0xbe112a06	-0.14176187
78	0xbeda037f	-0.42580792
79	0x3ea0ffd4	0.3144518
80	0xbda76035	-0.08172647
81	0xbd2fb36e	-0.042895727
82	0x3e93e83d	0.2888812
83	0xbfb55598	-1.4166746
84	0xc0362590	-2.8460426
85	0x3eeaeb70	0.4588275
86	0x3ef75172	0.48304325
87	0x3e2eeebb	0.17083256
88	0x3e39bfac	0.18139523
89	0xbd2b1791	-0.04177052
90	0x3e572280	0.21009254
91	0xbea42574	-0.32059824
92	0x3f1278de	0.5721568
93	0x3f5dc2c0	0.8662529
94	0xbed61090	-0.4180951
95	0xbee81a51	-0.45332578
96	0x3db098b4	0.08622876
97	0x3d826aed	0.06368051
98	0x3d413eff	0.04717922
99	0xbc91a7f7	-0.017780287
100	0x3f1c33f3	0.6101677
101	0x3f82285d	1.0168568
102	0xbe01b0bd	-0.12665077
103	0xbf28067b	-0.6563489
104	0xbf6a6ad9	-0.91569287
105	0xbf4d354c	-0.8015945
106	0xbeba04ef	-0.3633189
107	0xbf36e171	-0.71437746
108	0xbd174970	-0.03693527
109	0xbad3ac73	-0.0016149416
110	0x3d8297bf	0.063765995
111	0x3e9d6d2a	0.30747348
112	0x3e97c955	0.29645792
113	0x3db227b5	0.0869898
114	0x3fd4b673	1.6618179
115	0xbdc1d6db	-0.094648086
116	0xbf2dc8a8	-0.678843
117	0xbe9e9c56	-0.3097865
118	0x3e5aa09d	0.21350332
119	0x3e6b2f2d	0.22967215
120	0x3ef592b7	0.47963497
121	0x3cb6510b	0.022255441
122	0xbe6c259a	-0.23061219
123	0xbde58258	-0.11206502
124	0xbf1ee8de	-0.6207408
125	0xbf795f3e	-0.97410953
126	0xbf0dd777	-0.554069
127	0xbe5fd3c5	-0.21858127
128	0xbefb139c	-0.49038398
129	0xbf34d82b	-0.70642346
130	0xbed89545	-0.42301384
131	0xbf02c890	-0.51087284
132	0xbf04ddc8	-0.5190091
133	0xbe2f40d3	-0.17114572
134	0x3ea5dcf1	0.32395127
135	0xbea6f96c	-0.3261217
136	0xbec5c391	-0.38625768
137	0x3e2cce1b	0.16875498
138	0xbe85fed4	-0.2617098
139	0x3ed0ed8a	0.40806228
140	0x3ef2f94a	0.47455817
141	0x3f87cd04	1.0609441
142	0x3f491733	0.78551024
143	0x3c188a5e	0.009310333
144	0xbdf5b11c	-0.119966716
145	0xbddbf9c3	-0.10740998
146	0xbdbc760f	-0.092022054
147	0xbc18cf80	-0.009326816
148	0xbf6066ea	-0.87657034
149	0xbfb4de02	-1.4130251
150	0xbf75c5d7	-0.96005005
151	0x3ee26874	0.44220316
152	0x3f3402d7	0.70316833
153	0xbf710f01	-0.9416352
154	0x3ef8ebc0	0.48617363
155	0xbf389e58	-0.72116613
156	0xbef6a612	-0.48173577
157	0xbe8862a1	-0.26637748
158	0x3e16a4b5	0.14711268
159	0xbe9641b8	-0.29347014
160	0xbe998724	-0.29985917
161	0xbf7ec03f	-0.99512094
162	0xbe855205	-0.26039138
163	0xbf5f2c2b	-0.8717677
164	0xbd927883	-0.07151892
165	0x3dda8474	0.10669795
166	0x3d4cba55	0.049982388
167	0x3ddfa8f3	0.109208964
168	0xbf071fcb	-0.5278289
169	0x3f1e31b1	0.61794573
170	0x3e8016c4	0.2501737
171	0xbeeb0b60	-0.45907116
172	0x3f0c1d70	0.5473242
173	0x3eb86574	0.36014903
174	0xbfa84e0e	-1.314882
175	0xbe5a5356	-0.21320853
176	0x3f3faae6	0.74870145
177	0xbfa01edc	-1.2509418
178	0x3ef5a0e2	0.47974306
179	0xbf42bf65	-0.76073295
180	0xbedc9918	-0.4308555
181	0xbe4a9ac3	-0.197856
182	0x3eaa8286	0.33302706
183	0xbdfd5857	-0.12370365
184	0x3e5f604f	0.21814083
185	0xbf7715a4	-0.96517396
186	0x3dc5568f	0.0963565
187	0xbf4021ef	-0.7505178
188	0x3dd459cf	0.10368692
189	0x3eb10141	0.3457127
190	0x3f4b1545	0.7932933
191	0x3e2033a3	0.15644698
192	0xbf77353c	-0.96565604
193	0xbf32f534	-0.699054
194	0xbed9ab62	-0.42513567
195	0xbf11288a	-0.5670248
196	0xbe6030e3	-0.21893649
197	0xbcc956d4	-0.024577536
198	0x3cee87ff	0.029117582
199	0x3e205af3	0.15659694
200	0x3c81e24d	0.015854979
201	0x3de83e26	0.11339979
202	0xc014d226	-2.3253264
203	0xbf1f5a9c	-0.62247634
204	0xbef0e17d	-0.47047034
205	0x3d60123f	0.0547049
206	0x3e27a340	0.16370869
207	0x3f2f770c	0.68541026
208	0x3e3d1d0c	0.18468112
209	0x3e49e75b	0.19717161
210	0xbe04d7ed	-0.12972994
211	0xbdf42599	-0.11921234
212	0xbf009eb1	-0.50242144
213	0xbf64cf72	-0.89379036
214	0xbf148674	-0.5801766
215	0x3f160a83	0.5860979
216	0x3bc9bc7e	0.006156503
217	0xbf8e5299	-1.1118957
218	0x3ecf31f4	0.404678
219	0xbf708694	-0.9395535
220	0x3e45b6cd	0.19308014
221	0x3e87c8c0	0.26520348
222	0x3f3290fb	0.6975247
223	0xbe735ad3	-0.23765115
224	0xbf82e334	-1.0225587
225	0xbe0b7aba	-0.13621035
226	0xbf421394	-0.75811124
227	0x3e4c44c4	0.19948107
228	0xbe8c4d43	-0.27402696
229	0xbd8e1b1d	-0.06938765
230	0x3f0932f6	0.53593385
231	0x3f216e8c	0.63059306
232	0x3ebe9a5e	0.37227148
233	0x3eb50354	0.35354102
234	0x3f06aa05	0.5260318
235	0xbf7cd34a	-0.987599
236	0x3eb95659	0.3619869
237	0xbf029579	-0.5100933
238	0xbd0efade	-0.034907214
239	0x3f52c7da	0.823362
240	0x3e014356	0.12623343
241	0x3f9008f0	1.1252728
242	0xbe0afadf	-0.13572262
243	0xbe147388	-0.14497197
244	0x3ee36465	0.44412532
245	0xbf6a1d9a	-0.9145142
246	0xbde03bad	-0.10948882
247	0xbf7515a4	-0.95736146
248	0xbe7629fe	-0.24039456
249	0xbebcacfc	-0.36850727
250	0xbf32aa4d	-0.6979111
251	0xbf0653b4	-0.5247147
252	0x3f859ed9	1.0439101
253	0x3e9c6420	0.3054514
254	0xbd8b94f8	-0.06815523
255	0xbea7a6af	-0.32744357

fc1.bias f4 [32]
0	0xbee3b007	-0.44470236
1	0xbca99ded	-0.020705188
2	0xbf0a480e	-0.54016197
3	0xbe0530a4	-0.13006836
4	0xbe90a78f	-0.28252837
5	0x3dd84bcf	0.10561334
6	0x3f2e193f	0.6800727
7	0x3e63c7ce	0.22244188
8	0x3db888c5	0.09010462
9	0x3ecdd49e	0.40201277
10	0xbcf74a63	-0.030186838
11	0x3e8560cf	0.26050422
12	0xbd0178ad	-0.031609226
13	0xbe71baf8	-0.23606479
14	0x3d9c09dc	0.07619068
15	0xbcddef4a	-0.027091641
16	0x3df76c21	0.12081171
17	0x3e1fc180	0.15601158
18	0x3e93f15b	0.28895077
19	0xbdd474be	-0.10373829
20	0x3dba381d	0.09092734
21	0x3d914851	0.070938714
22	0xbd287caf	-0.041134533
23	0x3e89e8ae	0.26935333
24	0xbdf969ea	-0.12178405
25	0xbd8406a5	-0.0644658
26	0xbebe36a2	-0.37151057
27	0x3e948a74	0.2901188
28	0x3dd91036	0.10598795
29	0x3f87fa44	1.062325
30	0xbded03cd	-0.115729906
31	0xbe450a14	-0.19242126

fc2.weight f4 [64, 32]
0	0xbd25944a	-0.040424623
1	0xbd595530	-0.053059757
2	0xbddc7f5f	-0.107664816
3	0x3c9b91b2	0.018990371
4	0x3cc70180	0.024292707
5	0xbd8353ec	-0.06412491
6	0xbd945ab1	-0.072438605
7	0xbe0a2ece	-0.13494417
8	0x3db856da	0.090009406
9	0xbe40308d	-0.1876852
10	0x3c57b914	0.013166685
11	0xbdbdb44b	-0.09262904
12	0xbe003c27	-0.12522946
13	0xbbaa97ff	-0.0052061076
14	0xbe186802	-0.14883426
15	0x3c12f4fd	0.008969543
16	0x3d0e31e7	0.03471556
17	0xbe26c2e4	-0.16285282
18	0xbc85c067	-0.016327096
19	0x3cf0f7d0	0.029415041
20	0x3ce3cbd4	0.027807154
21	0xbd5c928c	-0.053850695
22	0xbe458110	-0.19287515
23	0xbd93d6f9	-0.07218737
24	0x3ce1ee73	0.027579522
25	0xbdc5b1c4	-0.09653047
26	0x3d10c36d	0.035342623
27	0x3d946651	0.07246078
28	0xbdcb617f	-0.09930705
29	0xbd901e64	-0.070370466
30	0x3d10b7a0	0.03533137
31	0x3c6301a9	0.013855376
32	0x3f15c761	0.58507353
33	0x3ee8374f	0.45354697
34	0x3f06bd41	0.5263253
35	0x3eab791d	0.3349084
36	0x3f060bd2	0.52361786
37	0x3ee1f33f	0.44130895
38	0x3e2ed824	0.17074639
39	0x3f38fb91	0.7225886
40	0x3f4f2639	0.809177
41	0x3f63743a	0.8884922
42	0xbf0e989f	-0.5570163
43	0x3f2fa3cf	0.6860933
44	0x3f2eb877	0.6825022
45	0x3efa44b4	0.4888054
46	0xbd6f93e2	-0.05849064
47	0x3f591cc4	0.8480952
48	0x3f0d8bf4	0.55291677
49	0x3f178bab	0.5919749
50	0x3f2d7f31	0.67772204
51	0x3ed2f55d	0.41202822
52	0x3e0ac75f	0.13552617
53	0xbeaeda7a	-0.3415106
54	0x3eccb46c	0.399814
55	0x3eff378c	0.49847066
56	0x3ea4b304	0.32167828
57	0x3e38be12	0.18041256
58	0x3f4b3dee	0.7939137
59	0x3ebe1ba8	0.37130475
60	0x3ead23a5	0.33816257
61	0x3e95d0e3	0.2926093
62	0xbeabb1de	-0.3353414
63	0x3ee56dd5	0.44810358
64	0x3f0673b4	0.525203
65	0x3ef008e1	0.46881774
66	0x3eb67e0a	0.35643035
67	0x3eac8ab1	0.33699563
68	0x3e6ce00e	0.23132345
69	0x3eaf1550	0.34195948
70	0xbfb0cbe4	-1.3812222
71	0x3f35434a	0.708058
72	0x3f273d71	0.6532813
73	0x3dfec16b	0.12439235
74	0x3d211ec3	0.039335977
75	0x3f007a32	0.50186455
76	0x3ea7007c	0.32617557
77	0x3f17e5c3	0.59334964
78	0x3ef52820	0.47882175
79	0x3ea135df	0.31486413
80	0x3eb729b7	0.35774013
81	0xbddf260f	-0.10895931
82	0xbc7a36ac	-0.015271824
83	0x3e9fdc4b	0.31222758
84	0x3da247b8	0.079238355
85	0xbef9402b	-0.4868177
86	0x3d03d868	0.032188803
87	0x3ea4dff8	0.32202125
88	0x3f2c8a36	0.67398393
89	0x3f57e85e	0.8433894
90	0x3eeee914	0.466622
91	0x3f05e374	0.5230019
92	0x3f5285ed	0.82235605
93	0x3e82afa0	0.25524616
94	0xbf11cbb8	-0.56951475
95	0x3f3edeab	0.74558514
96	0x3f03c625	0.5147422
97	0x3ef8ef08	0.48619866
98	0x3e74e0e3	0.23913912
99	0x3f061391	0.52373606
100	0x3f06ec62	0.5270444
101	0x3eb7b511	0.3588033
102	0xbfa0cca2	-1.2562449
103	0x3f1696cb	0.5882384
104	0x3ef4b0f9	0.4779127
105	0xbf09c887	-0.53821605
106	0x3ed0f99b	0.40815434
107	0x3edc109a	0.42981416
108	0x3ed78dde	0.42100424
109	0x3da8aa62	0.08235623
110	0x3ebd130f	0.36928603
111	0x3ee5dfcf	0.44897315
112	0x3f0bcc5d	0.5460871
113	0x3e19a779	0.15005292
114	0xbe85dac8	-0.2614348
115	0x3ef0d8ce	0.4704041
116	0x3e02acf8	0.12761295
117	0xbd9be2d7	-0.07611626
118	0x3f013314	0.50468564
119	0x3efb2ee4	0.49059212
120	0x3e45f514	0.19331771
121	0xbd8d1604	-0.06888965
122	0xbd8ef7b3	-0.069808386
123	0x3ec14d30	0.37754202
124	0x3dd7b0ef	0.10531794
125	0x3e54a6d0	0.20766759
126	0xbe9fa555	-0.31180826
127	0x3f38babb	0.7215993
128	0x3ea5eb5c	0.32406127
129	0x3e80e3c0	0.2517376
130	0x3dcea5dd	0.1009023
131	0x3f04723a	0.51736796
132	0x3f0e5b51	0.5560809
133	0x3e2ac2b5	0.16675837
134	0xbf9874df	-1.1910666
135	0x3f3716f2	0.71519387
136	0x3f25ff05	0.64842254
137	0xbf04caf8	-0.51872206
138	0x3eccc00d	0.39990273
139	0x3e7bc678	0.24587429
140	0x3e8f186d	0.27948323
141	0x3e8fe0c5	0.28101173
142	0x3e835d0b	0.25656924
143	0x3e8a9775	0.27068678
144	0x3f29e151	0.6635943
145	0x3d138d4d	0.036023427
146	0xbec91789	-0.39275768
147	0x3e34e0d1	0.17663886
148	0x3e599027	0.21246396
149	0xbe4714a4	-0.19441468
150	0x3ece92d2	0.4034639
151	0x3e0b1ea6	0.1358591
152	0x3e2839af	0.16428255
153	0xbeacf0b1	-0.33777383
154	0xbd1f0f09	-0.038832698
155	0x3efc4628	0.49272275
156	0xbc09e175	-0.00841557
157	0x3ea366a4	0.31914246
158	0xbf0193c1	-0.5061608
159	0x3f498a68	0.78726816
160	0xbd4082f3	-0.046999883
161	0xbe5327d3	-0.2062066
162	0x3dbbc50b	0.09168442
163	0x3da46e9e	0.08028911
164	0x3e148514	0.1450389
165	0x3d97a7bf	0.07405042
166	0xbe21461e	-0.15749404
167	0x3dbd0acc	0.09230575
168	0xbd3b555a	-0.045735694
169	0x3d5558a5	0.05208649
170	0xbe210fb5	-0.15728648
171	0xbdd7fb26	-0.1054595
172	0xbe573450	-0.2101605
173	0xbdbd4a6b	-0.0924271
174	0xbc0e659b	-0.008691217
175	0xbe0e2124	-0.1387983
176	0x3d66cf58	0.056350082
177	0x3d827077	0.06369107
178	0x3cc9bdcc	0.024626635
179	0xbe0a1ba8	-0.13487113
180	0xbe28ea6e	-0.16495678
181	0xbda08960	-0.07838702
182	0x3d7f0eb5	0.062269885
183	0x3dfd12d6	0.12357108
184	0x3d9fef2e	0.07809292
185	0xbd9a1672	-0.07523812
186	0x3cf7cd8f	0.030249385
187	0xbe45698e	-0.19278547
188	0xbe52fd28	-0.20604384
189	0x3d114e91	0.035475317
190	0xbdcd106f	-0.100129
191	0x3d7c5226	0.06160178
192	0xbf8b42db	-1.0879778
193	0xbf1836c9	-0.59458596
194	0xbfdedb5c	-1.7410693
195	0xbfaaa370	-1.3331127
196	0xbf4ee6aa	-0.80820715
197	0xbee22226	-0.44166678
198	0x3f2b9ac7	0.67033046
199	0xbeb19bc7	-0.3468916
200	0xbdd5422a	-0.104130104
201	0xbe02662d	-0.1273429
202	0x3f916990	1.136034
203	0x3e056c35	0.13029559
204	0xbed25f7b	-0.4108847
205	0xbee1c6a1	-0.44096854
206	0xbe3a541c	-0.18196148
207	0xbf63c59a	-0.8897339
208	0x3dfd2cb1	0.1236204
209	0xbee5bb81	-0.44869617
210	0xbf6793f5	-0.9046014
211	0xbf5b71a1	-0.8572026
212	0xbeaeafcf	-0.34118506
213	0x3fa0f006	1.2573249
214	0xbf22a5af	-0.63534063
215	0xbe5d8cfa	-0.2163581
216	0xbdb06614	-0.0861322
217	0x3f70b616	0.9402784
218	0xbfecfc34	-1.8514466
219	0xbe85b7d2	-0.26116806
220	0x3e19d58c	0.15022868
221	0x3f6e7892	0.93152726
222	0x3f70bc0b	0.9403693
223	0xbed17c84	-0.4091531
224	0x3edb7c4c	0.42868268
225	0x3e994c8b	0.2994121
226	0x3e529d55	0.2056783
227	0x3ec78195	0.3896605
228	0x3eae8e79	0.34093073
229	0x3e8f408b	0.2797893
230	0xbf978232	-1.1836607
231	0x3f1fe5cf	0.62460035
232	0x3f4cdcb4	0.80024266
233	0xbe1b237b	-0.15150253
234	0x3e8a1f61	0.26977065
235	0x3ea44096	0.32080525
236	0x3e68b0cb	0.22723691
237	0x3e684519	0.22682609
238	0x3ee6859e	0.45023817
239	0x3ebe11bb	0.37122902
240	0x3ee8272a	0.4534238
241	0x3cce2540	0.025164247
242	0x3e079d14	0.13243514
243	0x3ee48c13	0.44638118
244	0x3c221014	0.009891529
245	0xbf183ed7	-0.59470886
246	0x3e0f2065	0.13977201
247	0x3eabbf3a	0.33544332
248	0x3eb5b1bb	0.3548716
249	0x3e3cc492	0.1843436
250	0x3e5c9abb	0.215434
251	0x3ebb7a9d	0.36616984
252	0x3ecd8db5	0.40147176
253	0x3ea7c815	0.32769838
254	0xbf0a0b23	-0.53923243
255	0x3f24cb91	0.6437312

fc2.bias f4 [64]
0	0xbd9f0beb	-0.07765945
1	0x3f11f0a6	0.57007825
2	0x3f003c74	0.50092244
3	0xbcd327ae	-0.025775757
4	0x3e98c2ac	0.29836023
5	0xbdca9daf	-0.09893357
6	0x3f592c36	0.84833086
7	0x3f0d54da	0.552076
8	0x3d8d9e4c	0.06914958
9	0x3f0ec066	0.55762327
10	0x3f29fb2d	0.6639889
11	0x3e773f49	0.24145235
12	0x3ed942b4	0.42433703
13	0x3e6ee2bd	0.23328681
14	0x3f3a1828	0.7269311
15	0x3f75841b	0.959047
16	0x3ed87e97	0.4228408
17	0x3e407bd5	0.18797238
18	0x3f00866a	0.502051
19	0x3ed02fee	0.40661567
20	0x3e915588	0.28385568
21	0x3eb3040f	0.34964034
22	0x3be0054f	0.0068365703
23	0x3f0cc0f1	0.54981905
24	0x3e1705a2	0.14748242
25	0xbc3990ac	-0.011325996
26	0xbf235e16	-0.6381544
27	0xbe11e64d	-0.14248009
28	0xbe2b69cf	-0.16739582
29	0xbce32588	-0.027727857
30	0x3e9d1a28	0.30684018
31	0xbe6a869e	-0.22902915
32	0x3ef3ea6e	0.47639793
33	0x3e7dc9f2	0.24784067
34	0xbe338809	-0.17532362
35	0xbdfeb3b2	-0.12436618
36	0x3f9a666b	1.2062505
37	0x3f0d658e	0.55233085
38	0xbdf83967	-0.12120324
39	0x3eb75cd4	0.3581301
40	0x3f1f85e3	0.6231367
41	0xbd2d2adf	-0.042277213
42	0x3f45e17b	0.7729718
43	0x3f6c2c39	0.9225498
44	0x3f2d3190	0.6765375
45	0x3f9eee15	1.2416407
46	0x3e6431e0	0.22284651
47	0x3f209e03	0.62741107
48	0x3ebf0093	0.37305126
49	0x3f157f8d	0.5839775
50	0x3f01b83a	0.5067173
51	0x3e8171d3	0.25282153
52	0x3ee373e8	0.44424367
53	0x3f2392c4	0.6389582
54	0x3ec97012	0.39343315
55	0x3f0af1cf	0.5427522
56	0x3eaf94e8	0.34293294
57	0x3f7ed76e	0.9954747
58	0x3f958d4f	1.1683749
59	0xbe5691c8	-0.20954049
60	0x3ee0dcf7	0.43918583
61	0x3f126490	0.57184696
62	0x3e4f4be5	0.20243795
63	0x3f07e7be	0.53087986

fc3.weight f4 [4, 64]
0	0x3ddc31b0	0.10751665
1	0xbec95123	-0.39319715
2	0xbee50085	-0.4472696
3	0xbe6eae9a	-0.23308793
4	0xbec709df	-0.3887472
5	0xbc4bd8b8	-0.0124418065
6	0x3efa789a	0.48920137
7	0xbedd8958	-0.43268847
8	0xbf13c0d0	-0.57716084
9	0xbeb88019	-0.3603523
10	0xbeea9df3	-0.4582363
11	0xbe586500	-0.21132278
12	0xbed7eaf1	-0.42171434
13	0xbeba9784	-0.36443722
14	0x401ebd1f	2.480293
15	0x3cba899c	0.022770695
16	0xbeea5d51	-0.4577432
17	0xbec3e3f8	-0.38259864
18	0xbef9b9ee	-0.48774666
19	0xbea2e953	-0.31818637
20	0xbe920fef	-0.2852778
21	0xbee1dbb5	-0.44112936
22	0xbe10fe72	-0.14159563
23	0xbeb0cb3f	-0.34530064
24	0xbe8203e5	-0.25393596
25	0xbcccb440	-0.024988294
26	0xbf14e337	-0.581592
27	0xbd938b70	-0.0720433
28	0x3a9a7e21	0.0011786857
29	0x3c1ebe55	0.009688933
30	0xbe7a66ef	-0.24453329
31	0xbdec9d1e	-0.11553405
32	0xbed332b3	-0.41249618
33	0xbeafe6d7	-0.34355804
34	0x3dd637db	0.10459872
35	0x3daba17b	0.08380409
36	0x40370027	2.8593843
37	0x3db52306	0.08844571
38	0xbca62742	-0.020282391
39	0x3e408bb4	0.18803293
40	0xbea30d40	-0.31846046
41	0xbeb52e23	-0.35386762
42	0xbec8f0dc	-0.3924626
43	0x3ef6cd91	0.4820371
44	0xbf018a97	-0.50602096
45	0x4013e4a5	2.3108304
46	0xbe9f20cb	-0.31079707
47	0xbebcc1a9	-0.368665
48	0xbefc0792	-0.49224526
49	0xbecc0077	-0.39844105
50	0xbeb02c48	-0.34408784
51	0xbe4ffb0d	-0.20310612
52	0xbefb2113	-0.4904867
53	0xbeef9964	-0.46796715
54	0xbea19c73	-0.31564674
55	0xbf8cdab3	-1.1004242
56	0xbf182f74	-0.5944741
57	0x400baefb	2.182555
58	0x400fdfe6	2.2480407
59	0x3b574bbe	0.0032851542
60	0x3d8cbdca	0.06872137
61	0xbec59dff	-0.38597104
62	0x3e0699ad	0.1314456
63	0xbe91b889	-0.28461102
64	0x3d9205ad	0.07129989
65	0xbec13907	-0.3773882
66	0xbea5186b	-0.32245192
67	0xbea4d5c4	-0.3219434
68	0xbed28c90	-0.41122866
69	0x3d98ccf1	0.074609645
70	0x3f95946c	1.168592
71	0xbec1aaa4	-0.378255
72	0xbec23d0f	-0.3793721
73	0xbeee9aeb	-0.46602568
74	0xbe95f104	-0.29285443
75	0xbef06834	-0.469545
76	0xbe55b8c2	-0.20871261
77	0xbebbfeda	-0.36717874
78	0x3f9a86b3	1.2072357
79	0x3ea1ace8	0.3157723
80	0xbf040dcc	-0.5158355
81	0xbee62669	-0.4495118
82	0xbed5087a	-0.4160803
83	0xbeb5b112	-0.35486656
84	0xbedfa6b5	-0.43681875
85	0xbed5095e	-0.4160871
86	0x3c2b8063	0.0104676215
87	0xbee57226	-0.4481365
88	0xbed51541	-0.41617778
89	0xbb50b040	-0.0031843334
90	0xbf903307	-1.1265572
91	0x3d07e810	0.033180296
92	0x3e1568be	0.14590737
93	0x3d34256f	0.043981012
94	0xbf08026c	-0.53128695
95	0xbf51de0d	-0.8197945
96	0xbea1df66	-0.31615752
97	0xbe971f82	-0.29516226
98	0xbdd31bd0	-0.10308039
99	0x3b99fccf	0.0046993266
100	0x402eedb3	2.733258
101	0x3e910ec6	0.28331584
102	0xbdb07d94	-0.08617702
103	0x3ed67ca4	0.41891968
104	0xbee0c058	-0.43896747
105	0xbf1e451a	-0.6182419
106	0xbe86c322	-0.2632075
107	0x3fd7b916	1.6853359
108	0xbee9b1ad	-0.45643368
109	0x401e3629	2.4720557
110	0xbf621711	-0.88316447
111	0xbeab6e8f	-0.33482787
112	0xbe95eacb	-0.29280695
113	0xbeb11396	-0.34585255
114	0xbef8f99e	-0.48627943
115	0xbef8b757	-0.48577377
116	0xbeee1b71	-0.4650531
117	0xbecd5ab5	-0.40108266
118	0xbebaa4d4	-0.3645388
119	0xbfc84648	-1.5646448
120	0xbf057da7	-0.52144855
121	0x4019c065	2.4023678
122	0x3f9a58b6	1.2058322
123	0xbd8be73f	-0.06831216
124	0x3d9f252e	0.07770763
125	0xbef33620	-0.47502232
126	0xbe2dbe34	-0.16967088
127	0xbf04b6f4	-0.51841664
128	0x3c6b9610	0.014379039
129	0xbea321bf	-0.31861684
130	0xbe7f1d2d	-0.24913473
131	0xbf1bdadd	-0.60880834
132	0xbf11fccd	-0.5702637
133	0x3cbc4cd3	0.022985851
134	0x3fe13255	1.7593485
135	0xbed9afb7	-0.42516872
136	0xbf2d1169	-0.6760469
137	0xbe9d7392	-0.30752236
138	0xbdbe9fc0	-0.09307814
139	0xbed5d3bb	-0.417631
140	0xbf2e1a6b	-0.6800906
141	0xbf1121fe	-0.5669249
142	0x3fe3ff15	1.781222
143	0xbf8e8add	-1.1136128
144	0xbef22db9	-0.4730051
145	0xbf0126d0	-0.5044985
146	0xbe8776a2	-0.26457697
147	0xbebed142	-0.37269026
148	0xbeb10d0c	-0.34580266
149	0xbe8d5d42	-0.27610213
150	0xbd4cf03e	-0.0500338
151	0xbe684b05	-0.22684868
152	0xbed97c1a	-0.42477494
153	0x3bc276c0	0.0059345663
154	0x3f7e0490	0.9922571
155	0x3db6c35e	0.08923982
156	0xbd75041e	-0.05981838
157	0xbd554159	-0.052064274
158	0xbebfe683	-0.37480554
159	0x3c870b12	0.01648477
160	0xbf0bd998	-0.54628897
161	0xbf1aa91a	-0.6041428
162	0x3d1cda4f	0.038294133
163	0xbd939d79	-0.0720777
164	0x401a6cb0	2.4128838
165	0x3fc3c403	1.5294193
166	0xbd1db808	-0.038505584
167	0xbebdf83e	-0.37103456
168	0xbe64e6ee	-0.22353718
169	0xbedfb379	-0.43691614
170	0xbeb0e322	-0.3454829
171	0xbf4deb5e	-0.80437267
172	0xbe49391d	-0.19650693
173	0x3f8cc1f5	1.0996691
174	0x3efd112a	0.49427158
175	0xbdb90c06	-0.090354964
176	0xbf1c3286	-0.6101459
177	0xbe96e236	-0.2946946
178	0xbe77779d	-0.24166723
179	0xbee7f1e6	-0.4530174
180	0xbe937f93	-0.2880827
181	0xbe4d59e1	-0.20053817
182	0xbf0f8984	-0.5606921
183	0xbfae45d4	-1.361506
184	0xbe5700c7	-0.2099639
185	0x40335415	2.802007
186	0x3fd2b26b	1.6460699
187	0x3da07880	0.078354836
188	0x3f2db250	0.6785021
189	0xbe4a2cf8	-0.19743717
190	0xbfcbbef3	-1.5917648
191	0xbea5a0bf	-0.32349202
192	0xbdb4598c	-0.08806142
193	0xbec84ea0	-0.39122486
194	0xbf0c39db	-0.5477578
195	0xbe4ac151	-0.19800307
196	0xbe8216c7	-0.25408003
197	0x3dae1d57	0.0850169
198	0x3fbb71e1	1.4644128
199	0xbebc63af	-0.36794803
200	0xbe22c35b	-0.15894835
201	0xbecc4ebb	-0.39903817
202	0xbf11c9aa	-0.5694834
203	0xbef03120	-0.4691248
204	0xbeb7c5af	-0.35893008
205	0xbea3da15	-0.3200232
206	0x402b7caf	2.679485
207	0x3e4c446c	0.19947976
208	0xbead8f87	-0.33898565
209	0xbefbf625	-0.4921123
210	0xbedf7bba	-0.43649083
211	0xbe91b0a9	-0.28455094
212	0xbefe496b	-0.49665388
213	0xbebca6ad	-0.36845914
214	0xbd546759	-0.051856373
215	0xbef76830	-0.48321676
216	0xbec0659e	-0.37577528
217	0xbdf44bc8	-0.119285166
218	0xbecd3677	-0.40080616
219	0x3dd1c156	0.10241954
220	0xbce6ea99	-0.028188037
221	0xbd30a6ed	-0.043127943
222	0xbea616a1	-0.3243914
223	0x3ec531e8	0.38514638
224	0xbecd33f2	-0.40078694
225	0xbf224870	-0.6339178
226	0x3d487105	0.04893591
227	0xbde0896a	-0.1096371
228	0x4024332d	2.5656235
229	0xbf2f48e4	-0.684706
230	0xbd81dfec	-0.06341538
231	0xbf06ff15	-0.52732974
232	0xbf087bb7	-0.53313774
233	0xbd9049f6	-0.07045357
234	0xbeabce68	-0.33555913
235	0x3f8bba26	1.0916183
236	0xbeb5db7e	-0.35519022
237	0x4026f454	2.6086626
238	0x3e005c0c	0.12535113
239	0xbef97747	-0.48723814
240	0xbea6e39a	-0.3259552
241	0xbed723f8	-0.4201963
242	0xbed70bc2	-0.42001158
243	0xbeb15d23	-0.3464137
244	0xbf0e4a55	-0.5558217
245	0xbeb2e49c	-0.3494004
246	0xbe37ed00	-0.17961502
247	0xbf978949	-1.1838771
248	0xbd844adc	-0.06459591
249	0x3fc4f5de	1.5387533
250	0x40168e84	2.3524485
251	0x3d8648f4	0.065568835
252	0x3f9122f0	1.1338787
253	0xbf005d20	-0.501421
254	0xbf1e1cc5	-0.6176265
255	0xbece7346	-0.40322322

fc3.bias f4 [4]
0	0xbf24f35b	-0.6443383
1	0xbe606664	-0.21914059
2	0x3ea2ac12	0.31771904
3	0xbec405d8	-0.38285708
