weights/g1.0_lr1e-05_decay_0.99999999.pth (torch, 12865 bytes, 6 tensors)

fc1.weight f4 [32, 8]
0	0xbe1073d6	-0.14106688
1	0xbfd4666a	-1.6593754
2	0xbdf37886	-0.118882224
3	0xbfc7c4b1	-1.56069
4	0xbe022cc9	-0.12712397
5	0x39156f01	0.000142511
6	0x3d29c1e7	0.041444685
7	0xbc369b76	-0.011145463
8	0x3c7e1f1e	0.015510349
9	0xbf7ffde9	-0.9999681
10	0xbd93d8eb	-0.07219108
11	0xbe3ed407	-0.1863557
12	0xbf90cdb4	-1.1312776
13	0xbea04aa0	-0.31306934
14	0x3eafdc2b	0.34347662
15	0xbe407ec5	-0.18798359
16	0x3b8b61ee	0.0042536175
17	0xbf59ed49	-0.85127693
18	0xbef37e37	-0.47557232
19	0xbede7704	-0.43450177
20	0x3f04fc97	0.5194792
21	0x3f47e675	0.78086025
22	0x3d2b4304	0.041811958
23	0x3e7bcf67	0.24590836
24	0x3f41ec07	0.75750774
25	0xbfb2eb11	-1.3977987
26	0x3f515cb7	0.81782097
27	0xbea5995a	-0.3234356
28	0xbf670bb6	-0.90252244
29	0x3df8cc7c	0.12148377
30	0x3e62b2a7	0.22138463
31	0x3efaedb0	0.49009466
32	0xbec75170	-0.3892932
33	0xbfa8c54b	-1.3185209
34	0xbd1040d8	-0.03521809
35	0xbfbc951e	-1.4733007
36	0xbe97d0ae	-0.29651397
37	0x3e30a878	0.17251766
38	0x3d3756ae	0.0447604
39	0xbe344f4e	-0.17608377
40	0x3ea0476e	0.31304497
41	0xbf9d45cd	-1.2286927
42	0x3ebe9e64	0.37230217
43	0xbe482355	-0.19544728
44	0xbf5f816b	-0.8730685
45	0xbe15f8e2	-0.14645723
46	0x3f328ee5	0.6974929
47	0x3d28a2e0	0.041170955
48	0xbedfc9fc	-0.4370879
49	0x3f0819b0	0.53164196
50	0x3df58d16	0.11989801
51	0x3f8f8631	1.1212827
52	0x3f594968	0.84877634
53	0x3f9be9ad	1.2180687
54	0x3ffa18d5	1.9538828
55	0xbc92681b	-0.017871907
56	0xbf31242b	-0.6919581
57	0xbfba6080	-1.45607
58	0xbf260d1c	-0.64863753
59	0xbe4beccb	-0.19914548
60	0x3f2dd5f8	0.67904615
61	0x3e83c9ae	0.25739807
62	0x3e100967	0.14066087
63	0x3e1addb8	0.15123641
64	0x3d82a2bb	0.063786946
65	0x3f6e6182	0.93117535
66	0xbe5c624e	-0.21521875
67	0xbd72095a	-0.05909095
68	0x3f1bd2b9	0.6086841
69	0x3f318c51	0.6935473
70	0xbe2c3c05	-0.1681977
71	0x3f193315	0.5984357
72	0x3e0ee360	0.13953924
73	0x3f2eccee	0.6828145
74	0x3e93fe46	0.28904933
75	0x3e2b5aa3	0.16733794
76	0xbf5caa8b	-0.8619773
77	0xc01e7144	-2.4756632
78	0xbd5057c4	-0.05086495
79	0x3f66a59c	0.9009645
80	0xbe0b0cb7	-0.13579069
81	0xbf186b81	-0.5953904
82	0x3f9dfa3e	1.2341993
83	0xbfb49697	-1.4108456
84	0xbf8fa2fb	-1.1221613
85	0x3cf9def2	0.030501816
86	0x3ec81985	0.3908197
87	0xbe0837a3	-0.13302474
88	0xbea32a4a	-0.31868201
89	0x3e36b37e	0.17841908
90	0x3e86b9c2	0.26313597
91	0x3daa91a3	0.08328559
92	0x3f49937a	0.78740656
93	0x3f9d12b0	1.2271328
94	0xbf83c9e4	-1.0295987
95	0xbf5351c8	-0.82546663
96	0xbe9838d7	-0.29730865
97	0x3cac8ad8	0.0210623
98	0xbea63345	-0.3246099
99	0xbd805aaa	-0.06267293
100	0x3f93c82b	1.1545461
101	0x3e80fe12	0.2519384
102	0x3e7d3c19	0.24729957
103	0x3ef0becc	0.47020566
104	0xbf06426e	-0.52445114
105	0xbf6f4f21	-0.93480116
106	0xbf5a56cd	-0.852887
107	0xbf493837	-0.786014
108	0x3f870e2c	1.05512
109	0xbf30ec82	-0.6911088
110	0x3f15fd9d	0.5859011
111	0x3f9080c1	1.1289293
112	0x3d01ac64	0.031658545
113	0xbec817a9	-0.3908055
114	0x3fcd16af	1.6022547
115	0xbf19ff5b	-0.60155267
116	0xbfbd6675	-1.4796892
117	0xbc2cb3ea	-0.010540942
118	0x3ef005ce	0.4687943
119	0x3fc0ce55	1.5062968
120	0x3eb0514f	0.34437034
121	0x3eaf9133	0.34290466
122	0xbd96d07e	-0.073639855
123	0x3dae5ee9	0.085141964
124	0xbf9f0326	-1.2422836
125	0xbf58cda7	-0.846888
126	0xbf36cc82	-0.71405804
127	0x3fbe4887	1.4865884
128	0xbe11b00a	-0.1422731
129	0x3e088e4d	0.13335533
130	0xbd5c9ae1	-0.05385864
131	0xbee29dcc	-0.44261014
132	0xbf9a32fd	-1.204681
133	0x3f4d0e35	0.80099803
134	0x3f2cc4a4	0.6748755
135	0x3ef96141	0.4870701
136	0x3f2e4ae7	0.6808304
137	0xbf071fe5	-0.5278304
138	0x3ec53d9c	0.38523567
139	0xbbb9da76	-0.0056717945
140	0x3f205f0e	0.6264504
141	0x3f634fb9	0.8879352
142	0x3ed09029	0.40734985
143	0xbe4a5460	-0.19758749
144	0xbd78f417	-0.060779657
145	0x3f521286	0.82059515
146	0x3e8c6a6a	0.27424937
147	0xbebab9ce	-0.36469883
148	0x3d46b470	0.048511922
149	0xbfe7e175	-1.8115679
150	0xbe8c9a99	-0.274617
151	0xbe7de7b1	-0.24795415
152	0xbe897914	-0.26850188
153	0x40122c0f	2.2839391
154	0x3ea34cf4	0.31894648
155	0xbe9a31bb	-0.30116066
156	0x3e783876	0.24240288
157	0x3e333c3e	0.1750345
158	0x3f8f562c	1.1198173
159	0x3f09492a	0.53627264
160	0xbfb2b800	-1.3962402
161	0xbfcced55	-1.6009928
162	0xbf752dbb	-0.95772904
163	0xbeb7784a	-0.3583396
164	0x3e96b332	0.2943359
165	0xbdf708a1	-0.12062193
166	0x3d203ace	0.03911858
167	0xbb7add1e	-0.0038278769
168	0xbef485c3	-0.47758302
169	0x3fcedc5d	1.6161
170	0x3f0a5fe9	0.540526
171	0x3dddc771	0.10829056
172	0x3f3f83c2	0.7481042
173	0x401cfe8c	2.4530363
174	0xbf9d66ea	-1.2297032
175	0x3e884418	0.2661445
176	0x3d88d8f1	0.06682003
177	0xbf8a2ab4	-1.0794282
178	0x3e849d0b	0.25901064
179	0xbf5f5c29	-0.8725
180	0xbefeec7b	-0.49789795
181	0xbe2eeeaf	-0.17083238
182	0x3f19f4ed	0.6013935
183	0xbd83a14f	-0.064272515
184	0x3e54a4d1	0.20765997
185	0xbf8cc6d1	-1.0998174
186	0x3eae040d	0.33987466
187	0xbf8ec684	-1.1154332
188	0x3d31c220	0.043398023
189	0x3f181d81	0.5942002
190	0x3e64439c	0.22291416
191	0xbe16036b	-0.14649741
192	0x3e2b86d7	0.16750656
193	0x3fa379f6	1.2771595
194	0xbee839e9	-0.45356682
195	0xbb6e2bfe	-0.003634214
196	0xbf03c743	-0.51475924
197	0x3ff62c95	1.9232355
198	0xbf7a56d0	-0.97788715
199	0xbd23941d	-0.039936174
200	0xbd9b318c	-0.0757781
201	0xbf86361c	-1.0485263
202	0xbeb54523	-0.3540431
203	0xbf6de56c	-0.92928195
204	0x3ddce744	0.10786298
205	0x3f9f0355	1.2422892
206	0xbf271700	-0.6526947
207	0x3ddcbde4	0.10778406
208	0x3e81d452	0.253573
209	0xbf29694a	-0.66176283
210	0x3d9feeba	0.07809205
211	0xbed8b486	-0.42325228
212	0xbf05f52f	-0.52327245
213	0xbeded4b2	-0.4352165
214	0xbfb63a94	-1.4236627
215	0xbe78a453	-0.24281435
216	0xbf16afce	-0.58862007
217	0xbf8d681e	-1.1047399
218	0x3f06545f	0.5247249
219	0xbf775e8d	-0.9662865
220	0x3b5bc353	0.003353317
221	0x3ee53965	0.4477035
222	0x3e8659ad	0.26240292
223	0xbe9136df	-0.28362176
224	0xbf11d8f2	-0.5697166
225	0xbf00240d	-0.5005501
226	0xbe4b9c92	-0.19883946
227	0xbdf3f4df	-0.1191194
228	0xbf57daff	-0.84318537
229	0x3d2be551	0.04196674
230	0x3f0914a3	0.53547114
231	0x3e1fbd24	0.15599495
232	0x3ed1a47b	0.409458
233	0x3fa3a09d	1.278339
234	0x3e5e3906	0.2170144
235	0x3eabe3bd	0.33572188
236	0xbf58ff68	-0.8476472
237	0xbe9c593e	-0.30536836
238	0x3f049e39	0.5180393
239	0x3f482fa1	0.78197676
240	0x3d2764c9	0.0408676
241	0x3fa14ee1	1.2602197
242	0xbe7d7071	-0.24749924
243	0x3f71b168	0.94411325
244	0xbf3c8707	-0.73643535
245	0xbe3b0607	-0.18264018
246	0x3fd166ba	1.6359475
247	0xbeac0815	-0.33599916
248	0xbe81c7af	-0.2534766
249	0x3fdf6901	1.745392
250	0xbf0c1b79	-0.5472942
251	0x3c4bbce4	0.012435172
252	0x3eb1b174	0.34705698
253	0xbdbcac49	-0.09212548
254	0x3eba1087	0.36340734
255	0x3eb8abd8	0.36068606

fc1.bias f4 [32]
0	0x3e1ad6d4	0.15121013
1	0x3f7d0e6c	0.9885013
2	0x3e9da7a3	0.3079196
3	0x3f2787d8	0.65441656
4	0x3ecfdc6b	0.40597853
5	0x3f45f3ca	0.7732512
6	0x3ee7cf63	0.4527541
7	0x3f43a847	0.76428646
8	0x3f9bb687	1.2165078
9	0xbdb43af5	-0.08800308
10	0x3f06178d	0.52379686
11	0x3dbeeb75	0.093222536
12	0x3f7ab5a3	0.97933406
13	0x3f813acf	1.0096072
14	0x3ebc66f7	0.36797306
15	0xbe44e49a	-0.1922783
16	0xbed47b75	-0.4150044
17	0x3f13d15e	0.57741344
18	0x3e8e8dea	0.27842647
19	0x3faba5c3	1.3409961
20	0x3edb9832	0.42889553
21	0x3c55b32a	0.013043204
22	0x3f240215	0.64065677
23	0x3f1f848c	0.62311625
24	0x3e75c732	0.24001768
25	0x3e07bd33	0.13255768
26	0x3eaaa0a2	0.33325678
27	0x3f534949	0.825337
28	0x3f10db46	0.56584585
29	0x3fc9e231	1.5772153
30	0x3f05842c	0.52154803
31	0x3fd0ac06	1.6302497

fc2.weight f4 [64, 32]
0	0xbf2cf8f1	-0.67567354
1	0x3daf9a78	0.085743845
2	0xbfb023de	-1.3760946
3	0xbe7d83d0	-0.24757314
4	0xbf656879	-0.8961254
5	0xbe43274d	-0.19057961
6	0xbf16cffe	-0.5891112
7	0xbf824461	-1.0177118
8	0x3ec8e49c	0.39236915
9	0xbf86b6e8	-1.0524569
10	0x3f839354	1.0279336
11	0xbf9246d4	-1.1427865
12	0xbdcb6a98	-0.099324405
13	0x3f9ca8f5	1.2239062
14	0x3f507f85	0.8144458
15	0xc016e4a9	-2.3577063
16	0x3fc19fb6	1.5126865
17	0xbfbc2d92	-1.4701407
18	0x3e419dc0	0.18907833
19	0x3ef642a2	0.48097712
20	0xbf582029	-0.8442407
21	0xbe2b07d0	-0.16702199
22	0xbf31d102	-0.69459546
23	0xbf809586	-1.0045631
24	0x3f0fe2f9	0.5620571
25	0xc017044d	-2.3596375
26	0xc08baf37	-4.3651385
27	0xbf3b5a4c	-0.7318466
28	0x3c176ecb	0.009242724
29	0x3ed6a236	0.41920632
30	0x3f575878	0.8411937
31	0x3f1d433b	0.6143071
32	0xbeef7066	-0.4676544
33	0x3ee362c6	0.44411296
34	0x3e3ecca7	0.18632756
35	0x3eb3feec	0.35155427
36	0x3cc5cbf9	0.024145113
37	0x3eb3ab08	0.35091424
38	0x3f00c147	0.5029492
39	0x3efb8e56	0.4913203
40	0xbcff751f	-0.031183777
41	0xbd3040be	-0.043030493
42	0xbeb344dd	-0.35013476
43	0x3f1a3f20	0.6025257
44	0x3f0aae91	0.5417262
45	0xbdda7f3f	-0.106688015
46	0xbe185dad	-0.14879484
47	0x3f5fe20f	0.87454313
48	0xbfbbdc89	-1.4676677
49	0x3ec95908	0.39325738
50	0xbf24745a	-0.6424004
51	0x3f4d89f5	0.8028863
52	0x3ea9b54c	0.3314613
53	0xbe3416f5	-0.17586882
54	0x3e526f48	0.20550263
55	0x3d951ef1	0.07281292
56	0xbed2f2f6	-0.4120099
57	0x3e6f5882	0.23373607
58	0x3f1f7646	0.62289846
59	0x3e7c01d4	0.24610072
60	0x3de4c63f	0.11170625
61	0x3e826b8c	0.25472677
62	0x3ebf68b2	0.37384564
63	0x3edd29b8	0.4319589
64	0xbef94d4d	-0.48691788
65	0x3ef7bcc7	0.48386213
66	0x3e9d87e6	0.30767745
67	0x3ec4ad87	0.3841364
68	0xbe03e39c	-0.12879795
69	0x3ea802e1	0.32814696
70	0x3e847d98	0.2587707
71	0x3efd789d	0.49506083
72	0xbd9a1b40	-0.07524729
73	0xbd660ed4	-0.056166485
74	0xbeb00284	-0.3437692
75	0x3f557c49	0.8339277
76	0x3eea903a	0.4581316
77	0xbd3a6f9a	-0.045516588
78	0x3da6e03c	0.08148238
79	0x3f191f6f	0.5981359
80	0xbfdc3fd0	-1.7206974
81	0x3e53349a	0.20625535
82	0xbf455562	-0.7708341
83	0x3f51de9a	0.8198029
84	0x3e605b9a	0.21909943
85	0xbe1afadc	-0.15134758
86	0xbd0df38d	-0.034656096
87	0xbde6666e	-0.11250006
88	0xbe0d3c6b	-0.13792579
89	0x3e53f3ec	0.20698518
90	0x3f359863	0.7093565
91	0x3ea7676f	0.326961
92	0x3ed9c8ce	0.42536014
93	0x3e26facb	0.16306607
94	0x3f0bc933	0.5460388
95	0x3f0c886c	0.54895663
96	0xbeddec13	-0.43344173
97	0x3f22a20c	0.63528514
98	0x3ed56ab3	0.41682968
99	0x3f2f58d0	0.6849489
100	0xbe03f515	-0.1288646
101	0x3eba1396	0.36343068
102	0x3db1ebac	0.08687529
103	0x3ecb23f3	0.39675865
104	0xbf067ec3	-0.52537173
105	0xbf208c6f	-0.62714285
106	0x3cc44d4f	0.023962645
107	0x3ec85aec	0.39131868
108	0x3eac9de5	0.33714214
109	0xbd32160d	-0.04347806
110	0x3e798e74	0.24370748
111	0x3f2da450	0.67828846
112	0xbf871106	-1.055207
113	0x3e4ea236	0.20179066
114	0xbf06071c	-0.523546
115	0x3ea29908	0.3175738
116	0x3f0eb7f5	0.55749446
117	0xbea45eaf	-0.32103488
118	0x3e84a5b0	0.2590766
119	0x3e69b08b	0.22821252
120	0xbea92046	-0.33032435
121	0x3e0a407b	0.1350116
122	0x3e1b18d6	0.15146193
123	0x3dc6c6a9	0.0970586
124	0x3e9b2d7b	0.30308136
125	0x3e565484	0.20930678
126	0x3bfe218f	0.0077554653
127	0xbe224ea8	-0.15850317
128	0xbd76a134	-0.06021233
129	0xbd679983	-0.056542885
130	0x3afccdba	0.0019287386
131	0x3e0fe754	0.14053088
132	0xbcd18c43	-0.025579577
133	0xbe08c70b	-0.13357179
134	0xbd04018e	-0.032228045
135	0x3d71a39d	0.058993924
136	0x3d199d4b	0.037503522
137	0xbe70f540	-0.23531055
138	0xbd61e704	-0.055151954
139	0xbdcc1333	-0.099645995
140	0xbdbf39eb	-0.09337219
141	0x3d2d1303	0.04225446
142	0xbe188c6c	-0.14897317
143	0x3d86945a	0.065712646
144	0x3e19a52f	0.15004419
145	0xbbe8a6dc	-0.0070999693
146	0xbe08a88b	-0.13345544
147	0xbdce00b1	-0.100587256
148	0x3c0182af	0.007904693
149	0xbe4715cc	-0.19441909
150	0x3d80f1e2	0.062961355
151	0xbe4f7972	-0.20261171
152	0xbe402ecf	-0.18767856
153	0xbe3bd580	-0.18343163
154	0xbd12e385	-0.03586151
155	0x3d962b28	0.0733245
156	0xbe53238c	-0.20619029
157	0x3dca09fa	0.09865184
158	0xbdac72dc	-0.08420345
159	0x3c9e1692	0.019297872
160	0x3f8d15b6	1.1022251
161	0xbdce346d	-0.10068593
162	0x3f1d511f	0.61451906
163	0xbd946a30	-0.07246816
164	0x3fb86fa4	1.440907
165	0x3ea18bc6	0.3155195
166	0xbd7c4f14	-0.061598852
167	0x3eb13bbf	0.34615895
168	0xbe234611	-0.15944697
169	0xbe6f64a3	-0.23378234
170	0xbe33e3dd	-0.17567392
171	0xbe318b24	-0.17338234
172	0xbebb0d98	-0.3653381
173	0xbeb143c0	-0.34622002
174	0xbe1e9814	-0.154877
175	0xbf9d4bc4	-1.2288747
176	0x400142b4	2.0196962
177	0x3f638fb2	0.88891137
178	0xbed14f1b	-0.40880665
179	0xbf3667fd	-0.71252424
180	0x3df3a72b	0.11897119
181	0xbe876eea	-0.26451808
182	0x3ef3ae51	0.4759393
183	0x3fb9c1d3	1.4512275
184	0x3e9f4988	0.31110787
185	0x3f55ecf3	0.8356468
186	0xbc9b4ba7	-0.018956972
187	0x3f5a3145	0.8523143
188	0x3e89d12a	0.26917392
189	0xbdb8e7b2	-0.090285674
190	0xbf542580	-0.8286972
191	0xbf4cd326	-0.80009687
192	0xbf21081f	-0.62903017
193	0x3e275043	0.16339211
194	0xbcaf4209	-0.021393793
195	0x3e5cf97b	0.21579544
196	0xbe455c28	-0.19273436
197	0x3e9e7575	0.30948988
198	0x3e9ff19f	0.3123903
199	0x3ec054be	0.37564653
200	0x3e5446be	0.20730111
201	0xbd31ff21	-0.0434562
202	0xbe9d9c33	-0.30783233
203	0x3f00bcd7	0.50288147
204	0x3ebb5878	0.36590934
205	0xbedaa5f1	-0.42704728
206	0xbdcbf738	-0.099592626
207	0x3ef9b482	0.4877053
208	0xbfd0abac	-1.630239
209	0x3d52071c	0.05127631
210	0xbe2662f1	-0.1624868
211	0x3f612d61	0.8795987
212	0xbd1702c1	-0.03686786
213	0x3da46f3f	0.08029031
214	0x3e57105c	0.21002334
215	0xbd7c3127	-0.061570313
216	0xbd880c9d	-0.06643031
217	0xbdefacc9	-0.11702878
218	0x3f18e012	0.59716904
219	0x3e3ff999	0.18747558
220	0x3e19c6d2	0.1501725
221	0x3e0dd23b	0.13849728
222	0x3ef8369a	0.48479158
223	0x3f235c12	0.63812363
224	0xbead1322	-0.3380366
225	0x3f007e84	0.5019305
226	0x3f3c6484	0.73590875
227	0x3f221aae	0.6332196
228	0xbcded618	-0.027201697
229	0x3eb87db4	0.36033404
230	0xbf4db8b5	-0.80359966
231	0x3f3cb6e1	0.7371655
232	0xbf8a54a3	-1.0807079
233	0x3e8ff5f8	0.28117347
234	0x3ed2f441	0.41201976
235	0xbeb49400	-0.35269165
236	0xbd9e3d6a	-0.077265576
237	0xbea05c0f	-0.31320235
238	0x3f28e1c4	0.6596949
239	0x3f99dd47	1.2020653
240	0xbf6abe00	-0.91696167
241	0x3e828090	0.2548871
242	0x3e519f57	0.2047094
243	0x3f24ed84	0.6442492
244	0x3f262d96	0.6491331
245	0xc044610c	-3.0684233
246	0x3e1b719a	0.15180054
247	0x3f01a408	0.50640917
248	0xc076eb48	-3.8581104
249	0xbc77b4d0	-0.015118793
250	0x3ed10103	0.40821084
251	0x3ed87157	0.4227397
252	0x3e464b47	0.19364654
253	0x3f4fbec5	0.81150466
254	0x3f790d2d	0.9728573
255	0xbe65f714	-0.22457534

fc2.bias f4 [64]
0	0x3f353f68	0.70799875
1	0x3f798bc3	0.97478884
2	0x3f3ef341	0.74589926
3	0x3f609518	0.877275
4	0xbc1aba7a	-0.009443874
5	0xbee5ddb6	-0.44895715
6	0x3f0d7607	0.5525822
7	0x3f9169d8	1.1360426
8	0x3efc05c2	0.49223143
9	0x3f621602	0.8831483
10	0xbeea275a	-0.45733148
11	0x3f6e5b2e	0.9310788
12	0x3f825a5c	1.0183825
13	0x3f4b80cc	0.79493403
14	0x3fa8178e	1.3132188
15	0x3eebdebf	0.4606838
16	0x3f3f5e56	0.7475332
17	0x3f8511dc	1.0396075
18	0x3f4ea0c9	0.8071409
19	0x3f1a317d	0.60231763
20	0x3f6f717b	0.9353253
21	0x3f50d294	0.81571317
22	0x3f5106d9	0.81651074
23	0x3f5b8018	0.8574233
24	0x3f64dc04	0.8939822
25	0xbc3990ac	-0.011325996
26	0x3f74afa5	0.9558051
27	0xbe11e64d	-0.14248009
28	0xbf29e394	-0.6636288
29	0x3e6396cc	0.22225493
30	0x3f36d8e1	0.7142468
31	0x3f22d4e6	0.6360611
32	0x3da3b404	0.0799332
33	0x3f4a3a85	0.78995544
34	0x3e25e2cd	0.16199799
35	0x3f69a4d3	0.91267127
36	0x3eccad54	0.3997599
37	0x3f612288	0.87943316
38	0x3f7952d4	0.9739201
39	0x3f87f3f5	1.0621325
40	0xbc9fa052	-0.019485626
41	0x3f1c5d21	0.61079603
42	0x3f147471	0.57990175
43	0x3f417d89	0.75582176
44	0x3f62839b	0.88482064
45	0x3f4880eb	0.78321713
46	0x3e8b56e8	0.27214742
47	0x3f06bee6	0.5263504
48	0x3fa0b298	1.2554502
49	0x3f2cf20d	0.6755684
50	0x3f52a281	0.8227921
51	0x3f39ff3f	0.726551
52	0x3f02d168	0.5110078
53	0x3f5a1a66	0.8519653
54	0x3f55b0f1	0.83473116
55	0x3f23c0d1	0.6396609
56	0xbe4efbe8	-0.20213282
57	0x3f80fdfe	1.0077512
58	0x3f291203	0.6604311
59	0x3f3b05fc	0.73056006
60	0xbe54c2d1	-0.20777442
61	0x3f249cd1	0.6430178
62	0xbe10ed78	-0.14153087
63	0xbe498e24	-0.19683129

fc3.weight f4 [4, 64]
0	0x4025c348	2.590044
1	0xbec7cebe	-0.3902492
2	0xbef78654	-0.48344672
3	0xbe551f08	-0.20812619
4	0xbd2f6aad	-0.042826343
5	0x3fa41024	1.2817426
6	0xbf0d7c9c	-0.55268264
7	0xbf48fd24	-0.7851126
8	0xbf089da9	-0.5336557
9	0xbeeaaa07	-0.45832846
10	0x3fa9ca8e	1.326494
11	0xbeb95dc2	-0.36204344
12	0xbeeb0af2	-0.45906788
13	0xbf17ad98	-0.5924926
14	0xbf41639a	-0.75542605
15	0xbef0707c	-0.4696082
16	0xbee3fb2a	-0.4452756
17	0xbf1a4af4	-0.6027062
18	0xbef23968	-0.47309422
19	0xbeaf105f	-0.34192178
20	0xbeec46ed	-0.46147862
21	0xbf123846	-0.57117116
22	0xbf4f3ea3	-0.8095495
23	0xbedcfad0	-0.43160105
24	0xbea5043e	-0.322298
25	0xbcccb440	-0.024988294
26	0x3ff5ccb7	1.9203099
27	0xbd938b70	-0.0720433
28	0x3e4cb70a	0.19991699
29	0x3f1f2af4	0.62174916
30	0xbecbfb25	-0.39840046
31	0xbf08f748	-0.5350232
32	0x3f5c4c98	0.8605437
33	0xbecce044	-0.4001485
34	0xbe93220f	-0.28736922
35	0xbf9c1805	-1.219483
36	0xbfe421e8	-1.7822847
37	0x3ff857d4	1.9401803
38	0xbeaec17e	-0.34131998
39	0xbdab3533	-0.08359756
40	0x3cc2f88e	0.02380016
41	0xbed02634	-0.40654147
42	0x407165cc	3.7718382
43	0xbe94c09a	-0.29053193
44	0xbeeee4bf	-0.46658894
45	0x402f4ce7	2.7390687
46	0xbec1a285	-0.37819305
47	0xbf152fee	-0.5827626
48	0xbf4feb1d	-0.8121813
49	0xbf002f67	-0.5007233
50	0xbede23c8	-0.43386674
51	0xbe9e1a81	-0.30879596
52	0xbecd6860	-0.40118694
53	0xbf25e7b6	-0.6480669
54	0x3d8b4497	0.06800192
55	0xbf123282	-0.5710832
56	0xbd85f611	-0.06541074
57	0x40069bc3	2.103257
58	0x3ffa726f	1.9566172
59	0xbeefe542	-0.46854597
60	0x3ed87ed2	0.42284256
61	0xbf15bdb5	-0.58492595
62	0x3cdd42de	0.027009424
63	0xbd7dc5f4	-0.06195636
64	0x40383694	2.8783312
65	0xbed0f0fa	-0.4080885
66	0xbee35ea6	-0.4440815
67	0xbee19bd0	-0.44064188
68	0xbd2d8fa4	-0.042373314
69	0x3fb850a5	1.4399611
70	0xbed9bb38	-0.4252565
71	0xbf3b78df	-0.7323131
72	0xbf14721f	-0.57986635
73	0xbf021136	-0.5080751
74	0x3f9fed11	1.2494222
75	0xbef57573	-0.4794117
76	0xbe75cf83	-0.2400494
77	0xbf3f7ffc	-0.74804664
78	0xbf84f3d9	-1.0386916
79	0xbf0c21be	-0.54738986
80	0xbf0aedec	-0.5426929
81	0xbf01ce22	-0.5070516
82	0xbef45e73	-0.4772831
83	0xbec3cdc8	-0.38242936
84	0xbf0a0f8a	-0.5392996
85	0xbf18c026	-0.59668195
86	0xbf3306bd	-0.69932157
87	0xbef122d7	-0.47096893
88	0xbf0503d8	-0.5195899
89	0xbb50b040	-0.0031843334
90	0x3fdeebe7	1.7415742
91	0x3d07e810	0.033180296
92	0x3f171adf	0.5902538
93	0x3f892196	1.0713375
94	0xbf06390b	-0.5243079
95	0xbed4f6d3	-0.41594562
96	0x3f8aaf0a	1.0834668
97	0xbec9a7b6	-0.39385766
98	0xbf00f44a	-0.50372756
99	0xbf38caa5	-0.7218421
100	0xbf7ac9ce	-0.9796418
101	0x4007ea1d	2.1236641
102	0xbf04b3f7	-0.51837105
103	0x3f02543b	0.50909775
104	0xbd355d82	-0.04427863
105	0xbef1f3c5	-0.47256294
106	0x40856afa	4.1693087
107	0xbea26e12	-0.31724602
108	0xbefaac4b	-0.48959574
109	0x4019c46b	2.4026134
110	0xbec9bcea	-0.39401942
111	0xbedb929f	-0.428853
112	0xbefb3eb8	-0.49071288
113	0xbec1fcdb	-0.37888226
114	0xbf11b0c6	-0.5691036
115	0xbed0ef5c	-0.40807617
116	0xbe4cea1c	-0.2001118
117	0xbf255a3f	-0.6459083
118	0xbf14f00b	-0.58178777
119	0xbf0f33bd	-0.5593832
120	0x3be22e8a	0.0069025205
121	0x3ff94727	1.9474839
122	0x3f26cc94	0.6515591
123	0xbfade5a2	-1.3585703
124	0x3ebcb882	0.36859518
125	0xbf4e7d6a	-0.80660117
126	0x3d3e9783	0.04653121
127	0xbd9812e5	-0.07425479
128	0x4029907c	2.6494436
129	0xbe7d9749	-0.24764742
130	0xbe83826d	-0.25685444
131	0xbf10f412	-0.5662242
132	0x3bf2f7da	0.0074148
133	0x3fabb8c7	1.3415765
134	0xbe7b9682	-0.24569133
135	0xbf2439f0	-0.64150906
136	0xbf1b4726	-0.6065544
137	0xbe8c9e0d	-0.27464333
138	0x3eec55f1	0.46159318
139	0xbf04beef	-0.5185384
140	0xbf0c0bdf	-0.54705614
141	0xbf35951d	-0.70930654
142	0xbfa368dc	-1.2766376
143	0xbf858aa4	-1.0432935
144	0xbeb74d11	-0.35800985
145	0xbf35736b	-0.7087924
146	0xbe8a2d01	-0.2698746
147	0xbee5fcfe	-0.4491958
148	0xbe9c6be0	-0.30551052
149	0xbe9e83be	-0.30959886
150	0xbf8493ac	-1.0357566
151	0xbedf0ba2	-0.43563563
152	0xbeca8b02	-0.3955918
153	0x3bc276c0	0.0059345663
154	0x401febb7	2.498762
155	0x3db6c35e	0.08923982
156	0x3e34a62c	0.17641515
157	0x3dfbe727	0.12299948
158	0xbebc6c0a	-0.36801177
159	0xbf2e6942	-0.6812936
160	0x3d176b7b	0.036967736
161	0xbf14018a	-0.5781485
162	0xbf1c7d19	-0.61128384
163	0xbf48ed80	-0.78487396
164	0xbddf35ca	-0.10898931
165	0x4018b87d	2.3862603
166	0xbf1040a4	-0.56348634
167	0xbf575a74	-0.84122396
168	0x3da7f92a	0.08201821
169	0xbeee3b9f	-0.46529862
170	0x406f88ca	3.742724
171	0xbf356538	-0.7085757
172	0xbe6b9cbd	-0.2300901
173	0x4019d9a4	2.4039087
174	0xbd74dd40	-0.059781313
175	0xbf266310	-0.6499491
176	0xbf1b6399	-0.6069885
177	0xbec6ab1f	-0.3880243
178	0xbe995247	-0.29945585
179	0xbf0eadac	-0.5573375
180	0xbf4f2f08	-0.8093114
181	0xbec87ef6	-0.39159364
182	0xbe1b45ab	-0.15163295
183	0xbf2c9e51	-0.6742907
184	0xbcd96456	-0.026537102
185	0x3fe76aef	1.8079509
186	0x3fe27492	1.7691824
187	0xbf2ef0e4	-0.6833632
188	0x3e9c8610	0.30571032
189	0xbefe462d	-0.49662915
190	0x3db67b68	0.089102566
191	0x3cf5eafa	0.030019272
192	0x40045c7a	2.0681443
193	0xbee1993d	-0.44062224
194	0xbf06283a	-0.5240513
195	0xbec11e35	-0.3771836
196	0x3e05aa71	0.130533
197	0x3f9a905a	1.2075303
198	0xbecc8bfe	-0.39950556
199	0xbf0f5acd	-0.55997926
200	0xbe85011e	-0.25977415
201	0xbee1489f	-0.44000718
202	0x3fe43432	1.7828429
203	0xbf21a785	-0.6314624
204	0xbeaa18bf	-0.33222005
205	0xbe5db09f	-0.21649407
206	0xbe9194e1	-0.28433898
207	0xbf9e942e	-1.2388971
208	0xbec3df81	-0.38256457
209	0xbf59ac89	-0.8502889
210	0xbeee0aaa	-0.4649251
211	0xbeec5e2e	-0.46165603
212	0xbf29090c	-0.6602943
213	0xbec56277	-0.38551685
214	0xbf35f274	-0.7107308
215	0xbf143ab4	-0.57902074
216	0xbef55f18	-0.47924113
217	0xbdf44bc8	-0.119285166
218	0x4020ca9d	2.5123665
219	0x3dd1c156	0.10241954
220	0xbe8f4ea1	-0.27989677
221	0x3f044018	0.516603
222	0xbeb8d390	-0.3609891
223	0xbeff6e9c	-0.49889076
224	0x3f856d0c	1.0423903
225	0xbf098447	-0.53717464
226	0xbeb37f07	-0.35057852
227	0xbfc238fd	-1.5173641
228	0xbff09a34	-1.8797059
229	0x4000ff2c	2.0155745
230	0xbf09a282	-0.5376359
231	0xbe8e061f	-0.27739045
232	0xbdb54a1a	-0.088520244
233	0xbef6f959	-0.48237112
234	0x4061d46d	3.5285904
235	0x3d4b9e05	0.049711246
236	0xbedffb5b	-0.43746457
237	0x400d7a3d	2.2105858
238	0xbecc4cd4	-0.39902365
239	0xbf1d0db2	-0.6134902
240	0xbf50865d	-0.8145502
241	0xbefad570	-0.48990965
242	0xbedc46a8	-0.43022656
243	0xbee353d9	-0.44399908
244	0xbd39bd03	-0.04534627
245	0xbefed8af	-0.4977469
246	0xbf847750	-1.0348911
247	0xbedfdf66	-0.43725127
248	0x3da237ba	0.07920785
249	0x40035394	2.0519762
250	0x4049e400	3.154541
251	0xbe9c9933	-0.30585632
252	0x3f4b0659	0.7930656
253	0xbf065e3b	-0.52487534
254	0xbd49ded6	-0.04928478
255	0xbbb99880	-0.0056639314

fc3.bias f4 [4]
0	0xbf05c2c8	-0.5225034
1	0xbf0952d3	-0.53642005
2	0xbefb7d83	-0.49119195
3	0xbeac73a4	-0.33681977
