weights/g1.0_lr1e-05_decay_0.9999.pth (torch, 12865 bytes, 6 tensors)

fc1.weight f4 [32, 8]
000000 33 a1 99 3e d0 33 24 c0 f3 78 50 3f 30 05 2a bf
       0.30005798 -2.5656624 0.81434554 -0.66414165
000010 b9 b4 d0 be f1 78 8b 3f e6 79 18 3f 29 29 9c 3d
       -0.4076288 1.0896283 0.59561 0.07625038
000020 3f b4 ea 3e 9b bb 5a bd fd 0e 2b 3f 70 9f 03 be
       0.45840642 -0.05340157 0.66819745 -0.1285379
000030 c3 03 ff 3d 59 90 70 bf 3b 08 0c be aa 5d dd 3e
       0.12451889 -0.9397026 -0.13675015 0.43235523
000040 24 58 e4 be b2 f0 cd be eb 8b 9a bf 38 22 58 3e
       -0.44598496 -0.40222698 -1.207395 0.21106803
000050 33 7c 8d 3e 04 0d 0c 3f 79 4d 4e 3f 2b e1 95 3e
       0.2763382 0.5470736 0.80586964 0.29273352
000060 3f 51 8e 3e 73 8b 3c bf 36 6d ab 3f a9 b0 2d bf
       0.2779636 -0.7365028 1.3392704 -0.67847687
000070 dd c9 5d bf f9 09 4f be fa be 80 3a 83 c4 01 3f
       -0.86636144 -0.20218648 0.000982254 0.5069048
000080 91 33 54 be 2a f3 27 bf a2 23 b3 bf e9 59 2b bf
       -0.20722796 -0.65605414 -1.3995249 -0.66934067
000090 a9 e2 82 3f 74 b2 1a 3f c3 cf a4 3e bc 3e b9 3e
       1.0225421 0.6042855 0.3218976 0.36180675
0000a0 df 9c d9 be fe 4a aa be e5 99 93 3f ab e7 fa be
       -0.42502496 -0.3326034 1.153134 -0.49004874
0000b0 ca 27 9c be f7 1c 35 bf b0 29 10 3e 6f e5 07 3e
       -0.30499107 -0.7074732 0.14078403 0.13271116
0000c0 ff d7 b9 bd 30 64 f0 bd 8a b7 91 40 71 01 2b 3f
       -0.09074401 -0.11737859 4.5536547 0.66799074
0000d0 e6 c8 bd be 22 00 dc be 59 45 d2 3e 05 6d 04 3f
       -0.37067336 -0.4296885 0.41068533 0.5172885
0000e0 43 4f 59 be 12 5f 86 c0 13 f4 29 bf 0a 70 ca bf
       -0.21221642 -4.1991053 -0.6638805 -1.5815442
0000f0 b4 46 6e 3e 4a 40 1a 3e 64 c4 82 bd b1 45 37 3f
       0.23269159 0.15063587 -0.06385115 0.71590716
000100 98 9f d2 3e 8c 34 46 3e 5e 33 3a bd a9 09 b4 3c
       0.41137385 0.19355983 -0.045459144 0.021977263
000110 c7 0a d6 3e ad 95 12 3f 25 20 1b 3e 76 ff 6b bf
       0.41805097 0.5725964 0.15148981 -0.9218668
000120 4e 11 dd 3e 31 9b 1a 3e fb a5 9c 3e 2e 0e 06 40
       0.43177265 0.15098263 0.30595383 2.0946155
000130 b1 e2 6b be 7a ed e8 3b d4 1a 86 be e7 11 7a 3f
       -0.23035695 0.0071083875 -0.26192343 0.97683567
000140 b1 6e 82 bf 65 79 8f bd 2a d3 1b be 5b cc 8a bf
       -1.019003 -0.07005576 -0.15217271 -1.0843614
000150 86 f1 3b c0 9a f5 91 be c2 d3 c2 3e 14 78 8f 3e
       -2.9366164 -0.28507692 0.38052183 0.280213
000160 d8 7e 9b be 7a af 8b 3e 9c 50 92 3f ac 6b 99 bf
       -0.30370212 0.27282315 1.143085 -1.1985984
000170 a2 d5 25 3f 48 23 c7 3e 53 1e aa be fa 2d 25 3c
       0.647791 0.38894105 -0.3322626 0.010081762
000180 df c9 e2 be 1a 1a a8 bc 0f b6 5e 3f cd 91 53 bf
       -0.4429464 -0.020520259 0.8699655 -0.8264435
000190 9a d6 56 40 cd 03 5f be 1e f8 a3 3e 3d 05 50 3d
       3.3568482 -0.21778794 0.32025236 0.050786246
0001a0 81 bb c0 bf 21 42 20 be 44 9b 5a bf 09 6d fa bd
       -1.5057222 -0.15650226 -0.85393167 -0.12227828
0001b0 e6 2a 84 3e a0 ce 05 bd 36 71 db 3e dc c5 af 3d
       0.2581398 -0.032667756 0.4285981 0.085826606
0001c0 e7 8b 9a bf a8 62 0b bf 95 d9 5e be 01 0d 6c bf
       -1.2073945 -0.5444741 -0.21762688 -0.9220734
0001d0 3e c6 f3 3e f6 48 85 3e 2b 52 02 3e c0 9d d2 3e
       0.47612184 0.26032227 0.12726657 0.4113598
0001e0 9c e0 55 3e 95 cf 5c be 05 57 35 3f 8f 48 72 be
       0.20886463 -0.21563561 0.70835906 -0.23660491
0001f0 44 91 b5 3b 1e b6 bb bf c3 7b 1d bf a1 df 0d bf
       0.0055409987 -1.4664953 -0.6151697 -0.55419356
000200 e8 6d 02 3e ff 95 7f be 95 f0 69 3f 69 d2 bb bc
       0.12737238 -0.24959563 0.91382724 -0.02292748
000210 d2 58 cc be 6d 22 1a bf 13 33 2d 3e 85 36 7d 3e
       -0.39911515 -0.6020878 0.16914015 0.24727829
000220 1b 97 67 3e 42 6d 70 3e 7d ca 9b 3f d6 a2 aa bf
       0.22616236 0.23479179 1.217117 -1.3330944
000230 44 b8 18 3f d6 63 3f bd f2 9f f2 3e b2 01 63 3e
       0.5965617 -0.04672607 0.47387654 0.22168615
000240 db 1f 6f 3e 23 b7 dc 3e c4 16 c8 be d1 4b 7f be
       0.23351996 0.43108472 -0.3907987 -0.24931265
000250 2a 7a 87 3e d7 2c 7a bf 20 c5 c6 bf 74 23 01 3f
       0.2646039 -0.9772467 -1.5528908 0.5044472
000260 20 a0 29 3e da 4d 92 be 6b f9 05 40 72 5c 1f bf
       0.16564989 -0.2857502 2.0933483 -0.62250435
000270 6e 07 a1 3c e2 78 8f be 4c ad c6 3c 54 0a 25 3e
       0.019656863 -0.28021914 0.024252556 0.16117221
000280 9c 6d a7 bf 79 65 83 bf 43 17 7e bf 2c 69 74 bf
       -1.3080325 -1.0265342 -0.99254245 -0.9547298
000290 bf 05 22 3e 5c b9 31 3e d6 8e 3a be 6b b2 95 bd
       0.15822504 0.17355865 -0.1821855 -0.07309421
0002a0 1c 19 03 bf 29 20 84 be aa 2a b9 be c3 a1 61 bf
       -0.5121019 -0.25805786 -0.36165363 -0.88137454
0002b0 46 08 ad 3f f9 43 c8 3d 51 9e cb be 2a 4c 42 3f
       1.351815 0.0977859 -0.39769223 0.7589747
0002c0 05 c8 1b 3f ac 3b 4d bf 8a 95 fb 3e e9 3b 7b bf
       0.6085208 -0.8016918 0.49137527 -0.9813829
0002d0 c6 fa 83 be 41 aa d3 3d b1 9a 2c 3f 70 6f 13 3e
       -0.25777262 0.10335208 0.6742354 0.14397979
0002e0 5b 93 b4 3f d6 84 a2 bf 80 b6 94 3f 97 f9 42 3d
       1.4107469 -1.2696788 1.1618195 0.04760131
0002f0 15 67 1e bf 2f bf fd be db 73 95 bd 47 da fe 3e
       -0.6187604 -0.49559924 -0.07297488 0.49775907
000300 6a b6 79 3d 26 c4 4a bf 59 1b 9f 3f f6 71 75 bf
       0.06096498 -0.7920555 1.2430221 -0.95877016
000310 91 67 83 bf f2 29 69 3e 29 ab af 3e 65 a1 c2 bd
       -1.0265981 0.22769907 0.34310272 -0.0950344
000320 98 a7 9f 3f 17 56 c4 bf 0d c8 64 3f 95 44 29 bd
       1.247302 -1.5338773 0.89367753 -0.04132517
000330 be 4d 8e 3e 9a d8 0f bd 28 18 0f bc 41 b5 00 3f
       0.27793688 -0.035118677 -0.008733787 0.5027657
000340 65 4c c8 3d df eb 76 3c 4d bb 05 bd 3a 04 23 bd
       0.09780196 0.0150708845 -0.032649327 -0.039798953
000350 e0 f7 98 3d 05 29 50 bd d6 2f c7 bc 43 c6 38 3d
       0.074691534 -0.05082037 -0.024314802 0.045110952
000360 b8 0a 05 3f a0 16 88 bf 77 77 d7 3d b5 aa 4b bf
       0.5196948 -1.0631905 0.10520833 -0.79557353
000370 9d 3c 05 be 39 d9 74 3e 81 b9 eb 3e 46 8a aa bc
       -0.13011403 0.23910989 0.46039966 -0.020817887
000380 81 dd ca bf 35 82 66 be 11 b9 9b bf 58 35 1a be
       -1.5848848 -0.22510608 -1.2165853 -0.15059412
000390 20 ea e6 bc e2 d8 db bd 76 22 85 3d fe a8 89 3e
       -0.028187811 -0.107347265 0.065007135 0.26886743
0003a0 9f 78 fc bd b6 eb c2 3f 40 7b 23 bf 2e 69 86 bf
       -0.12327694 1.5228183 -0.6385994 -1.0500848
0003b0 78 cc 24 3f 68 1e 8d bf 87 31 8d be d7 93 d5 3e
       0.64374495 -1.1024904 -0.2757685 0.41714355
0003c0 bf 4f b6 3e 4d 0e 3b bf 34 77 61 3f a7 b5 ed be
       0.35607716 -0.73068696 0.88072515 -0.46427652
0003d0 8b d7 4e bf e7 c1 80 bf 27 5b 19 3f d8 66 e1 bd
       -0.8079764 -1.0059174 0.5990471 -0.11005944
0003e0 57 c0 c5 be e5 47 81 3e 74 ca 82 bf aa 6b ac 3f
       -0.38623306 0.25250164 -1.0218034 1.3470356
0003f0 35 17 b9 3f d8 df 0b 3e b8 07 07 3f 43 80 0c bf
       1.4460207 0.13659608 0.5274615 -0.5488321

fc1.bias f4 [32]
000000 17 6d 47 be 56 5b de 3e 8a 3c cc be cd d9 04 bf
       -0.19475208 0.4342906 -0.39889938 -0.5189484
000010 78 9e b9 be c8 19 12 3f af 1e c4 3d 33 a9 d8 3e
       -0.36253715 0.5707059 0.09576165 0.4231659
000020 0d 13 8a be 21 94 8a 3f 82 ff 15 3e fa 44 bc 3e
       -0.2696766 1.0826455 0.1464825 0.36771375
000030 89 02 84 3d 4a 8b cd bd df ff 02 bf cb 6e 03 3f
       0.06445796 -0.10036333 -0.5117168 0.5134093
000040 97 19 d8 be 98 92 a5 3e 5d 5c 19 bf 03 1b 77 be
       -0.42207024 0.32338405 -0.5990656 -0.24131398
000050 9f 56 f8 3e 81 fa b0 bc 5a d1 75 be 03 36 28 bf
       0.48503587 -0.021603825 -0.24005643 -0.65707415
000060 72 ba 81 be 94 4c 1b bf 07 a7 a1 be 30 56 0c 3f
       -0.2533756 -0.60663724 -0.31572744 0.5481901
000070 f4 2f 7e be 1a df 90 3f 54 6c 02 bf bb 75 23 3f
       -0.2482298 1.1318085 -0.50946546 0.6385152

fc2.weight f4 [64, 32]
000000 28 92 89 be ba 53 29 3f 8a ac f0 bf d8 19 66 3f
       -0.2686932 0.6614338 -1.8802655 0.89883184
000010 81 a7 5c 3e d2 e1 b0 be c3 8f 31 bf 4b 44 2a bf
       0.21548273 -0.34547287 -0.6935999 -0.66510457
000020 9b 2b ca bf 0d d7 1c 3e 44 cf 0e bf 94 0e 0d be
       -1.5794557 0.1531641 -0.5578501 -0.13775092
000030 f2 6b 41 bf b6 c8 d3 3c 75 9e 03 3e bc da 89 be
       -0.75555336 0.025852542 0.12853415 -0.26924694
000040 52 87 8a 3e 52 33 03 3e 6c 0f 16 3f 64 7d 7a 3f
       0.27056366 0.12812546 0.5861728 0.9784758
000050 83 e6 b4 be a6 16 e0 bd 28 f4 5f 3f 4c 7a ba 3f
       -0.35332116 -0.1094182 0.8748193 1.4568572
000060 7c 20 96 3f 2a 35 9d 3f 05 df 45 3d 32 4a 40 3f
       1.1728663 1.2281849 0.04830839 0.75113213
000070 df 83 c4 3d 72 91 57 3f 12 b9 a4 3e b1 7f d8 bb
       0.09595465 0.84206307 0.32172447 -0.006607019
000080 ef c1 3d bf 70 69 be 3e 92 4f f2 3d 2b 66 3c 3f
       -0.74124044 0.37189817 0.11831583 0.73593396
000090 4e ed 03 3f 2e fb 3b 3d 9c 0c a5 be b5 a6 20 bf
       0.51533973 0.04589384 -0.32236183 -0.62754375
0000a0 3b 79 54 3e fd 86 8c 3d 1b 7a 8b bf f4 22 b9 3e
       0.20749371 0.068616845 -1.0896639 0.3615948
0000b0 91 4a 45 be bd 47 38 3f d7 fc 02 3f 0f 78 74 3e
       -0.19266726 0.71984464 0.51167053 0.23873924
0000c0 cb 62 59 3e 45 f6 2a 3f d2 e2 a2 3e b4 ca 47 3f
       0.21229093 0.6678203 0.31813675 0.78043675
0000d0 f0 73 03 bf 04 1b 1b 3f af b5 db 3e 55 ee 88 3f
       -0.5134878 0.605881 0.4291205 1.0697733
0000e0 c4 85 27 3e 21 ef b8 3e 1b 2d 92 3d 09 68 cc 3c
       0.16359621 0.3611994 0.071375094 0.024951952
0000f0 24 90 f5 3e 64 f5 54 be 0f 18 54 3e ed 4b 2f 3e
       0.47961533 -0.20796734 0.20712303 0.17118807
000100 c7 c6 5e bf ca a3 3d 3d fd 3f be 3d 55 c9 67 3f
       -0.8702206 0.04629878 0.092895485 0.90541583
000110 95 7b 38 3e 3e 61 52 bd 3d dc ea 3e e4 4b b2 bd
       0.18015893 -0.05136227 0.45871153 -0.08705881
000120 cc 7a 62 3e 4d a5 81 bc 0c 04 d1 be 0c 00 38 3f
       0.22117156 -0.015825892 -0.408234 0.7187507
000130 d3 50 a6 3e 60 c9 3d 3f 61 4f 31 3f d7 0a 9c bf
       0.3248354 0.741354 0.6926175 -1.2190808
000140 59 d5 38 be f1 e8 b8 3e 39 9c 10 bf 92 b2 93 3f
       -0.18050136 0.3611522 -0.56488377 1.153887
000150 02 cd 02 be 14 d2 4d 3f b7 ac 46 bc 91 b5 62 3f
       -0.12773517 0.8039868 -0.012126139 0.885583
000160 85 dc 2f 3f 1b 77 3e 3e e0 4b fa 3d 3b 2c 0e bd
       0.6869586 0.18600123 0.12221503 -0.03471015
000170 5d ed 58 3f 2d 1e c0 be 86 ad 0a 3f 91 94 da 3c
       0.8473719 -0.37523022 0.54171026 0.02668217
000180 f8 ad 09 bf fb 4b 29 3f 8f ac 81 3f b5 2e 57 3e
       -0.5378108 0.6613156 1.0130786 0.21013911
000190 11 3b b8 3e e6 9d 7b be 1d 26 51 bf 68 47 80 bf
       0.35982564 -0.24571952 -0.8169878 -1.0021791
0001a0 23 54 55 3f fe 18 11 3f 23 2c 09 bf bf 8c 8e 3e
       0.8333151 0.5667876 -0.5358297 0.27841756
0001b0 9d 5e f6 be 74 c4 44 3f 95 16 13 3f d2 c8 b8 3e
       -0.4811906 0.76862264 0.5745633 0.36090714
0001c0 7e 70 bf be 43 23 eb be 4f 48 f4 3e 04 0b 60 3e
       -0.37390512 -0.4592534 0.47711417 0.21879202
0001d0 db ec d3 3e 76 3a df 3e d3 99 e7 3d ac 6f d3 3d
       0.41391644 0.4359929 0.113086365 0.10324034
0001e0 5c 0b 47 3f a1 4e 16 3f 80 22 f7 bd 46 b5 c9 be
       0.7775171 0.5871373 -0.12067127 -0.39396113
0001f0 2e f9 54 3f 86 27 0f 3f 56 db 1d bf 20 f1 c5 3e
       0.8319272 0.5591968 -0.61662805 0.38660526
000200 e1 82 35 bf 57 a3 4d bf 9c 31 29 c0 15 8e d4 bd
       -0.7090283 -0.8032736 -2.643653 -0.103786625
000210 5a ad b7 bf 8b 10 72 be 21 11 a7 be 9f a9 84 3f
       -1.4349778 -0.23639123 -0.32630256 1.0364264
000220 ef eb 50 be c6 8f e3 3d 6d 80 b2 3f 86 88 04 3f
       -0.20402502 0.11111407 1.3945442 0.5177082
000230 c6 b5 e9 3f 64 8f 1d bf fa 0a bc bf 90 06 0d 3f
       1.8258598 -0.6154692 -1.469085 0.5508814
000240 de 7f c2 3e 6d 35 ee be 22 bf 72 bf 13 9b b5 3f
       0.3798818 -0.46525136 -0.94822896 1.418795
000250 b8 3d 43 3f e8 7e 51 bd d7 08 60 bf ea 99 f5 bf
       0.7626605 -0.051146418 -0.8751349 -1.9187596
000260 91 8e c4 bd d9 78 3b c0 85 e3 12 bd 61 28 4a bf
       -0.09597505 -2.929251 -0.03586151 -0.78967863
000270 2b d7 36 be d6 4f ad 3f c1 fc c7 3f 8e 82 aa 3e
       -0.17855518 1.3539989 1.5624009 0.3330273
000280 4c e1 82 be 98 4c 04 3e d7 7b c0 be f0 c4 3f 3f
       -0.25562513 0.12919843 -0.37594482 0.7490988
000290 36 d1 5b bf 90 a3 03 3e 7d af ab 3f 77 9c 0f c0
       -0.85866106 0.12855363 1.341293 -2.2439249
0002a0 c6 3e 54 3e 01 b1 94 3f 71 47 8a be 48 a3 18 3f
       0.20727071 1.1616517 -0.2700763 0.5962415
0002b0 42 3a de bf eb 35 9e be f0 92 c5 3f 39 a7 6f 3d
       -1.7361529 -0.3090051 1.5435467 0.058509085
0002c0 ec 0c f5 bd 35 f5 8a bd 54 a5 18 3f 97 d5 fd 3d
       -0.11965355 -0.06785051 0.5962727 0.12394255
0002d0 ff 25 9f bf 6b b5 c4 bf 8d 1e 3c 3e 3c aa 27 3f
       -1.243347 -1.5367864 0.18371029 0.6549413
0002e0 2b 0b 6e 3f 19 06 3f 3f 99 df 7d 3d ec 55 15 be
       0.9298579 0.7461868 0.061980817 -0.14583558
0002f0 78 a7 9b be 72 b6 6a 3e a7 ff 6c be 67 a0 82 3f
       -0.30401206 0.2292116 -0.23144399 1.0205201
000300 e5 83 db 3b 61 d6 eb be a8 82 43 be aa cb 75 bd
       0.0066990727 -0.46061996 -0.1909281 -0.060008682
000310 b1 c6 8a 3d 36 70 90 3e 7c 5f ce 3e 89 74 0b 3f
       0.06776179 0.2821061 0.40307224 0.54474694
000320 35 f6 17 3f 4a 65 00 bf 40 a0 a6 3f 65 c1 3e 3f
       0.5936006 -0.50154555 1.3017654 0.74513847
000330 e9 61 da bf ec 2e 1b bd 52 c3 ac 3d f5 30 b2 be
       -1.706113 -0.037886545 0.08435692 -0.34802976
000340 62 59 8b 3c a0 0e 36 bd 94 73 48 3f 6e 77 fc be
       0.017010394 -0.04444754 0.7830136 -0.49309868
000350 08 5c 6e be 6b 84 8c be be 37 40 be af e4 e6 be
       -0.23277295 -0.27444777 -0.18771264 -0.45096347
000360 35 57 a1 3e 31 b3 21 bf 64 a5 64 3d 92 86 26 3e
       0.31511846 -0.6316405 0.05582179 0.16262272
000370 48 27 9a be d1 ba 7f be 21 b8 be 3d 52 2e 70 be
       -0.30108094 -0.24973609 0.093124636 -0.2345517
000380 a9 99 44 bf 4a 84 87 3e c6 3e 0b 3f c5 3e 00 3f
       -0.76796967 0.26468116 0.5439266 0.5009578
000390 cc 2e 05 3f 86 d3 cf bd 35 7e a3 be 80 82 31 bf
       0.5202453 -0.10147767 -0.31932226 -0.6933975
0003a0 e1 2e ed 3e f2 6d 49 3e fa 53 51 bf 7d 4e 0e 3f
       0.46324828 0.19670847 -0.81768763 0.55588514
0003b0 40 f2 a6 be 63 4f 17 3f 64 b6 5d 3f 59 f1 92 3e
       -0.32606697 0.5910551 0.8660643 0.2869976
0003c0 36 c5 a2 bd 21 3d ac 3e 85 48 01 3f 4b 6b 4c 3f
       -0.07947771 0.33640388 0.5050128 0.79851216
0003d0 da f3 f1 be a2 a3 b9 3e 09 c6 60 3e a9 8b 75 3f
       -0.47256356 0.36257654 0.21950544 0.9591623
0003e0 4a 09 5d 3e 86 88 6c 3e 07 f6 a5 bd fd 4d 8c 3b
       0.21585575 0.23098955 -0.081035666 0.004281758
0003f0 cf 62 20 3f 88 ea 56 bd b4 28 95 3e 9d 57 5d 3e
       0.6265077 -0.05246976 0.29132617 0.21615453

fc2.bias f4 [64]
000000 19 a3 89 3e 79 c0 44 3e c3 ba f3 be 22 e5 a4 3c
       0.26882246 0.19214047 -0.47603425 0.02012879
000010 03 e5 7d 3f 17 f1 1c 3e 68 06 cc 3e e2 20 38 3e
       0.9917757 0.15326343 0.39848638 0.17981294
000020 37 a6 69 bf 9e 1c a3 3e 43 4e c7 bd 6f 4c ca bd
       -0.9126925 0.3185777 -0.09731724 -0.0987786
000030 22 90 d4 bc f1 60 da bd a2 13 d3 3b da c2 b3 3c
       -0.025947634 -0.10663021 0.0064415494 0.021943498
000040 37 22 a4 3d c4 65 49 be 02 67 7a 3d 22 07 c6 be
       0.080143385 -0.19667727 0.061133392 -0.38677317
000050 5a 99 f3 3d 88 e7 e2 3d 65 93 25 3e 86 8c a7 3e
       0.11894484 0.11079317 0.16169508 0.32724398
000060 0b 63 d2 bc ff 90 57 3f ca 54 5a 3f 4e 72 24 be
       -0.025681993 0.8420562 0.8528563 -0.16059229
000070 13 78 2d be 22 7e 7e 3c e1 3b a1 3d 9e 91 be 3e
       -0.16940336 0.015533002 0.07872749 0.37220472
000080 3c f8 5e 3c bd c4 7d bd 5b f0 a0 3d ba 47 62 3e
       0.013608988 -0.061955202 0.07858344 0.22097674
000090 12 32 de be 7e b6 cf 3d 93 f8 b6 be 32 00 a8 3e
       -0.43397576 0.101422295 -0.35736522 0.3281265
0000a0 ee dd 12 3e b1 0e 8d 3e 82 49 85 3e 48 a4 c6 be
       0.14342472 0.2755027 0.26032645 -0.38797212
0000b0 34 15 ea 3e 9e 0a a2 3f ad c1 b0 3e 87 f7 32 bd
       0.45719302 1.265949 0.34522763 -0.04369309
0000c0 6e 90 5c 3d 50 79 a3 be 73 c1 c7 3d 9b d3 31 bf
       0.053848676 -0.31928492 0.097536944 -0.6946351
0000d0 31 58 d6 be 3f 81 e6 be 64 25 6d be 30 2a 9d 3a
       -0.4186416 -0.45020482 -0.23158795 0.0011990722
0000e0 1f 02 1a bf 9d 5d c5 3f 6c cb 9e 3f 24 a8 f9 3d
       -0.60159487 1.5419194 1.240583 0.121902734
0000f0 f5 29 9c 3d d5 5b 9c 3e b8 05 0c be 61 48 b1 be
       0.0762519 0.30538812 -0.13674057 -0.34625533

fc3.weight f4 [4, 64]
000000 52 d8 9c be d0 81 bb be 9d 22 23 bf 77 ca 35 bf
       -0.3063379 -0.36622477 -0.6372469 -0.7101206
000010 64 72 f6 3f 77 3d d5 bf e7 77 98 bf e1 cf 2d bf
       1.9253659 -1.6659383 -1.1911591 -0.67895323
000020 f6 91 a5 bf 20 68 02 bf a4 14 29 bf 84 50 d7 be
       -1.2935169 -0.5094013 -0.6604712 -0.42053616
000030 36 9d 1b bf 47 c5 0a bf 57 99 01 bf 80 f0 46 bf
       -0.6078676 -0.5420727 -0.50624603 -0.77710724
000040 c9 6c e8 be c5 76 35 bf d2 0e 0c bf 9a cb c3 be
       -0.45395496 -0.7088435 -0.54710114 -0.38241273
000050 d4 8f da be c6 34 11 bf 5c 7b 36 bf 0b c2 bc be
       -0.42687857 -0.5672115 -0.7128198 -0.36866793
000060 57 b1 bc be 0b 87 42 bf e6 e6 e3 be 70 8b 93 bd
       -0.3685405 -0.7598731 -0.445121 -0.0720433
000070 20 ab 59 3c 52 fa 86 be c9 88 4f be c6 37 d5 40
       0.013285428 -0.26362854 -0.20267023 6.6630583
000080 75 b1 22 bf d1 19 10 bf 05 e2 8f bf d5 cf 68 3f
       -0.6355203 -0.5628939 -1.1240851 0.90942127
000090 eb 0a 94 bf 7a 8a 2a bf c1 0a d3 3e 4d 3a c5 bf
       -1.1565832 -0.6661755 0.41219142 -1.5408417
0000a0 f5 e9 74 be fd fc 0c bf 07 93 ef be 62 30 8a bf
       -0.23917373 -0.5507353 -0.4679186 -1.0796015
0000b0 1c 17 0b bf c5 fb 1c 40 85 c5 b9 bf a2 21 23 bf
       -0.5433214 2.4528668 -1.4513403 -0.63723195
0000c0 0a f0 47 bf e7 c9 d6 be 62 ac 87 be e1 d7 25 bf
       -0.78100646 -0.41950914 -0.26498705 -0.6478253
0000d0 34 df 47 bf 69 b4 a7 bf 31 3b 78 3f a0 d6 31 bf
       -0.78074956 -1.3101932 0.9696532 -0.69468117
0000e0 b3 a8 25 3f de a7 18 40 d6 81 f4 3f 38 e2 50 3f
       0.6471054 2.3852458 1.9102123 0.8159518
0000f0 6f 6e 37 40 d7 0e f9 bd c4 ee 5d 3d 77 a1 3e bf
       2.8661153 -0.121610336 0.054182783 -0.74465126
000100 d7 75 38 be 4c 75 23 bf 72 52 46 bf 11 d9 9c be
       -0.18013702 -0.63850856 -0.7746955 -0.3063436
000110 88 78 de 3f 46 03 61 be 4f 0a 58 3e 52 77 e0 be
       1.7380533 -0.21973905 0.21097682 -0.43841034
000120 15 5d 2a bf 90 c5 18 bf 6c 2f 34 bf 80 bd 5f bf
       -0.6654828 -0.59676456 -0.7038486 -0.8739853
000130 97 50 23 bf 06 4f 27 bf ce 6f 21 bf 7b fe 0f bf
       -0.63794845 -0.65354955 -0.63061225 -0.5624768
000140 d2 a6 1c bf 07 2c e8 be 0b 2f 08 bf 91 8c 7c bf
       -0.6119205 -0.4534609 -0.5319678 -0.9865199
000150 69 7a 35 bf b2 62 11 bf 8b a6 f6 be 89 d0 59 bf
       -0.7088991 -0.5679122 -0.48173937 -0.85083824
000160 af 93 22 bf b4 39 bd bf 30 a9 f4 3e 77 bb 4b 3d
       -0.635066 -1.4783235 0.4778533 0.049739327
000170 7b 10 33 3d c1 80 2a 3d 1c ad 3c bf e1 07 ce 40
       0.04371689 0.041626696 -0.73701644 6.438462
000180 be 7d ec be bb cc 02 bf 22 02 be bf 2d 8e cd be
       -0.46189684 -0.51093644 -1.4844401 -0.40147534
000190 12 35 88 3e b8 a8 69 be 07 bc 96 bf d6 8c dc be
       0.2660299 -0.22818267 -1.1776131 -0.430762
0001a0 05 1d 20 bf 71 cb 80 bf c1 bb 20 bf 94 c8 08 bf
       -0.6254428 -1.0062085 -0.6278649 -0.5343106
0001b0 e2 5f 21 bf 02 f4 4b 40 cb 1d fc be 3a 6c 54 bf
       -0.6303693 3.186768 -0.4924148 -0.8297764
0001c0 de 43 cb be 77 31 06 bf 6c f2 53 bf 5d d8 80 bf
       -0.39700216 -0.5241923 -0.8279178 -1.0066029
0001d0 30 9f 2e bf b0 27 14 bf 04 ec ce 3f ee ed 57 bf
       -0.6821165 -0.5787306 1.6165776 -0.84347427
0001e0 d3 1d da be 2e 59 1b 40 c7 8a 35 3f 73 30 f1 3f
       -0.4260088 2.427318 0.7091488 1.884291
0001f0 4f b1 05 40 89 44 2a bf 1c 2d b0 3d f3 0a 43 bf
       2.088947 -0.66510826 0.08602354 -0.7618858
000200 18 8f 23 bf 27 40 2e be f9 60 3a bf ba 6f 7e bf
       -0.6389022 -0.1701666 -0.7280422 -0.9938923
000210 99 9e 3a 40 52 cf 2d c0 1e 54 fc 3f 9a 26 f2 be
       2.91593 -2.7157788 1.971317 -0.47295076
000220 80 ce 9d bf 41 57 8a be a6 c6 c5 be a8 ea cf be
       -1.2328644 -0.27019694 -0.3862812 -0.40608716
000230 9d 21 fc be 1a 4c d9 be fc 69 34 bf 10 7b a7 be
       -0.49244395 -0.42440873 -0.7047422 -0.32711077
000240 3b 39 da be e8 87 0f bf 24 98 75 be a6 7f 85 be
       -0.42621788 -0.5606675 -0.23983818 -0.2607395
000250 1c 08 9b be d5 fe b3 be f6 e0 85 be 77 f7 86 be
       -0.30279624 -0.3515536 -0.26148194 -0.26360676
000260 dd fd e6 be af 6c 48 3e e1 33 d4 3f 17 77 90 3d
       -0.45115557 0.1957271 1.6578332 0.070539646
000270 08 9c c0 bd d6 c5 ca bf 0f 52 b5 be 8f 91 95 40
       -0.094047606 -1.5841625 -0.35414168 4.6740184
000280 76 2f 06 bf d8 9c 12 bf 10 c6 5d bf 3c 10 27 bf
       -0.5241617 -0.57270575 -0.86630344 -0.65259147
000290 f6 76 3e bf 81 91 cc be 0a 09 05 be a1 74 02 bf
       -0.7440027 -0.3995476 -0.1299173 -0.5095921
0002a0 ec a1 37 3e 18 40 2d bf a1 31 20 bd 4a d3 7f bf
       0.17932862 -0.67675924 -0.03910983 -0.99931777
0002b0 c2 df 62 be 81 8c 88 3f 9f f8 6f be e7 97 bb be
       -0.2215567 1.0667878 -0.23434685 -0.3663933
0002c0 ba 99 0b bf e0 eb 0a be d7 91 f5 be d6 eb 92 bf
       -0.54531443 -0.13566542 -0.4796283 -1.1478221
0002d0 40 b2 94 bf e7 44 f1 3e 2e c1 88 bf 76 81 99 be
       -1.1616898 0.4712288 -1.0683954 -0.29981583
0002e0 5f 96 d8 bf 2d 20 10 40 26 14 ff 3f a2 13 24 40
       -1.692089 2.2519639 1.9928024 2.5636983
0002f0 2f 66 c0 3f a5 ab c3 bd 38 16 48 3d 61 3a 93 be
       1.5031184 -0.09554223 0.048849314 -0.28755477
000300 fc 32 fb bf e4 fe 02 bf 1e 83 11 bf 81 b9 38 bf
       -1.9624934 -0.5117018 -0.56840694 -0.72158056
000310 82 eb dc 3f 3b 96 96 bf 1f bb 3a 3f a2 8a e0 be
       1.7259371 -1.1764597 0.72941774 -0.43855768
000320 64 5c 8d 3e 9b e1 0e bf 04 b9 20 bf d3 20 3b bf
       0.2760955 -0.55812997 -0.6278231 -0.7309696
000330 51 36 f0 be c7 39 f5 be d7 0f e5 be 5c ba 10 bf
       -0.4691644 -0.47895643 -0.44738647 -0.5653436
000340 a6 a3 cb be e0 e3 25 bf b1 dc f3 be e4 0b 3d bf
       -0.3977329 -0.64800835 -0.47629312 -0.7384627
000350 3a 00 ef be c0 40 c2 be cd fb 1d bf 79 eb 0a bf
       -0.4667986 -0.37940025 -0.6171234 -0.5426555
000360 58 d3 00 bf dc d1 33 bf 3a 8c 01 c0 56 c1 d1 3d
       -0.50322485 -0.70242095 -2.0241838 0.10241954
000370 5a b7 85 bd 62 ec f9 3d 7d 2b 05 be 2b 59 e3 40
       -0.06529112 0.122032896 -0.1300487 7.104635
000380 d7 14 e5 be d7 47 19 bf da 1e 89 bf 83 19 79 3d
       -0.44742462 -0.59875244 -1.071254 0.060815345
000390 23 9b 52 bf 15 37 c7 be c1 52 ba bf e4 e1 46 bf
       -0.8226797 -0.38909212 -1.4556504 -0.7768843
0003a0 60 e8 2c bf 2d 97 63 bd 70 07 f1 be 9b bf f9 be
       -0.67542076 -0.055564094 -0.47075987 -0.48778996
0003b0 3a 41 e5 be 54 ec 1d 40 05 e1 80 be c2 1c 13 bf
       -0.44776326 2.4675493 -0.25171676 -0.57465756
0003c0 b9 47 02 bf 62 2f e3 be 96 ea d4 be e7 8d 3a bf
       -0.5089069 -0.44372088 -0.41585225 -0.72872776
0003d0 53 72 1b bf ce ab 60 bf c8 56 13 3f c9 59 32 bf
       -0.6072132 -0.87762153 0.5755429 -0.6966825
0003e0 fc e7 92 bf bf 84 ed 3f 77 9d 03 40 b9 c3 7e 3f
       -1.1477046 1.8556136 2.056486 0.995174
0003f0 a9 d4 38 40 03 2a fe be 17 1c fc 3c 0c f5 be be
       2.8879797 -0.49641427 0.030775113 -0.3729633

fc3.bias f4 [4]
000000 c0 65 87 be 5d cf 34 bf 8c 38 76 3f 56 a6 4d 3e
       -0.26444817 -0.7062891 0.96180034 0.20082983
