weights/g1_lr0.0001_decay_0.999.pth (torch_old, 11713 bytes, 6 tensors)

fc1.weight f4 [32, 8]
0	0xbd8d8ac7	-0.06911235
1	0xbf9025c5	-1.1261526
2	0xbd7d8553	-0.061894726
3	0xbf7fdd13	-0.9994671
4	0x3e51c725	0.20486124
5	0x3e73fdf4	0.23827344
6	0x3e250eaa	0.16118875
7	0x3ef944ea	0.4868539
8	0x3d83ba64	0.064320356
9	0xbdfc5102	-0.123201385
10	0xbdcdfbe4	-0.1005781
11	0xbd423d68	-0.047421843
12	0xbefbefb7	-0.49206325
13	0xbfa351d9	-1.2759353
14	0xbedd516c	-0.43226182
15	0x3e43db5d	0.19126649
16	0xbf2318ef	-0.6370992
17	0x3d38a13a	0.045075633
18	0xbea60c17	-0.324311
19	0xbe440593	-0.19142751
20	0x3f1adb46	0.60490835
21	0x3f99082a	1.1955616
22	0xbf8e951c	-1.1139255
23	0x3e802f6c	0.2503618
24	0x3c60db50	0.013724163
25	0xbf933b4f	-1.1502475
26	0x3e1de11e	0.15417907
27	0xbf71bd06	-0.9442905
28	0xbec3a3ff	-0.38211057
29	0xbf09f43e	-0.5388831
30	0xbda1443a	-0.07874341
31	0x3f0f542b	0.55987805
32	0x3d05dcaa	0.032681145
33	0xbf8821a0	-1.0635262
34	0x3e11b76d	0.14230128
35	0xbf826fdc	-1.0190387
36	0x3e415073	0.18878345
37	0x3ecaab75	0.39583936
38	0x3ebd0c34	0.36923373
39	0x3e8b4e9a	0.27208406
40	0x3e84fa73	0.25972328
41	0xbf640ac4	-0.8907893
42	0x3ea0071e	0.3125543
43	0xbf29bbcd	-0.66302186
44	0xbed4907c	-0.41516483
45	0xbf2cb113	-0.67457694
46	0x3e8be5fd	0.27323905
47	0x3f0573cb	0.5212981
48	0x3e153d63	0.14574198
49	0xbde52b89	-0.11189944
50	0xbfa85cb1	-1.3153287
51	0x400f1812	2.2358441
52	0xbeb5135d	-0.35366336
53	0x3e4e3ee9	0.20141186
54	0x3f3bbafb	0.73332185
55	0xbe9a74ed	-0.30167332
56	0xbcc7cc16	-0.024389308
57	0xbfab7c4f	-1.3397311
58	0xbef4538d	-0.47719994
59	0xbf2c1abc	-0.67228293
60	0x3f303667	0.6883301
61	0x3dfe43ae	0.124152526
62	0x3db181f1	0.086673625
63	0x3e6d598e	0.23178694
64	0x3e73f990	0.2382567
65	0xbc5e52d1	-0.01356955
66	0x3e8b62cc	0.27223814
67	0x3eb8b709	0.36077145
68	0x3f0bea4e	0.54654396
69	0x3fa47d47	1.2850732
70	0xbf5c44ca	-0.86042464
71	0xbf734898	-0.95032644
72	0xbddebd75	-0.1087598
73	0xbde03744	-0.10948041
74	0x3e9c1053	0.30481204
75	0x400b6b09	2.178408
76	0xbf488e0b	-0.7834174
77	0xbe784a6d	-0.24247141
78	0xbe20a65e	-0.15688464
79	0xbf9f39b8	-1.2439489
80	0xbf332c79	-0.69989735
81	0x3f07ad50	0.5299883
82	0x3ee61ac1	0.44942287
83	0xbf57db63	-0.8431913
84	0xbf65ea0d	-0.8981026
85	0x3f724360	0.94634056
86	0xbf0f3ee4	-0.5595534
87	0x3d683479	0.056690667
88	0x3d859cb2	0.06524028
89	0xbd7beae9	-0.061503325
90	0x3f09a513	0.5376751
91	0x3ea9bbd1	0.33151105
92	0x3fffdb4f	1.9988803
93	0xbeb45f81	-0.35229114
94	0x3daa6f91	0.08322061
95	0xbcc9649a	-0.024584103
96	0xbd8a3626	-0.06748609
97	0xbec558bc	-0.3854426
98	0xbe5160d4	-0.20447093
99	0xbf5798db	-0.84217614
100	0x3faae485	1.3350989
101	0x3ef9f2fb	0.48818192
102	0xbf18f3eb	-0.5974719
103	0xbe9945d8	-0.299361
104	0xbeb9cf07	-0.36290762
105	0xbf885168	-1.0649843
106	0xbf6ba07c	-0.92041755
107	0xbe4b8876	-0.19876274
108	0x3f7a08da	0.97669756
109	0x3e84a938	0.25910354
110	0xbe283825	-0.16427667
111	0x3e621b05	0.2208062
112	0xbe61c484	-0.22047621
113	0xbec06b00	-0.37581635
114	0x3f2c7e97	0.6738066
115	0xbf3df852	-0.7420703
116	0xbf9f92da	-1.246669
117	0xbdd47cba	-0.10375352
118	0x3e4e93d0	0.20173573
119	0x3f1ce661	0.6128903
120	0x3ee8e876	0.45489854
121	0xbde29177	-0.110629015
122	0x3e18827a	0.14893523
123	0x3ee4b6dd	0.44670764
124	0xbed7bcaa	-0.42136127
125	0xbf84205c	-1.0322375
126	0xbecf89cd	-0.4053482
127	0x3db1a4ea	0.08674033
128	0x3e549fea	0.20764127
129	0xbfb795ab	-1.434255
130	0x3f2bb227	0.67068714
131	0xbef2fbb5	-0.47457662
132	0xbf238e71	-0.63889223
133	0xbe681f28	-0.22668135
134	0x3ce71238	0.02820693
135	0x3d76392f	0.06011313
136	0xbe71f105	-0.23627098
137	0x3e763a2e	0.24045631
138	0xbd530429	-0.05151764
139	0x3f2a5d1e	0.66548336
140	0x3fa9e0e0	1.3271751
141	0x3f14c454	0.5811207
142	0x3ec8a9d9	0.39192083
143	0xbec8d05e	-0.39221472
144	0xbf0178c6	-0.5057491
145	0x3d6e3612	0.058157034
146	0xbe20c647	-0.15700637
147	0xbdcd72c8	-0.100316584
148	0xbf31794d	-0.69325715
149	0xbf7f5dda	-0.9975258
150	0xbf671350	-0.90263844
151	0xbecd628f	-0.40114257
152	0xbf6c5942	-0.92323697
153	0xbfe7a555	-1.809733
154	0x3dfeb782	0.12437345
155	0xbf66b1bf	-0.9011497
156	0x3f2278d6	0.6346563
157	0xbf9871f4	-1.1909776
158	0x3f272d2c	0.653033
159	0x3e11affb	0.14227287
160	0xbe83eb24	-0.25765336
161	0xc003cb29	-2.059275
162	0xbca1d384	-0.019754179
163	0xbf429768	-0.7601228
164	0xbd827fe0	-0.063720465
165	0xbcf842f5	-0.030305365
166	0x3d848b45	0.06471876
167	0xbd59564f	-0.053060826
168	0x3e3e2974	0.185705
169	0xbf550e2a	-0.8322474
170	0x3ecf8036	0.40527505
171	0xbf292c5c	-0.6608331
172	0x3f367bb3	0.712825
173	0x3ef5e0c4	0.48023045
174	0xbed7019b	-0.41993412
175	0x3eda387b	0.42621216
176	0x3d76941b	0.060199838
177	0xbfa5d254	-1.2954812
178	0x3ed1dad8	0.40987277
179	0xbf53423c	-0.8252294
180	0xbe5322b8	-0.20618713
181	0xbed49762	-0.41521746
182	0x3f0b1933	0.54335326
183	0x3e3de9f7	0.18546282
184	0x3f54edf3	0.8317558
185	0xbf6a6df8	-0.9157405
186	0x3f0d3584	0.55159783
187	0xbf072489	-0.52790123
188	0x3dacf519	0.08445186
189	0x3ee931e9	0.4554589
190	0x3ec4d52d	0.3844389
191	0x3ebff0ba	0.37488347
192	0xbd0cd76e	-0.034385137
193	0xc0128192	-2.2891583
194	0xbd9291e7	-0.07156735
195	0xbf737bdd	-0.95110875
196	0xbdf141aa	-0.117801026
197	0x3d618f64	0.05506839
198	0xbe9138b7	-0.28363582
199	0xbc1175cc	-0.008878183
200	0xbe0abc31	-0.13548352
201	0xbfa4d7f3	-1.2878402
202	0xbcf50b77	-0.029912693
203	0xbf961d01	-1.1727601
204	0x3c2f1ebb	0.010688479
205	0xbccd7d5c	-0.02508419
206	0xbdc932c2	-0.098241344
207	0x3ed4ac7f	0.41537854
208	0x3e41c9a9	0.18924583
209	0xbf216576	-0.6304544
210	0x3e3ab6ea	0.18233839
211	0xbf24e1a3	-0.64406794
212	0x3f166a51	0.58755976
213	0x3e2ba388	0.16761601
214	0x3ea830b7	0.32849666
215	0xbeb37242	-0.3504811
216	0x3e309640	0.17244816
217	0xbf67dbaa	-0.90569556
218	0x3f29566a	0.6614748
219	0xbf48c80d	-0.78430253
220	0x3db2a4ee	0.08722864
221	0x3ee316a8	0.44353223
222	0x3e7808d6	0.2422212
223	0x3e5e9736	0.2173737
224	0xbf39ad3f	-0.7252998
225	0xbea177d0	-0.31536722
226	0xbee10b62	-0.43953997
227	0xbe9f0576	-0.31058854
228	0x3dd742d0	0.1051079
229	0xbf58cfa6	-0.84691846
230	0xbe314c6c	-0.17314309
231	0x3f02f4ed	0.5115498
232	0x3e8a58b4	0.270208
233	0x3e3245c6	0.17409429
234	0x3f8f71ec	1.1206641
235	0xbe1d72e4	-0.15375859
236	0x3ced011b	0.028931191
237	0xbe7b615c	-0.24548858
238	0xbee92f57	-0.4554393
239	0x3eaf5772	0.34246403
240	0xbf104d1d	-0.56367666
241	0xbd1c9a12	-0.03823287
242	0xbe5f9906	-0.21835718
243	0xbe19c9bf	-0.15018366
244	0x3e453574	0.19258672
245	0xbf7795bf	-0.9671287
246	0x3e8f5c32	0.28000027
247	0xbf09f57a	-0.5389019
248	0x3e17dd9b	0.1483063
249	0x3c321fb3	0.0108718155
250	0xbece2ad4	-0.4026705
251	0xbf2a5246	-0.6653179
252	0x40170658	2.3597622
253	0x3dd30b72	0.103049174
254	0xbe3d7a07	-0.18503581
255	0x3eb7efa9	0.35925034

fc1.bias f4 [32]
0	0xbc98ede5	-0.018668124
1	0x3eb768b0	0.35822058
2	0xbeeed356	-0.46645612
3	0xbe23a90d	-0.15982457
4	0x3c8bd6a2	0.017070118
5	0x3d515b8a	0.05111269
6	0x3eb789b6	0.35847253
7	0xbdccfb46	-0.10008864
8	0x3e313272	0.173044
9	0x3e04a112	0.12952068
10	0x3e824f5a	0.25451165
11	0x3dbf1ed2	0.093320504
12	0x3ede29a8	0.43391156
13	0xbdc9ffa2	-0.09863211
14	0x3ef690be	0.48157305
15	0xbde56dce	-0.11202584
16	0xbda6a57d	-0.08137033
17	0x3ee60fd4	0.4493395
18	0x3ea91619	0.33024672
19	0xbeb2defe	-0.34935755
20	0x3edc9831	0.43084863
21	0xbd5fa9d6	-0.054605328
22	0xbc7a0609	-0.015260228
23	0x3ed4e3f7	0.41580173
24	0x3cb8b1bd	0.02254569
25	0xbde48a00	-0.11159134
26	0xbe90a145	-0.2824804
27	0x3e619028	0.22027647
28	0x3c75c931	0.015001581
29	0x3fb61f2c	1.4228263
30	0x3e9ac449	0.3022788
31	0x3ced7c0f	0.02898982

fc2.weight f4 [64, 32]
0	0xbea39e6d	-0.31956807
1	0x3d040adf	0.03223693
2	0xbf8aabb5	-1.0833651
3	0xbf87e9b0	-1.0618191
4	0xbe87b7e6	-0.2650749
5	0xbf7d3d89	-0.9892202
6	0x3f089fb9	0.5336872
7	0xbec7560c	-0.38932836
8	0xbf8a2d6e	-1.0795114
9	0x3f9d51f7	1.2290639
10	0x3fb9f654	1.4528298
11	0x3fdc6c76	1.72206
12	0x3e96e7d4	0.29473746
13	0xbdc96167	-0.09833031
14	0x3f2ef972	0.68349373
15	0xbf053aab	-0.52042645
16	0xbfa9116a	-1.3208439
17	0xc00182ab	-2.0236003
18	0xbd89bf8f	-0.0672599
19	0xbf5572f1	-0.8337851
20	0x3e8f4a4f	0.2798638
21	0xbdb747b9	-0.08949227
22	0xbfa876b8	-1.316123
23	0xbe9de296	-0.30836934
24	0xbe668074	-0.22509938
25	0xbef3bd02	-0.4760514
26	0xbf646b53	-0.89226264
27	0x3e8c23bd	0.27371016
28	0xbf05374f	-0.5203752
29	0x3e978434	0.2959305
30	0xbf491fcd	-0.7856415
31	0x3f744282	0.9541398
32	0x3eb555a6	0.35416907
33	0x3f04debc	0.51902366
34	0x3f02ba9c	0.51065993
35	0x3eeda5a2	0.4641543
36	0x3eff5207	0.4986727
37	0x3f0f9df2	0.5610038
38	0xbf10c9c5	-0.56557876
39	0x3ec39355	0.38198343
40	0x3f3aa334	0.7290528
41	0xbcca87ea	-0.024723012
42	0xbeea59cb	-0.45771632
43	0xbf201d0c	-0.6254432
44	0x3ed1c4c1	0.40970424
45	0x3f0f5ecd	0.5600403
46	0xbde5e948	-0.112261355
47	0x3f25c507	0.64753765
48	0x3f3eb6f4	0.74497914
49	0x3f2d9eb9	0.67820317
50	0x3f58bba1	0.846613
51	0xbec5d37e	-0.38637918
52	0xbe59acb2	-0.21257284
53	0x3ed481a9	0.41505173
54	0x3f0c189a	0.5472504
55	0x3f2c32f9	0.6726528
56	0xbdc8af3f	-0.097990505
57	0x3ec93fff	0.39306638
58	0x3ec80fc5	0.3907453
59	0x3eff2c8a	0.49838668
60	0x3ef2608a	0.47339278
61	0x3ee0d3a1	0.4391146
62	0x3ed135fc	0.408615
63	0x3e58abcc	0.21159285
64	0x3ea3b877	0.31976673
65	0x3f130668	0.5743165
66	0x3f28330c	0.6570289
67	0x3ee7ddbc	0.45286357
68	0x3ea0ddfd	0.31419364
69	0x3ee96381	0.45583728
70	0xbeb44bd2	-0.35214096
71	0x3ebe0bfa	0.37118512
72	0x3eecba49	0.46235874
73	0x3d4ac2b2	0.049502082
74	0xbec3c0ca	-0.38233024
75	0xbe2d117e	-0.16901204
76	0x3e7b6838	0.24551475
77	0x3f13e46e	0.5777043
78	0x3dea82fb	0.11450764
79	0x3ed319bb	0.41230568
80	0x3eddd6b8	0.4332788
81	0x3f0824ce	0.5318116
82	0x3f05a83a	0.5220982
83	0xbee59efa	-0.44847852
84	0xbe6c8b19	-0.23099937
85	0x3eca3afe	0.39498132
86	0x3dbe5295	0.09293095
87	0x3ed5fc64	0.4179412
88	0x3e753d4a	0.23949161
89	0x3ed48a79	0.41511896
90	0x3e6c05a9	0.23049034
91	0x3f062022	0.5239278
92	0x3f408bcf	0.7521333
93	0x3eaca1b1	0.3371711
94	0x3eeaf6cb	0.45891413
95	0x3e371e3f	0.17882632
96	0x3e7dfcd2	0.24803475
97	0x3f0e87ec	0.5567615
98	0x3f1d1074	0.6135323
99	0x3ee66a85	0.45003143
100	0x3e449620	0.19197893
101	0x3eb1daff	0.34737393
102	0xbeb9532b	-0.36196265
103	0x3e2a6803	0.1664124
104	0x3f244381	0.641655
105	0x3d972e70	0.07381904
106	0xbeab7f6e	-0.3349566
107	0xbeb845c0	-0.35990715
108	0x3ecec32a	0.40383273
109	0x3e98f404	0.2987367
110	0xbcdfd983	-0.027325397
111	0x3f1ec185	0.6201404
112	0x3f23b524	0.63948274
113	0x3f34e30b	0.7065894
114	0x3f08a978	0.5338359
115	0xbf0cbca0	-0.5497532
116	0xbe77c0cf	-0.24194644
117	0x3e289f99	0.16467132
118	0x3ede41c5	0.43409553
119	0x3f2f52b0	0.68485546
120	0xbe4dfa7b	-0.20115082
121	0x3e475a59	0.19468059
122	0x3eb145f6	0.34623688
123	0x3e90fa83	0.28316125
124	0x3f0cf1b2	0.550563
125	0x3eb4dc7e	0.35324472
126	0x3e8ee336	0.27907723
127	0xbcf82b19	-0.030293988
128	0xbe7abb3f	-0.24485491
129	0xbf7fbc76	-0.99896944
130	0x3d1d76b4	0.038443282
131	0xbf8b304f	-1.0874118
132	0xbe89b491	-0.26895574
133	0xbf98d4bf	-1.1939925
134	0x3fafa9a3	1.3723644
135	0x3b903030	0.0044002756
136	0x3dddd810	0.10832226
137	0x3fb6e9fb	1.4290155
138	0x3e9d9f3e	0.30785555
139	0xbd2ef77c	-0.04271649
140	0x3da96a0e	0.082721815
141	0x3d7d4f0c	0.061842963
142	0xbe357653	-0.17720918
143	0xbfed0469	-1.8516971
144	0xbf80bb8d	-1.0057236
145	0x3ea4c0f0	0.3217845
146	0xbf7b12c5	-0.98075515
147	0xbe486876	-0.19571099
148	0xbf040a65	-0.5157836
149	0xbe1613d3	-0.14656
150	0xbf285d7e	-0.6576766
151	0x3e6d8bbf	0.2319784
152	0xbf81174d	-1.0085236
153	0xbef812b4	-0.4845177
154	0xbdb1e29e	-0.08685802
155	0xba4a9c8e	-0.0007729017
156	0xbf2b2bc4	-0.66863656
157	0x3f325002	0.6965333
158	0xbffb830f	-1.9649371
159	0x3d92356d	0.071390964
160	0xbd9d1c98	-0.076714694
161	0xbed1de9f	-0.4099016
162	0xbe5abe4f	-0.2136166
163	0xbf4fe6b2	-0.8121139
164	0x3e3e7375	0.18598731
165	0xbf1a09b3	-0.6017105
166	0x3f46d55c	0.7766931
167	0x3e50ad1d	0.20378537
168	0xbdfa15a4	-0.12211159
169	0x3fc04d95	1.5023676
170	0x3e7158e7	0.2356907
171	0x3e8fbe60	0.28074932
172	0xbe012f6a	-0.12615743
173	0xbe00e6b9	-0.12588014
174	0x3f228692	0.6348659
175	0xbf8369c4	-1.0266652
176	0xbf23581d	-0.63806325
177	0x3e0fed4c	0.14055365
178	0x3ec732e4	0.38906014
179	0xbf9738ea	-1.1814244
180	0xbe82dc41	-0.25558665
181	0x3dafae03	0.08578112
182	0xbeecf529	-0.46280792
183	0x3e0c8d0a	0.13725677
184	0xbe4220b8	-0.18957794
185	0xbe834dfb	-0.25645432
186	0x3f43e5a3	0.7652227
187	0x3d766857	0.0601581
188	0xbf8735cd	-1.0563294
189	0x3f11f304	0.5701144
190	0xbe19897a	-0.1499385
191	0x3e534821	0.20632984
192	0x3e9388db	0.2881535
193	0x3e206764	0.1566444
194	0x3ec3db75	0.3825337
195	0x3e6f001d	0.23339887
196	0x3e9102f7	0.28322574
197	0x3eb9ad0f	0.36264846
198	0xbfcb7f7f	-1.5898284
199	0x3ee30f2f	0.44347522
200	0x3eff56d1	0.49870923
201	0x3fac59e3	1.3464931
202	0xbf20acb8	-0.6276355
203	0x3da4afa5	0.08041314
204	0x3ea9e2fb	0.33180985
205	0x3e87bbee	0.26510566
206	0x3eb3457d	0.35013953
207	0x3e7625fb	0.24037926
208	0x3e23ccfa	0.15996161
209	0x3db5645a	0.08857031
210	0x3ee9c6f6	0.45659608
211	0xbe19efd4	-0.15032893
212	0xbe5b4fcd	-0.2141716
213	0x3f14f363	0.5818388
214	0x3e8d1c94	0.27560866
215	0x3f2a627d	0.6655653
216	0x3e3edf0f	0.18639778
217	0x3e480988	0.19534886
218	0x3be623b0	0.0070232973
219	0x3eea9fe7	0.4582512
220	0x3de27a59	0.11058492
221	0x3dcce5fc	0.100048035
222	0xbe647020	-0.22308397
223	0x3e9f1b7a	0.3107565
224	0x3e8478fe	0.2587356
225	0x3ee5ebca	0.44906455
226	0x3f276193	0.6538326
227	0x3ef1c97f	0.47224042
228	0x3e6428e9	0.22281231
229	0x3eab80a7	0.3349659
230	0xbec1eb25	-0.37874714
231	0x3e96a550	0.29422998
232	0x3f3e2de8	0.742888
233	0x3db663ce	0.08905755
234	0xbe418299	-0.18897475
235	0xbf05232f	-0.5200681
236	0x3e573b84	0.21018797
237	0x3ea91876	0.33026475
238	0x3e7f3f3b	0.24926464
239	0x3f1de0ae	0.6167096
240	0x3f1903ad	0.59771234
241	0x3f11d914	0.5697186
242	0x3f834136	1.0254276
243	0xbf19e23d	-0.6011084
244	0xbe9f31ee	-0.3109278
245	0x3e7caea6	0.24675998
246	0x3da894f5	0.08231536
247	0x3f0fa3ca	0.561093
248	0xbca044de	-0.019564088
249	0x3d95b66b	0.07310184
250	0x3ec1e6b9	0.3787134
251	0x3eca78ed	0.39545384
252	0x3ec91c62	0.39279467
253	0x3ed3d8c5	0.4137632
254	0x3ea43430	0.32071066
255	0x3d5d56ee	0.05403798

fc2.bias f4 [64]
0	0x3f74106a	0.95337546
1	0x3f1c7bfa	0.61126673
2	0x3f1d7119	0.615007
3	0x3eb2050c	0.34769475
4	0x3f172c2f	0.59051794
5	0x3ec28cbc	0.37997997
6	0xbdffe1c3	-0.124942325
7	0x3f1e6996	0.6187986
8	0x3f31618b	0.69289464
9	0x3f140366	0.57817686
10	0x3f87346b	1.0562872
11	0x3e204e91	0.1565497
12	0x3ec721d1	0.38892987
13	0x3eb22c4f	0.3479943
14	0xbf239b81	-0.63909155
15	0x3eea9676	0.45817918
16	0x3eff8e40	0.49913216
17	0x3f1b3d1d	0.60640126
18	0x3f17fc72	0.59369576
19	0x3f0fc576	0.56160676
20	0x3ef89806	0.48553485
21	0x3f0ea2f2	0.55717385
22	0x3f2123bb	0.62945145
23	0x3ed07abd	0.40718642
24	0x3e903131	0.2816253
25	0xbd025155	-0.031815846
26	0x3f907d3c	1.1288218
27	0x3ce9c824	0.028537817
28	0xbf121a1b	-0.57071084
29	0x3f12cb21	0.573412
30	0x3ed920aa	0.42407733
31	0x3eb475ee	0.35246223
32	0x3edef736	0.43547982
33	0xbe825871	-0.254581
34	0xbf3fbddc	-0.7489908
35	0x3f0f0a2c	0.55874896
36	0x3ee6effe	0.45104975
37	0x3ecc21c9	0.39869526
38	0x3ef05654	0.46940863
39	0x3ca4e5b2	0.020129059
40	0x3efc5652	0.49284607
41	0x3ede1a8d	0.43379632
42	0x3edd625c	0.43239105
43	0x3f67143f	0.9026527
44	0x3f56158f	0.83626646
45	0x3f8214c6	1.016259
46	0x3f2bfb94	0.6718075
47	0x3f08874f	0.53331465
48	0x3f012595	0.5044797
49	0x3f1e85f4	0.61923146
50	0x3f2cdfa5	0.67528754
51	0x3de49952	0.11162056
52	0x3f085c9f	0.5326633
53	0x3f4f4637	0.80966514
54	0x3f03ad0b	0.5143592
55	0x3f3e6600	0.7437439
56	0xbe53f5e5	-0.2069927
57	0x3f246fa4	0.6423285
58	0x3f69eda5	0.9137824
59	0xbe791c8c	-0.24327296
60	0x3e505383	0.20344357
61	0x3f2f6b92	0.68523514
62	0xbe2789d8	-0.16361177
63	0x3db6cf87	0.089263014

fc3.weight f4 [4, 64]
0	0x404e5fa9	3.2245886
1	0xbeaaeda1	-0.3338442
2	0xbec50d2b	-0.3848661
3	0xbebad95a	-0.3649395
4	0xbe0aa91e	-0.13541076
5	0xbe2a3dd6	-0.16625151
6	0xbec8285f	-0.390933
7	0xbef4cbc5	-0.47811714
8	0xbf10848e	-0.5645226
9	0xbe927b91	-0.286099
10	0xc004148d	-2.0637543
11	0xbe0089f0	-0.12552619
12	0xbec1ad3b	-0.37827477
13	0xbebf859b	-0.3740662
14	0x3e41032d	0.18848868
15	0xbed78a7d	-0.42097846
16	0xbed19151	-0.4093118
17	0xbefb919b	-0.49134526
18	0xbec10736	-0.37700814
19	0xbeab0478	-0.33401847
20	0xbe9800ac	-0.29688013
21	0xbef97582	-0.48722464
22	0xbee05e2f	-0.43821856
23	0xbdac46be	-0.084119305
24	0xbe971498	-0.295079
25	0xbb94df13	-0.004543194
26	0x3eb9458c	0.36185873
27	0xbf2f8141	-0.685566
28	0xbf0395ca	-0.51400435
29	0xbf9e2eaf	-1.2357997
30	0xbeb66291	-0.35622075
31	0xbe88896e	-0.2666735
32	0xbeb0b680	-0.34514236
33	0xbdec9f42	-0.115538135
34	0xbe952bed	-0.29135075
35	0x3f8f7368	1.1207094
36	0x3ff4e4f5	1.9132372
37	0x3fdbeb8e	1.718126
38	0xbebf478c	-0.37359273
39	0xbe734d82	-0.23760036
40	0x40621e96	3.5331168
41	0xbeee9d69	-0.4660447
42	0xbe4467c7	-0.19180213
43	0xbeb3427b	-0.35011658
44	0xbee216f5	-0.4415814
45	0x406ec616	3.7308402
46	0xbed2be62	-0.41160876
47	0xbea46e17	-0.32115242
48	0xbee2e026	-0.44311637
49	0xbee0ecfc	-0.43930805
50	0xbe9b9041	-0.30383494
51	0xbe868e63	-0.26280507
52	0xbeca85f5	-0.39555326
53	0xbf1ca40c	-0.61187816
54	0xbdd0cddf	-0.10195517
55	0xbf0fb6d6	-0.5613836
56	0xbdbeff6a	-0.0932606
57	0xbe491cd8	-0.1963991
58	0x404e4a10	3.2232704
59	0x3d64f236	0.055895053
60	0xbee25a3d	-0.4420947
61	0xbe8aff71	-0.2714801
62	0x3d896ddb	0.067104064
63	0xbed8ba7c	-0.42329776
64	0x406f5276	3.739408
65	0xbebeb4e8	-0.37247396
66	0xbea8635d	-0.32888308
67	0xbee693ec	-0.4503473
68	0xbfbe0b57	-1.4847211
69	0x3f152136	0.582538
70	0xbdda93c4	-0.10672715
71	0xbee79e90	-0.4523816
72	0xbf131a27	-0.5746178
73	0xbec9dc59	-0.39425924
74	0xbfd4be90	-1.6620655
75	0xbec7a209	-0.3899081
76	0xbdfc1105	-0.12307934
77	0xbf02821d	-0.5097979
78	0xbd5f37fd	-0.054496754
79	0xbe878459	-0.2646816
80	0xbee006a6	-0.43755072
81	0x3d99561e	0.07487129
82	0xbeb1970e	-0.34685558
83	0xbedc0bb8	-0.4297769
84	0xbeeda90f	-0.46418044
85	0xbef9b099	-0.48767546
86	0xbe9d6797	-0.30743095
87	0xbdf3424b	-0.11877879
88	0xbee5be92	-0.44871956
89	0xbb50b040	-0.0031843334
90	0xbf475695	-0.7786649
91	0xbf7a936d	-0.97881204
92	0x3ea8c82e	0.32965225
93	0xbf373aef	-0.715743
94	0xbef8473b	-0.48491845
95	0xbf6ef2de	-0.93339336
96	0xbe1249a2	-0.14285901
97	0xbcc13220	-0.023583472
98	0xbf6ceac5	-0.9254573
99	0x3fafaece	1.3725221
100	0x403c7887	2.9448564
101	0x40241dc3	2.5643165
102	0xbedfa48f	-0.43680236
103	0x3f5469a6	0.82973707
104	0x4063ec59	3.5613005
105	0xbf01d94b	-0.5072219
106	0xbeb7e18d	-0.3591427
107	0xbe1c9789	-0.15292181
108	0xbef5b389	-0.47988537
109	0x403df92e	2.9683337
110	0xbeaf06b4	-0.34184802
111	0xbe866022	-0.2624522
112	0xbe9023ab	-0.28152213
113	0xbecb8d10	-0.3975606
114	0xbefa6c77	-0.48910877
115	0xbeb766e0	-0.35820675
116	0xbea2a4a7	-0.31766245
117	0xbf1d6f72	-0.6149818
118	0xbef4fcee	-0.4784922
119	0xbf03f7f6	-0.51550233
120	0xbb7b9d5f	-0.003839336
121	0x3f1b9da8	0.6078744
122	0x400d6533	2.2093017
123	0xbd1e5f92	-0.03866536
124	0xbe80c9d9	-0.25153998
125	0xbf0cc2d7	-0.549848
126	0x3d907af6	0.07054703
127	0xbec6a80a	-0.3880008
128	0x40840b31	4.126366
129	0xbeba309b	-0.36365208
130	0xbe896ec0	-0.26842308
131	0xbee2a043	-0.44262895
132	0xbee73848	-0.45160127
133	0x3f0c63db	0.5483987
134	0xbe538c06	-0.20658883
135	0xbef2eade	-0.47444814
136	0xbe01649b	-0.12636034
137	0xbec98963	-0.3936263
138	0xbfce4d42	-1.6117327
139	0xbef5cbd3	-0.48007068
140	0xbf18ec67	-0.5973572
141	0xbedf031d	-0.43557063
142	0xbf8fedd8	-1.1244459
143	0xbef7b34e	-0.48378986
144	0xbef78282	-0.48341757
145	0xbf8097b7	-1.00463
146	0xbe9ad590	-0.3024106
147	0xbdb90772	-0.09034623
148	0xbeee8199	-0.4658325
149	0xbeb8381c	-0.35980308
150	0xbec28861	-0.37994674
151	0xbeb4feec	-0.3535074
152	0xbf090f72	-0.5353919
153	0x3bc276c0	0.0059345663
154	0x40162132	2.345776
155	0x3f0f9af8	0.5609584
156	0xbfeaa667	-1.8332032
157	0xbfd5422e	-1.6660821
158	0xbeb09d4a	-0.34495002
159	0xbf1db8c9	-0.61610085
160	0xbf0f015f	-0.5586147
161	0xbf459ebf	-0.7719535
162	0x3f53e3cc	0.82769465
163	0x3ff98434	1.949347
164	0x3f8d0550	1.1017246
165	0x3f7d2c2a	0.98895514
166	0xbed03c8b	-0.4067119
167	0xbed8af61	-0.42321303
168	0x408f3e06	4.476321
169	0xbeb81349	-0.35952213
170	0xbec98158	-0.39356494
171	0x3e0e57be	0.13900658
172	0xbe463d1c	-0.19359249
173	0x401866db	2.3812778
174	0xbc325810	-0.010885254
175	0xbe87a578	-0.2649343
176	0xbf073076	-0.5280832
177	0xbe8cc8e3	-0.27497014
178	0xbe733a93	-0.23752813
179	0xbeea6b89	-0.45785168
180	0xbf31d807	-0.69470257
181	0xbdd4aa75	-0.103840746
182	0xbf97d0d9	-1.186061
183	0xbdf999ea	-0.1218756
184	0xbb5deffd	-0.0033864968
185	0x3fc0dcd2	1.5067389
186	0x401c3e7e	2.4413142
187	0x3d1121e9	0.03543273
188	0xbf2929de	-0.6607951
189	0xbe4e9137	-0.20172583
190	0xba836518	-0.0010024635
191	0xbf01241b	-0.5044572
192	0x402020f5	2.5020115
193	0xbeedb7f9	-0.46429422
194	0xbf0e4095	-0.55567294
195	0xbeb1affe	-0.34704584
196	0x3ec23d5e	0.37937444
197	0x3fa243f6	1.267699
198	0xbf81175a	-1.0085251
199	0xbea21bce	-0.31661838
200	0xbccf3d35	-0.02529774
201	0xbf0a6a68	-0.54068613
202	0xc01fdb48	-2.4977589
203	0xbf1d1c29	-0.61371094
204	0xbec43923	-0.38324842
205	0xbeb3bda6	-0.35105628
206	0x3d2d3d86	0.042295
207	0xbef63c10	-0.480927
208	0xbed44927	-0.4146206
209	0xbf143e46	-0.5790752
210	0xbf088a8f	-0.53336424
211	0xbf05c655	-0.52255756
212	0xbf0f7522	-0.56038105
213	0xbe9e6424	-0.30935776
214	0xbf0bde6e	-0.54636276
215	0xbf4f642a	-0.81012213
216	0xbee36dab	-0.44419608
217	0xbdf44bc8	-0.119285166
218	0x3f4352ce	0.76298225
219	0x3e4e2c86	0.20134172
220	0x3f94e521	1.1632425
221	0xbe5b7b46	-0.21433744
222	0xbe9ac1ce	-0.30225986
223	0xbf10ff4d	-0.5663956
224	0xbed1e281	-0.4099312
225	0xbf74a951	-0.95570856
226	0x3e98d42c	0.29849374
227	0x3e4ece5c	0.20195907
228	0x3fb59cc3	1.4188465
229	0x3ff0133f	1.8755873
230	0xbeec7edf	-0.46190545
231	0x3ed8b810	0.4232793
232	0x4053283f	3.2993314
233	0xbeb61d24	-0.35569108
234	0xbefd4d79	-0.4947317
235	0x401b9526	2.4309783
236	0xbec79efe	-0.3898849
237	0x40156046	2.334001
238	0xbec5580b	-0.38543734
239	0xbf111679	-0.56674916
240	0xbec01d33	-0.37522277
241	0xbec170ce	-0.37781376
242	0xbed972fa	-0.42470533
243	0xbf05661b	-0.52108926
244	0xbe396f7c	-0.18108934
245	0xbe757d4c	-0.23973578
246	0xbf68f0cc	-0.90992427
247	0xbe911b04	-0.28340924
248	0x3d9e15d0	0.07719004
249	0xbf8cd6f0	-1.1003094
250	0x401c71fa	2.4444566
251	0x3dcf15eb	0.101116024
252	0xbdb5dcc4	-0.08879998
253	0xbf104453	-0.56354254
254	0x3d2f33b4	0.042773917
255	0xbeeee0ab	-0.46655783

fc3.bias f4 [4]
0	0xbf58a438	-0.8462558
1	0xbe80c138	-0.25147414
2	0x3daf83da	0.085700706
3	0xbd89c3e3	-0.067268156
