weights/solved_200_0.1.pth (torch, 12865 bytes, 6 tensors)

fc1.weight f4 [32, 8]
0.115189105 -2.1498635 0.15430902 -0.36451957 -0.23401092 0.1676461 0.8100012 1.2344632
0.01440381 0.0030215275 -0.10027635 0.078200705 -1.6530341 -0.21026438 -0.08827233 -0.14399415
0.038616914 -0.013189291 -0.022831405 0.08066701 0.7378932 -0.04245343 -0.30870536 1.4095105
2.0787747 0.5207034 1.1626389 0.074879475 -0.27374104 -0.37049899 -0.3739085 1.166153
0.23122165 -8.010853 0.023578038 -0.76528907 -0.182018 0.12854576 0.09863743 0.02072798
-0.49257445 -0.36638755 -0.6167782 0.47161594 -0.010816354 -0.6558933 1.3558905 -0.04608597
-0.47473708 -0.3373227 0.7520085 2.1511252 -0.1262779 -0.013350616 1.0836148 -0.77319914
-0.11332463 -11.809005 -0.19062701 -0.33388367 0.052516576 -0.112806045 -0.1721303 0.011711958
0.05763767 -5.82362 0.12160007 -0.23673794 0.45663664 0.4780142 -1.1381792 -0.085167095
1.5946417 0.28584793 1.5919997 1.2279998 0.53931206 -0.14598542 0.1588795 0.13539906
0.3088168 0.36533982 0.42177773 -1.3461992 0.060611833 -0.1393777 1.3287913 -0.49593297
0.034494616 -0.21462259 0.17568772 -0.61336565 0.27285466 0.66597885 -1.707383 -0.4758606
-0.13322192 -0.211935 -1.8117049 -0.17410018 0.38907647 -0.052966423 0.5435155 -0.19392191
-0.6597222 -1.0725129 0.07024606 0.5835424 -0.041223247 0.25418028 0.7155412 1.3924049
-0.07711373 -0.15779138 1.8670305 -0.049354922 -0.14741468 0.101991065 1.3001857 -0.26741582
0.7499839 -0.9752803 -0.9872722 0.28775933 -1.1786797 -0.14263405 -0.032503236 0.5126222
0.22469494 -4.145456 -0.5343801 0.82027054 -0.45292664 -0.45305884 0.5569977 -0.89858913
0.00013770004 -0.057328496 -0.023987394 0.09228854 0.86808014 0.20390579 0.48810652 0.62121725
0.7303603 -3.5213876 -0.5940581 0.44557998 -0.29313046 -0.7960655 -0.15471187 -1.8071452
0.2411635 -3.4356856 0.3295569 -0.41430876 0.036531046 -0.67393166 0.95385116 -0.22827703
0.27412787 -3.766569 -0.013405152 -1.5455374 0.02065338 -0.25205064 0.3219447 1.005793
0.023701621 -0.81385046 0.59273356 -0.46402463 -0.3017424 0.3013211 0.36840346 0.8181719
0.4949908 -5.439695 0.25049755 -0.81462014 -0.06959042 -0.10655163 0.1131458 0.22408949
0.20071535 -0.40993235 1.1261287 0.42625797 -0.24467848 0.50421846 0.91098833 0.272914
-0.21061638 -0.46078926 -0.7803597 -0.8288312 -0.8648118 -0.075774424 -0.6634569 0.8267575
-0.29204088 -1.3546308 -0.030539542 -0.33755735 -0.3398351 0.6378947 -0.1948904 0.59401566
0.24246791 -0.7797575 0.3359318 0.31227586 0.17091984 -0.4723298 0.12014645 -0.969922
0.45606366 0.22574939 1.1172034 0.27875358 -0.15896079 0.35481814 -1.2868174 0.6888314
-1.0635018 -4.300573 -0.055128008 0.065961964 -0.51485145 -0.4656025 -0.054796986 0.0030451508
-0.08001593 -0.29347885 1.9550744 -0.25554952 0.05636225 -0.5455274 -0.7259434 0.058792856
0.5455332 0.15331 0.8146785 -0.6726738 0.41474757 -1.0669378 -0.4495275 -1.3026611
0.11743579 -0.055306483 0.30549428 -0.2699898 0.82471883 -0.71106535 0.87172043 -0.30478933
00000000: 44e8 eb3d 5d97 09c0 2f03 1e3e 4fa2 babe
00000010: 8fa0 6fbe 6bab 2b3e 3d5c 4f3f e402 9e3f
00000020: f5fd 6b3c d204 463b b05d cdbd b127 a03d
00000030: 9f96 d3bf 8c4f 57be 20c8 b4bd 3473 13be
00000040: c52c 1e3d e517 58bc ed08 bbbc bf34 a53d
00000050: 92e6 3c3f a6e3 2dbd a10e 9ebe d76a b43f
00000060: a50a 0540 d14c 053f 5ad1 943f 695a 993d
00000070: c927 8cbe 0bb2 bdbe ef70 bfbe 8044 953f
00000080: 5ec5 6c3e 742c 00c1 bb26 c13c fce9 43bf
00000090: ed62 3abe 80a1 033e 6c02 ca3d bacd a93c
000000a0: b832 fcbe 2697 bbbe 2de5 1dbf a577 f13e
000000b0: 1437 31bc a0e8 27bf d28d ad3f a4c4 3cbd
000000c0: bd10 f3be 90b5 acbe a183 403f 09ac 0940
000000d0: fe4e 01be 8bbc 5abc e4b3 8a3f 61f0 45bf
000000e0: be16 e8bd aff1 3cc1 ba33 43be cdf2 aabe
000000f0: 9f1b 573d db06 e7bd ed42 30be 83e3 3f3c
00000100: 7a15 6c3d 185b bac0 7509 f93d 6e6b 72be
00000110: 47cc e93e 47be f43e dbaf 91bf 166c aebd
00000120: 381d cc3f a95a 923e a5c6 cb3f 192f 9d3f
00000130: 5b10 0a3f 347d 15be 4fb1 223e 0da6 0a3e
00000140: 3c1d 9e3e d20d bb3e 40f3 d73e 4150 acbf
00000150: 1d44 783d 07b9 0ebe d515 aa3f edea fdbe
00000160: 3a4a 0d3d 06c6 5bbe 7be7 333e 8805 1dbf
00000170: 9bb3 8b3e 977d 2a3f 878b dabf 00a4 f3be
00000180: 546b 08be 7d05 59be f2e5 e7bf 5147 32be
00000190: 0835 c73e 52f3 58bd d523 0b3f 7793 46be
000001a0: 8ee3 28bf 1a48 89bf 2bdd 8f3d 0963 153f
000001b0: b5d9 28bd eb23 823e b52d 373f 533a b23f
000001c0: ceed 9dbd 1094 21be dbfa ee3f 6328 4abd
000001d0: e0f3 16be b1e0 d03d 7c6c a63f baea 88be
000001e0: f2fe 3f3f f8ab 79bf dfbd 7cbf 3155 933e
000001f0: fade 96bf a90e 12be 1d22 05bd 353b 033f
00000200: 6e16 663e 93a7 84c0 22cd 08bf 40fd 513f
00000210: 00e6 e7be 54f7 e7be 6797 0e3f f009 66bf
00000220: 9363 1039 49d1 6abd 3681 c4bc c601 bd3d
00000230: 803a 5e3f aecc 503e 19e9 f93e 1808 1f3f
00000240: e5f8 3a3f 6a5e 61c0 3114 18bf 0f23 e43e
00000250: 3215 96be f3ca 4bbf ca6c 1ebe 8950 e7bf
00000260: 91f3 763e 46e2 5bc0 afbb a83e 4720 d4be
00000270: 94a1 153d c986 2cbf 972f 743f 74c1 69be
00000280: 7d5a 8c3e 770f 71c0 48a1 5bbc 2bd4 c5bf
00000290: 4731 a93c c80c 81be f0d5 a43e d3bd 803f
000002a0: e729 c23c 8158 50bf 63bd 173f a394 edbe
000002b0: fb7d 9abe c246 9a3e 619f bc3e b773 513f
000002c0: 6f6f fd3e fb11 aec0 3741 803e f28a 50bf
000002d0: 6c85 8ebd be37 dabd fcb8 e73d b777 653e
000002e0: 5388 4d3e a7e2 d1be fc24 903f 7c3e da3e
000002f0: ff8c 7abe 7614 013f 8836 693f 62bb 8b3e
00000300: d2ab 57be 92ec ebbe a7c5 47bf 482e 54bf
00000310: 4e64 5dbf 9f2f 9bbd 50d8 29bf 61a6 533f
00000320: 6286 95be 8b64 adbf 102e fabc 51d4 acbe
00000330: defe adbe 114d 233f 5991 47be 6911 183f
00000340: 8249 783e 309e 47bf 41ff ab3e 9fe2 9f3e
00000350: 9c05 2f3e 36d5 f1be 580f f63d cf4c 78bf
00000360: 2d81 e93e d92a 673e 8500 8f3f cab8 8e3e
00000370: 9ec6 22be b9aa b53e 6fb6 a4bf 4157 303f
00000380: d420 88bf 4b9e 89c0 e8cd 61bd 1117 873d
00000390: 4ecd 03bf 7363 eebe ce72 60bd 2791 473b
000003a0: 64df a3bd dc42 96be e13f fa3f 63d7 82be
000003b0: 1adc 663d afa7 0bbf 6dd7 39bf c7d0 703d
000003c0: 10a8 0b3f 4cfd 1c3e c58e 503f 5a34 2cbf
000003d0: cb59 d43e 6b91 88bf 7828 e6be 99bd a6bf
000003e0: 2d82 f03d 0d89 62bd bf69 9c3e 1a3c 8abe
000003f0: c620 533f 6108 36bf 1229 5f3f 590d 9cbe

fc1.bias f4 [32]
-0.97795707 -0.05634616 -0.004987519 -1.2546197 -0.21767688 -0.14464955 0.6951114 0.29253545
-0.7208898 0.6103793 -0.41734573 0.124418475 0.8236802 -0.7768402 0.46475792 -0.7130968
-0.83062404 0.1116569 -0.6959106 -0.9844993 -0.5927168 -1.1785243 -0.5682423 0.50645655
0.7417335 -1.3661976 -0.8649928 -0.20820801 -1.3069341 0.6737536 0.43687406 -0.3053811
00000000: 655b 7abf 3bcb 66bd 576e a3bb 6197 a0bf
00000010: b0e6 5ebe 031f 14be d2f2 313f 35c7 953e
00000020: 3c8c 38bf d141 1c3f 57ae d5be 1dcf fe3d
00000030: b5dc 523f 00df 46bf c0f4 ed3e 838d 36bf
00000040: c7a3 54bf 5fac e43d 3227 32bf 2508 7cbf
00000050: 4abc 17bf e2d9 96bf 5478 11bf 23a7 013f
00000060: 3fe2 3d3f 90df aebf 2b70 5dbf 7b34 55be
00000070: 9e49 a7bf 1e7b 2c3f f5ad df3e e95a 9cbe

fc2.weight f4 [64, 32]
-0.40367737 -0.09722022 -0.16368261 -0.44918755 0.93403447 0.3355478 -0.08899516 -0.06157529
0.5470524 0.016133415 1.1195544 -0.041447356 0.26313734 -0.010270221 0.44206077 -0.10091213
0.06143108 -0.3900773 0.054717716 1.01487 0.30342072 -0.22069189 -0.14664364 0.56349283
0.27084336 -0.29917103 -0.37829185 0.4825507 -0.8392994 0.38880265 0.83848697 -0.056437958
0.5735919 0.29768068 -0.4519584 -0.7848614 1.5174303 0.08798921 -0.9757971 2.348278
0.3097427 -0.18131733 -0.28455207 0.22849944 -0.10472807 0.3063099 -0.19255891 0.7923018
0.6539005 0.11405155 0.77783036 1.1673143 0.28996694 0.3645359 1.3977739 0.16410697
-1.0923662 0.7500483 1.1232755 -0.09989512 -0.5548492 0.011655882 -0.13935536 -0.4526707
0.507853 0.2684041 0.1683095 -1.0522076 0.5391767 0.75555706 -2.5214791 0.47939846
0.012936039 -1.4035215 0.35852438 0.6257088 -0.11910788 0.4518058 0.3515199 0.0053076204
0.7310052 -0.034506124 0.60092884 1.7628275 0.40518793 -0.19617683 0.89217603 -0.014006479
-0.8948771 0.34060165 0.76500237 0.5369145 -0.041376278 0.005539836 0.20066749 -0.8674757
0.8028763 0.83878654 0.32758486 -0.72189456 1.1005704 0.349891 -2.9906957 0.7461679
0.0993461 -0.8623656 0.060006026 0.11319109 0.059997804 0.4059633 -0.5163031 1.074743
0.42778787 0.12707448 0.5939122 1.0273163 0.9873465 0.2170129 1.1431482 -0.9907434
-0.32367358 0.7387152 0.94964415 -0.29651114 -0.08140142 -0.3989326 -0.030431932 0.2713967
0.31139472 -2.7993636 0.22083297 -0.9870789 0.26733488 -1.4584895 -2.0405526 1.4541129
0.1858339 0.4326801 -1.0949457 -0.108142674 0.11231034 0.3552091 -2.8552728 -2.3431773
-0.6867068 0.07071923 -3.084395 -0.801515 0.40235662 0.021556074 0.1894674 -1.0081671
-0.11988875 0.086764924 -0.19201382 -0.0460968 -0.7961831 -0.16327259 -0.05386738 0.04124028
0.23932543 -0.49123782 -0.25728402 1.1703779 1.3420124 0.09992615 -0.117419355 3.4620025
1.1446801 0.0656604 -0.55248564 -0.14723557 -0.04900625 0.0777594 0.29590952 -0.5254302
0.28466517 -0.8647763 -0.67730063 -0.35887173 -0.12257952 -0.36730033 0.29450393 0.6012417
0.3079478 -0.28133777 -0.2960877 -0.31740257 1.9384551 -0.26022246 -0.24466446 0.58240694
-1.8903311 -0.6566163 -0.19967188 0.4009697 0.9766154 0.261197 -0.6509977 -0.8793777
1.0283086 -0.13601549 0.7283408 0.03378147 -0.43051794 -1.6644497 1.1299645 -0.8814717
-0.11759688 -0.36478442 0.058079418 0.34409526 0.26085907 -0.45665556 -0.2233284 1.0438422
0.32929808 -1.3483497 -0.5341532 0.16767514 -0.30394858 -0.1338078 -0.39970842 0.22389151
0.712998 0.52042323 0.16407667 0.007680615 0.10293164 -0.1812873 -2.0035944 1.7538288
0.14440084 -0.026147207 -0.07807384 0.562035 -0.09363862 0.14195341 -0.17794359 0.5198413
0.7856913 0.06791674 1.1460874 0.8768832 0.06076876 0.32644847 0.3060635 -0.33649877
0.31742084 0.26875943 0.9373085 0.22116153 -0.008990733 0.4966751 -0.27193314 -0.34887096
00000000: cdae cebe 651b c7bd 6a9c 27be e9fb e5be
00000010: e21c 6f3f eccc ab3e 1843 b6bd 5f36 7cbd
00000020: a00b 0c3f 392a 843c 8f4d 8f3f b4c4 29bd
00000030: f0b9 863e 6e44 28bc ca55 e23e 05ab cebd
00000040: 289f 7b3d 36b8 c7be af1f 603d 43e7 813f
00000050: f659 9b3e 0efd 61be c029 16be 1141 103f
00000060: fbab 8a3e f22c 99be 78af c1be e310 f73e
00000070: 53dc 56bf 2411 c73e 15a7 563f 7d2b 67bd
00000080: ebd6 123f 9a69 983e 1767 e7be adec 48bf
00000090: 283b c23f b033 b43d d7cd 79bf 304a 1640
000000a0: 9896 9e3e 40ab 39be cfb0 91be c2fb 693e
000000b0: ac7b d6bd a7d4 9c3e 2a2e 45be 4ad4 4a3f
000000c0: 0666 273f dc93 e93d e41f 473f 8e6a 953f
000000d0: 8c76 943e 73a4 ba3e 41ea b23f a80b 283e
000000e0: a8d2 8bbf 2a03 403f 7ec7 8f3f d095 ccbd
000000f0: 990a 0ebf 50f8 3e3c 2cb3 0ebe 74c4 e7be
00000100: a702 023f 436c 893e 5359 2c3e bdae 86bf
00000110: 7c07 0a3f 306c 413f ea5f 21c0 b773 f53e
00000120: aef1 533c 98a6 b3bf 8290 b73e 742e 203f
00000130: d5ee f3bd 1753 e73e 6bfa b33e 8ceb ad3b
00000140: 2823 3b3f 4b56 0dbd 79d6 193f 55a4 e13f
00000150: cb74 cf3e 94e2 48be a665 643f 6e7b 65bc
00000160: aa16 65bf 5763 ae3e 32d7 433f 3b73 093f
00000170: 2c7a 29bd 8387 b53b c77b 4d3e e312 5ebf
00000180: 4d89 4d3f b7ba 563f 34b9 a73e 15ce 38bf
00000190: 7edf 8c3f ea24 b33e 8f67 3fc0 dc04 3f3f
000001a0: f875 cb3d fec3 5cbf e1c8 753d bbd0 e73d
000001b0: 42c0 753d 6cda cf3e 712c 04bf 2e91 893f
000001c0: 0307 db3e d01f 023e a10a 183f 1a7f 833f
000001d0: bdc2 7c3f a138 5e3e ae52 923f 5ca1 7dbf
000001e0: 8bb8 a5be 701c 3d3f e11b 733f 4fd0 97be
000001f0: cab5 a6bd e540 ccbe 634c f9bc 82f4 8a3e
00000200: 216f 9f3e c628 33c0 0a22 623e 34b1 7cbf
00000210: 1ee0 883e c9af babf 6a98 02c0 5f20 ba3f
00000220: 3e4b 3e3e 3f88 dd3e 2e27 8cbf e879 ddbd
00000230: f702 e63d f8dd b53e cabc 36c0 9ef6 15c0
00000240: 04cc 2fbf 3ed5 903d ba66 45c0 1630 4dbf
00000250: b001 ce3e 5d96 b03c be03 423e 9f0b 81bf
00000260: 3c88 f5bd cfb1 b13d 459f 44be 00d0 3cbd
00000270: a8d2 4bbf ee30 27be 0ba4 5cbd 91eb 283d
00000280: ba11 753e 8683 fbbe bbba 83be f1ce 953f
00000290: 10c7 ab3f 15a6 cc3d 8f79 f0bd 7391 5d40
000002a0: e184 923f f678 863d b36f 0dbf ecc4 16be
000002b0: c7ba 48bd 5240 9f3d 7481 973e 9882 06bf
000002c0: a2bf 913e fb61 5dbf 9363 2dbf 09be b7be
000002d0: f90a fbbd ca0e bcbe 38c9 963e faea 193f
000002e0: 56ab 9d3e 810b 90be cf98 97be 9782 a2be
000002f0: 4c1f f83f e13b 85be 5289 7abe 9f18 153f
00000300: 5ff6 f1bf 0118 28bf c976 4cbe e74b cd3e
00000310: 7803 7a3f 9dbb 853e c9a7 26bf e61e 61bf
00000320: 9e9f 833f a547 0bbe 8b74 3a3f 705e 0a3d
00000330: d96c dcbe b00c d5bf ada2 903f 21a8 61bf
00000340: a2d6 f0bd 06c5 babe afe4 6d3d 412d b03e
00000350: 528f 853e c2ce e9be 33b0 64be 9f9c 853f
00000360: c299 a83e b996 acbf 44be 08bf 08b3 2b3e
00000370: 269f 9bbe e904 09be 95a6 ccbe d143 653e
00000380: 0987 363f 753a 053f b703 283e abad fb3b
00000390: d3cd d23d 61a3 39be e43a 00c0 767d e03f
000003a0: d0dd 133e ab32 d6bc 2de5 9fbd 87e1 0f3f
000003b0: 9bc5 bfbd 3c5c 113e d836 36be 5214 053f
000003c0: 1123 493f ef17 8b3d feb2 923f 6b7b 603f
000003d0: aae8 783d 4124 a73e 5bb4 9c3e 9149 acbe
000003e0: fc84 a23e d69a 893e 73f3 6f3f 2b78 623e
000003f0: de4d 13bc 334c fe3e d23a 8bbe 379f b2be

fc2.bias f4 [64]
0.86098105 0.7082141 -0.3685965 -1.0817528 0.27933094 0.24690011 0.012215373 0.51307315
-0.3840052 0.5679986 -0.3007191 -0.35546014 -0.09322542 -0.2664187 -0.1058746 -0.11569863
-0.14901988 0.08693876 -0.4669916 0.35836196 -0.10913652 0.052634507 0.29724243 -0.12386846
-0.0342328 -0.04246048 0.72039706 -0.12883103 -0.6852763 -0.7359477 -0.9275503 -0.21616137
-1.1094571 -0.22017452 -1.5023276 -0.17033738 1.2174865 -0.99698335 -0.368116 0.3012534
-0.041408397 -0.53702193 1.0119816 0.92648333 0.8027963 0.1764357 -0.33362782 0.09938561
-0.045125943 -0.19642524 -0.40758935 -0.7700049 -1.0873334 0.95552915 -0.56661594 -1.3894247
0.5095639 0.49870515 0.7215793 -0.057956535 0.2987828 0.16295032 -0.3475881 0.5722575
00000000: 4169 5c3f 854d 353f aeb8 bcbe e076 8abf
00000010: 7704 8f3e 62d3 7c3e fd22 483c c358 033f
00000020: 549c c4be 5b68 113f dbf7 99be dffe b5be
00000030: f8ec bebd 0868 88be c8d4 d8bd 67f3 ecbd
00000040: ab98 18be f30c b23d 8619 efbe 387b b73e
00000050: f882 dfbd 4897 573d 2930 983e bfae fdbd
00000060: b137 0cbd 0aeb 2dbd f16b 383f 48ec 03be
00000070: 456e 2fbf 1267 3cbf f073 6dbf 6859 5dbe
00000080: b102 8ebf 6e75 61be 454c c0bf ec6c 2ebe
00000090: 99d6 9b3f 4d3a 7fbf b379 bcbe e33d 9a3e
000000a0: da9b 29bd 457a 09bf 9d88 813f 032e 6d3f
000000b0: 0f84 4d3f 8fab 343e 44d1 aabe af8a cb3d
000000c0: fbd5 38bd b323 49be 8daf d0be 0b1f 45bf
000000d0: be2d 8bbf 8f9d 743f be0d 11bf abd8 b1bf
000000e0: c872 023f 4856 ff3e 6cb9 383f d563 6dbd
000000f0: 0ffa 983e 73dc 263e 11f7 b1be 787f 123f

fc3.weight f4 [4, 64]
0.07104108 -1.5569586 -0.08486069 -1.1072043 -0.76292515 1.828424 1.6453171 -0.66762143
-1.2852358 -0.3663738 -1.7078476 -0.05502821 -1.6053969 -2.18267 2.3734112 -0.06682785
-0.4217456 -0.7533 -0.7116285 -0.7469277 -0.30525467 -0.50588506 -0.6103268 -0.22623456
-0.3678774 -0.024988294 -1.2035232 1.343511 2.2182035 -0.34364995 -0.55004454 1.9589692
0.67593104 -0.15679638 -0.19960442 0.10410172 -0.5916645 0.13741237 -1.1944065 0.13604775
0.014695116 -1.2775322 -0.03675185 0.8796823 -0.35457495 1.1588202 -2.0600803 -2.5457444
-0.3987782 -0.3648216 -0.86046594 -0.37801716 1.054985 -0.22706641 -1.0084854 -2.5725427
-1.0817707 -1.0956749 1.574574 0.38779894 -1.7073835 -0.5108375 2.8331783 0.96028274
-0.036017645 -1.3218508 -1.2970935 -0.59719557 -0.3055797 1.7673852 1.2321767 -1.052456
-0.6941296 -0.4486309 0.17081043 -0.7084907 -0.71760887 -1.4535799 0.90350145 -0.6085516
-0.54645604 -1.6774015 -0.8582606 -0.9336961 -0.56426215 -0.63595074 -0.48051357 -0.6774994
-0.62268347 -0.0031843334 -1.9595022 2.4506347 3.0302289 0.15359531 -0.9207796 2.6554823
1.4936335 -0.22050329 -0.8697292 -0.004861337 -0.28714398 -0.7328432 -0.8356745 -0.034689635
-0.04718527 -1.2341838 -0.08894736 2.1669896 -0.5983632 2.4482102 -2.4113429 -2.6709883
-0.3155194 -0.5859721 -1.4821757 0.14640692 0.73885965 -1.1817741 -2.161985 1.1448623
-1.2293078 1.317831 1.9982004 0.63115984 0.72888994 -1.3866704 2.698259 -0.6379904
0.26442102 -0.82202166 -0.22737451 -1.2045603 -1.4332964 2.0656488 1.8587172 -0.15171888
-1.9659503 -0.30435804 -1.778369 -0.6071459 -0.6798832 -0.8259948 -1.1607475 1.0121061
-0.72078043 -1.7607411 -0.9526228 -1.7116188 -0.5995765 -0.38114288 -0.15637146 -0.6618869
-0.5685221 -0.025205575 1.8642367 4.2402096 -0.6775786 -2.809522 -1.6307625 0.047439188
0.9028026 -0.57189107 1.1096158 -0.009410897 -0.45125574 1.1009994 -2.500123 -1.4796433
0.074351564 -0.8039021 0.42716667 -0.21351773 0.07197456 1.9729565 -1.1203886 -0.84155804
-0.5157172 -0.5643153 -0.040827986 -0.45630735 -1.2957718 0.013789716 -2.706048 1.0223043
-0.45631233 -1.39922 1.3099765 2.0485845 -0.6602194 0.12528557 2.0617292 -2.7040238
-0.87367284 -0.49847028 -1.4725993 -0.17250142 1.0072988 0.74087703 0.75239 -0.16119592
0.43206638 -0.5334089 -0.19804277 -0.2528331 0.022192053 0.034556385 1.8050879 -2.790944
-0.29216546 -0.67141145 -0.82003325 -1.9119737 -0.36310655 -0.17940865 -0.6185939 -1.6123408
-0.27798468 -0.119285166 0.70354086 2.863273 2.1697986 -1.5839355 -0.3769211 3.4483578
1.2406002 -0.5267662 0.92940086 -0.1096371 -1.4191856 1.6406897 -0.7341843 -0.8732814
-0.06350762 -0.07162444 -0.8133652 1.541866 -0.5898497 1.547279 -0.59796697 -0.27299678
-0.35779342 -0.8831695 -0.8958061 -0.13175 0.76362664 -0.56290627 -1.0514047 1.4466039
0.12818669 1.2468054 2.8972843 1.2360866 0.5071929 -1.6626104 2.7075107 0.48883128
00000000: fc7d 913d 6b4a c7bf 71cb adbd dfb8 8dbf
00000010: 104f 43bf cc09 ea3f c099 d23f 3de9 2abf
00000020: 9b82 a4bf 5995 bbbe c09a dabf 4365 61bd
00000030: a57d cdbf deb0 0bc0 f8e5 1740 0add 88bd
00000040: 0aef d7be 45d8 40bf 492d 36bf a736 3fbf
00000050: 574a 9cbe af81 01bf 613e 1cbf 08aa 67be
00000060: 6d5a bcbe 40b4 ccbc 0c0d 9abf 2bf8 ab3f
00000070: 0cf7 0d40 e3f2 afbe b8cf 0cbf 81bf fa3f
00000080: d109 2d3f 3b8f 20be 1a65 4cbe 4833 d53d
00000090: 5377 17bf d4b5 0c3e 50e2 98bf 1a50 0b3e
000000a0: c9c3 703c 2d86 a3bf 1c89 16bd dc32 613f
000000b0: d98a b5be 3854 943f 5bd8 03c0 7aed 22c0
000000c0: a82c ccbe e6c9 babe 7f47 5cbf 778b c1be
000000d0: c009 873f 1984 68be 0d16 81bf 8aa4 24c0
000000e0: 7677 8abf 133f 8cbf a48b c93f 958d c63e
000000f0: 8b8b dabf 3fc6 02bf cb52 3540 17d5 753f
00000100: 3d87 13bd 6832 a9bf 2907 a6bf cfe1 18bf
00000110: f174 9cbe ae39 e23f f7b7 9d3f e1b6 86bf
00000120: 7ab2 31bf f3b2 e5be eee8 2e3e a65f 35bf
00000130: 37b5 37bf e80e babf df4b 673f 0aca 1bbf
00000140: 8be4 0bbf 18b5 d6bf f7b6 5bbf b506 6fbf
00000150: 7c73 10bf abcd 22bf e005 f6be 9a70 2dbf
00000160: 2f68 1fbf 40b0 50bb f8d0 fabf 33d7 1c40
00000170: 45ef 4140 1748 1d3e 36b8 6bbf 6cf3 2940
00000180: 622f bf3f 9dcb 61be 93a6 5ebf da4b 9fbb
00000190: 8904 93be 9d9b 3bbf c4ee 55bf b816 0ebd
000001a0: 5745 41bd bcf9 9dbf 092a b6bd f5af 0a40
000001b0: 552e 19bf 7aaf 1c40 7153 1ac0 79f1 2ac0
000001c0: c28b a1be 4402 16bf efb7 bdbf b2eb 153e
000001d0: e825 3d3f 6044 97bf f65d 0ac0 d98a 923f
000001e0: f559 9dbf b0ae a83f 08c5 ff3f b193 213f
000001f0: 8898 3a3f 6a7e b1bf 47b0 2c40 5753 23bf
00000200: 3162 873e 0370 52bf ddd4 68be 082f 9abf
00000210: 4276 b7bf 9733 0440 72ea ed3f 325c 1bbe
00000220: 42a4 fbbf d1d4 9bbe 98a1 e3bf ea6d 1bbf
00000230: d30c 2ebf 6574 53bf 6093 94bf b18c 813f
00000240: 1185 38bf f75f e1bf 16df 73bf 5316 dbbf
00000250: d87d 19bf 2925 c3be d71f 20be 6b71 29bf
00000260: aa8a 11bf ec7b cebc 4f9f ee3f ccaf 8740
00000270: cb75 2dbf 35cf 33c0 d3bc d0bf 984f 423d
00000280: 121e 673f 7467 12bf e407 8e3f 2a30 1abc
00000290: fe0a e7be 8ced 8c3f 0402 20c0 f464 bdbf
000002a0: a245 983d 87cc 4dbf 97b5 da3e 64a4 5abe
000002b0: 6667 933d d789 fc3f e568 8fbf 5970 57bf
000002c0: 0b06 04bf f876 10bf 3f3b 27bd 1ea1 e9be
000002d0: dadb a5bf 43ee 613c e42f 2dc0 deda 823f
000002e0: c5a1 e9be a419 b3bf 4fad a73f 021c 0340
000002f0: 2304 29bf dc4a 003e 5ff3 0340 ba0e 2dc0
00000300: 06a9 5fbf 7f37 ffbe 227e bcbf 36a4 30be
00000310: 2bef 803f 1eaa 3d3f a29c 403f 8b10 25be
00000320: ce37 dd3e 7c8d 08bf b9cb 4abe 5773 81be
00000330: 1ccc b53c ff8a 0d3d 1f0d e73f d49e 32c0
00000340: b696 95be 9fe1 2bbf b3ed 51bf 8ebb f4bf
00000350: 1ae9 b9be e7b6 37be 2b5c 1ebf 2f61 cebf
00000360: 0254 8ebe c84b f4bd 411b 343f dd3f 3740
00000370: fbdd 0a40 66be cabf cdfb c0be e5b1 5c40
00000380: fdcb 9e3f 26da 06bf 37ed 6d3f 6a89 e0bd
00000390: e0a7 b5bf 1f02 d23f 81f3 3bbf 5f8f 5fbf
000003a0: 4810 82bd d6af 92bd b438 50bf dd5b c53f
000003b0: 6400 17bf 3d0d c63f 5d14 19bf 3cc6 8bbe
000003c0: b330 b7be 6517 62bf 8c53 65bf 79e9 06be
000003d0: 097d 433f a01a 10bf 6e94 86bf 512a b93f
000003e0: 5f43 033e 5297 9f3f 1b6d 3940 1638 9e3f
000003f0: 65d7 013f 6bd0 d4bf db47 2d40 1848 fa3e

fc3.bias f4 [4]
-0.4731437 -0.08327356 0.47626063 -0.8546059
00000000: e43f f2be 548b aabd 6fd8 f33e 74c7 5abf
