weights/solved_200_0.5.pth (torch, 12865 bytes, 6 tensors)

fc1.weight f4 [32, 8]
0.09731746 0.17675377 -2.3391573 0.15928374 -0.5952879 -0.18151991 -0.68536395 0.83252954
0.31717765 0.5651079 -0.16896483 -0.65630585 -0.42323416 -1.3910631 -0.12461941 -0.038761497
0.07842784 0.14396593 -0.7374956 -0.9630878 1.609283 -0.112867735 -0.4795879 -0.017641144
0.039893474 0.1816178 2.1269658 -1.9532013 0.1475863 -0.21456681 0.367931 -0.41397575
-0.30011433 -2.8253207 -0.5394815 -0.798273 -0.32649186 1.0086396 0.27282375 0.8291834
-0.2739524 -3.858057 -0.63260615 -0.77575153 -0.3428324 -0.4408539 0.5568339 0.05547158
-0.69820565 0.10557376 -0.31250435 1.7844203 -0.4260121 -0.22471407 0.038374644 -0.14344816
0.2668092 -4.6342063 -0.43657964 -0.64735955 0.022394126 0.22301695 0.4807987 0.77111167
-0.102484524 -0.05558468 -0.36724153 -1.0219196 -0.3726924 1.3807807 -0.7930652 0.13393822
0.40087995 -0.43822855 1.5259904 1.8259234 -0.24431986 0.24387284 0.39018664 -0.52230966
-0.018190846 0.1800025 -0.03872012 -1.5302074 -0.20132178 -0.3673454 -0.41580337 -2.7184606
-0.6071099 -0.045061644 0.253786 -0.056708988 0.42751718 0.07397095 -2.3105626 -0.3682068
0.59459025 0.5258765 -0.62301624 -1.0907971 1.1512272 -0.305487 -0.11661118 0.22271085
0.17540893 -1.2503804 -1.2613633 -1.3141748 0.10858263 0.17130348 0.31756216 0.6216011
0.13231592 -0.05374085 -0.056008887 -0.31704232 -1.4766964 0.13645211 0.9943455 -0.6886783
0.031761404 -0.068827994 -0.001585256 0.04463368 -1.188968 -0.022835586 -1.0124345 -0.6182543
0.48462263 -6.9769597 -0.2561199 -0.089063525 -0.58978426 0.10644957 0.31825224 -1.4652649
0.15405346 0.02623249 -0.010927293 0.48711818 2.018517 0.27811623 0.060647666 -0.102258526
-0.08120952 0.16929795 0.37253514 -0.2312426 -2.3394442 -0.4207101 -1.0221182 -0.8668224
0.55486155 -3.6379254 0.4510753 -1.1303723 0.14550908 -0.5661738 0.05636588 -0.7779466
0.18574892 0.1514402 -1.0589054 0.16903831 -0.33405232 -0.53832006 -0.32106188 0.29013658
0.30686256 1.5570865 1.1909195 -0.69131815 0.5231744 -0.46995485 -0.017883996 -0.89565444
0.50372034 -9.872718 0.11117882 -0.677026 -0.16495001 -0.045397528 0.009391385 -0.0066654393
0.3928745 -0.023055336 -0.30788174 1.6578319 -0.35252032 0.2962227 0.4725215 1.0534202
0.14369625 -1.9268776 -0.21753627 -0.8509964 -0.9885555 0.29280797 0.20289999 1.0892862
-1.092006 0.24141459 -1.2683147 -1.6705772 -0.26552564 0.016057635 -1.2653902 0.4786936
1.1759027 -0.61284 0.30199867 0.04798125 -0.095314585 0.17436723 0.6442389 0.11898998
-0.6634605 -9.749724 -0.112844065 -0.86972356 0.13764554 0.11108004 0.05187977 0.014458118
0.08883287 0.16693352 0.115273714 -0.306454 -0.6714332 -1.1528537 -0.0971603 0.65815717
-0.24328609 -0.1012222 0.54772896 -1.0267142 0.64784825 -0.7025279 -0.082380615 -1.6054311
0.37656358 -6.1465073 -0.15537961 -0.5870442 0.8023621 -0.4046188 -0.6770375 -0.20295353
0.58039737 -3.7746637 0.10045552 -0.62638354 -0.18593825 -0.6299355 0.12759563 -0.29620674
00000000: 604e c73d f1fe 343e c1b4 15c0 471b 233e
00000010: ca64 18bf 5be0 39be 0374 2fbf a820 553f
00000020: 1c65 a23e e9aa 103f 1e05 2dbe a903 28bf
00000030: 26b2 d8be 5b0e b2bf 7638 ffbd 60c4 1ebd
00000040: c69e a03d ce6b 133e 83cc 3cbf ec8c 76bf
00000050: fcfc cd3f 3327 e7bd 8c8c f5be 2984 90bc
00000060: 5767 233d 04fa 393e 3520 0840 8002 fabf
00000070: dd20 173e 67b7 5bbe 7461 bc3e a1f4 d3be
00000080: 96a8 99be 0ed2 34c0 761b 0abf 9f5b 4cbf
00000090: f129 a7be 1a1b 813f 8eaf 8b3e 5d45 543f
000000a0: 7d43 8cbe 68ea 76c0 7af2 21bf a797 46bf
000000b0: ba87 afbe 9ab7 e1be ab8c 0e3f 2b36 633d
000000c0: 9bbd 32bf 0e37 d83d 9200 a0be e267 e43f
000000d0: 421e dabe 721b 66be bb2e 1d3d 13e4 12be
000000e0: 379b 883e 6b4b 94c0 5e87 dfbe 5bb9 25bf
000000f0: e373 b73c 8e5e 643e 3f2b f63e 9367 453f
00000100: 68e3 d1bd c3ac 63bd 1507 bcbe 43ce 82bf
00000110: 8ad1 bebe 6cbd b03f 5206 4bbf 1a27 093e
00000120: 2340 cd3e 7e5f e0be a753 c33f dcb7 e93f
00000130: fc2e 7abe cdb9 793e 8bc6 c73e 16b6 05bf
00000140: f804 95bc 9352 383e fd98 1ebd d6dd c3bf
00000150: 4c27 4ebe b214 bcbe 2ee4 d4be 42fb 2dc0
00000160: 8e6b 1bbf 8f92 38bd 3df0 813e af47 68bd
00000170: 88e3 da3e 157e 973d 42e0 13c0 9a85 bcbe
00000180: 1137 183f d89f 063f fe7d 1fbf 3d9f 8bbf
00000190: 6a5b 933f cb68 9cbe d8d1 eebd 500e 643e
000001a0: 669e 333e 770c a0bf 5a74 a1bf e136 a8bf
000001b0: 9260 de3d 2e6a 2f3e 8297 a23e 4021 1f3f
000001c0: d37d 073e 5e1f 5cbd 9369 65bd 5f53 a2be
000001d0: 6304 bdbf 1aba 0b3e 6d8d 7e3f 394d 30bf
000001e0: 3f18 023d b1f5 8cbd 5dc8 cfba ced1 363d
000001f0: 1a30 98bf b211 bbbc 7497 81bf ea45 1ebf
00000200: 7520 f83e 4143 dfc0 2622 83be f066 b6bd
00000210: 1afc 16bf 3b02 da3d f5f1 a23e cd8d bbbf
00000220: 31c0 1d3e 85e5 d63c 6408 33bc 8e67 f93e
00000230: 622f 0140 4065 8e3e b069 783d eb6c d1bd
00000240: 2d51 a6bd 715c 2d3e edbc be3e dcca 6cbe
00000250: 74b9 15c0 5067 d7be c5d4 82bf 13e8 5dbf
00000260: 680b 0e3f c5d3 68c0 57f3 e63e 0ab0 90bf
00000270: 5500 153e c4f0 10bf e9df 663d 8227 47bf
00000280: f734 3e3e 2413 1b3e 368a 87bf 6118 2d3e
00000290: e808 abbe 58cf 09bf 3962 a4be c88c 943e
000002a0: 171d 9d3e 9c4e c73f 0d70 983f 3afa 30bf
000002b0: c2ee 053f ec9d f0be 7581 92bc 9c49 65bf
000002c0: d1f3 003f a7f6 1dc1 b9b1 e33d 9351 2dbf
000002d0: a8e8 28be c2f2 39bd 53de 193c c269 dabb
000002e0: d926 c93e 8bde bcbc ada2 9dbe d633 d43f
000002f0: 8b7d b4be 80aa 973e 57ee f13e 79d6 863f
00000300: 1c25 133e eda3 f6bf d4c1 5ebe e6da 59bf
00000310: f911 7dbf edea 953e 04c5 4f3e bb6d 8b3f
00000320: dac6 8bbf 6335 773e 2358 a2bf 79d5 d5bf
00000330: faf2 87be 4d8b 833c 4ef8 a1bf 5417 f53e
00000340: fb83 963f 15e3 1cbf 929f 9a3e fd87 443d
00000350: 4b34 c3bd 538d 323e d7ec 243f 05b1 f33d
00000360: 8cd8 29bf dffe 1bc1 ca1a e7bd 34a6 5ebf
00000370: f4f2 0c3e ef7d e33d e27f 543d bee1 6c3c
00000380: 02ee b53d 9ff0 2a3e a014 ec3d 8ae7 9cbe
00000390: 0ce3 2bbf b690 93bf fbfb c6bd fd7c 283f
000003a0: fd1f 79be 964d cfbd f737 0c3f 5f6b 83bf
000003b0: 62d9 253f ded8 33bf 2bb7 a8bd c47e cdbf
000003c0: f1cc c03e 30b0 c4c0 d51b 1fbe 8748 16bf
000003d0: 9a67 4d3f 322a cfbe 5452 2dbf 0dd3 4fbe
000003e0: ec94 143f 1794 71c0 a0bb cd3d ac5a 20bf
000003f0: 9966 3ebe 7443 21bf 6ea8 023e 69a8 97be

fc1.bias f4 [32]
-0.4685114 0.08944291 -0.136734 0.008430421 -1.2132031 -0.68201506 1.3702412 0.31277943
0.45356643 0.73009866 0.30011758 0.8374125 0.59710896 -0.40387574 0.08447166 0.11636909
-0.40690264 0.08554654 -0.062632926 -0.4923528 1.2056006 -0.15081513 -0.14279585 0.19871238
-1.173569 -0.69651794 -0.63341874 -0.26938492 -0.21686685 0.3923803 -0.37335214 0.31842095
00000000: bae0 efbe d82d b73d ff03 0cbe c01f 0a3c
00000010: 3d4a 9bbf 8a98 2ebf 1064 af3f a024 a03e
00000020: dc39 e83e bfe7 3a3f 03a9 993e aa60 563f
00000030: 22dc 183f cdc8 cebe 7aff ac3d eb52 ee3d
00000040: 8b55 d0be 0633 af3d b145 80bd ab15 fcbe
00000050: 1f51 9a3f 486f 1abe 1339 12be 427b 4b3e
00000060: 8237 96bf 004f 32bf bb27 22bf d2ec 89be
00000070: 5812 5ebe 12e6 c83e 0328 bfbe 1208 a33e

fc2.weight f4 [64, 32]
-0.39674237 0.20086114 -1.2744696 -0.18051647 0.15951693 0.040686116 -0.5279645 0.043085646
0.5664906 0.26306054 0.06789965 0.37618303 0.44986504 -0.3513533 -0.025755772 0.42583233
0.51813096 -3.8552513 0.25038633 -1.6686277 -0.025065316 -0.525124 -0.9091948 -0.23122707
0.29653153 0.9679422 -1.0540106 -0.18052988 0.3704077 0.34194073 -0.46367633 -0.41858616
-0.7687396 0.41438672 -0.2598656 -0.0019211624 1.1233935 0.458821 -0.79217356 0.95049447
0.44820705 -1.2466927 -0.57996005 -0.4104496 0.80716634 1.0738457 -0.26685736 0.23161423
1.0593903 0.75893164 -0.28255376 1.1521684 -1.0839666 -2.473713 0.44471002 -0.8863025
0.8513603 -1.0984052 -0.6956697 0.83099353 0.27052093 -0.14308962 0.26340815 0.36948857
-0.0040235906 0.8229032 -1.9235746 0.1845347 0.7516458 0.43716693 -1.0294679 0.2120327
0.072643146 -0.7671881 -0.65411514 -0.61247057 0.86032873 0.584162 0.26270545 0.5708954
0.6487665 -0.8108086 -0.20375708 0.13708116 -0.011051177 -2.855438 -0.11004449 0.039310344
0.88095766 0.3759326 -0.70120996 -0.34647694 0.5611654 -0.8093563 0.1927056 -0.07905186
-2.002385 0.07311734 1.009735 0.44510755 -0.81427205 0.0071323174 -0.04297711 -1.5614092
0.4359857 -1.3039701 -0.16440868 -0.607485 0.09113958 -0.3582586 0.21510048 0.6062151
0.58461386 1.0444003 0.49426883 0.80712175 -0.026267735 -1.2024305 0.27871406 -0.32532513
-1.163516 -0.16441354 -0.57994187 0.9885175 0.22046456 -0.81082064 0.67017436 -0.56229305
0.1998493 0.10617013 0.24264766 0.52813894 0.11416698 -0.5816233 -1.3733469 0.6090279
0.25522012 -0.29324245 -0.77956355 1.044054 0.20680574 0.7589423 0.73277295 0.46795803
-0.83481324 -0.61534804 0.41382694 -0.12814778 0.12450895 -0.26576778 -2.3114173 -0.2069771
0.46286914 0.7962425 0.19079678 -2.5015137 0.3795359 -2.064502 -2.7885273 -0.5600754
0.24541786 -0.37459692 -0.25981173 -0.45145547 -0.16408741 0.62032133 -0.12727766 0.42996603
-0.664395 -0.041282065 0.67355 -0.45871186 -0.6118182 -0.69266486 0.31005555 0.3784475
-0.55259347 0.97055084 0.33329785 0.53898376 0.026311053 0.44229254 1.6831671 -0.0064348844
0.49493647 -0.19414827 0.27402946 0.74269307 -0.51593626 0.85984665 1.1860006 0.4731683
-0.09482167 0.057627074 0.56045806 -0.9169371 0.5219411 0.05391394 0.03566006 0.36098823
-0.09324333 -1.1826696 0.59947616 0.17215738 0.7287928 0.19508602 -0.040629853 0.66573715
-1.451603 -0.80994254 0.4494635 -0.772246 0.21349832 -0.74656755 0.48734438 0.4170626
0.5546482 1.3085654 0.8823145 0.43051398 0.33373666 -1.1726904 -0.07948141 -0.627401
-5.2850246 0.088049166 -0.68439347 0.38876384 -1.5429051 0.6586731 0.26886538 -1.965794
-0.737005 0.16380781 0.29076844 -3.7736979 0.6975851 0.847202 0.5776868 -0.2449143
1.6400106 -2.1758108 0.4793174 1.3940332 -0.2072901 -0.7030831 0.7528382 0.419196
-1.5072368 -1.5341173 0.004741578 -1.0411849 -0.112902164 0.5286845 0.548109 0.35002622
00000000: d121 cbbe 8bae 4d3e d221 a3bf 4fd9 38be
00000010: 6858 233e 7ca6 263d ae28 07bf 937a 303d
00000020: 8705 113f dfaf 863e f90e 8b3d 109b c03e
00000030: b654 e63e 94e4 b3be c5fd d2bc b206 da3e
00000040: 3ba4 043f 70bc 76c0 a332 803e 9895 d5bf
00000050: c755 cdbc 876e 06bf fec0 68bf cac6 6cbe
00000060: fbd2 973e 0fcb 773f d2e9 86bf d3dc 38be
00000070: 14a6 bd3e db12 af3e fc66 edbe ed50 d6be
00000080: 1ecc 44bf 7f2a d43e 1b0d 85be 83cf fbba
00000090: 5ccb 8f3f 96ea ea3e e3cb 4abf 9b53 733f
000000a0: 657b e53e a093 9fbf 4378 14bf 7326 d2be
000000b0: 74a2 4e3f c773 893f 87a1 88be 482c 6d3e
000000c0: 1a9a 873f 5849 423f e3aa 90be 417a 933f
000000d0: 6bbf 8abf 5051 1ec0 08b1 e33e b8e4 62bf
000000e0: c0f2 593f 8b98 8cbf 6917 32bf febb 543f
000000f0: b881 8a3e 1686 12be 6fdd 863e 9b2d bd3e
00000100: 53d8 83bb c9a9 523f b137 f6bf aaf6 3c3e
00000110: dc6b 403f 58d4 df3e 9bc5 83bf 1a1f 593e
00000120: eec5 943d 7066 44bf 1774 27bf dfca 1cbf
00000130: 813e 5c3f a48b 153f 5481 863e 3326 123f
00000140: 9015 263f 2791 4fbf b2a5 50be 015f 0c3e
00000150: ff0f 35bc 7fbf 36c0 015f e1bd e203 213d
00000160: 7186 613f 3d7a c03e 7f82 33bf 6d65 b1be
00000170: 89a8 0f3f f931 4fbf 9e54 453e f1e5 a1bd
00000180: 1327 00c0 8bbe 953d ff3e 813f 23e5 e33e
00000190: 2274 50bf 37b6 e93b c408 30bd 42dc c7bf
000001a0: 8539 df3e 7ee8 a6bf c05a 28be 2384 1bbf
000001b0: 63a7 ba3d ac6d b7be 4d43 5c3e ea30 1b3f
000001c0: 41a9 153f e9ae 853f ce10 fd3e 889f 4e3f
000001d0: 6f2f d7bc 3ee9 99bf 9cb3 8e3e 0491 a6be
000001e0: 18ee 94bf 065c 28be 1277 14bf 7c0f 7d3f
000001f0: 76c1 613e f191 4fbf 8c90 2b3f 70f2 0fbf
00000200: 4ba5 4c3e ba6f d93d a178 783e 1d34 073f
00000210: 61d0 e93d 44e5 14bf d5c9 afbf 41e9 1b3f
00000220: 36ac 823e e023 96be 7a91 47bf 90a3 853f
00000230: e2c4 533e 0b4a 423f 0297 3b3f 3298 ef3e
00000240: 52b6 55bf 7387 1dbf 20e1 d33e 2c39 03be
00000250: 8cfe fe3d b712 88be 43ee 13c0 cef1 53be
00000260: 2ffd ec3e 8cd6 4b3f 3b60 433e cd18 20c0
00000270: 8852 c23e cd20 04c0 3b77 32c0 1a61 0fbf
00000280: d24e 7b3e 2bcb bfbe 0b06 85be 2c25 e7be
00000290: 8806 28be 61cd 1e3f 1355 02be 8224 dc3e
000002a0: ca15 2abf 6217 29bd c66d 2c3f 48dc eabe
000002b0: 1ea0 1cbf 7c52 31bf 9abf 9e3e dfc3 c13e
000002c0: c476 0dbf 0576 783f 04a6 aa3e d7fa 093f
000002d0: 478a d73c 2b74 e23e 0572 d73f b9db d2bb
000002e0: 5068 fd3e cece 46be 974d 8c3e 2221 3e3f
000002f0: 6614 04bf e91e 5c3f dece 973f 1e43 f23e
00000300: dd31 c2bd 5e0a 6c3d 2e7a 0f3f 64bc 6abf
00000310: ef9d 053f ddd4 5c3d 4810 123d 73d3 b83e
00000320: 5cf6 bebd b861 97bf 4577 193f 064a 303e
00000330: 2a92 3a3f a1c4 473e 7d6b 26bd c06d 2a3f
00000340: 21ce b9bf 6558 4fbf 1420 e63e eab1 45bf
00000350: 4e9f 5a3e 0d1f 3fbf 3485 f93e 3b89 d53e
00000360: 6dfd 0d3f 127f a73f 5ddf 613f 546c dc3e
00000370: 88df aa3e b81a 96bf 26c7 a2bd 5a9d 20bf
00000380: ec1e a9c0 1f53 b43d 6934 2fbf 0e0c c73e
00000390: ea7d c5bf cd9e 283f b9a8 893e 239f fbbf
000003a0: 5cac 3cbf 3cbd 273e 9adf 943e 4484 71c0
000003b0: f094 323f 3be2 583f 48e3 133f d0ca 7abe
000003c0: deeb d13f 7c40 0bc0 1769 f53e ae6f b23f
000003d0: db43 54be 41fd 33bf 01ba 403f dca0 d63e
000003e0: 23ed c0bf f55d c4bf 3d5f 9b3b 8c45 85bf
000003f0: 4039 e7bd de57 073f df50 0c3f a336 b33e

fc2.bias f4 [64]
0.208919 -0.31169763 -0.3302637 -0.39334908 -0.25004652 0.072238736 -0.1553992 -0.076699354
-0.8181011 -0.8975541 0.08767432 0.25833336 0.09065636 -0.516444 -0.1247054 -0.46454528
0.14157358 0.036030684 -0.13874067 -0.15093088 0.08149735 -0.51762706 0.31516427 0.11877143
-0.5088483 0.52097064 -0.27299696 -0.17409725 -0.64526117 -0.25303766 -0.26968122 0.15586726
0.14163604 -0.1375723 -0.26998553 -0.09365688 0.5259291 -0.2064809 -0.1743519 0.67380494
0.41592696 -0.6022026 0.23112041 -0.0015433286 -0.62388563 0.77137804 -0.54767287 -1.3672024
-0.14810732 -0.35495403 -0.12564215 0.28565687 0.3025384 0.7227159 -0.11757705 0.2466183
-0.22105475 -0.47135955 0.13256569 0.1763575 0.18163687 -0.1914974 -0.16592214 0.2881934
00000000: ddee 553e d596 9fbe 5318 a9be 0d65 c9be
00000010: 1906 80be e7f1 933d f820 1fbe 8d14 9dbd
00000020: 136f 51bf 1bc6 65bf 988e b33d 4544 843e
00000030: 0baa b93d ad35 04bf 8b65 ffbd e1d8 edbe
00000040: aaf8 103e e994 133d 0912 0ebe a08d 1abe
00000050: 15e8 a63d 3583 04bf 365d a13e 6f3e f33d
00000060: e243 02bf 555e 053f 42c6 8bbe 8d46 32be
00000070: d62f 25bf 278e 81be a813 8abe ab9b 1f3e
00000080: 0a09 113e c1df 0cbe 8b3b 8abe 2ecf bfbd
00000090: 4aa3 063f bb6f 53be 4e89 32be 7b7e 2c3f
000000a0: 61f4 d43e f329 1abf d4aa 6c3e 8449 caba
000000b0: f8b6 1fbf 0879 453f 4a34 0cbf 7d00 afbf
000000c0: 72a9 17be 89bc b5be 56a8 00be 9e41 923e
000000d0: 50e6 9a3e e903 393f 3dcc f0bd 8289 7c3e
000000e0: 2d5c 62be 0a56 f1be 4dbf 073e 0f97 343e
000000f0: 04ff 393e e517 44be 7ee7 29be 168e 933e

fc3.weight f4 [4, 64]
-0.38949165 -0.86259884 -1.0161576 -0.4075248 1.5884542 1.0368676 1.5545897 -0.9665517
-0.7732664 -1.8804282 -1.0620244 0.68479925 -0.074651726 -0.73783094 0.098109916 -0.9680238
-0.47720918 -0.5938638 -0.81588286 0.01845512 -0.2937115 -0.7321462 0.48185873 -0.42377183
-0.50521106 -1.1140578 -0.7896831 -0.0720433 -1.6100967 -0.91916656 2.769247 -0.005004607
0.54193383 0.5243526 -1.7795393 -0.13852157 0.3982195 -0.96808213 2.4783452 0.048998535
-0.67876375 -0.68127245 -1.1385897 -0.89191884 -1.0798558 4.0184255 -1.7645308 -0.9099924
0.2799521 -0.9215147 -1.0147908 -1.1805423 0.2927284 -0.5687327 -0.32477003 3.9207711
-0.021443974 -1.897023 2.7599323 -0.5235937 1.3621345 -0.9853387 0.052103467 -2.1266606
0.9173841 -1.688465 -0.62710655 -0.3680087 1.4640299 0.7809735 0.3430412 -0.91761374
-1.0780325 -0.6603526 -0.23172025 -1.1301708 0.17644219 -0.015494612 -0.16832739 -0.72234756
-0.4803785 -0.34179768 -0.58565944 -0.030622218 -0.5056927 -0.48454425 -0.4711392 -0.3177619
-0.8117231 -1.4529064 -0.023458559 0.0015628975 -0.3310266 -0.46896145 1.1590902 -0.5037839
0.9806319 -0.64553523 -1.2278869 0.29348296 -0.07397893 0.44681066 1.5858225 0.219858
-0.92898935 -0.51975393 -0.33298707 -0.20859917 -0.73284847 4.242597 -1.8849506 -0.3987276
-0.79497623 -0.12077618 -0.55461574 -1.4744341 -0.046254296 -0.95499825 -1.0996271 3.2945642
-0.05606526 -0.9894556 4.1821213 -0.9414117 1.1766466 -0.9950338 0.08602354 -0.7729692
0.9448331 -1.1038138 -0.5224476 -1.637151 1.1465421 1.7055942 1.0082842 -0.38618338
-1.5859574 -1.1073384 -0.5434906 -0.740523 -0.34756324 -0.91695434 -1.2453431 -1.2686539
-0.20090277 -0.7892931 -0.47004867 -0.028383076 -0.435607 -1.0767471 1.3496892 -0.5940285
-0.86408925 -1.1881181 1.235026 0.08923982 -0.9702254 -1.1414227 0.46672198 -1.3555657
-0.60597116 -0.72921157 -1.7537596 -1.4389565 1.5303916 0.5357667 -0.13461818 -1.5991819
0.52743465 -0.5162601 0.29677132 -1.5732547 -0.8531899 3.5076532 0.06340116 0.48251337
-1.8437471 -0.20024222 -0.3782432 -1.1090715 -1.2568303 0.39821947 -0.7756618 3.9860668
-0.035138547 -0.21060938 1.979474 -0.9023455 -0.41626546 -0.32822758 0.009738624 0.15243992
-0.344757 -0.70857453 -0.7890302 -0.0996339 1.5323986 0.6468897 -0.13718747 -1.652808
0.46052247 -2.208153 -1.1319345 -1.5833732 -0.33388063 0.23718755 -0.5929404 -0.6363346
-0.5640027 -2.0014749 -0.5665187 -0.0068605486 -0.7321332 -1.8474023 -0.09284435 -0.9620003
-1.6300608 -1.2721752 0.7131579 0.10241954 -1.5172526 -0.10668251 1.6348743 0.014273112
0.59485507 -1.4569985 0.038710684 -0.49471968 -0.6887529 0.8141172 1.1196249 0.24324428
-0.24662457 -0.14009896 -0.5041857 -0.48263273 -0.18654235 3.9454474 0.1311623 1.2291143
-0.7663032 -0.1577023 -0.44608694 -0.26605603 0.2565026 0.07448339 -0.32201964 3.1160233
0.07719004 1.0687467 3.6039922 -0.75782835 1.2016144 -0.6630924 0.0017556289 -0.0026299495
00000000: 736b c7be 47d3 5cbf 7411 82bf 17a7 d0be
00000010: 7852 cb3f 14b8 843f ccfc c63f ef6f 77bf
00000020: c9f4 45bf dfb1 f0bf 6af0 87bf 014f 2f3f
00000030: 01e3 98bd 7de2 3cbf daed c83d 68d0 77bf
00000040: c354 f4be 7507 18bf b3dd 50bf 312f 973c
00000050: 5b61 96be ef6d 3bbf 30b6 f63e 9ff8 d8be
00000060: 8355 01bf 7299 8ebf ac28 4abf 708b 93bd
00000070: a617 cebf 804e 6bbf 583b 3140 b0fd a3bb
00000080: 2dbc 0a3f f93b 063f f2c7 e3bf 99d8 0dbe
00000090: 6de3 cb3e 3bd4 77bf 359d 1e40 b0b2 483d
000000a0: 76c3 2dbf df67 2ebf 4fbd 91bf cb54 64bf
000000b0: b738 8abf f196 8040 25dc e1bf 43f5 68bf
000000c0: e255 8f3e 63e8 6bbf aae4 81bf 031c 97bf
000000d0: 7fe0 953e 7798 11bf 4248 a6be eaed 7a40
000000e0: 46ab afbc a6d1 f2bf bba2 3040 3d0a 06bf
000000f0: 6c5a ae3f 283f 7cbf 726a 553d 351b 08c0
00000100: afd9 6a3f 9f1f d8bf 0e8a 20bf a36b bcbe
00000110: 5565 bb3f e1ed 473f 19a3 af3e bce8 6abf
00000120: f8fc 89bf de0c 29bf 1348 6dbe 70a9 90bf
00000130: 43ad 343e 1ddd 7dbc 045e 2cbe c5eb 38bf
00000140: 2cf4 f5be 1b00 afbe c7ed 15bf 72db fabc
00000150: 1475 01bf 2f16 f8be 2839 f1be b0b1 a2be
00000160: 16cd 4fbf d6f8 b9bf 2a2c c0bc 23da cc3a
00000170: 527c a9be b71b f0be 115d 943f fbf7 00bf
00000180: b10a 7b3f cc41 25bf 662b 9dbf 6643 963e
00000190: 4482 97bd 5ec4 e43e 3bfc ca3f 7522 613e
000001a0: 3fd2 6dbf 980e 05bf 487d aabe 059b 55be
000001b0: f59b 3bbf 5bc3 8740 1046 f1bf 0626 ccbe
000001c0: 9083 4bbf 8059 f7bd 4cfb 0dbf 42ba bcbf
000001d0: 2575 3dbd c47a 74bf 95c0 8cbf 24da 5240
000001e0: b0a4 65bd f64c 7dbf f0d3 8540 5b00 71bf
000001f0: 5b9c 963f 89ba 7ebf 1c2d b03d 4fe1 45bf
00000200: 95e0 713f c549 8dbf 20bf 05bf 2a8e d1bf
00000210: e4c1 923f e950 da3f 750f 813f d4b9 c5be
00000220: a700 cbbf 44bd 8dbf 3322 0bbf ea92 3dbf
00000230: cff3 b1be 85bd 6abf 6767 9fbf 4063 a2bf
00000240: 75b9 4dbe 1d0f 4abf 38aa f0be a083 e8bc
00000250: e107 dfbe d9d2 89bf 9ec2 ac3f 4012 18bf
00000260: f434 5dbf 4114 98bf 5515 9e3f 5ec3 b63d
00000270: b160 78bf 241a 92bf 2ff6 ee3e 2d83 adbf
00000280: ed20 1bbf 9cad 3abf 327b e0bf ba2f b8bf
00000290: dfe3 c33f 0228 093f 59d9 09be feb1 ccbf
000002a0: f505 073f 9f29 04bf 69f2 973e 6960 c9bf
000002b0: a76a 5abf 647d 6040 78d8 813d fe0b f73e
000002c0: e8ff ebbf 4c0c 4dbe 18a9 c1be 0ef6 8dbf
000002d0: d1df a0bf 6ce3 cb3e c691 46bf b81b 7f40
000002e0: 70ed 0fbd fca9 57be 675f fd3f 1d00 67bf
000002f0: bf20 d5be 720d a8be c08e 1f3c 3619 1c3e
00000300: fd83 b0be 2465 35bf e2fd 49bf dc0c ccbd
00000310: a325 c43f 909a 253f df7a 0cbe 368f d3bf
00000320: 9ac9 eb3e 6152 0dc0 3be3 90bf f9ab cabf
00000330: 67f2 aabe 4be1 723e f1ca 17bf d3e6 22bf
00000340: 7b62 10bf 2a18 00c0 5f07 11bf 74ce e0bb
00000350: 156d 3bbf ae77 ecbf 2e25 bebd a745 76bf
00000360: d5a5 d0bf a3d6 a2bf 8491 363f 56c1 d13d
00000370: 5535 c2bf 5c7c dabd 9043 d13f c5d9 693c
00000380: 6c48 183f ed7e babf 188f 1e3d e64b fdbe
00000390: 1c52 30bf fc69 503f de4f 8f3f 0715 793e
000003a0: 278b 7cbe 1a76 0fbe 5012 01bf a31b f7be
000003b0: f504 3fbe 3682 7c40 694f 063e 9e53 9d3f
000003c0: 722c 44bf b67c 21be 8265 e4be 7f38 88be
000003d0: 4f54 833e bf8a 983d c2df a4be ed6c 4740
000003e0: d015 9e3d b1cc 883f cfa7 6640 0a01 42bf
000003f0: 80ce 993f 6cc0 29bf 211d e63a 3b5b 2cbb

fc3.bias f4 [4]
0.011907666 -0.6045629 0.2720937 -0.69594187
00000000: 5f18 433c a2c4 1abf de4f 8b3e 3f29 32bf
